Codes/mnist_cnn_mnist_10_True_37447_0.1_1.0_1.0_64_1.pt (torch, 106255 bytes, 8 tensors)

conv1.weight f4 [16, 1, 8, 8]
0	0x3d6e460c	0.05817227
1	0xbd7f596b	-0.062341135
2	0xbddfccf4	-0.109277636
3	0x3db56b3a	0.088583425
4	0xbda3bf3e	-0.07995461
5	0xbd952068	-0.072815716
6	0xbc3c03f0	-0.011475548
7	0x3e68c81d	0.22732587
8	0xbdb96086	-0.090516135
9	0xbd8fefb6	-0.07028143
10	0x3bbbae06	0.0057275323
11	0x3cfce1dd	0.030869419
12	0x3d8ddbf5	0.06926719
13	0xbd994e86	-0.0748568
14	0x3d976595	0.07392422
15	0x3e602314	0.21888381
16	0xbd8902ad	-0.066899635
17	0xbdd8a403	-0.10578158
18	0xbcff2e05	-0.031149874
19	0x3b4e04d4	0.0031435983
20	0x3d683441	0.05669046
21	0xbd529383	-0.05141021
22	0xbde08f37	-0.10964816
23	0xbd8bb764	-0.06822088
24	0xbe3ae031	-0.18249585
25	0xbe2f4aee	-0.17118427
26	0xbe08f6d9	-0.13375415
27	0xbdd6ec85	-0.10494331
28	0xbdebfdfb	-0.11523052
29	0x3e23672c	0.15957326
30	0x3ddd49a1	0.10805059
31	0x3e16a6d6	0.1471208
32	0x3d4463af	0.04794663
33	0x3d4f1577	0.05055758
34	0x3dbe740f	0.0929948
35	0xbd4c3e8e	-0.049864344
36	0x3df82cc3	0.121179126
37	0x3d079694	0.033102587
38	0x3e492609	0.19643416
39	0x3d49d100	0.049271584
40	0x3dcedca4	0.101006776
41	0xbc055413	-0.008137721
42	0xbcb6b3be	-0.022302505
43	0xbccbfb97	-0.02490024
44	0xbd8373dc	-0.06418583
45	0x3d06d2f5	0.032916028
46	0xb957159d	-0.0002051205
47	0xbcf3feff	-0.029784678
48	0xbe017101	-0.12640764
49	0xbd13c1d9	-0.03607354
50	0xbd3de51e	-0.04636108
51	0x3e55242b	0.20814578
52	0xbce2cc49	-0.027685301
53	0xbc6eed25	-0.014582907
54	0xbcc92535	-0.024553875
55	0x3dc743db	0.09729739
56	0xbd96d5db	-0.073650084
57	0xbd511e6f	-0.051054414
58	0x3c9d70bf	0.0192188
59	0x3e22c648	0.15895951
60	0xbda94f37	-0.08267062
61	0xbe1b5e24	-0.1517263
62	0x3dca9878	0.09892362
63	0x3df802d5	0.12109915
64	0x3dc7205d	0.0972297
65	0x3dfa3cad	0.12218604
66	0x3d507e92	0.050901957
67	0xbc45ca96	-0.012072226
68	0xbd90cd12	-0.07070364
69	0x3db34ef6	0.08755295
70	0x3e36a285	0.17835434
71	0xbdd4d3e7	-0.1039198
72	0xbd02c505	-0.031926174
73	0x3a437b24	0.0007457009
74	0xbd7e66e8	-0.062109858
75	0xbcd0f609	-0.025507944
76	0xbddce24a	-0.10785349
77	0x3c268816	0.010164281
78	0xbe119c66	-0.14219818
79	0xbe1aaf20	-0.15105867
80	0xbe4689d7	-0.19388519
81	0xbd5be110	-0.053681433
82	0x3df973e6	0.12180309
83	0x3d63de8a	0.05563215
84	0x3e273f6e	0.1633279
85	0xbdb18e2d	-0.08669696
86	0xbd56f2b1	-0.052477542
87	0x3d63993a	0.05556605
88	0xbdc5db88	-0.09661013
89	0x3c4dd994	0.012564082
90	0xbd90a940	-0.07063532
91	0x3e3627b1	0.17788579
92	0x3d27664e	0.04086905
93	0x3c348e0c	0.011020195
94	0xbdd117e1	-0.10209633
95	0x3da24abe	0.07924412
96	0xbd0a4df5	-0.033765752
97	0xbcc81033	-0.024421787
98	0xbcd452ad	-0.02591833
99	0xbd83c5b7	-0.064341955
100	0x3d36fd08	0.044674903
101	0x3e2db22d	0.169625
102	0x3e038077	0.12841974
103	0x3d185410	0.037189543
104	0xbdcadb31	-0.09905089
105	0x3e384e8c	0.17998713
106	0x3d83491f	0.06410431
107	0xb9466747	-0.00018921225
108	0x3dda719d	0.10666201
109	0x3da50156	0.080568954
110	0x3e1364d6	0.14393935
111	0x3d61a3d3	0.055087876
112	0x3dcea38c	0.10089788
113	0x3ced2f62	0.028953258
114	0x3dafdc15	0.08586899
115	0xbda523b6	-0.08063452
116	0x3c8474d4	0.01616899
117	0xbd9c2fba	-0.076262906
118	0xbd840ff5	-0.06448356
119	0x3d9518b8	0.07280105
120	0x3d4f31a6	0.050584458
121	0x3da67864	0.081284314
122	0xbdb3a207	-0.08771139
123	0xbd809cd1	-0.0627991
124	0x3e0dd491	0.13850619
125	0x3d3edeb8	0.04659912
126	0xbdd71541	-0.10502101
127	0xbc621146	-0.013798064
128	0xbe68e686	-0.22744188
129	0x3c4888f5	0.012239684
130	0xbd210b27	-0.039317276
131	0xbd2bef24	-0.04197611
132	0xbdeb52a9	-0.114903755
133	0x3dc62e3c	0.09676787
134	0xbdbc9746	-0.092085406
135	0xbdaeddbb	-0.085383855
136	0x3bdf1498	0.006807875
137	0x3e31970d	0.17342778
138	0xbe20551f	-0.15657471
139	0xbe081270	-0.13288283
140	0xbdba7c50	-0.09105742
141	0x3db3bcd2	0.08776249
142	0x3e0a8923	0.13528876
143	0xbe1c22a3	-0.15247588
144	0xbb288aed	-0.0025717572
145	0xbc8b35a0	-0.016993344
146	0x3d8c9d8a	0.06865986
147	0xbc1d9cb5	-0.009619881
148	0x3da99a17	0.082813434
149	0xbc2f4428	-0.010697402
150	0xbd947aa6	-0.07249956
151	0xbb53ff5a	-0.0032348246
152	0xbd2a2fad	-0.041549373
153	0xbbd1e107	-0.006404999
154	0xbd4d8691	-0.05017716
155	0xbd89fbd1	-0.06737483
156	0x3e171300	0.14753342
157	0x3e1ccca5	0.1531244
158	0x3dc6fa0c	0.097156614
159	0xbd3dfc61	-0.046383265
160	0xbe48d3bc	-0.1961202
161	0xbdbde830	-0.09272802
162	0x3a04bf0e	0.000506387
163	0xbc33f23d	-0.010983047
164	0xbdd9e4b0	-0.10639322
165	0x3def6614	0.11689392
166	0xbdd6ddae	-0.10491501
167	0x3d7a5b0a	0.061121978
168	0xbdcea402	-0.10089876
169	0x3d0b653d	0.034032095
170	0x3d1928cc	0.037392423
171	0x3e19b73e	0.15011308
172	0x3e08bc4f	0.13353084
173	0x3c3c3e46	0.0114894565
174	0x3dd14c2b	0.10219606
175	0xbe030b7d	-0.12797351
176	0x3d8a3c79	0.067498155
177	0xbdeef811	-0.11668409
178	0x3e17de0c	0.14830798
179	0x3c849bfc	0.01618766
180	0x3d836899	0.06416435
181	0x3e06346d	0.13105936
182	0x3e6c62e0	0.23084593
183	0x3e414069	0.18872227
184	0xbd496645	-0.049169797
185	0x3d2c2f9e	0.0420376
186	0x3d574b97	0.052562322
187	0x3e370454	0.17872745
188	0x3e8c3a51	0.27388242
189	0x3e65163a	0.2237176
190	0x3dca2de8	0.09872037
191	0x3d247d34	0.040158466
192	0xbdc7665a	-0.09736319
193	0xbe1c0243	-0.15235238
194	0x3d610170	0.05493301
195	0xbe521722	-0.20516637
196	0xbbd5d19f	-0.006525233
197	0x3e2b70a0	0.16742182
198	0xbd8b5a35	-0.06804315
199	0xbdb27f20	-0.087156534
200	0xbe0aac62	-0.13542321
201	0x3e2505ef	0.16115545
202	0x3e03d2bd	0.12873359
203	0x3d914315	0.07092873
204	0x3d8cf0d7	0.06881874
205	0xbb8ff22c	-0.004392883
206	0x3d6b0d65	0.05738582
207	0xbc45b7e6	-0.012067771
208	0xbc1d7ac6	-0.009611791
209	0x3e2845a2	0.16432813
210	0x3e3179e0	0.17331648
211	0x3ce20a47	0.027592791
212	0xbd7226f5	-0.059119184
213	0xbdab6c21	-0.08370233
214	0x3cea12da	0.028573442
215	0x3ccfd6a2	0.0253709
216	0x3df7cfee	0.12100206
217	0x3cdf169f	0.027232466
218	0x3d27726d	0.04088061
219	0x3d5e9f5a	0.05435119
220	0x3e1be456	0.15223822
221	0xbcdc67a4	-0.026904888
222	0x3afb4675	0.0019170778
223	0x3c259d9a	0.010108376
224	0xbd235530	-0.039876163
225	0xbcf19094	-0.029487886
226	0x3de5798d	0.112048246
227	0x3dfe6000	0.12420654
228	0x3e701c38	0.23448265
229	0x3e526c57	0.20549141
230	0x3d6e8214	0.05822952
231	0xbdc11fbf	-0.09429883
232	0x3d908d94	0.07058254
233	0x3d68b582	0.056813724
234	0x3e001b46	0.12510404
235	0x3db1c8c8	0.08680874
236	0x3e2673ff	0.16255186
237	0x3d898f76	0.06716816
238	0xbd29cfb4	-0.041457847
239	0x3e33a5f1	0.1754377
240	0xbcf93c0f	-0.030424146
241	0x3ddb6d2a	0.10714181
242	0x3d87245f	0.06598734
243	0x3da624a3	0.08112457
244	0x3de3c7be	0.11122082
245	0x3d0adbfd	0.033901203
246	0x3bb81025	0.005617159
247	0xbe0266e7	-0.12734567
248	0xbdbff219	-0.09372348
249	0x3d6624aa	0.05618731
250	0xbd3032bd	-0.043017138
251	0x3c83de74	0.016097285
252	0x3dc0a442	0.0940633
253	0x3b35c3a9	0.002773503
254	0xbda7f03d	-0.08200119
255	0x3d204269	0.039125834

conv1.bias f4 [16]
0	0xbda6f299	-0.081517406
1	0x3de1aef9	0.110197015
2	0x3d9008cf	0.0703293
3	0x3d9b4d54	0.075831085
4	0xbddea5a0	-0.10871434
5	0xbcaf2ffb	-0.021385184
6	0x3d28f3bc	0.04124807
7	0x3db2e524	0.08735111
8	0xbd2a17ee	-0.041526727
9	0xbbfd0580	-0.007721603
10	0x3d7a447a	0.06110046
11	0xbd89c814	-0.06727615
12	0x3e0629f1	0.13101937
13	0x3d7d28f4	0.061806634
14	0x3e0bf4dd	0.13667627
15	0xbd8e7bf1	-0.06957234

conv2.weight f4 [32, 16, 4, 4]
0	0xbc610c06	-0.013735777
1	0x3cb290a6	0.02179749
2	0xbe067e36	-0.13134083
3	0x3cffd3e9	0.031228976
4	0xbd883343	-0.066504024
5	0x3d66496c	0.056222364
6	0xbd8020be	-0.06256245
7	0xbd3e5222	-0.046465047
8	0xbd69fb22	-0.057124265
9	0xbe046d57	-0.12932335
10	0xbc667cf3	-0.014067876
11	0x3d591bd0	0.05300504
12	0x3d5e2c29	0.054241333
13	0x3cbd5ef9	0.023116576
14	0xbd9b86a5	-0.07594041
15	0xbd93d31a	-0.07217999
16	0x398f3d59	0.00027320793
17	0x3d4ce1e5	0.050020117
18	0x3ce2bef8	0.027678952
19	0xbd1871c9	-0.03721789
20	0x3d1948d9	0.03742299
21	0x3d1b56e0	0.037924647
22	0x3d20172b	0.039084595
23	0xbc402bb9	-0.011729174
24	0x3e0dc3c7	0.13844214
25	0x3cd696b1	0.026194902
26	0x3aedfdca	0.00181573
27	0xbc860080	-0.01635766
28	0xbdf943b9	-0.1217112
29	0x3db85ca6	0.09002046
30	0x3a1c0362	0.0005951432
31	0x3d369039	0.044571135
32	0xbcda138f	-0.026620654
33	0x3d40497b	0.046945076
34	0x3de18e52	0.110134736
35	0xbc7bc87a	-0.015367622
36	0xbcb16321	-0.021653714
37	0x3d3ce78e	0.046119265
38	0x3da6757f	0.08127879
39	0xbc8b9cc5	-0.017042527
40	0x3e1bee26	0.15227565
41	0x3da711e8	0.08157712
42	0x3dc1cd5f	0.094629996
43	0x3dc4d6f5	0.09611312
44	0x3db7a4a5	0.0896695
45	0x3dfdc183	0.12390425
46	0x3de87f23	0.113523744
47	0xbd9a26a9	-0.07526905
48	0x3d1a0e8e	0.037611537
49	0xbd66afb4	-0.056319907
50	0xbdad6171	-0.08465851
51	0xbcc95cb5	-0.024580339
52	0xbcabbe4a	-0.02096476
53	0x3ad6a08b	0.001637475
54	0xbd01521f	-0.031572457
55	0x3cb53ff2	0.022125218
56	0xbe1d04c6	-0.15333852
57	0xbc9e71c0	-0.01934135
58	0x3c637de3	0.013884994
59	0x3c698944	0.014253918
60	0x3bdf4043	0.0068130805
61	0xbbd64b93	-0.006539771
62	0xbd8b6d15	-0.06807915
63	0xbd18b70c	-0.037283942
64	0xbc0e46ac	-0.008683842
65	0xbc58a6d6	-0.013223371
66	0xbbf354c5	-0.007425877
67	0xbda8c1e3	-0.08240106
68	0x3d320332	0.04346008
69	0x3db95405	0.090492286
70	0x3ccc4723	0.024936264
71	0x3d0af144	0.033921495
72	0x3d6bfa76	0.057611905
73	0xbd08bb68	-0.03338185
74	0xba4299f2	-0.00074234523
75	0x3e05f4cf	0.13081668
76	0xbc6b3fc3	-0.014358464
77	0x3dd2da89	0.102955885
78	0x3ccc7528	0.024958208
79	0x3bbc6e72	0.005750471
80	0x3de4a0d2	0.111634865
81	0x3d8a4051	0.06750549
82	0x3cd7ab57	0.026326818
83	0xbde8c7a7	-0.11366206
84	0xbdabec31	-0.08394659
85	0x3d4286fd	0.047492016
86	0xbba505c9	-0.00503609
87	0x3d670c31	0.05640811
88	0x3e0b073d	0.1357698
89	0x3d9a001b	0.07519551
90	0xbd8c4f89	-0.068511076
91	0x3d803809	0.06260688
92	0x3cff8f47	0.03119625
93	0xbe031f1f	-0.1280484
94	0xbd03fbbd	-0.0322225
95	0xbdb5e07a	-0.08880706
96	0xbd99d805	-0.075119056
97	0x3d44a2d5	0.04800685
98	0xbda4f85e	-0.08055185
99	0xbd953027	-0.07284575
100	0x3c0c32f1	0.008557067
101	0x3d768f62	0.060195334
102	0x3c93d283	0.018044716
103	0xbdd79601	-0.10526658
104	0x3e1fb577	0.15596567
105	0xbd9d7247	-0.07687812
106	0xbced9ff2	-0.029006932
107	0x3d955d24	0.07293156
108	0xbcf30d20	-0.029669344
109	0x3d1c1c0c	0.038112685
110	0x3dbd8998	0.092547596
111	0xbd61ecc2	-0.05515743
112	0xbd72195c	-0.059106216
113	0x3bb25ddd	0.0054433183
114	0x3da9e9e1	0.08296562
115	0x3dde087f	0.10841464
116	0xbdfc7d6a	-0.12328608
117	0x3cb17108	0.021660343
118	0x3d7b7173	0.06138749
119	0x3d02057f	0.031743523
120	0x3cd73e79	0.026274906
121	0x3d10ed9f	0.035382863
122	0xbdb50906	-0.08839612
123	0x3c0e7d2b	0.008696835
124	0xbd6e67e0	-0.05820453
125	0x3c9a4c4b	0.018835207
126	0xbce6a45f	-0.02815455
127	0xbdaab0b5	-0.083344854
128	0x3c7df3a2	0.015499981
129	0xbc331104	-0.01092935
130	0xbdec2def	-0.11532199
131	0xbd6945f6	-0.056951486
132	0xbcc3787e	-0.023861166
133	0xbd0fb0dd	-0.03508078
134	0xbdc9154a	-0.09818514
135	0x3d3335ff	0.043752667
136	0x3daa071b	0.083021365
137	0xbddf4112	-0.10901083
138	0x3d75ab5d	0.059977878
139	0x3d062c40	0.032757044
140	0x3d8e4052	0.06945862
141	0xbc018ec1	-0.00790757
142	0xbdb6bfc1	-0.08923293
143	0xbd86d8d4	-0.065843254
144	0x3d89f4db	0.067361556
145	0x3d078182	0.033082493
146	0xbcc16b4d	-0.023610735
147	0xbd9c23f6	-0.076240465
148	0xbd1baff5	-0.038009603
149	0x3ca4b444	0.020105489
150	0xbd9a48cd	-0.07533417
151	0xbda5cd32	-0.080957785
152	0x3daf6be8	0.08565503
153	0xbd0d86f4	-0.03455253
154	0x3be0b88c	0.006857937
155	0xbd73a13b	-0.059479933
156	0xbd4ef136	-0.050523005
157	0x3d11d65f	0.03560483
158	0xbd53bdfe	-0.051694863
159	0xbd4a129f	-0.049334165
160	0x3ca2a8d8	0.019855902
161	0xbd53fc6b	-0.051754396
162	0xbc40db42	-0.011771025
163	0x3d22778b	0.039664786
164	0x3dd9472d	0.10609279
165	0x3d60168e	0.05470901
166	0x3d489130	0.048966587
167	0x3d8392fc	0.064245194
168	0xbd605b12	-0.05477435
169	0xbe16f851	-0.14743163
170	0x3c933052	0.017967377
171	0x3dcc4a89	0.09975154
172	0xbd80f1f6	-0.062961504
173	0xbcffe128	-0.031235293
174	0xbd880cab	-0.06643041
175	0x3d069b25	0.0328628
176	0xbd82452d	-0.063608505
177	0x3d2907e2	0.041267283
178	0xbbfd3d10	-0.0077282265
179	0xbcb53b7d	-0.022123093
180	0xbdd7fbdd	-0.10546086
181	0x3d223202	0.039598472
182	0xbd512b99	-0.05106697
183	0x3d9b0e51	0.0757109
184	0x3dc465dd	0.095897414
185	0xbc34924c	-0.011021208
186	0x3d16bf87	0.03680375
187	0xbc54a59f	-0.01297894
188	0x3b98395a	0.0046455087
189	0x3d0b9644	0.03407885
190	0x3b69d9c6	0.0035682782
191	0x39deb1fb	0.00042475745
192	0xbdb2f019	-0.08737201
193	0x3d662e7f	0.056196686
194	0xbd37cab7	-0.04487106
195	0x3c0bec5d	0.00854024
196	0x3d580f21	0.052748803
197	0x3d369c9c	0.044582948
198	0x3d32a1e5	0.043611426
199	0x3deaf2b3	0.114720725
200	0x3d832733	0.06403961
201	0x3d8db8b7	0.06919997
202	0x3d931fd6	0.071838066
203	0xbd04b1ae	-0.03239601
204	0x3d376c42	0.044780977
205	0xbc065c58	-0.008200727
206	0x3d85b83a	0.06529279
207	0x3dfc8eb3	0.12331905
208	0x3c9400b6	0.018066745
209	0xbd89f7e6	-0.06736736
210	0x3d8d12a8	0.06888324
211	0x3dd8544c	0.10562953
212	0xbd4760ef	-0.048676427
213	0xbdb59656	-0.08866565
214	0xbc9f3bd3	-0.019437706
215	0xbd84437f	-0.06458186
216	0xbda399a0	-0.07988286
217	0x3d746c37	0.059673514
218	0x3d45a08d	0.048248816
219	0xbcedfa0f	-0.029049901
220	0xbdd3c26f	-0.1033982
221	0xbd375ac2	-0.044764288
222	0x3d0f1707	0.03493407
223	0xbd9693c3	-0.07352402
224	0x3cfa24ab	0.030535063
225	0x3d9336f9	0.071882196
226	0xbd09fffa	-0.033691384
227	0x3d1d92b0	0.03846997
228	0x3c23cbff	0.009997367
229	0x3d9ab2a4	0.07553604
230	0xbd7d9fb0	-0.061919868
231	0xbdbee8f5	-0.09321777
232	0xbd44bf88	-0.04803422
233	0x3d96e20d	0.073673345
234	0x3d0d562f	0.03450602
235	0xbb633c7f	-0.003467351
236	0xbce02d97	-0.027365489
237	0xbe0cf698	-0.13765943
238	0x3d56c8ec	0.052437708
239	0xbdede56d	-0.11616025
240	0x3d952aaf	0.07283532
241	0xbded5ddd	-0.115901686
242	0xbcaeb400	-0.021326065
243	0x3cdbafce	0.026817229
244	0xbd43b880	-0.047783375
245	0x3bfbe76d	0.0076875
246	0xbb3e45ac	-0.0029033227
247	0xbd71c4fe	-0.059025757
248	0x3c9c57f4	0.019084908
249	0x3c4c7f60	0.01248154
250	0x3d1c8957	0.038216915
251	0xbd76db75	-0.060267884
252	0x3d1b07ed	0.037849355
253	0x3d663d5a	0.056210853
254	0x3d88e23b	0.06683775
255	0xbda7cfbb	-0.08193918

conv2.bias f4 [32]
0	0xbd52cf5a	-0.051467277
1	0x3bbc86a8	0.005753357
2	0x3c5e9890	0.013586178
3	0xbd990dc5	-0.074733295
4	0xbc27d1b5	-0.010242869
5	0xbd415f7c	-0.0472102
6	0x3c991d50	0.018690735
7	0x3dd25fd6	0.102721855
8	0xbd200382	-0.039065845
9	0x3c8259f2	0.01591203
10	0x3ccaa337	0.02473603
11	0x3cdc9e1b	0.02693086
12	0xbc7389da	-0.014864409
13	0xbd4b3b00	-0.049616814
14	0x3d1300fe	0.035889618
15	0x3d9fe0a0	0.07806516
16	0x3dd8bd25	0.105829515
17	0x3c95de5b	0.018294504
18	0x3c31ea71	0.010859118
19	0xbd242886	-0.04007771
20	0x3c04951b	0.00809219
21	0xbdba8521	-0.091074236
22	0x3d1b6980	0.03794241
23	0xbd1aaf0a	-0.037764587
24	0xbdb77da3	-0.0895951
25	0xbcea47aa	-0.028598625
26	0x3d0967f9	0.03354642
27	0x3d41bb8a	0.04729799
28	0x3d03afad	0.03214996
29	0x3c32c528	0.0109112635
30	0x3d952ebf	0.07284307
31	0x3d46aa84	0.04850246

fc1.weight f4 [32, 512]
0	0xbd35340f	-0.0442391
1	0x3d4d5851	0.050133053
2	0x3d09e2b5	0.03366347
3	0x3b2c1a99	0.002626097
4	0x3cfe8e01	0.031073572
5	0xbd97b07f	-0.07406711
6	0xbcac2226	-0.021012377
7	0x3d5b7d8c	0.053586528
8	0x3d7cbef2	0.061705537
9	0x3c08a226	0.00833944
10	0xbccdc7cc	-0.025119685
11	0x3dff4af4	0.12465468
12	0x3c0f0e4c	0.008731436
13	0xbd107157	-0.03526434
14	0x3cfa48b3	0.030552244
15	0x3dbcf33e	0.09226082
16	0x3d469d02	0.048489578
17	0x3d24503b	0.040115576
18	0xbc3064aa	-0.010766188
19	0x3d46314a	0.04838685
20	0xbd0ca03d	-0.034332503
21	0xbda79947	-0.08183532
22	0x3d8c33e0	0.06845832
23	0x3a1c25d7	0.00059565663
24	0xbd93c0a3	-0.07214477
25	0x3c809ec2	0.015700702
26	0x3db9c133	0.09070053
27	0x3b921f2e	0.0044592833
28	0xbc714255	-0.014725287
29	0xbcc7d5e1	-0.024393978
30	0x3d981d18	0.07427424
31	0xbd182c11	-0.0371514
32	0xbcbda6cb	-0.023150822
33	0xbb843179	-0.004034218
34	0x3c91048d	0.017702365
35	0xbbb4e791	-0.005520769
36	0x3d84d149	0.064852305
37	0x3ce54808	0.027988449
38	0x3b93f028	0.004514713
39	0xbdd858ae	-0.10563789
40	0xbd849de0	-0.06475425
41	0xbd36e272	-0.04464955
42	0xbdc2e561	-0.09516407
43	0xbc4ec316	-0.012619754
44	0xba923d13	-0.0011157118
45	0x3c4d9afb	0.012549157
46	0x3c549335	0.01297455
47	0xbd955e33	-0.07293358
48	0xbcdccc03	-0.02695275
49	0x3c8b3a43	0.016995555
50	0x3c936c98	0.017996117
51	0xbc42f31c	-0.011898782
52	0xbd7baca5	-0.061443944
53	0x3d5f88cf	0.05457383
54	0x3d8a7a2c	0.06761584
55	0xbca5e7d6	-0.02025215
56	0x3d8b8a25	0.06813458
57	0x3da30060	0.07959056
58	0xbccd4423	-0.025056904
59	0x3d81698b	0.06318959
60	0x3b6ed083	0.00364402
61	0xbc3ee189	-0.011650451
62	0xbdb8e325	-0.090276994
63	0x3a1d556b	0.0006001803
64	0x3d5fc646	0.054632448
65	0xbc66faa3	-0.014097842
66	0x3d8f1793	0.06986918
67	0x3c7c3b18	0.015394948
68	0xbc55d6a2	-0.013051661
69	0x3cfe9e95	0.031081477
70	0x3c8208ae	0.01587328
71	0x3ca42d0a	0.020041008
72	0xbdf16321	-0.117864855
73	0x3bc8d935	0.0061294087
74	0xbd53b42a	-0.05168549
75	0xbc054b90	-0.008135691
76	0xbd576e70	-0.052595556
77	0xbdb640dc	-0.0889909
78	0x3da4bb0e	0.0804349
79	0xbd10871a	-0.035285093
80	0x3dd6933e	0.10477303
81	0xbcf5066e	-0.029910292
82	0x3baba956	0.0052386923
83	0xbaa2d33b	-0.0012422571
84	0xbde96148	-0.11395508
85	0x3c18e3f6	0.009331694
86	0xbd630ff6	-0.055435143
87	0x3d012d2a	0.031537212
88	0x3daf1bfc	0.085502595
89	0xbd2308be	-0.03980326
90	0xbd2655c1	-0.040609125
91	0xbc2c81ef	-0.010529025
92	0xbd95ca53	-0.07313981
93	0x3d88875e	0.06666444
94	0xbdb12304	-0.08649257
95	0x3cfedc21	0.031110825
96	0x3d9c0630	0.07618368
97	0xbcd0882b	-0.025455555
98	0x3d9dc414	0.077034146
99	0xbdfcf4ee	-0.12351404
100	0x3d9f6d5b	0.0778453
101	0x3d1c1050	0.038101494
102	0x3c636f61	0.013881535
103	0xbde3728a	-0.11105831
104	0x3c0b5d1b	0.008506085
105	0xbcd5b652	-0.026087914
106	0x3dad686c	0.084671825
107	0xbcda5f47	-0.02665676
108	0xbc3e460f	-0.011613383
109	0xbd3e699f	-0.046487447
110	0x3d23d1e1	0.039995078
111	0xbcb336f0	-0.021876782
112	0x3ccbd646	0.024882447
113	0x3d6549f6	0.055978738
114	0x3bf18b8d	0.007371372
115	0xbdcd228b	-0.10016354
116	0xbcb60865	-0.0222208
117	0x3cc3bf3c	0.023894899
118	0xbc2ffa1f	-0.010740786
119	0x3e0eca5c	0.13944381
120	0x3dab18da	0.083543494
121	0x3db63bba	0.08898111
122	0x3bfc776c	0.007704666
123	0x3ca4fbdd	0.020139629
124	0xbd8c2815	-0.068435825
125	0x3dbc2c2b	0.09188112
126	0x3c9eed0f	0.019400148
127	0xbd26742d	-0.040638138
128	0x3d8fbb4f	0.07018148
129	0xbbf41cb2	-0.00744971
130	0xbc7a7a81	-0.015287996
131	0xbce3cb12	-0.027806792
132	0xbcf0220f	-0.029313115
133	0x3d9c9e32	0.07647361
134	0xbdeeabc8	-0.116538584
135	0x3d5aff96	0.053466402
136	0xbd9f9294	-0.077916294
137	0x3d508b53	0.05091412
138	0xbd52f58e	-0.05150371
139	0x3d6e34df	0.05815589
140	0x3b4f8304	0.0031663785
141	0x3d89d455	0.06729952
142	0x3d9de5d4	0.07709852
143	0x3d0a08b7	0.033699717
144	0xbca8322f	-0.020531742
145	0x3d0ed1c9	0.034868035
146	0x3cf4a704	0.029864796
147	0xbdbab8a0	-0.09117246
148	0xbcd71e64	-0.026259609
149	0xbca320fc	-0.01991319
150	0x3bf9831a	0.0076145055
151	0xbd2815e8	-0.041036516
152	0x3ca1ea9b	0.019765189
153	0x3dffa517	0.1248266
154	0x3d7c9337	0.061663833
155	0xbcf03986	-0.029324304
156	0x3d768d9b	0.06019364
157	0xbcb4a822	-0.022052828
158	0x3cea955f	0.028635679
159	0x3ce26878	0.027637705
160	0x3d5d2f42	0.054000147
161	0x3d2c4681	0.042059425
162	0x3d8ef887	0.069809966
163	0xbc3b0ac3	-0.01141614
164	0xbcbb3428	-0.022852018
165	0x3d7a2291	0.06106812
166	0x3d37365d	0.04472958
167	0x3ce5cbaf	0.028051225
168	0x3b8a9362	0.004228995
169	0xbd2ddcaf	-0.04244679
170	0xbd949efd	-0.07256887
171	0xbc5a0ee2	-0.013309212
172	0x3cea812b	0.028626045
173	0x3c94e201	0.018174173
174	0xbdc6122a	-0.09671433
175	0x3b9b74b6	0.0047441376
176	0xbd05736a	-0.03258077
177	0xbcc21b4a	-0.023694653
178	0x3c2f97f7	0.010717384
179	0xbc939f0d	-0.018020177
180	0x3e0157c7	0.1263114
181	0x3cbcfd74	0.023070075
182	0x3bac5b77	0.005259927
183	0xbc3fbfe8	-0.011703469
184	0x3c1a7b6f	0.009428843
185	0x3d2b68b2	0.041847892
186	0xbdf11f0a	-0.11773498
187	0x3d117d83	0.035520088
188	0xbe041181	-0.12897302
189	0xbd09aa46	-0.03360965
190	0x3dd58bea	0.10427077
191	0x3d29b09b	0.04142819
192	0xbc73afa8	-0.014873423
193	0xbcc8f576	-0.024531107
194	0xbcc0ca6b	-0.02353402
195	0x3d9fc04a	0.07800348
196	0x3d0b2255	0.03396829
197	0x3b9aca14	0.0047237966
198	0x3c042b30	0.008066937
199	0x3cb832f3	0.022485232
200	0xbc803bb2	-0.015653465
201	0xbce15177	-0.027504666
202	0xbc84ccc0	-0.016210914
203	0x3d15ef1e	0.036604993
204	0xbdac976b	-0.08427318
205	0x3cc596e3	0.0241198
206	0x3c5469e3	0.0129646985
207	0xbcde58d4	-0.027141966
208	0xbdfd1949	-0.123583384
209	0xbdef6439	-0.11689038
210	0xbdc10e17	-0.094265155
211	0xbd9b89a7	-0.075946145
212	0xbd31a439	-0.043369506
213	0x3d7e71ae	0.062120132
214	0x3d3776ba	0.04479096
215	0x3cdbd5cc	0.026835345
216	0x3db0e18a	0.08636768
217	0x3c00e236	0.007866433
218	0x3ba8720d	0.005140549
219	0x3d01d57b	0.03169773
220	0xbd52729c	-0.05137883
221	0xbca5de5e	-0.020247635
222	0x3d4087e8	0.04700461
223	0xbcd2de44	-0.02574075
224	0x3ae10c3c	0.0017169784
225	0x3d3ec24b	0.04657201
226	0x3c096a48	0.008387156
227	0xbc7c06b4	-0.0153824575
228	0x3dc57a2b	0.09642442
229	0x3d263884	0.04058124
230	0xbcf6e172	-0.030136798
231	0xbc91d03b	-0.017799487
232	0xbd519960	-0.05117166
233	0x3de7cbcc	0.11318168
234	0xbccf9075	-0.025337437
235	0x3d176066	0.036957167
236	0x3d89f1de	0.06735586
237	0xbc278663	-0.010224911
238	0x3ca27bc0	0.0198344
239	0xbc0cef9c	-0.008602049
240	0xbd3ccb38	-0.046092242
241	0x3d578577	0.052617516
242	0xbd911f35	-0.070860304
243	0xbd55de30	-0.052213848
244	0xbc8281c1	-0.015931012
245	0xbdc7ad82	-0.09749891
246	0xbd56afe8	-0.05241385
247	0x3c6b532d	0.014363092
248	0xbcfbb874	-0.030727603
249	0x3cf24445	0.02957357
250	0xbb8b76f6	-0.0042561246
251	0x3cb3c816	0.021945994
252	0x3c638ec3	0.0138890175
253	0xbd33775a	-0.043814994
254	0xbc59f977	-0.013304106
255	0xbce53a08	-0.027981773

fc1.bias f4 [32]
0	0xbdc1a647	-0.09455543
1	0xbcab13d4	-0.020883478
2	0xbd9679e3	-0.07347467
3	0x3d52c0ee	0.051453523
4	0x3d4fb0d7	0.050705757
5	0x3decb559	0.11558027
6	0x3ab20d70	0.0013584327
7	0xbd93b298	-0.072117984
8	0x3cabd10a	0.020973701
9	0x3d46992b	0.048485916
10	0xbd1e19a9	-0.03859869
11	0x3da91f45	0.08257917
12	0x3c834b38	0.016027078
13	0xbde34300	-0.110967636
14	0xbd0124af	-0.031529125
15	0x3cd20100	0.025635242
16	0x3d19eb71	0.03757805
17	0x3b63ce1e	0.0034760307
18	0x3de812d4	0.11331716
19	0xbc999ab4	-0.018750526
20	0xbd433560	-0.047658324
21	0x3c3ac475	0.011399378
22	0xbd168041	-0.036743406
23	0xbd4c70a4	-0.04991211
24	0x3d448453	0.047977757
25	0xbdf241f9	-0.118289895
26	0xbe06c688	-0.13161671
27	0xbd8de4ab	-0.069283806
28	0xbd377244	-0.044786707
29	0xbd0826ba	-0.033240058
30	0xbcaa1961	-0.020764055
31	0x3daaf7f7	0.08348077

fc2.weight f4 [10, 32]
0	0xbe0d6183	-0.13806729
1	0x3de74667	0.11292725
2	0xbd90ddf2	-0.07073583
3	0xbd392bb8	-0.04520771
4	0xbe7dc7fd	-0.2478332
5	0x3d7e5d52	0.062100716
6	0x3dadb32d	0.08481441
7	0xbe188545	-0.14894588
8	0xbe743192	-0.23847035
9	0xbe0d4869	-0.13797154
10	0xbd58a0be	-0.05288767
11	0x3dcd1bc7	0.10015064
12	0xbe2ad68d	-0.16683407
13	0x3da0916a	0.078402355
14	0xbe3d8073	-0.1850603
15	0xbd9a8a5f	-0.075459234
16	0x3e001543	0.1250811
17	0x3e4e636b	0.20155112
18	0xbe31a1d0	-0.17346883
19	0x3dc178aa	0.09446843
20	0xbdfe1cec	-0.1240786
21	0x3d81d43f	0.06339311
22	0x3debe458	0.115181625
23	0xbe4fa05b	-0.20276015
24	0x3dfa0d06	0.12209515
25	0xbe391674	-0.18074971
26	0x3e26d30c	0.16291445
27	0x3dfc9602	0.12333299
28	0xbe7be80b	-0.24600236
29	0x3e86d9aa	0.2633794
30	0xbe009817	-0.12558018
31	0xbe8625de	-0.26200765
32	0x3d30b2f5	0.043139417
33	0xbe757513	-0.23970442
34	0xbcf4eb9f	-0.02989751
35	0xbe2d1485	-0.16902359
36	0xbd02bcac	-0.031918213
37	0xbc8bac56	-0.01704995
38	0xbca7c0db	-0.020477703
39	0x3dcdcbb8	0.10048622
40	0x3d74ece5	0.059796233
41	0xbd459df1	-0.048246328
42	0xbd2e1fff	-0.042510983
43	0xbcbe8b07	-0.023259653
44	0x3bad50b8	0.0052891634
45	0xbdddd894	-0.108323246
46	0xbe773f5d	-0.24145265
47	0x3d2509f5	0.0402927
48	0xbe407bda	-0.18797246
49	0x3db42d09	0.08797652
50	0x3e0fdbbc	0.14048666
51	0xbea72064	-0.326419
52	0xbda2ef57	-0.07955807
53	0x3e6ff9ba	0.23435107
54	0x3d7528b5	0.059853274
55	0x3ea060c7	0.31323835
56	0xbe8b0c64	-0.2715789
57	0x3e2d3a44	0.16916758
58	0xbe388be6	-0.18022117
59	0x3d86a5a1	0.0657456
60	0xbdb25d55	-0.08709208
61	0xbdc781d5	-0.0974156
62	0x3c9314f2	0.017954323
63	0x3eb8d846	0.36102504
64	0x3dcc6652	0.099804536
65	0xbe389a9e	-0.18027732
66	0x3d957ecb	0.072995745
67	0xbd565f3a	-0.05233691
68	0xbe00aac6	-0.12565145
69	0x3d8abd29	0.06774361
70	0x3db70b04	0.08937648
71	0xbeaf1c4b	-0.34201273
72	0xbd565602	-0.052328117
73	0xbe1b1ea6	-0.1514841
74	0x3b2da663	0.002649688
75	0x3e53778b	0.20651071
76	0xbdd40b1a	-0.1035368
77	0xbd6ff4e0	-0.05858314
78	0x3cc0a0d6	0.023514193
79	0xb929cf8c	-0.00016194413
80	0xbe214b8f	-0.1575148
81	0xbe059726	-0.1304594
82	0x3e48ecea	0.19621626
83	0x3e553108	0.20819485
84	0x3d6c2817	0.05765542
85	0x3b5e18a2	0.0033889194
86	0xbe181fb7	-0.14855848
87	0x3e81a1b2	0.25318676
88	0x3d157ce8	0.036496073
89	0x3e14ddc9	0.1453773
90	0xbc569a24	-0.013098273
91	0xbdc80012	-0.097656384
92	0xbda576b1	-0.08079279
93	0x3ea124ba	0.31473333
94	0xbd0ba15e	-0.03408944
95	0x3dda9429	0.106727906
96	0x3e5aacc3	0.21354966
97	0xbd95fbcb	-0.07323416
98	0x3e4324fb	0.19057076
99	0xbde1e620	-0.11030221
100	0x3cfa00c0	0.030517936
101	0x3db40ecd	0.087918855
102	0x3d852e3a	0.06502958
103	0x3e0df355	0.13862355
104	0xbe602c3b	-0.21891873
105	0x3d5f3eb6	0.054503165
106	0xbd99af80	-0.07504177
107	0x3e4bb1a9	0.1989199
108	0x3eac0578	0.33597922
109	0xbe173ce3	-0.1476932
110	0x3e5507a7	0.208037
111	0x3e21ab41	0.15787984
112	0x3e2fa40f	0.17152427
113	0xbd708333	-0.05871887
114	0xbe5b6700	-0.2142601
115	0xbda9bf4b	-0.08288439
116	0xbdc8c87e	-0.09803866
117	0x3e52e4a1	0.20595028
118	0x3c86afeb	0.016441306
119	0x3c37f52b	0.011227886
120	0x3e263746	0.16232023
121	0xbe0505d6	-0.12990507
122	0xbe806dbf	-0.2508373
123	0x3d17e4f3	0.037083577
124	0xbc6ebb2f	-0.014570995
125	0x3e8d3a1d	0.275834
126	0x3d88ad3c	0.06673667
127	0xbcfe3ebe	-0.031035777
128	0x3e0f018f	0.13965438
129	0x3d3d19e8	0.046167284
130	0xbe21db21	-0.15806247
131	0x3e16d27c	0.14728731
132	0xbe2ac436	-0.16676411
133	0xbda74557	-0.081675224
134	0xbcb8fdc5	-0.022581944
135	0x3e78799f	0.24265145
136	0x3e361f0e	0.17785284
137	0x3e35b37f	0.17744254
138	0xbe406112	-0.1878703
139	0x3d4073e8	0.046985537
140	0x3d057a81	0.032587532
141	0xbe70da18	-0.23520696
142	0xbdfd5d5a	-0.12371321
143	0x3d29802a	0.041381992
144	0xbebc0fe8	-0.36730886
145	0x3e1ea4aa	0.15492502
146	0xbe0faa20	-0.14029741
147	0x3dcdeda5	0.10055093
148	0x3dd9a2bc	0.10626742
149	0xbcc7f611	-0.024409326
150	0xbe44e728	-0.19228804
151	0x3d9a72f9	0.075414605
152	0xbe2ce4c1	-0.16884138
153	0xbe354b4f	-0.17704509
154	0xbe6b9918	-0.2300762
155	0x3e03a84d	0.1285717
156	0x3dcf0dc0	0.101100445
157	0xbe6c2ca4	-0.23063904
158	0x3d873ed6	0.06603782
159	0xbe84d811	-0.25946096
160	0xbe1992f9	-0.14997472
161	0xbe2c4df6	-0.16826615
162	0xbcbc8fe0	-0.023017824
163	0x3cd5cb34	0.026097871
164	0xbd7f61cc	-0.062349126
165	0x3cf03a6e	0.029324736
166	0x3da92314	0.08258644
167	0xbe37423b	-0.17896359
168	0xbc9618d5	-0.018322388
169	0xbe29d8ae	-0.16586563
170	0x3e11b76d	0.14230128
171	0xbe06dd94	-0.13170463
172	0xbd81cbfc	-0.06337735
173	0xbe49fe3d	-0.1972589
174	0x3d6567c5	0.056007165
175	0x3e869ce5	0.26291576
176	0x3e5593dd	0.20857187
177	0x3e5a331f	0.21308564
178	0xbd921929	-0.07133705
179	0x3b8a3ea9	0.0042188955
180	0xbbebdb7d	-0.007197796
181	0xbd80ae95	-0.06283299
182	0x3df33778	0.11875814
183	0xbe0f6298	-0.14002454
184	0xbd85574a	-0.0651079
185	0x3e0e2af9	0.1388358
186	0xbe015f76	-0.12634072
187	0xbd354987	-0.044259574
188	0xbcd42db6	-0.025900703
189	0x3da259c1	0.079272754
190	0x3d2d0219	0.04223833
191	0x3cae65aa	0.021288712
192	0x3d26a7f8	0.04068753
193	0xbea9d3db	-0.33169445
194	0x3d82e7f4	0.06391898
195	0xbeac7c46	-0.33688563
196	0xbde34526	-0.110971734
197	0x3db7c510	0.089731336
198	0x3e821d46	0.2541296
199	0x3db238b9	0.08702225
200	0x3e1cbd70	0.1530664
201	0x3e47ddc7	0.19518195
202	0xbb6e5447	-0.0036366151
203	0x3d19bd6a	0.037534155
204	0xbda8e7be	-0.08247326
205	0x3e144315	0.14478715
206	0xbd95e224	-0.073185235
207	0x3c5ae862	0.013361068
208	0x3de1d228	0.11026412
209	0x3d661678	0.05617377
210	0x3e452e32	0.19255903
211	0x3e68e58e	0.22743818
212	0x3c6cc5b9	0.014451438
213	0xbbbaa7cc	-0.0056962725
214	0xbdd11200	-0.10208511
215	0xbea13ff4	-0.31494105
216	0xbda65554	-0.08121744
217	0xbe6bd775	-0.23031409
218	0xbc3da183	-0.011574152
219	0x3e4056b4	0.18783075
220	0x3d04c1d4	0.03241141
221	0xbe82a347	-0.25515196
222	0xbd8ffbcc	-0.07030448
223	0xbde42503	-0.11139872
224	0xbe64346d	-0.22285624
225	0x3e65c2ae	0.22437546
226	0x3d4a5190	0.04939419
227	0x3e8c52b4	0.27406847
228	0xbdfffc8a	-0.1249934
229	0x3e2705c0	0.16310787
230	0xbe8c390d	-0.27387276
231	0xbe775a79	-0.24155606
232	0x3cda4d12	0.026648078
233	0xbe482599	-0.19545592
234	0x3d873e66	0.066036984
235	0xbe721d2c	-0.2364394
236	0xbde66865	-0.112503804
237	0xbe2a8e6c	-0.16655892
238	0xbe23ddac	-0.1600253
239	0xbcd6d4aa	-0.026224453
240	0x3ced71e7	0.028984977
241	0x3d5b9d5a	0.05361686
242	0x3c83aefb	0.016074648
243	0xbe07a3a4	-0.13246018
244	0x3de13d7b	0.109980546
245	0x3e8f5cd6	0.28000516
246	0x3d9ff0ad	0.07809577
247	0xbd7f6d5f	-0.062360164
248	0xbdf5ff86	-0.12011628
249	0x3e24a775	0.16079505
250	0x3e020593	0.12697439
251	0x3e359dc6	0.17735967
252	0x3cda9859	0.026683973
253	0xbdaee989	-0.08540637
254	0x3e02d470	0.12776351
255	0x3db27110	0.08712971

fc2.bias f4 [10]
0	0x3d88f83c	0.06687972
1	0x3e4e53b9	0.20149125
2	0xbdb9a134	-0.0906395
3	0xbc502d13	-0.012706059
4	0xbdaae384	-0.083441764
5	0x3e2b520f	0.16730522
6	0x384fc940	4.9540075e-05
7	0xbdd5bd77	-0.10436528
8	0xbe086e3f	-0.13323306
9	0x3e06ea15	0.13175233
