Codes/mnist_cnn_mnist_12_True_31101_0.1_1.0_1.0_64_1.pt (torch, 106255 bytes, 8 tensors)

conv1.weight f4 [16, 1, 8, 8]
00000000: e34f dabd 556d 6abd 5d84 0abd 2fe5 bc3a
00000010: ef63 0abd 9d24 1ebe 7e9b 8c3c 6c21 d4bd
00000020: 5e90 043d 5b12 9d3d 4297 82bd 8444 8f3d
00000030: 1317 fc3c b814 a93d 34a3 2abc e9c8 c0bd
00000040: 4b2a a23d 93b0 9c3d e49b a9bd afa0 a6bd
00000050: f8e8 12bd 0231 bcbd e480 ecbd b5d3 cc3d
00000060: 066b 093b 5d84 edbd fe13 86bd f5e0 07bd
00000070: 4fd5 38bc a61c 7d3c 5b6d 71bd 8596 883d
00000080: c902 6bbc efbf 03be 54cf 13be af45 00be
00000090: f2de 613d 7e2b 23bd ff0c 1bbe 0da5 c03d
000000a0: d5f7 0a3e 6807 adbd 4faa 36bd 6143 97bd
000000b0: 18e7 28bd f976 44bd 22f1 023d 7929 86bd
000000c0: 3574 42bc 239b f83d a09a 063e 1962 293e
000000d0: a658 723d 6cdf 573e 7ea1 263e 53e2 713d
000000e0: ed9a 3b3d 3d47 8f3e 179a 893d 6f68 a13d
000000f0: 5907 163e a815 72bd e94b 363e 184e dc3d
00000100: ab65 ef3d 2d44 423d 430c fe3c 87c3 893d
00000110: db7d 513e 1707 523b 3587 36bd 2a6c 67bd
00000120: d526 17bd 1bcd b3bd 0ff4 a4bc d220 8d3d
00000130: bed9 07bb ccd0 e63d e224 293c cc0d 743d
00000140: eee4 b8bc ced2 efbd f100 9d3d 13e5 8a3d
00000150: 7d5d 573d c29a cc3d 0191 453d 57fe 323e
00000160: 88dc 1fbc eefb da3d 2536 023d 9cab 143e
00000170: 9933 1d3d 124f ab3c 9e95 083e a6cd 03bc
00000180: 620f 7b3d 1d09 f5bd b4f8 41bd cbab f13d
00000190: 14f1 373b 8a0c 76bc 5bc2 bebc 8d84 93bc
000001a0: 6de3 e43d babe 193e 7244 f5bd cceb 0f3e
000001b0: bd0f 853d e896 65bd 6e65 293d cbaa bb3d
000001c0: 13b9 13be a96c 86bd adac 033e d69a 0abe
000001d0: 9407 153d 8bcd 9cbd 1969 3cbc 08f5 853d
000001e0: d934 31bc 6e9f 85bd 00ab 923d 984f 0f3c
000001f0: 3b1d fbbd 15a7 5e3d 4a31 733e 0b4b 5a3e
00000200: 2d36 0abc f0ca 4c3d 92bd a1bd 8f8a 903d
00000210: 9c8c d63d c063 b43d e83b 94bd 17c0 5d3d
00000220: c542 e6bd c6a6 693d 9f5b 0bbe a40a a3bd
00000230: 14d6 0bbd ae02 f13d 204c fe3d 8c95 d83d
00000240: 80f1 f03d ed7c d93d 569f d43d c9ca a9bc
00000250: 5168 afbd 41d7 bdbd a0b0 5e3d 1e9a 333e
00000260: 7ff0 523e 122d a43d ce11 be39 6fbd e1bd
00000270: 18a1 083e f3c7 58bc 33d2 e1bd 5774 b4bd
00000280: 6e73 e4bd 866d 183e e82e 0a3e a11a efbd
00000290: ff7e 0abe 3237 6bbd f52d bebd a9de a73d
000002a0: 8281 f93c 9725 8d3c 5ebe c93d c964 6d3e
000002b0: 124f e1bb 7494 e6bd ec73 9a3d 494c 7cbd
000002c0: d3e0 ab3d 500c d13b 577e 8b3d be23 b43d
000002d0: 0168 bcbd 5581 ec3b 7f2b d43d 0841 6cbd
000002e0: 54b3 92bd 630e eebd aab7 41bd 7437 123e
000002f0: a12b 9cba d17a 24bc 11fa a33c 172b 1abe
00000300: f7a9 43bc 362b 26bd a7f8 e2bc 70ca b8bd
00000310: 31bd 893d f361 8dbd ade9 933b 0607 9cbc
00000320: e257 573d 791c 09be febf 1b3d ce88 f23b
00000330: 2b6c 73bd 5412 babb fe4d ddbc 914c c03d
00000340: 6609 1d3e 8387 b8bd 9720 113e 5caf d43d
00000350: f111 633e 11d7 533e dd3b 00bc b2d6 263d
00000360: 1830 7c3d 831a 493e 5df7 353e 0106 823d
00000370: 51fb 053e 44a8 023d b042 17be 7f06 cb3d
00000380: 7fa7 7f3b cacb 023e 3d8f 1a3e a417 69bd
00000390: 93ff b43c c70f f33d 85a2 863d 5e40 a9bd
000003a0: ea9a 1a3e dced 883d d731 043d a482 f4bd
000003b0: af28 62bd 52ff e13d e052 f03d 54cc d9bc
000003c0: ced7 1ebe cb9b 05be 8b58 5cbd 2941 80bd
000003d0: 637c 8f3d bead cebb a8fe 923d b236 86bd
000003e0: 695b b7bd 72eb 94bd 3cc7 9bbd 03ee 6abd
000003f0: ea5c 28be 3e73 eabc beb1 943d a2f9 08be
-0.106597684 -0.057233173 -0.033817638 0.0014411564 -0.03378671 -0.15443654 0.017163988 -0.10357937
0.03236424 0.07669517 -0.063765064 0.0699549 0.030772721 0.08255905 -0.010414887 -0.094133206
0.07918223 0.07650866 -0.08281687 -0.08136117 -0.035866708 -0.09189035 -0.115480214 0.100013174
0.0020968332 -0.11597512 -0.06546782 -0.03317352 -0.0112813255 0.015448725 -0.05894218 0.06669334
-0.014343926 -0.12866186 -0.14434558 -0.12526582 0.055144258 -0.0398364 -0.15141676 0.09406481
0.13571103 -0.08448678 -0.044596013 -0.073858984 -0.041236013 -0.047965024 0.031968243 -0.06550879
-0.011868526 0.12138965 0.13144922 0.16541328 0.059166573 0.21081322 0.16272542 0.05905373
0.045802046 0.27984038 0.067188434 0.07881247 0.1465124 -0.059102684 0.17802395 0.10757083
0.116893135 0.0474283 0.031011706 0.06726747 0.20458166 0.0032047683 -0.044562537 -0.056499638
-0.036902267 -0.08779355 -0.020135907 0.068910256 -0.002072915 0.112702936 0.010323735 0.05958347
-0.0225701 -0.1171013 0.07666195 0.06781974 0.05257939 0.09990455 0.04823399 0.17479835
-0.009757169 0.10692583 0.031789917 0.14518589 0.038379285 0.020911727 0.13338324 -0.008044636
0.061293967 -0.11964629 -0.047356322 0.11800345 0.0028067278 -0.015017638 -0.023286035 -0.018007541
0.111761905 0.15014163 -0.119759455 0.14054793 0.064971425 -0.05605212 0.041356497 0.091634355
-0.14426069 -0.06563694 0.1285884 -0.13535628 0.03638418 -0.07656392 -0.011499667 0.065408766
-0.0108158225 -0.065245494 0.07161522 0.008747004 -0.12261435 0.05435856 0.23749271 0.21317689
-0.008435768 0.049998224 -0.07897486 0.07057678 0.10476038 0.08808088 -0.07237989 0.05413827
-0.11243204 0.057043813 -0.1360917 -0.07961014 -0.034139708 0.11768089 0.124168634 0.10575399
0.117648125 0.10619531 0.103819534 -0.020726578 -0.08564819 -0.09269572 0.05436766 0.1753926
0.20599554 0.08016409 0.0003625289 -0.1102246 0.13342702 -0.013231265 -0.110264204 -0.088112526
-0.11154829 0.1488553 0.13494456 -0.11675001 -0.13525008 -0.057425685 -0.09286109 0.08196766
0.030457262 0.017229838 0.09850763 0.23182978 -0.006875881 -0.11258784 0.075416416 -0.06159619
0.08392491 0.0063796416 0.06811207 0.0879588 -0.09199525 0.007217566 0.10359859 -0.057679206
-0.071631104 -0.11623838 -0.047294296 0.14278966 -0.0011914858 -0.010039047 0.020016702 -0.150555
-0.011942378 -0.040568553 -0.027706457 -0.09022987 0.067255385 -0.06903448 0.0045139403 -0.019046318
0.052574046 -0.13389768 0.038024895 0.0074015623 -0.05942933 -0.0056784544 -0.027014729 0.09389604
0.15335616 -0.09010222 0.14172588 0.1038501 0.22174813 0.2068751 -0.0078267725 0.040732093
0.061569303 0.1963902 0.17770143 0.063488014 0.13084151 0.03189875 -0.14771533 0.099133484
0.0039009748 0.12773052 0.15093704 -0.05690731 0.022094524 0.11868244 0.06573967 -0.0826423
0.15098158 0.06685993 0.032274093 -0.1193898 -0.05521458 0.110350266 0.11734557 -0.026586689
-0.1551201 -0.13047712 -0.05379538 -0.06262428 0.07006147 -0.006307333 0.07177478 -0.06553401
-0.08952982 -0.0727147 -0.0760636 -0.057355892 -0.16441694 -0.028619405 0.07260464 -0.13376477

conv1.bias f4 [16]
00000000: e0d5 2bbd 880a a0bd 1e6a 51be 75b6 633d
00000010: 8c99 293d e45a 87bd 6305 083e 7a9a a43a
00000020: dd83 bd3d 2f0d da3d 74a4 143e 7719 b33d
00000030: f88d cdbd 1ab7 133d 3854 50bd 41e5 aabd
-0.041952014 -0.07814509 -0.20450637 0.055593926 0.0414062 -0.06609133 0.13283305 0.0012558245
0.092536665 0.10647046 0.14515859 0.087450914 -0.10036844 0.03606329 -0.050861567 -0.08344508

conv2.weight f4 [32, 16, 4, 4]
00000000: d351 52bc 609b 8abd 96ef 5bba 7a9c 8cbb
00000010: 25d8 b23d 9d99 dcbd 13f1 c13d 9d41 0cba
00000020: 8cd2 3b3c c96b f43b 8e55 3e3d 3d7b 5ebd
00000030: 8b4e 0cbd 52e6 0cbe b933 dcbc d8d7 4dbd
00000040: 51b5 c53b 944d 40bd af78 123d 1a58 6a3c
00000050: 3e7a 2ebd 77d5 693d ed45 9b3d 255f 23bd
00000060: bcfc 2abd 3cfc 983d 73bd 46bc a5d7 073d
00000070: b23c 9fbd 5974 fd3d a8eb 86bc 9db6 0ebd
00000080: a10a f73d 8732 9f3d 45bb a03c a9f0 e73c
00000090: 1fe4 8ebd a210 ba3c 9a84 163d dc7d bfbd
000000a0: 202e 653d ef4e 9fbd e663 8a3c 68b5 c63d
000000b0: c679 713d 982c 943d 69ba 1b3d f269 06bd
000000c0: dafd f03c a098 433d 6003 bd3d 7162 9bbd
000000d0: 071b fcbc 68f9 52bc de0d a83b 99cb 983d
000000e0: 90f2 fbbc d7a8 7a3c 38dd ab3d b144 673d
000000f0: 4848 9bbd b215 d33c 5b52 2cbe 3304 c1bc
00000100: ae35 87bd eea6 3ebd a46c a8bd 70a1 0b3d
00000110: d939 a9bd 2007 86bc d322 ed3d 7011 3dba
00000120: 11f7 a83d b9ba 85bc b894 91bd 3842 a03d
00000130: cde7 803d bd1d 1c3d 64cc 003e ac64 d1bd
00000140: 0c0e 95bc 0687 73bd c039 293d 59cd 8cbc
00000150: 0f88 913d 657f 0cbd 5c97 86bd 1b00 993d
00000160: 69ec 1a3d 387e 92bd fd67 8a3d df04 103b
00000170: 2e8a 33bd 79f9 40bc a653 56bd 2d1c 243d
00000180: ac06 c93c 6288 a9bc 874b 01bb 00bb 2f3e
00000190: 7cff f83d 4244 c7bc 750e 07bd 1779 153d
000001a0: bacf 02bd 3967 f7bb 6426 39bc c55b 193c
000001b0: 8c4f 453c 69fa f93c 7af7 1e3e fa34 2b3d
000001c0: 76a9 a13d 8453 83bc 8d70 a4bc f931 a53c
000001d0: df5c 97bc 3714 c63d c5b7 a1bd 4c76 50bb
000001e0: 617b 8dbd 57f8 7abd 93b9 893d 247d d23c
000001f0: 10af 823d 8d54 883d a29e 7cbc 2d17 e7bc
00000200: 7d94 473d 5d05 99bd 0581 423d 79a3 ef3b
00000210: 421c 6fbd 3714 c03d f9f5 c9bd 6e14 95b8
00000220: 92be 8d3c 244e b2bd 5294 d83d c57d a7bc
00000230: 6be8 cebd 0c56 2e3c e866 903c c204 fcbc
00000240: 3fb0 8cbd 643d 0bbe cd5d 8fbc 2892 753d
00000250: 69ef bebc e5d0 7d3d e4e3 1d3e f932 a33d
00000260: e172 01be 80e8 5bbb e3ea a3bd 389c 463d
00000270: 82ed 0bbe cdd1 e3bd fd3a 083d 3b81 723d
00000280: 3dfa 09bd 68d0 b1bd 59d5 25bd 0960 b1bd
00000290: 5e58 63bc 8e97 03bd 3c4e 08be 5836 41bc
000002a0: 05a3 91bc 2f54 adbd b95e ddbb 7923 6f3d
000002b0: 8836 2dbd c39c 563c afea e83c c299 263d
000002c0: cf94 953b 7e13 84bc c91e 93bc ffff 3bbb
000002d0: c4c7 0ebc e1f5 0dbe 27d0 1a3b c493 acbd
000002e0: e790 813c 81d7 89bc c095 30bd f78c 433d
000002f0: 2b98 c83c 714c d9bd f9df 0fbd 4c48 863d
00000300: 8bd6 573d 1051 033d ec37 f1bd be5d 24bb
00000310: 2bdc 7cbd 0e59 eb3c 68f6 103d 8fb7 5e3d
00000320: 4202 513d 95d1 ee3c b0e6 b6bd 6300 b43d
00000330: 5faf 2f3b 0b8b 88bd c987 a03d 2478 f63b
00000340: da94 1dbc d606 bcbd aa3a 8a3c 9e71 343e
00000350: bece 8bbd 2cb9 35bd f55c 213d 7809 0dbc
00000360: 8f3b 8b3d 205e b1bd 71fc 8a3b bdbb b23c
00000370: 70fa 1abd ddbf 743c b52a 953d 0522 193d
00000380: 241f b13d f296 c1bc 6b79 4ebd 7956 a0bd
00000390: 6c8e 0ebd f019 96bd a1a9 233d 25b1 14bd
000003a0: 2973 8d3a f3e6 dcbd 1a07 a6bc 3be6 ccbd
000003b0: 1062 07bd 350b 543d acac 9a3d ca5f 583d
000003c0: 74d5 523d 3d69 e1bc 97fc d53d 2449 c2bd
000003d0: 3d97 c33c b4a2 62bd d224 6fbd a467 013e
000003e0: a5ff 91bd 3127 3e3c b9e5 dc3c 8b49 b03b
000003f0: 3e09 c53d 269a 3e3c d5f1 013d 1c93 babd
-0.012836891 -0.06767917 -0.0008389888 -0.0042911144 0.087326325 -0.10771487 0.094698094 -0.00053503533
0.0114637725 0.007459138 0.04646831 -0.054316748 -0.034254592 -0.13759735 -0.026880132 -0.050254673
0.0060335775 -0.046948984 0.035759624 0.014303232 -0.042597048 0.05708834 0.07581697 -0.03988566
-0.041744933 0.07469985 -0.012130129 0.03316464 -0.077752486 0.12375707 -0.016469792 -0.034842122
0.12062574 0.07773309 0.019620547 0.028312998 -0.069771044 0.02271301 0.036747552 -0.09350178
0.05595219 -0.07778727 0.016893338 0.09702569 0.058954023 0.07235068 0.03801957 -0.03281588
0.02941792 0.047752976 0.09229159 -0.075871356 -0.030774606 -0.012876846 0.005128606 0.07460708
-0.030755311 0.015299044 0.083918035 0.056461994 -0.07582146 0.025767181 -0.16828291 -0.023561573
-0.066020355 -0.046545915 -0.082238466 0.034089506 -0.08262987 -0.01636082 0.11578908 -0.0007212376
0.08250249 -0.016324388 -0.07108444 0.0782513 0.062942125 0.038114298 0.12577969 -0.1022428
-0.018195175 -0.05945494 0.04131484 -0.017187761 0.07106029 -0.03430118 -0.06571838 0.07470723
0.037823115 -0.071529806 0.067581154 0.002197556 -0.04383295 -0.011778229 -0.052325867 0.040065933
0.024539314 -0.020694915 -0.0019728856 0.17161179 0.12158105 -0.02432454 -0.03297277 0.036492433
-0.031936385 -0.007550147 -0.011300657 0.0093602585 0.012042891 0.030514913 0.15524092 0.04179857
0.0789365 -0.016031034 -0.0200732 0.02016543 -0.018476902 0.096718244 -0.078963794 -0.0031808792
-0.06908298 -0.06127199 0.067248486 0.025694437 0.06381047 0.06656752 -0.01541868 -0.028209293
0.048725594 -0.07471726 0.047486324 0.0073131886 -0.058376558 0.09378856 -0.09861369 -7.108679e-05
0.017302785 -0.087063104 0.10575165 -0.020445714 -0.10102924 0.010640632 0.017627195 -0.030763987
-0.06869554 -0.13597637 -0.017500782 0.05995384 -0.023307519 0.061966795 0.15418965 0.07968707
-0.12641479 -0.003355533 -0.080037855 0.048488826 -0.13664821 -0.11124001 0.03325938 0.059205275
-0.03368591 -0.086823285 -0.040486667 -0.086608954 -0.013876049 -0.032126956 -0.13311094 -0.011792742
-0.01777793 -0.08463322 -0.0067556766 0.05838344 -0.042288333 0.013098898 0.028432218 0.04067398
0.0045648585 -0.016122576 -0.017959015 -0.002868652 -0.00871462 -0.13863327 0.0023622604 -0.084266216
0.015816165 -0.016826393 -0.043111563 0.047741856 0.024486622 -0.10610283 -0.035125706 0.06556758
0.05269484 0.03205973 -0.117782444 -0.0025080289 -0.061733406 0.028728988 0.03539124 0.054374274
0.051027544 0.02915267 -0.08930719 0.08789136 0.002680741 -0.06667145 0.07838399 0.007521646
-0.0096180085 -0.09180991 0.016873676 0.17621467 -0.06826542 -0.044366047 0.03939529 -0.008608215
0.06798469 -0.08660531 0.004241519 0.021818036 -0.037836492 0.014938322 0.07283536 0.03738596
0.08648518 -0.023631547 -0.050408762 -0.07828993 -0.034803793 -0.07329166 0.039956693 -0.03630175
0.0010791767 -0.107862376 -0.020267058 -0.100048505 -0.033052504 0.0517685 0.07552466 0.052825727
0.051473096 -0.027516002 0.10448568 -0.09486607 0.023875827 -0.055330947 -0.058384724 0.12637192
-0.071288384 0.011606024 0.026965009 0.0053798608 0.096209034 0.011633432 0.03172477 -0.0911009

conv2.bias f4 [32]
00000000: 2f19 51bc f847 d43c 9280 51bd 038e 943d
00000010: 8dc9 f0bd 4d02 9cbb 571c 75bd 013e 913b
00000020: 6e4f c3bd 8595 323c 5523 b0bd 8bda d63c
00000030: ddcd 123d 9f73 0a3d a7dd e8bd 279e cebd
00000040: ca8d e5bd a021 043e ca68 83bd 78ae fabc
00000050: 8584 8bbb a0dd 103d a734 e43c 538f 1fbd
00000060: 584c 39bd 3da0 d1bd 4435 26bd b5bb 443d
00000070: 5d2f 663d f617 2cbc 1774 3e3c 99b2 593d
-0.012762352 0.025913224 -0.051148005 0.07253649 -0.11757193 -0.0047610165 -0.05984148 0.0044324403
-0.095366344 0.010899906 -0.08600489 0.026227256 0.035840858 0.03380167 -0.11370402 -0.10088759
-0.11208685 0.12903452 -0.06416471 -0.030600771 -0.004257741 0.035367608 0.027857138 -0.038955044
-0.045238823 -0.10235641 -0.04057814 0.048030574 0.056197513 -0.01050376 0.011624358 0.05314884

fc1.weight f4 [32, 512]
00000000: d0d1 83bd b8f3 a4bd c36c 883c 7d57 76bd
00000010: 9c66 653d 641e f4bc 9bc3 1dbd f33c 6c3c
00000020: 55b4 c03d b135 c23c f22e 883b b191 94bd
00000030: ad00 80bd 4525 ecbc 07ba 07bd 4bb3 a33a
00000040: 12e2 70bd 5983 5d3d 397a 4fbc 939f 39bd
00000050: db61 873d 3960 223d 676b ab3d 5ce4 97bd
00000060: ca17 bb3d c958 673d cc7e 84bd fc9d a13d
00000070: 43d5 7fbc 8820 84bd 4437 8cbb c69c 163d
00000080: b69e 09bd c5e7 8fbc b8d5 23bd a93b 8abd
00000090: 4a31 f1bc fe0a dcbd 1ce5 9f3d 8f28 40bc
000000a0: 2efe d8bb 20e2 593d 8381 f93d fe26 263c
000000b0: 9765 cfbc 9d8f 303c c448 a4bd ff2f 8cbd
000000c0: 32f5 923b d0f0 03bd 175d 0c3e 7e12 863c
000000d0: 25bf 4abd b034 8dbc a4ac 3e3c 27ac 823c
000000e0: 5c9e a03d d9cd 063d 9288 db3a 97ff 0f3c
000000f0: 0eb5 a7bd b948 9f3c a29b ac3d d96d 843d
00000100: 5d98 1d3d 8f4e 673d b70b d6bb 259a 63bb
00000110: 122e f43b 22f1 753d 8204 bdbd f161 92bd
00000120: a4aa 563d 78aa 503c 2508 e43c fae5 fdbc
00000130: 5099 57bd abd4 b03d 216f 0cbd 082b 453b
00000140: cd49 573d b74b 97bd 02f4 c63d 5f78 5abd
00000150: 0e0a 05bd 3568 03bb 542a 113d de75 a83c
00000160: f32b 753d a0de 9d3a dfad f33d 29fb 59bc
00000170: 8a74 363d ce4c 553d 00df 85bc 2028 d7bb
00000180: 6eb7 edbd a36e 183d 5371 afbd 4064 cfbd
00000190: 66d5 70bd d676 8bbc 0647 9ebd 558d edbc
000001a0: 2078 a43d a4d4 0f3d fa45 d03c 76ac b73c
000001b0: d9c3 5a3d 7a2e bebc c280 cdbc 4832 81bd
000001c0: 337f 3abd f958 a8bb 9aec c73c 7803 6e3d
000001d0: 18b6 df3c 0824 8ebb b365 9a3d ca89 9cbc
000001e0: 5529 b63d 8c61 533c bae8 65bd e568 81bc
000001f0: 872c c73b 1744 9f3c 2b78 343d e092 18bd
00000200: 7ee8 073b 199b 03bd 902c babd 9dd2 af3b
00000210: c532 9f3d db88 49bc 1bfc 57bc 5730 343d
00000220: be8a 44bd 88cc 8ebd a8d9 d63d a4f6 a13a
00000230: afda 313d 30d5 9c3d cde1 ed3c 23cc 8a3d
00000240: cb78 1d3d 2383 5dbb 0dc2 7fbd 6852 ae3b
00000250: 9480 f2bc b2b3 1abe 4a71 05bd fc73 b93d
00000260: fb97 e6bb bbd1 c63d 7489 ec3d 1d69 1c3d
00000270: 2fc4 ab3c be71 12bd a1a0 b4bb 35e6 e43d
00000280: d848 5dbd 3ccd 63bd fee2 943d 4c68 be3d
00000290: 491c 7e3d d27f 273d a8dd 453d 845e 1abd
000002a0: c524 0ebd 9ae9 203d c6de 77bc 21c0 4bbd
000002b0: 2111 f2ba e253 253d 955c 4d3d 656b 3b3d
000002c0: 61ca 9dbd 782d 47bd ac80 f63d 9d72 823d
000002d0: cda7 2a3d aa41 5e3d 6785 7a3d dfee 063e
000002e0: 2c92 593c 7e1c fa3b 4227 2b3d 6554 cebd
000002f0: 8d18 7f3d 92f8 863c 1a77 b0bb d697 61bc
00000300: fde2 7fbc c639 27bd fb77 083d 6f41 f6bc
00000310: db89 a33d 170a 053d 6dac 7fbd 0ce2 b7bc
00000320: b7b8 083c 0f33 bd3c 6aab 8c3d 772f aebd
00000330: 0abe 0ebd cdf4 b13d 48b8 133d 4906 9d3d
00000340: 29a3 863d f932 023e 4732 c93b 4841 aebc
00000350: 1f1b 02bc ed79 ccbd 7bd0 873c 3842 35bd
00000360: 1692 cf3d ce20 a73c fe4e 253d d463 3ebd
00000370: 446b 87bc 62f7 13bd e0f1 4b3c d92b 17bd
00000380: 55dc f2bd 90a9 bcbc e4ad 33bc 3e99 ee3c
00000390: 5eac f1bb fa89 12bc bbd1 c2bd 9cf7 f23c
000003a0: d3b0 5a3d 2125 babc 4e32 6ebd 6bf6 c83c
000003b0: 8b62 983c 06ed 6f3d 1bb9 85bc b854 683d
000003c0: c247 7bbd 63cd 873b 5ce1 853d 76d4 af3c
000003d0: f726 a7bc b29b 2ebd b110 6cbd 7c07 a0bc
000003e0: 7096 a0bd 4917 753d 3dab 573d 0168 02bd
000003f0: 1118 f83c 8eae a13d a8b6 27bd 8839 2cbd
-0.06436503 -0.08054298 0.016653424 -0.06014203 0.05600606 -0.029799648 -0.038516622 0.014418828
0.094093956 0.023707243 0.004155987 -0.07254351 -0.06250129 -0.028826365 -0.033136394 0.0012489347
-0.058809347 0.05408034 -0.0126634175 -0.045318197 0.06610461 0.039642546 0.08370095 -0.07416603
0.09135397 0.056481156 -0.06469497 0.07891461 -0.01561481 -0.06451517 -0.004279049 0.036770605
-0.033598624 -0.017566571 -0.03999874 -0.067496605 -0.029442448 -0.10744284 0.07807371 -0.01172842
-0.0066220975 0.053194165 0.121829055 0.010141132 -0.025316996 0.010776428 -0.080216914 -0.06845092
0.004484796 -0.03221208 0.13707386 0.01636624 -0.049498696 -0.017237037 0.01163784 0.01595123
0.07842705 0.032911155 0.0016749075 0.008788965 -0.0818883 0.019443857 0.08428122 0.06466264
0.038475383 0.056471404 -0.0065321582 -0.0034729328 0.007451781 0.060044415 -0.092293754 -0.07147587
0.05240883 0.012735955 0.027835915 -0.03099345 -0.052636445 0.08634313 -0.03428567 0.0030085463
0.052560616 -0.07387488 0.097145095 -0.05333745 -0.032480292 -0.0020051126 0.035440758 0.020564016
0.059856366 0.0012044497 0.11898398 -0.01330451 0.044544734 0.0520752 -0.016341686 -0.0065660626
-0.11607252 0.037214886 -0.08566537 -0.10126543 -0.058797263 -0.017024439 -0.077283904 -0.028998056
0.080307245 0.0351149 0.025423992 0.022421103 0.05340943 -0.023215521 -0.02508581 -0.063084185
-0.045531463 -0.0051375595 0.024404813 0.058108777 0.027308509 -0.0043377914 0.07538929 -0.019108672
0.08894602 0.012901675 -0.05613015 -0.015797088 0.006078306 0.019441647 0.044059914 -0.037249446
0.0020737941 -0.032130335 -0.09090531 0.005365683 0.077733554 -0.012300695 -0.013182665 0.043991413
-0.047983877 -0.06972605 0.104907334 0.001235683 0.043421444 0.0765785 0.029038334 0.06777217
0.038445275 -0.0033800087 -0.06244092 0.005319882 -0.029602326 -0.15107611 -0.032578744 0.090553254
-0.0070371605 0.09707972 0.115496546 0.03818618 0.020967571 -0.035753004 -0.0055123125 0.11176721
-0.054024547 -0.05561565 0.07269858 0.09297237 0.062038694 0.040893383 0.04830709 -0.037687793
-0.034703035 0.03928528 -0.015128797 -0.049743775 -0.001846824 0.0403632 0.05013712 0.045756716
-0.07704616 -0.048627347 0.12036261 0.06369517 0.041663934 0.05426184 0.06116238 0.1317706
0.013279479 0.007632791 0.041785486 -0.10074691 0.062279273 0.01647595 -0.0053852918 -0.013769111
-0.015618083 -0.04082658 0.033317547 -0.030060498 0.07985278 0.032480326 -0.062420297 -0.022446655
0.008344821 0.023095636 0.06868632 -0.08505147 -0.034849204 0.0868927 0.036064416 0.076672144
0.06574089 0.12714757 0.0061400267 -0.021271363 -0.0079410365 -0.09984193 0.016578903 -0.044252604
0.101352856 0.020401385 0.040358536 -0.046481922 -0.01653064 -0.036124595 0.012447804 -0.03690705
-0.11858431 -0.023030072 -0.010966752 0.029125806 -0.007375284 -0.008944029 -0.09512659 0.029659085
0.05339129 -0.022722783 -0.058153443 0.024531564 0.018601676 0.058575653 -0.016323617 0.05672142
-0.06134773 0.004144357 0.065371245 0.021463614 -0.020404322 -0.04262895 -0.057633106 -0.019534819
-0.07841194 0.05983666 0.05265354 -0.031837467 0.030284913 0.07894622 -0.04094568 -0.042047054

fc1.bias f4 [32]
00000000: aa30 943d b30c 943d 6aa1 c4bc 44b0 b53c
00000010: 144d 6b3d 5a11 ecbd 656c a93d 8205 303b
00000020: b748 8ebd ffcd 69bd d47d 48bb fdf4 83bd
00000030: e378 ba3d 81dc 5dbb b750 b5bd 8e77 f3bc
00000040: 68c5 d63d 6edd bcbc 4dcf 073d fe8f 18bd
00000050: 6c8b 58bd aff2 8abd b7ce 51bc 2f5d 69bd
00000060: 36a7 d3bc d05c 1abc a746 3ebd a361 833b
00000070: e51a 573d 78f0 c4bd c4a9 ae3d 5938 8a3d
0.072358444 0.07228985 -0.02400275 0.022178777 0.057446554 -0.11526747 0.08272628 0.0026858752
-0.06947463 -0.05708122 -0.0030592578 -0.06443212 0.091050886 -0.0033853354 -0.08853286 -0.029720094
0.10486871 -0.023054805 0.03315668 -0.037246697 -0.052867338 -0.067845695 -0.012805632 -0.056973632
-0.025836568 -0.009421542 -0.046454098 0.004009442 0.052515883 -0.09616178 0.08528474 0.06749029

fc2.weight f4 [10, 32]
00000000: 4868 8bba d019 36bb 61ce 973d 9d16 85bc
00000010: 3ec4 ed3d 7e51 febd f70e c83e d337 3dbe
00000020: cc90 63be d3cf 05be 0942 1abe 7e62 883d
00000030: 61d3 2d3e bb9c 05be a103 623c 3b12 4abe
00000040: 3ec3 f0bd db14 3abd 23a2 853c 4b9c d83d
00000050: 9f67 67be eddb 43be 26e6 5c3e f2d8 1e3e
00000060: 0b52 783d 4afb ea3d 1fe3 3cbe 0084 4bbe
00000070: 8a71 47be 21b2 d6bd 9a6c 873e c8ce abbe
00000080: c238 f5bd 0990 b3bd 70ae 663e 0840 ad3d
00000090: a998 1a3e a70c 08bd 164e 7bbe 13e0 653e
000000a0: 52c5 103e 2b8e aa3e d92b 70be e9c5 4bbc
000000b0: 2724 1ebe 5553 8ebe a918 28be eb1e 46be
000000c0: 3a99 813d 5598 51be 970a 28bd ee83 51be
000000d0: bd8c f3bc 448f 1bbc 35dc a93e 9e12 75be
000000e0: ffc8 293e fdac 23be 4043 913e 18ce 02be
000000f0: c253 91bd 0992 7dbd 1aa3 28be 7ca5 083e
00000100: c39b de3d 457c 94bc 9b23 29bd 9361 83bd
00000110: 7883 48be 9550 5dbe ed0b f63d 5c9f 873e
00000120: eaf7 77bd 4528 d23d 6855 763e c103 40be
00000130: 118f 373d c957 a13c 978d 293e 30dd babd
00000140: f3a7 f4bd 9d8e 183d 4b69 4e3d 6b2f f8bd
00000150: 2f68 a43d de2d 25be 44c8 05be 69c9 f2bc
00000160: e7b7 45bd a527 7a3d f59f 05be 470d 863d
00000170: aebc 1f3d d3c0 973e a44b 7abc d6bf ccbd
00000180: 53d9 903d 5841 96bd b7bd c8bd e8a1 36bd
00000190: 4fa6 523c 29ca 54bd 8f70 febd daf4 16be
000001a0: 7757 1c3d 2a5d 81bd 3573 333d 0a5a 843b
000001b0: 6d3b 59be 47d2 d43d 9689 ef3a 7baa d0bc
000001c0: ccb1 c1bd f7e6 aabd 0701 013c eb36 db3d
000001d0: 1c72 213e 6786 c73c c33e 51be 7332 df3d
000001e0: 3330 41be 369d ac3e ce90 32be 39fb 613e
000001f0: d736 173e b8f7 50be 0a1e a9be 2a23 993e
00000200: 5d92 8a3d 6b6b 3bbe 522e c13e 2089 913d
00000210: 7b45 003e fa5c 74be 00c3 88be 34b6 0fbe
00000220: 3897 31be 9d28 59bd cb14 123e 3085 58be
00000230: 6e1e 903d 1dba a23d f419 57bd 0423 ae3e
00000240: 20f1 f13d ab37 dabd c475 2cbe c5aa 99bd
00000250: 8128 33be 4d60 9dbd 80aa 0c3d 977f 42be
00000260: 49c6 1abe b909 6bbe 169d c13d 69e6 e23d
00000270: 5158 96be c325 3a3e 0384 a73e 0494 6ebe
00000280: bd09 3b3e 474b 79be dc7c f03d 4b75 24be
00000290: 86aa 363c 2d22 6e3e 5bd7 493e 43dd aebd
000002a0: aa86 67bd 93ec dcbd ab15 3a3d 5dbc e23d
000002b0: cf2c fcbc 02ec 1e3e c9cb 333e 775c 8d3b
000002c0: 2303 bbbd dd15 2a3e b3ee 03be 3766 3dbd
000002d0: 21f6 3abc 344c 4b3e 55f2 42be 514c 07bd
000002e0: a6b9 303e 20dd 27be 0119 81be 4038 163d
000002f0: 7c81 b5bd 0982 38be f642 31bd 5d6b 0b3e
00000300: d11e 353e 15c2 95bd 9267 c5bd 7543 efbd
00000310: 0e25 d73d 5c4b 04be de94 2a3d 28ed 043e
00000320: cc01 1cbe 86c0 8f3e e74e 533e 59fa eebd
00000330: f8c4 fd3c 80f1 5dbe cd3f 12be beb0 3fbe
00000340: ffde c63d 62ed 3dbd 4ac0 873d 0e5c a7bd
00000350: 769d 53be d272 553e 0d06 83bd 1f78 92be
00000360: d862 e4bd 5261 31be 7bbd 82bc e3db dd3c
00000370: 1b37 36bd 2eee 44bd 0ce5 ac3e bde9 31be
00000380: b2ee 1f3e e830 b9bd 56ca 04be ccd7 123d
00000390: cb15 6b3d 9a98 61be aef7 efbd ba06 593e
000003a0: 9b3a 2fbd ef3f 1bbe 58ab 82be 6b84 0a3e
000003b0: ca92 123d bf96 6b3e 272f ef3d 432f 913e
000003c0: 60a6 12be b172 10bc 761c 0d3d d952 583e
000003d0: e659 b7bd 0c58 22be 0b86 1fbd fd2b 873d
000003e0: 0b00 453e 0b30 46be 8098 0ebd 51b5 073e
000003f0: ac53 bfbd 4652 5c3e 714a 11be d0b9 e93d
-0.0010635937 -0.0027786382 0.074124105 -0.016246134 0.11609696 -0.12417887 0.39073917 -0.18478326
-0.22223204 -0.1306756 -0.15064253 0.06659411 0.16975166 -0.13048069 0.0137948105 -0.19733517
-0.117559895 -0.045430046 0.016312664 0.105766855 -0.22598122 -0.19126864 0.2157217 0.15512446
0.060625117 0.11473711 -0.18446015 -0.19874573 -0.19476905 -0.10483194 0.26450044 -0.335562
-0.11973716 -0.08767707 0.2252748 0.084594786 0.15097298 -0.03321519 -0.24541506 0.22448759
0.14137772 0.3331159 -0.23454227 -0.012437322 -0.15443479 -0.27797952 -0.16415657 -0.19347732
0.06328054 -0.20468266 -0.041025724 -0.20460483 -0.029730195 -0.009494606 0.33175817 -0.23932883
0.1658058 -0.15983959 0.2837162 -0.12773931 -0.07096054 -0.061906848 -0.16468468 0.13344377
0.10869553 -0.018125663 -0.04129372 -0.06415095 -0.19581401 -0.21612771 0.120139934 0.2648877
-0.060539164 0.10261587 0.24056017 -0.18751432 0.044814173 0.01969518 0.16557918 -0.091242194
-0.11946096 0.03724538 0.050393384 -0.12118419 0.08027684 -0.16130778 -0.13064677 -0.029637055
-0.048271086 0.061072964 -0.130493 0.06545501 0.0389983 0.296393 -0.015276823 -0.09997527
0.07072701 -0.07336682 -0.0980181 -0.044588 0.012857034 -0.051950607 -0.124238126 -0.14741841
0.03816935 -0.06316598 0.04381104 0.004039054 -0.21214075 0.1039167 0.0018275257 -0.025471916
-0.0945774 -0.08344834 0.00787378 0.10703834 0.15766186 0.02435608 -0.20434098 0.10898294
-0.18866043 0.33713692 -0.17438051 0.2206849 0.14767013 -0.20406997 -0.3303073 0.2990964
0.06766198 -0.18302695 0.37730652 0.07106233 0.12526505 -0.23863593 -0.26711273 -0.14034349
-0.17342842 -0.053017247 0.14265744 -0.21144557 0.07037054 0.079456545 -0.052514985 0.3401109
0.11813569 -0.10655149 -0.16841799 -0.07503275 -0.1749592 -0.076843835 0.03434229 -0.18993984
-0.15114702 -0.22952928 0.0945379 0.110791035 -0.29364255 0.18178467 0.32717904 -0.23298651
0.18265434 -0.24345122 0.11742565 -0.16060369 0.011149054 0.23255225 0.19711058 -0.08538296
-0.05652491 -0.107873105 0.04543082 0.11071084 -0.030783085 0.15519717 0.17558207 0.004314001
-0.09131458 0.16609903 -0.12884025 -0.046240058 -0.011411221 0.19853288 -0.19037755 -0.033031765
0.1725832 -0.16392946 -0.2521439 0.036674738 -0.08862588 -0.18018354 -0.04327675 0.13615175
0.17687537 -0.07312409 -0.09638895 -0.11682788 0.105051145 -0.12919372 0.041645877 0.12981093
-0.1523506 0.2807657 0.20635568 -0.11668844 0.030977711 -0.21674156 -0.1428215 -0.18719766
0.09710502 -0.046368964 0.06628473 -0.08171855 -0.20665535 0.20844582 -0.063976385 -0.2860727
-0.111516654 -0.17322281 -0.015959492 0.02708239 -0.044486146 -0.04807871 0.337685 -0.1737432
0.15618399 -0.09042531 -0.1296781 0.03585033 0.05739383 -0.22030869 -0.11717163 0.21193972
-0.0427805 -0.15161107 -0.2552135 0.13527076 0.03578452 0.23006724 0.116789155 0.2835637
-0.1432128 -0.008816407 0.03445097 0.21125354 -0.08952694 -0.158539 -0.038946193 0.06600187
0.19238298 -0.19354264 -0.034813404 0.1325276 -0.09342131 0.2151576 -0.14188553 0.11412394

fc2.bias f4 [10]
00000000: c8c8 703d 592f 013e 330e 1bbe 3fde ea3c
00000010: 790d bf3d ed07 a93d 4dc0 1c3e ed7e 333e
00000020: 773a 8a3b a2bc 83bd
0.05878523 0.12615718 -0.15142135 0.028670428 0.093287416 0.08253465 0.15307732 0.17528887
0.0042183953 -0.06432463
