Codes/mnist_cnn_mnist_7_True_21222_0.1_1.0_1.0_64_1.pt (torch, 106255 bytes, 8 tensors)

conv1.weight f4 [16, 1, 8, 8]
0	0x3db27e0f	0.0871545
1	0xbc5d19c9	-0.013494917
2	0x3e371e6d	0.178827
3	0x3d9272d0	0.07150805
4	0xbe32ce27	-0.17461453
5	0xbe290092	-0.16504124
6	0xbe46084e	-0.19339105
7	0x3e02180c	0.12704486
8	0x3cbf5ae2	0.023358766
9	0x3e085343	0.13313012
10	0x3dc29872	0.09501733
11	0x3bd61972	0.006533795
12	0xbd59b2f8	-0.053149194
13	0xbc040cd2	-0.008059697
14	0xbd0c16fb	-0.034201603
15	0xbb30d558	-0.0026982632
16	0x3d90978e	0.07060157
17	0xbdd1f5df	-0.10251974
18	0x3e69c860	0.22830343
19	0x3cd6a4ba	0.026201595
20	0x3e0023df	0.12513684
21	0x3da5bea7	0.08093005
22	0x3d9db7c1	0.07701064
23	0x3bae7fd1	0.0053252955
24	0xbcecdd01	-0.028913977
25	0x3e374f54	0.17901355
26	0x3e1932e4	0.1496082
27	0x3e0c6ffa	0.1371459
28	0x3d9d6b28	0.07686454
29	0x3d2a5f23	0.041594636
30	0x3def67f5	0.1168975
31	0x3d8d3efb	0.06896778
32	0xbb319e4d	-0.0027102411
33	0x3ce10734	0.027469255
34	0x3e655f9e	0.22399756
35	0x3e32cb19	0.17460288
36	0x3d4ae31d	0.049533
37	0xbd8ebac4	-0.069692165
38	0xbce6cb06	-0.028172981
39	0x3d32e104	0.043671623
40	0x3daec5d7	0.08533829
41	0xbe1b4a72	-0.15165117
42	0xbdba80b5	-0.0910658
43	0x3e4a794b	0.19772832
44	0x3d7cd815	0.06172951
45	0x3db1cb9e	0.08681415
46	0x3c99cb67	0.018773748
47	0x3d1e4b6e	0.038646154
48	0xbbfc39e3	-0.0076973303
49	0xbe33397e	-0.175024
50	0xbd5dc269	-0.054140482
51	0x3dcb6300	0.09930992
52	0x3dbe21b1	0.0928377
53	0xbd35cf23	-0.044386994
54	0xbdef3ad3	-0.11681142
55	0x3d0270df	0.031845924
56	0xbdbe6595	-0.09296719
57	0xbe0fdefd	-0.14049907
58	0x3dbd196c	0.092333645
59	0x3d4c30a2	0.049851067
60	0xbd02e58d	-0.031957198
61	0x3c1ac52f	0.009446426
62	0x3dbd40a2	0.09240843
63	0xbdaa36bf	-0.08311223
64	0xbd2775df	-0.040883895
65	0x3bce760a	0.0063006924
66	0xbab396dd	-0.0013701577
67	0xbddbf42f	-0.10739934
68	0x3e0f71cf	0.14008258
69	0x3d1dc87c	0.038521275
70	0xbcd9bf84	-0.02658058
71	0x3d88e905	0.0668507
72	0xbd18c142	-0.03729368
73	0xbd86910b	-0.065706335
74	0xbd070bd5	-0.03297027
75	0x3e002ddd	0.12517495
76	0x3dad4c7a	0.08461852
77	0xbc2698ae	-0.010168238
78	0x3dbd9a16	0.09257905
79	0x3d2f85a7	0.04285207
80	0x3dd18ba4	0.102317125
81	0xbdbe6717	-0.092970066
82	0x3c6bb915	0.014387389
83	0x3c8fa1b8	0.017533168
84	0x3bb00bc4	0.0053724963
85	0xbd82252c	-0.06354746
86	0x3d2cf249	0.04222325
87	0x3c98124e	0.018563416
88	0x3ca18d81	0.019720795
89	0x3e53bf63	0.20678477
90	0x3ccb815f	0.024841962
91	0xbda7906d	-0.08181844
92	0x3de7e457	0.11322849
93	0x3ca58c79	0.020208584
94	0xbdee2d5f	-0.116297476
95	0xbd7f7c02	-0.062374122
96	0xbd1fe1ce	-0.039033704
97	0x3e538ff6	0.20660385
98	0x3dce2775	0.100661196
99	0x3d860442	0.06543781
100	0xbe0c2503	-0.13685994
101	0xbd538431	-0.05163974
102	0xbe761bfe	-0.24034116
103	0xbcde0263	-0.027100747
104	0x3d5f468f	0.05451065
105	0x3cbdbe38	0.023161992
106	0x3cef7f72	0.029235575
107	0xbcc8e4c6	-0.02452315
108	0xbdcaa139	-0.09894032
109	0x3dbc1207	0.09183126
110	0xbcd685f7	-0.026186926
111	0x3d97c47a	0.07410522
112	0x3db630ec	0.0889605
113	0x3d015f8b	0.031585258
114	0xbbf34748	-0.007424269
115	0xbdeb75bb	-0.11497065
116	0xbe1d2ca9	-0.15349068
117	0xbdef14e4	-0.116739064
118	0xbde7d420	-0.113197565
119	0xbc8a6779	-0.016895043
120	0x3dfa6647	0.12226539
121	0x3c3fa2dd	0.0116965445
122	0x3de2721c	0.11056921
123	0xbdb0e331	-0.08637083
124	0x3d37f88d	0.04491477
125	0x3c881131	0.01660976
126	0xbe608a35	-0.21927722
127	0xbe0dadb1	-0.1383579
128	0x3de87a77	0.11351483
129	0xbc5cdf16	-0.013480922
130	0xbe274d2d	-0.16338034
131	0x3d2b2f75	0.041793305
132	0xbcda1d10	-0.026625186
133	0x3da776e5	0.08176974
134	0x3e5c854d	0.21535225
135	0x3cabecfc	0.020987026
136	0xbdb81cf8	-0.089899
137	0x3cf17214	0.029473342
138	0x3d808f15	0.06277291
139	0xbd10f8dc	-0.03539358
140	0xbd5faf52	-0.054610558
141	0x3e2696a5	0.16268404
142	0x3dc3b617	0.09556215
143	0xbc954592	-0.01822165
144	0xbe668029	-0.22509827
145	0xbd533f62	-0.05157412
146	0xbc69be74	-0.014266599
147	0xbda41b14	-0.08012977
148	0x3dd04ad9	0.10170526
149	0x3d26b12c	0.040696308
150	0x3e0c809f	0.1372094
151	0xbd8822dd	-0.06647275
152	0xbe56aa29	-0.20963348
153	0x3d212c59	0.039348934
154	0xb934d6e3	-0.00017246189
155	0x3c62cff1	0.013843522
156	0xbd57c209	-0.05267528
157	0x3e2c8d22	0.16850713
158	0x3e4ef8db	0.20212118
159	0xbe1f678f	-0.15566848
160	0xbd7bcf43	-0.061476957
161	0x3d2ade02	0.04171563
162	0xbe4dd598	-0.20101011
163	0xbdc696b0	-0.0969671
164	0x3e3b4fed	0.18292208
165	0x3de2abcf	0.11067926
166	0x3d388316	0.04504689
167	0xbcf7aae5	-0.030232856
168	0x3e052b3e	0.13004777
169	0xbcb01448	-0.021494046
170	0x3c59f15f	0.013302176
171	0xbc6a43db	-0.014298405
172	0x3e789d00	0.24278641
173	0x3df7cf97	0.121001415
174	0xbd113db4	-0.035459235
175	0xbd26dd8f	-0.04073864
176	0xbdae70e8	-0.08517629
177	0xbdb12d38	-0.08651203
178	0x3dbb1d55	0.09136454
179	0x3c6cc514	0.014451284
180	0x3e50c883	0.20388989
181	0x3e41eb62	0.18937448
182	0xbd6eb2f8	-0.058276147
183	0x3da9341b	0.082618915
184	0xbe18609d	-0.14880605
185	0xbc8036d4	-0.015651144
186	0xbd91b978	-0.071154535
187	0x3df76fef	0.120818965
188	0x3e35ccd0	0.17753911
189	0x3dd4b747	0.1038652
190	0x3e1f4900	0.15555191
191	0x3e63e3e3	0.222549
192	0x3e2a1c2c	0.16612309
193	0xbd91bbfa	-0.07115932
194	0x3cad36d0	0.0211443
195	0x3d8fb827	0.07017546
196	0x3da450a2	0.08023192
197	0xbd99dba8	-0.07512599
198	0xbca88a74	-0.020573832
199	0xbe025a6a	-0.12729803
200	0x3dbdf5b1	0.092753775
201	0x3e1bc957	0.15213524
202	0x3cb10a39	0.02161132
203	0xbd9550d2	-0.07290806
204	0xbe1e7753	-0.15475206
205	0xbd71172b	-0.058859985
206	0xbda2a628	-0.07941848
207	0xbd510bd1	-0.05103666
208	0xbd6f9849	-0.05849484
209	0x3e55bf97	0.20873867
210	0x3c292f2d	0.010326189
211	0x3d063c8b	0.032772582
212	0xbc9bce25	-0.019019196
213	0x3e18e13a	0.14929667
214	0xbc95513e	-0.018227216
215	0xbd6e285c	-0.05814396
216	0x3e08f113	0.13373213
217	0x3e0e5f4d	0.13903542
218	0x3df93be6	0.12169628
219	0xbccac641	-0.024752738
220	0x3cb41bfa	0.021985997
221	0xbd11d18e	-0.035600238
222	0xbddaa0fd	-0.10675237
223	0xbd71a7f0	-0.05899805
224	0xbc7da7b3	-0.015481877
225	0x3d1e4bb5	0.03864642
226	0x3d53a592	0.051671572
227	0xbd0c8384	-0.03430511
228	0xbd972ffd	-0.073822
229	0xbd9ecbc8	-0.07753712
230	0xbe02e3b8	-0.1278218
231	0xbb946e6e	-0.004529766
232	0x3da2dc9f	0.079522364
233	0x3e0a314d	0.1349537
234	0x3e8cd7e7	0.2750847
235	0x3e2a2bc4	0.16618258
236	0x3dd52cb2	0.104089156
237	0x3d027535	0.03185006
238	0x3de580a9	0.112061806
239	0xbd8634a2	-0.06553008
240	0xbadea7e8	-0.0016987296
241	0x3c0e5ca1	0.008689077
242	0x3cabfe80	0.020995378
243	0x3c20b1d6	0.009808024
244	0x3b798001	0.003807068
245	0x3daaadfd	0.08333967
246	0xbd8e5949	-0.069506235
247	0xbd8ee0d7	-0.069764785
248	0x3d18aef9	0.037276242
249	0x3e25a363	0.16175608
250	0x3de2f135	0.11081163
251	0x3ca7e8d7	0.020496769
252	0xbd686d06	-0.056744598
253	0x3d59f0c1	0.053208116
254	0xbe05aee2	-0.13054994
255	0x3c7e7422	0.015530618

conv1.bias f4 [16]
0	0xbd70d2ff	-0.05879497
1	0xbcb5f152	-0.022209797
2	0x3daa6b45	0.08321241
3	0x3dce8260	0.10083461
4	0x3c4eaaf1	0.012613998
5	0x3bbab387	0.005697671
6	0x3c9bf9e6	0.01904006
7	0x3d1c3579	0.038136933
8	0x3e3df162	0.18549111
9	0x3d76f6ac	0.06029384
10	0xbc4f4cb5	-0.012652566
11	0xbdf99660	-0.12186885
12	0xbd9ad612	-0.07560362
13	0xbd984df1	-0.07436741
14	0x3e24a43e	0.16078278
15	0xbddd1b2f	-0.107962005

conv2.weight f4 [32, 16, 4, 4]
0	0xbd4f6b02	-0.05063916
1	0x3a351eb1	0.00069091754
2	0x3d28a885	0.041176338
3	0xbd72a4ed	-0.059239317
4	0x3c94ecee	0.018179383
5	0xbe1ac139	-0.15112771
6	0xbb2b2c78	-0.0026119035
7	0xbd5dda0f	-0.054163035
8	0xbd6d6536	-0.05795785
9	0x3d929288	0.07156855
10	0xbd1b35f2	-0.037893243
11	0xbc88e981	-0.016712906
12	0x3c3614b0	0.011113331
13	0xbd7ef399	-0.06224403
14	0xbbd5a333	-0.006519699
15	0x3d33ab0f	0.043864306
16	0xbd04eb7c	-0.032451138
17	0x3d154000	0.03643799
18	0x3d8d91dc	0.06912586
19	0xbcbbd40e	-0.022928264
20	0x3c7cfe0c	0.015441429
21	0xbdb04151	-0.08606208
22	0x3d9d91a2	0.07693793
23	0xbcac0e09	-0.021002786
24	0xbbf42fb7	-0.007451977
25	0x3dc8c253	0.098026894
26	0xbd341d35	-0.043973166
27	0x3aaf10a8	0.0013356404
28	0x3c317ced	0.010833007
29	0x3d14aa85	0.036295433
30	0xbd909b93	-0.070609234
31	0xbde857fe	-0.11344908
32	0x3c94dc9b	0.0181716
33	0xbd186e4c	-0.037214562
34	0x3d9e6168	0.077334225
35	0x3d8bb3f9	0.068214364
36	0x3da2a941	0.07942439
37	0x3d90bfda	0.07067843
38	0x3db1d63c	0.0868344
39	0xb9961970	-0.00028629182
40	0x3d9b50a1	0.07583738
41	0x3cb65b6d	0.022260392
42	0xbc9eb399	-0.019372748
43	0xbb12f2a1	-0.002242245
44	0x3d7cf89e	0.061760537
45	0x3d1c467d	0.03815316
46	0x3d7bdb1b	0.061488252
47	0xbb85347d	-0.004065095
48	0x3bc03e54	0.005866805
49	0xbe5671df	-0.20941876
50	0x3d47ddb1	0.048795406
51	0x3d3a8473	0.04553647
52	0xbd1d937a	-0.038470723
53	0x3bf79eae	0.007556758
54	0xbc397fcc	-0.011321973
55	0x3a8628f0	0.0010235589
56	0xbcac8dbd	-0.02106368
57	0xbd9d6c15	-0.07686631
58	0x3d99cbd7	0.075095825
59	0x3d51a95f	0.051186915
60	0xbba27c43	-0.004958661
61	0x3b70e627	0.0036758275
62	0x3d10b44d	0.0353282
63	0x3a0ddbeb	0.00054114935
64	0xbdcf305f	-0.10116648
65	0xbdb8beb1	-0.090207465
66	0xbcd04eaa	-0.025428135
67	0x3db9da27	0.090748124
68	0xbcaaf490	-0.02086857
69	0xbd077247	-0.033067968
70	0x3bd263a9	0.006420572
71	0xbd3df996	-0.0463806
72	0x3d8aac22	0.06771113
73	0xbc513fc6	-0.012771552
74	0xbd5dda69	-0.05416337
75	0x3daa9636	0.08329432
76	0xbcc8016e	-0.024414744
77	0xb907bf47	-0.0001294586
78	0xbda967b2	-0.082717314
79	0x3d24f852	0.04027588
80	0xbdf2c551	-0.11854041
81	0xbcd3de2a	-0.025862772
82	0xbdd99ae6	-0.10625248
83	0xbe220bd8	-0.1582483
84	0x3cfcfb69	0.0308816
85	0xbd78325c	-0.0605949
86	0xbd19d88a	-0.037560023
87	0x3c1c007d	0.009521601
88	0x3c7ffa64	0.015623663
89	0xbdd2ce43	-0.102932476
90	0x3ddc35a2	0.10752417
91	0xbbc91212	-0.0061361874
92	0x3d461c55	0.048366863
93	0xbb9e96e3	-0.0048397644
94	0x3cfbb659	0.030726599
95	0xbbd350d4	-0.0064488444
96	0xbc978979	-0.01849817
97	0x3c9146b6	0.017733913
98	0x3c06cfd2	0.008228259
99	0x3d0f9237	0.03505155
100	0x3d2f892e	0.042855434
101	0xbd5983db	-0.053104263
102	0x3d8ab9e6	0.067737386
103	0xba835115	-0.0010018671
104	0x3d5c5a9a	0.053797342
105	0xbd6c7bf9	-0.057735417
106	0xbd4665f2	-0.048437066
107	0x3d80a1cd	0.06280861
108	0x3a8512f2	0.0010152741
109	0x3c450411	0.012024895
110	0xbcd2deb2	-0.025740955
111	0x3c63ca37	0.013903192
112	0xbde53e33	-0.11193504
113	0xbd916b87	-0.07100587
114	0x3d5a9c23	0.05337156
115	0xbcecf677	-0.028926117
116	0x3b02b4a0	0.0019944087
117	0x3d937f76	0.072020456
118	0x3d1598d6	0.03652271
119	0x3d6c01e3	0.057618987
120	0x3bda87c5	0.006669017
121	0xbc009405	-0.007847791
122	0x3cb92511	0.022600682
123	0x3be3c6cf	0.00695119
124	0xbe1df47a	-0.15425292
125	0x3d209808	0.03920749
126	0x3d4ade06	0.049528144
127	0xbd16c1af	-0.036805805
128	0xbd83c8d0	-0.06434786
129	0xbdcc8691	-0.09986604
130	0x3d1841d1	0.037172142
131	0x3d0cf287	0.03441098
132	0x3db11650	0.08646834
133	0xbd7f53f5	-0.062335927
134	0xbd739d84	-0.05947639
135	0x3dad63fb	0.084663354
136	0x3df6efde	0.1205747
137	0xbdc6ed63	-0.09713247
138	0xbd5bb041	-0.053634886
139	0x3d68d4e5	0.056843657
140	0xbc29dbc7	-0.01036734
141	0xbd88b0a9	-0.0667432
142	0xbbad2575	-0.0052840062
143	0xbd22ede8	-0.039777666
144	0x3d9f771c	0.0778639
145	0xbd39497a	-0.04523609
146	0xbd43cce0	-0.047802806
147	0x3d5cb7f4	0.05388637
148	0x3d7cafe0	0.061691165
149	0xbddc6bfa	-0.107627824
150	0x3c115cdc	0.008872237
151	0xbbb4b718	-0.0055149905
152	0x3daaecb2	0.08345927
153	0x3d29f22d	0.041490722
154	0x3c3ce8f0	0.011530146
155	0x3d3a5fed	0.04550164
156	0xbdb0ccbc	-0.086328
157	0x3def8d3b	0.116968594
158	0x3d1be45d	0.03805958
159	0xbc9ee36f	-0.019395558
160	0x3d1975ba	0.03746579
161	0xbccde9a9	-0.025135832
162	0xbd1057fd	-0.035240162
163	0x3d1b848e	0.03796821
164	0xbcdc7aed	-0.026914084
165	0x3c885b80	0.016645193
166	0x3ceb2e29	0.028708534
167	0x3ddbb057	0.107269935
168	0xbd07323e	-0.0330069
169	0xbd922268	-0.07135469
170	0xbc8f0f06	-0.017463218
171	0x3db15606	0.08658986
172	0x3dec5df4	0.11541358
173	0xbd5e53ac	-0.054279014
174	0x3dac5508	0.08414656
175	0x3b7e2f1f	0.003878541
176	0xbd2fe153	-0.042939495
177	0xbc27919a	-0.010227585
178	0x3d900b59	0.070334144
179	0x3d943834	0.072372824
180	0x3da33f25	0.07971028
181	0xbae4eca3	-0.0017465543
182	0x3dcbc77d	0.09950159
183	0x3d908f41	0.070585735
184	0x3d95d050	0.07315123
185	0x3d403d50	0.046933472
186	0x3c90d8d4	0.017681517
187	0x3dddc5a8	0.108287156
188	0x3d01cebd	0.0316913
189	0x3e2b7904	0.16745383
190	0x3e3e02bd	0.18555732
191	0xbd0e3d6b	-0.03472654
192	0x3d505f4c	0.050872132
193	0x3c7358ca	0.014852712
194	0x3d56da37	0.0524542
195	0x3deafbcd	0.114738084
196	0xbd97a711	-0.07404912
197	0xbd3a8fb1	-0.04554719
198	0x3d0bacab	0.034100216
199	0xbd9c67c6	-0.07636981
200	0xbd78a58d	-0.060704757
201	0x3d84474f	0.064589135
202	0x3de442d0	0.11145556
203	0xbcd8014c	-0.026367806
204	0x3dd165c6	0.1022449
205	0x3d04d838	0.032432765
206	0x3d6eb448	0.0582774
207	0x3d87cd97	0.0663101
208	0x3dd8d132	0.10586776
209	0x3c3aadd5	0.011393984
210	0xbd4478e6	-0.04796686
211	0x3d0758d6	0.033043705
212	0x3d1c033e	0.03808903
213	0x3d0ca3d9	0.034335945
214	0x3c110bab	0.0088528795
215	0xbd86a3e0	-0.065742254
216	0x3d59f0d2	0.05320818
217	0xbd23c6cf	-0.03998452
218	0x3bcd5700	0.0062664747
219	0x3d4e6fdf	0.050399657
220	0x3cbc238b	0.022966167
221	0x3ac01db8	0.0014657294
222	0xbd07eaa0	-0.03318274
223	0x3d58a6cf	0.052893456
224	0xbd2a4cb9	-0.041577075
225	0xbda3b81c	-0.079941005
226	0x3d27765c	0.04088436
227	0x3d94f113	0.07272544
228	0xbd350b97	-0.044200506
229	0x3d025bbc	0.031825766
230	0x3d6ef456	0.058338486
231	0x3b900816	0.004395495
232	0x3d0f7a78	0.035028905
233	0xbc14fd29	-0.009093561
234	0x3d27d027	0.040969994
235	0x3cf6d516	0.030130904
236	0x3e0df772	0.13863924
237	0xbd1ca250	-0.03824073
238	0x3de5aca1	0.11214567
239	0x3b3fd1fd	0.002926945
240	0xbd01ec19	-0.0317193
241	0xbd0fb3a7	-0.03508344
242	0xbdb020a5	-0.085999765
243	0x3d139879	0.03603408
244	0x3d7ef0ff	0.06224155
245	0x3d6ccc33	0.057811927
246	0xbc8aadbc	-0.016928546
247	0x3c39c824	0.011339221
248	0xbdf801f2	-0.12109746
249	0xbd61f9de	-0.055169933
250	0xb999808a	-0.00029278203
251	0xbc3cf3d1	-0.01153274
252	0xbb6c5b8d	-0.003606531
253	0xbcebbe62	-0.028777305
254	0xbd809253	-0.06277909
255	0xbbd502c7	-0.006500575

conv2.bias f4 [32]
0	0x3cdf0ea0	0.027228653
1	0xbc6efb75	-0.014586319
2	0x3d02780e	0.031852774
3	0xbc936f83	-0.017997509
4	0x3aa86d25	0.001284991
5	0xbd830e9e	-0.063992724
6	0xbcce5a1a	-0.025189448
7	0x3daf2283	0.085515045
8	0xbd91e7f1	-0.071243174
9	0x3d7cedf4	0.061750367
10	0x3d92f3fe	0.07175444
11	0x3d2ed54f	0.042683896
12	0x3d2b2ea8	0.04179254
13	0xbda70f84	-0.08157256
14	0xbba1d7fc	-0.0049390774
15	0xbd8c7839	-0.06858868
16	0xbd921912	-0.07133688
17	0x3d36a4b8	0.04459068
18	0xbd1303e5	-0.035892386
19	0x3ddd5e87	0.10809045
20	0xbbb2cb38	-0.0054563545
21	0xbd441f10	-0.047881186
22	0xbd384275	-0.044985253
23	0xbd0c739f	-0.034289952
24	0xbc84b25f	-0.016198335
25	0xbdd5fe91	-0.10448945
26	0x3cb38d63	0.021918004
27	0xbdbfc72b	-0.0936416
28	0xbca0ad77	-0.019613964
29	0x3d2c5d6e	0.04208129
30	0x3d01ebd4	0.031719044
31	0x3de5ac49	0.112145014

fc1.weight f4 [32, 512]
0	0xbd8a967f	-0.06766986
1	0x3dfa0cab	0.122094475
2	0xbd4e722e	-0.05040186
3	0xbd188af2	-0.037241884
4	0x3d1f83c9	0.03894404
5	0xbd8e5867	-0.06950455
6	0xbdad142c	-0.08451113
7	0x3d968cf3	0.07351103
8	0x3c81d044	0.01584638
9	0x3da60050	0.08105528
10	0xbd17413f	-0.036927458
11	0x3d15184c	0.036400124
12	0xbd8e0b94	-0.06935802
13	0x3b918822	0.004441277
14	0x3c119cd6	0.00888749
15	0x3c846e9c	0.016166024
16	0x3d1bd7a5	0.03804745
17	0xbe05eda6	-0.13078937
18	0x3d7d5095	0.061844427
19	0xbd480896	-0.048836313
20	0xbd7e63de	-0.06210696
21	0xbbbc7a83	-0.005751909
22	0xbdf1f2ed	-0.118139125
23	0x3d354168	0.04425183
24	0x3d88a40a	0.06671913
25	0x3d39dbd3	0.045375656
26	0xbbb0fdad	-0.0054013343
27	0x3d3cad9b	0.046064
28	0x3ceda208	0.029007927
29	0x3d30e23f	0.043184515
30	0x3dae15e3	0.08500268
31	0x3d70e355	0.05881055
32	0xbcfa8bf3	-0.030584311
33	0x3afa47d2	0.001909489
34	0xbd6f4b52	-0.05842144
35	0x3cb5dd30	0.022200197
36	0xbbd86b81	-0.0066046123
37	0xbc811900	-0.015758991
38	0xbd20ae94	-0.03922899
39	0x3e0d411f	0.13794373
40	0xbde530a2	-0.111909166
41	0xbd4ca83f	-0.04996514
42	0xbc91c84c	-0.017795704
43	0x3cbc14f6	0.022959214
44	0xbd5a2265	-0.053255457
45	0xbdb3c082	-0.08776952
46	0xbc540f67	-0.012943125
47	0xbdbff97c	-0.09373757
48	0xbcfd52fb	-0.030923357
49	0x3de77566	0.11301689
50	0x3d225dab	0.03964011
51	0x3d63e6e6	0.055640124
52	0x3cf9ed82	0.03050876
53	0x3cb44b35	0.022008518
54	0xbc4df4d4	-0.012570579
55	0x3d1c46d1	0.038153473
56	0xbc694739	-0.014238172
57	0x3c0659c1	0.00820011
58	0x3bd75ef6	0.0065725995
59	0xbc9a7595	-0.018854896
60	0x3d1d2349	0.03836373
61	0x3d8d7ab3	0.06908169
62	0xbd68128e	-0.05665832
63	0x3da15edb	0.0787942
64	0xbadeca22	-0.0016997496
65	0x3daaceda	0.08340235
66	0xbcdacfc7	-0.026710404
67	0x3df51f80	0.11968899
68	0xbd318b01	-0.043345455
69	0x3de2b1fd	0.11069105
70	0x3db2114f	0.086947076
71	0x3c487896	0.012235781
72	0x3c8297ff	0.015941618
73	0x3d88a843	0.066727184
74	0x3d25e0f9	0.040497754
75	0x3d8d484a	0.06898554
76	0x3d22d155	0.039750416
77	0xbd29061e	-0.0412656
78	0x3de24222	0.1104777
79	0x3d467e44	0.04846026
80	0x3d452e85	0.048140068
81	0x3d65eb89	0.056132827
82	0x3d56a146	0.052399896
83	0x3e05301f	0.13006638
84	0xbd5e3452	-0.054249115
85	0xbcaf12df	-0.021371303
86	0x3c8e4fec	0.017372094
87	0xbd7d69d7	-0.061868515
88	0x3d4b716c	0.049668714
89	0xbd2ae96c	-0.041726515
90	0x3d0db6e1	0.034598235
91	0xbc428646	-0.011872834
92	0x3cf7e836	0.030262094
93	0x3c7a7494	0.015286583
94	0xbd5a2d69	-0.053265963
95	0x3d308dc4	0.04310395
96	0xbd249825	-0.04018416
97	0xbd48d32a	-0.049029507
98	0xbdb78f18	-0.0896284
99	0xbd45a77d	-0.048255432
100	0xba3a5427	-0.00071078766
101	0xbd76a4b1	-0.060215656
102	0xbd6995fe	-0.05702781
103	0xbcec521a	-0.028847743
104	0xbd1855b7	-0.03719112
105	0x3d3637ef	0.044486936
106	0x3d2a05cf	0.041509446
107	0xbd47716b	-0.04869215
108	0x3dd94c72	0.10610284
109	0xbd311d0a	-0.043240584
110	0xbdb714f3	-0.089395426
111	0xbdd73325	-0.10507802
112	0x3d62e7db	0.055396896
113	0x3db2d70d	0.08732424
114	0x3d8ad822	0.06779505
115	0xbc32f069	-0.010921576
116	0x3d0046c1	0.031317476
117	0x3dd5da17	0.10441988
118	0xbd73b147	-0.059495237
119	0xbcc458fc	-0.023968212
120	0xbd9fdfcf	-0.0780636
121	0xbbe5ff3f	-0.007018953
122	0xbcdc6aea	-0.02690645
123	0xbd75f9e3	-0.060052764
124	0x3c08838e	0.008332146
125	0xbbf783f1	-0.0075535704
126	0xbd1e7873	-0.038689088
127	0x3d69760e	0.05699735
128	0x3cf89705	0.03034545
129	0x3daa2f7b	0.083098374
130	0x3d5f8d0e	0.05457788
131	0x3c0394f4	0.008031119
132	0xbc0dc0fb	-0.008651967
133	0x3da8a8ee	0.08235346
134	0xbd3fdb1e	-0.046839826
135	0x3d4d2396	0.050082766
136	0xbe06c4cf	-0.13161014
137	0x3d4d9d21	0.050198678
138	0xbcc74858	-0.024326488
139	0x3d62ad7c	0.05534123
140	0x3d56f4a5	0.052479405
141	0x3d994899	0.0748455
142	0x3ba89d8a	0.0051457332
143	0x3d8ca2fc	0.06867024
144	0x3d14998f	0.036279257
145	0x3d5263e6	0.0513648
146	0x3d9b9672	0.075970545
147	0x3d153c97	0.036434736
148	0xbd5a7c6a	-0.053341307
149	0xbd1b882f	-0.03797167
150	0x3d68381e	0.056694143
151	0x3b3feb20	0.0029284433
152	0xbd5e3ceb	-0.054257315
153	0x3cc2a6aa	0.023761112
154	0x3cb9e1a2	0.022690598
155	0xbda271c3	-0.079318546
156	0xbe100f21	-0.14068271
157	0xbda356b5	-0.079755224
158	0xbcf5c1b0	-0.029999584
159	0x3d7d25c7	0.061803605
160	0xbc8b1337	-0.016976936
161	0x3d3c8371	0.04602379
162	0x3da1b61a	0.07896061
163	0xbdce7383	-0.10080626
164	0x3d909d88	0.07061297
165	0x3d12bf8f	0.035827216
166	0x3d0666a7	0.03281274
167	0xbdd2295f	-0.10261797
168	0x3d3e41e4	0.046449557
169	0xba4516ff	-0.00075183803
170	0x3cb4bcaf	0.022062628
171	0xbdf6dac1	-0.12053443
172	0x3da0c518	0.07850093
173	0x3d331f72	0.04373116
174	0x3c6c3341	0.014416517
175	0x3d3758a7	0.04476228
176	0x3d835f26	0.064146325
177	0x3d9dcc53	0.077049874
178	0x3d820dd9	0.063502975
179	0x3d049c9b	0.032375913
180	0xbc5a2762	-0.013315054
181	0xbc90c92a	-0.017674047
182	0x3d2cf437	0.04222509
183	0x3d746383	0.059665214
184	0xbb152ead	-0.0022763417
185	0x3dc8f8d2	0.09813084
186	0x3ca590f8	0.020210728
187	0x3c0537ee	0.00813101
188	0x3cd7ef19	0.026359128
189	0x3d1db0c9	0.038498674
190	0xbc953c2d	-0.01821717
191	0x3d92f632	0.07175864
192	0xbb56e2ea	-0.003278906
193	0x3d1b8f0b	0.037978213
194	0x3c46650a	0.0121090505
195	0xbcc4e9fe	-0.024037357
196	0xbcca6cd0	-0.024710089
197	0x3d882e5d	0.06649468
198	0xbdfd8e7d	-0.12380693
199	0x3d98bc41	0.074577816
200	0x3e09e1ab	0.13464992
201	0xbd41c7a1	-0.04730952
202	0x3ca85b9f	0.0205515
203	0x3d5126a9	0.05106226
204	0x3e067164	0.13129193
205	0x3d963dd8	0.073360145
206	0x3c63bc6a	0.013899902
207	0x3d95f7d1	0.07322658
208	0x3c14f16c	0.009090763
209	0xbc45e31e	-0.012078075
210	0x3dccf8db	0.10008403
211	0xbd699c0e	-0.05703359
212	0x3d7a141c	0.061054334
213	0x3c79dbbd	0.015250144
214	0x3d929626	0.07157545
215	0x3d58919d	0.052873243
216	0x3b844bf9	0.004037377
217	0x3d12ac53	0.035808872
218	0x3d352f55	0.044234592
219	0xbd12734d	-0.03575449
220	0xbd1921fa	-0.03738592
221	0x3d594341	0.053042654
222	0xbd77ef1f	-0.060530778
223	0x3c7c3142	0.015392603
224	0xbd259726	-0.04042735
225	0xb96c99be	-0.00022563987
226	0xbd2cd8a2	-0.042198785
227	0x3dad6361	0.08466221
228	0x3c22fb03	0.009947541
229	0x3d2c40fb	0.042054158
230	0x3cc92da4	0.024557896
231	0x3daacd5a	0.08339949
232	0x3d4590ee	0.04823392
233	0xbd6d62d2	-0.05795557
234	0xbd5bf6d7	-0.0537022
235	0xbd9b7325	-0.075903215
236	0xbdc85a19	-0.0978281
237	0xbe2381a6	-0.15967426
238	0xbd8163e8	-0.06317884
239	0xbcf7289d	-0.030170733
240	0x3bf204e9	0.0073858392
241	0xbcd32767	-0.025775624
242	0x3cd14e4c	0.02555003
243	0xbd395862	-0.045250304
244	0xbdd6152e	-0.104532585
245	0xbe10537d	-0.14094348
246	0xbdd24e8b	-0.10268887
247	0x3db4f356	0.08835475
248	0xbd4256ca	-0.04744605
249	0x3c77f404	0.015133861
250	0xbc4d09b0	-0.012514517
251	0x3e033aae	0.12815353
252	0x3dcfeb18	0.101522624
253	0xbcb1eb65	-0.02171869
254	0x3c627050	0.013820723
255	0x3cb2a4f2	0.021807168

fc1.bias f4 [32]
0	0x3d0dd586	0.03462746
1	0x3d82f98a	0.06395252
2	0xbcb38bae	-0.02191719
3	0x3d358d34	0.044324115
4	0xbda9557b	-0.08268257
5	0x3d8e56b1	0.06950129
6	0xbc964ea3	-0.018348044
7	0x3c7a5b70	0.015280589
8	0xbc6d8023	-0.014495882
9	0xbd8cc7e7	-0.06874066
10	0x3d09ed7f	0.03367376
11	0xbdd30e5d	-0.10305474
12	0xbd473ab4	-0.048639968
13	0xbd99c355	-0.0750796
14	0x3cf8aa53	0.030354654
15	0x3ca0ef30	0.019645303
16	0x3c8d3a6f	0.017239777
17	0xbb27391d	-0.002551622
18	0xbd6f9c96	-0.05849894
19	0xbdade819	-0.08491535
20	0x3da1030d	0.0786191
21	0xbdba0e8b	-0.09084805
22	0xbd8261e1	-0.06366325
23	0xbd75e8d2	-0.060036488
24	0x3d9c9632	0.07645835
25	0xbd01de22	-0.031705983
26	0xbbf8e64f	-0.0075958143
27	0xbcdc5275	-0.026894787
28	0x3c9e0ecd	0.019294167
29	0x3d8f8f7a	0.07009788
30	0xbd339365	-0.04384174
31	0x3d2e6912	0.04258067

fc2.weight f4 [10, 32]
0	0xbd977cb7	-0.07396834
1	0xbd9e3fb1	-0.07726992
2	0x3e26cb8a	0.16288581
3	0xbe585d79	-0.21129407
4	0xbdd7f630	-0.105450034
5	0xbe4abb7c	-0.19798082
6	0xbb7c24ea	-0.003847415
7	0x3d7f4c7f	0.06232881
8	0xbe375219	-0.17902412
9	0xbc8fdbd7	-0.017560882
10	0xbe1983aa	-0.14991632
11	0x396c018f	0.00022507294
12	0x3e0741a0	0.13208628
13	0x3e532a69	0.20621647
14	0x3d7d8e21	0.061903123
15	0x3d8269e7	0.063678555
16	0xbe877efc	-0.2646407
17	0xbe77f348	-0.24213898
18	0x3eac8ddc	0.3370198
19	0xbe052493	-0.13002233
20	0xbd92a81d	-0.07160971
21	0x3e12ec9f	0.14348076
22	0xbe26ea38	-0.16300285
23	0x3e9bf73c	0.30462062
24	0x3e25a292	0.16175297
25	0x3e087deb	0.13329284
26	0x3da0d35b	0.07852813
27	0x3e39989c	0.18124622
28	0x3dc346a8	0.09534961
29	0x3e6814d5	0.22664197
30	0xbe34887f	-0.17630194
31	0xbd08383e	-0.03325676
32	0x3dcf14a5	0.101113595
33	0x3d5ca0ea	0.053864397
34	0x3e825d23	0.25461683
35	0x3d924b10	0.07143223
36	0xbd52ede8	-0.051496416
37	0x3d031980	0.03200674
38	0xbdc08cdb	-0.09401866
39	0x3e1a8326	0.15089092
40	0xbe7fc19a	-0.24976197
41	0x3d4268a7	0.047463086
42	0x3dfef5f4	0.124492556
43	0x3e0feec7	0.1405593
44	0x3db66a40	0.08906984
45	0xbe6bdb68	-0.23032916
46	0xbdb1346d	-0.086525775
47	0xbdaec6c1	-0.08534003
48	0x3e8c0a22	0.2735148
49	0xbe81d366	-0.25356597
50	0xbda2ae56	-0.07943408
51	0x3dfcf571	0.12351502
52	0x3e1050da	0.14093342
53	0xbde30d94	-0.11086574
54	0x3b63e101	0.0034771564
55	0xbdc38b78	-0.09548086
56	0xbe9c93e0	-0.3058157
57	0x3e8d7a8e	0.27632564
58	0xbd1b955e	-0.037984245
59	0x3e3b997e	0.18320271
60	0x3e24b14b	0.16083257
61	0x3d80c0a1	0.06286741
62	0x3d126b66	0.035746954
63	0xbe3c6854	-0.18399173
64	0x3d4a610c	0.049408957
65	0x3e395ca6	0.18101749
66	0xbd8998cf	-0.06718599
67	0x3e4f80d2	0.20263985
68	0xbd606b94	-0.054790094
69	0x3dc89021	0.097931154
70	0x3cac7abf	0.021054624
71	0xbdb5902a	-0.08865388
72	0xbe667a79	-0.22507657
73	0x3dad6a51	0.08467544
74	0xbea0b490	-0.31387758
75	0xbce85c0e	-0.028364208
76	0xbe215f17	-0.1575893
77	0x3e69efb3	0.22845344
78	0x3d3c09b9	0.04590771
79	0xbda9e72b	-0.08296045
80	0x3c9e3ed8	0.019317076
81	0x3e1f6bf4	0.15568525
82	0xbdf478ce	-0.11937104
83	0xbd1fab51	-0.03898174
84	0x3d04a961	0.032388095
85	0x3cb69a72	0.022290442
86	0x3e2ff22e	0.17182228
87	0xbc6ccdd9	-0.014453375
88	0x3e685b0d	0.22690983
89	0xbe5aef45	-0.21380337
90	0xbd615a56	-0.05501779
91	0x3dfeade8	0.12435514
92	0xbe922b2b	-0.2854856
93	0x3e6458ed	0.22299547
94	0x3d811482	0.0630274
95	0x3de41e02	0.11138536
96	0x3e2955db	0.16536658
97	0x3d9277ed	0.0715178
98	0xbe43b929	-0.19113602
99	0x3ebe31b2	0.3714729
100	0xbcbc1fdf	-0.022964416
101	0x3e2414ac	0.1602351
102	0xbeb94047	-0.36181852
103	0x3da37ee7	0.07983189
104	0x3e85a643	0.2610341
105	0xbddb8624	-0.10718945
106	0x3e1aeca7	0.15129338
107	0xbd29d315	-0.04146107
108	0xbdfb9e62	-0.122860685
109	0xbcbf0f96	-0.023322862
110	0x3e234956	0.15945944
111	0x3c49cb90	0.0123165995
112	0x3da6237c	0.08112237
113	0x3d3dc719	0.046332452
114	0x3e01b72f	0.12667535
115	0xbe127e2d	-0.14305945
116	0x3dcb5dc9	0.099299975
117	0xbeb3393a	-0.35004598
118	0xbc85bfc4	-0.016326793
119	0x3d3a45c0	0.045476675
120	0xbe2924f2	-0.16518
121	0xbd484f2d	-0.048903633
122	0x3dffa94c	0.12483463
123	0xbd98eff5	-0.07467643
124	0x3c63634a	0.013878653
125	0x3cf44717	0.029819055
126	0xbe228c40	-0.15873814
127	0x3e516566	0.20448837
128	0xbe035599	-0.12825622
129	0x3bf4aa8a	0.007466619
130	0x3cdd498c	0.027012609
131	0x3e89e660	0.26933575
132	0xbd9b027d	-0.07568834
133	0x3e59c345	0.21265896
134	0x3d8aa438	0.067696035
135	0xbdb35d85	-0.08758072
136	0x3e60b7ce	0.21945116
137	0x3e58779b	0.21139376
138	0x3dc9c41e	0.098518595
139	0x3d979f45	0.07403425
140	0xbd4a6ad1	-0.049418274
141	0xbdfe14c3	-0.12406304
142	0xbd888229	-0.06665451
143	0x3e260722	0.16213658
144	0xbb0bb773	-0.002131906
145	0xbe1058c8	-0.14096367
146	0xbe32351d	-0.17403074
147	0x3c5c60d3	0.013450819
148	0xbe0c1376	-0.13679299
149	0x3e937e8b	0.28807482
150	0xbcadb2f2	-0.021203492
151	0xbe7e85bf	-0.24855708
152	0x3e20e0e0	0.15710783
153	0xbebf894b	-0.37409434
154	0x3daafc6a	0.083489254
155	0x3d9a5192	0.075350896
156	0x3ddb33a0	0.10703206
157	0xbd7ac529	-0.061223183
158	0xbe7afbaa	-0.24510065
159	0xbcd040a3	-0.025421446
160	0xbe806317	-0.250756
161	0x3e1d1eaf	0.15343736
162	0xbe87e4ff	-0.26541898
163	0x3d742240	0.059602976
164	0x3e10ea4b	0.14151876
165	0x3e18211e	0.14856383
166	0x3ae04165	0.0017109333
167	0x3dace93a	0.08442922
168	0x3da9f91d	0.08299468
169	0xbdad98ee	-0.08476435
170	0x3d569b64	0.052394286
171	0xbe4bdc6a	-0.199083
172	0xbd53b452	-0.05168564
173	0x3db4d15c	0.08828995
174	0xbd6e487a	-0.058174588
175	0x3dae051a	0.08497067
176	0xbdcd152c	-0.10013804
177	0xbde26ca0	-0.11055875
178	0x3e74e0ae	0.23913833
179	0x3e7042c6	0.23462972
180	0x3c268d26	0.010165488
181	0x3d7871e2	0.060655482
182	0x3cea0a4e	0.028569367
183	0x3e2aea56	0.16690955
184	0xbe1d638d	-0.15370007
185	0x3e1e9194	0.15485221
186	0xbe275f60	-0.16344976
187	0x3e694fe7	0.22784387
188	0x3e9ba6a9	0.3040059
189	0x3e0d99d7	0.13828216
190	0x3e2debd4	0.16984493
191	0xbcfc9507	-0.03083278
192	0x3e5b8be2	0.2144008
193	0xbdd7c030	-0.10534704
194	0xbd87b9ec	-0.06627259
195	0x3d9bc17a	0.07605262
196	0x3d5de83e	0.05417656
197	0x3e07c944	0.1326037
198	0x3e8e25e5	0.27763286
199	0xbe52bb2c	-0.20579213
200	0xbe7e9180	-0.24860191
201	0xbe3608f2	-0.1777685
202	0x3d0f1ec4	0.03494145
203	0x3d5528ab	0.052040737
204	0xbe0b3bdc	-0.13597053
205	0x3dcc61e8	0.09979612
206	0xbdcb9d6d	-0.09942136
207	0xbe39d471	-0.18147446
208	0xbe0db21d	-0.13837476
209	0xbe9bc8b8	-0.30426574
210	0x3d68b665	0.05681457
211	0x3e872d23	0.26401624
212	0x3e3d6174	0.18494207
213	0x3e4e71e7	0.20160638
214	0x3e172841	0.1476145
215	0x3c47eb8f	0.012202158
216	0xbe654ea7	-0.22393285
217	0xbdbdc93b	-0.09266897
218	0x3d08cc85	0.03339817
219	0x3d4af0cb	0.049546044
220	0x3e845780	0.25848007
221	0x3e386261	0.18006279
222	0xbe317a77	-0.17331873
223	0x3cebc148	0.028778687
224	0xbe2e1879	-0.17001523
225	0xbdb435b4	-0.087993056
226	0xbd95c651	-0.073132165
227	0xbec66699	-0.3875015
228	0xbe4baf13	-0.19891004
229	0xbdbc0708	-0.091810286
230	0xbe859223	-0.26088056
231	0x3e17c171	0.14819886
232	0xbc7bf1d7	-0.015377483
233	0xbcff69aa	-0.031178314
234	0x3e487129	0.19574417
235	0xbdf87c73	-0.12133112
236	0xbddd3739	-0.108015485
237	0x3e41b0dd	0.18915124
238	0xbe53cec1	-0.20684339
239	0xbddc0112	-0.10742392
240	0x3e832f28	0.25621915
241	0x3e6b2e01	0.22966768
242	0xbe831b43	-0.25606737
243	0xbdc2af9e	-0.095061526
244	0xbe06c163	-0.13159709
245	0xbd50badd	-0.050959457
246	0x3c4d5c74	0.01253425
247	0x3d894205	0.06702045
248	0x3ea53307	0.32265493
249	0xbdf91590	-0.12162316
250	0xbce92769	-0.028461175
251	0x3def3f7c	0.116820306
252	0x3d6d7f3e	0.057982676
253	0xbd501072	-0.050796933
254	0xbe2e8e44	-0.17046458
255	0xbd2c8026	-0.0421144

fc2.bias f4 [10]
0	0xbe0f7c4c	-0.14012259
1	0xbdb6e92a	-0.08931191
2	0xbdd9db38	-0.10637516
3	0x3e20e6d9	0.15713061
4	0x3d83255f	0.06403612
5	0xbe04496d	-0.12918635
6	0x3dd1aa74	0.102375895
7	0x3da2e6c1	0.07954169
8	0xbdc02776	-0.093825266
9	0xbe71d6cb	-0.23617093
