Codes/mnist_cnn_mnist_9_False_0.1_1.0_1.0_64_1.pt (torch, 106255 bytes, 8 tensors)

conv1.weight f4 [16, 1, 8, 8]
000000 a7 a7 7a 3d a1 c8 a0 bd 24 fe 19 3d ae f4 59 3e
       0.061195042 -0.07850767 0.037595883 0.21284744
000010 5f 07 c7 3d ac 40 f4 3d 9b cc 0a be bb db ba 3d
       0.09718203 0.11926398 -0.13554613 0.091239415
000020 20 4a d6 3c e6 4c 2b bd 70 3f d4 3d e0 9f 9c 3d
       0.026158392 -0.041821383 0.10363662 0.07647681
000030 6f f9 93 ba 77 02 d6 bd 7c 2f 0d 3d 05 1a 21 bd
       -0.0011289547 -0.10449689 0.034469113 -0.039331455
000040 06 61 ad 3c db fc 81 bc 86 6c a2 3c cc 29 e9 3d
       0.021164428 -0.015867641 0.019827139 0.11384925
000050 f7 b3 f5 3d d1 b4 25 3e d6 cd 83 3e 44 f1 58 3d
       0.11997216 0.16182257 0.25742978 0.052964464
000060 96 15 50 bc e7 dd e1 bc 4e 46 11 3e 8d c7 a2 3d
       -0.012700459 -0.027571632 0.14186975 0.079482175
000070 c3 6e 83 3e 14 3d 18 3e 63 de bf 3d 49 73 cf 3d
       0.25670442 0.1486705 0.09368589 0.10129411
000080 86 e7 0c 3e 20 af 2c 3e 20 b9 c9 3d 56 33 0b bd
       0.13760194 0.1686368 0.09849763 -0.033984505
000090 16 b1 61 bd da c6 a1 3d b0 16 1d 3e 52 1e ab 3c
       -0.055100523 0.07899256 0.15340686 0.020888481
0000a0 2c a4 ee 3d 47 35 f5 bb 60 38 27 3e 2f cf 97 3c
       0.11652407 -0.007483158 0.16330099 0.01853141
0000b0 a0 41 d6 bc 47 1c 86 3d 5c 0d bd bd e8 44 13 3e
       -0.02615434 0.06548362 -0.09231064 0.14381754
0000c0 54 f7 b8 3c 6a 3c 30 be b8 87 25 3d 09 bb 66 3b
       0.022578873 -0.17210546 0.040412635 0.0035206696
0000d0 1d ac 5a 3e d8 79 e0 3d 57 25 6e 3d c4 4f d9 3b
       0.21354719 0.1096074 0.05814108 0.0066318233
0000e0 55 43 ca bd 29 1f 93 bd ea b0 db bd fc 01 09 3e
       -0.09876124 -0.07183678 -0.10727103 0.13379663
0000f0 94 b4 a0 bd 76 bc db 3d 80 67 0d bb 92 bd 3b 3e
       -0.078469425 0.107293054 -0.0021576583 0.18334034
000100 ea 18 77 bd 4a 98 50 be a7 15 08 be be 23 30 bd
       -0.060326494 -0.20370594 -0.1328951 -0.043002836
000110 aa 6a 82 bd 36 9b 27 3e 8e ae 4b 3d 8c e9 00 3d
       -0.06368001 0.16367802 0.049727015 0.031472728
000120 42 86 18 be 1e 0d 0f 3e 6a 8e 6c bd fc 52 c6 bc
       -0.14894965 0.13969848 -0.057753004 -0.024209492
000130 e8 42 29 3e 68 04 02 3d f3 1b 7c 3d 0c 71 43 3e
       0.16529429 0.031742483 0.061550092 0.19086093
000140 8c 4b c6 bd b1 d4 0e be e5 38 26 be d2 62 5e bd
       -0.09682378 -0.13948323 -0.16232641 -0.05429346
000150 02 fb eb 3d 60 f4 1d 3e 87 b1 a9 3d af ca 10 bd
       0.11522485 0.15425253 0.08285814 -0.035349544
000160 d0 17 84 3d 40 b1 4c 3d c2 b8 19 3e 39 6e 15 be
       0.064498544 0.049973726 0.15011886 -0.14592828
000170 6d 7c 82 3b da 4f b6 3d 8d 09 a5 bd 5b 1e 74 bd
       0.003982118 0.08901949 -0.08058462 -0.05959926
000180 0a 45 3c 3d 84 8b 84 bd 81 7a b2 bd 13 d0 e8 3d
       0.04596428 -0.06471923 -0.08714772 0.11367812
000190 59 0e 53 3e 55 71 4f 3e d1 94 e9 39 a5 47 8e bd
       0.20610942 0.20258076 0.000445521 -0.06947259
0001a0 c8 20 f3 bd 21 54 6b bd 24 65 91 bc 99 26 ab bb
       -0.11871487 -0.05745328 -0.017748423 -0.005223107
0001b0 1f 11 66 3e cc 93 27 3d 56 58 f2 3b f3 6c bb bd
       0.22467469 0.040912434 0.0073957844 -0.0915164
0001c0 ea 62 3d 3c 1b 24 d4 bc 6a 24 09 bd f3 d9 4f 3e
       0.0115592275 -0.025896123 -0.033481993 0.20297985
0001d0 12 ae d2 3d c0 eb 1a 3e c2 db a9 bd 77 ae 75 3c
       0.102871075 0.15128994 -0.082938686 0.014995209
0001e0 fb 26 36 be 47 5a 22 3e 7e 29 97 3d f3 9e 0e 3e
       -0.17788307 0.1585475 0.07380961 0.13927822
0001f0 29 a9 fb bc 0e ee 6a 3e 54 6c d9 bc 18 3a e2 bd
       -0.03072031 0.22942373 -0.026540913 -0.11046237
000200 fa 70 e9 3d 79 81 f2 bd 5a 28 2d 3e 15 51 89 bd
       0.11398502 -0.11841101 0.16909924 -0.06704918
000210 26 b9 24 be 32 67 01 be 34 4e 92 bd 41 80 bc 3d
       -0.16086254 -0.12637022 -0.07143822 0.0920415
000220 5b 1b d5 3d df df 23 be c5 b8 65 3c a9 ae 6f bd
       0.10405608 -0.16003369 0.014021103 -0.05851618
000230 dd 54 cd bc 4d 82 9c 3c 70 31 26 be a0 8b 1f 3e
       -0.02506488 0.019105101 -0.16229796 0.15580606
000240 3f 05 f5 3d 38 94 dc 3d 3d 84 29 bc 76 48 58 bd
       0.11963891 0.10770458 -0.0103464695 -0.05280348
000250 dc 4d 90 bc f9 a2 a5 bd 9c 24 c8 3d b7 5f 99 bd
       -0.017615251 -0.08087725 0.09772608 -0.07488959
000260 d7 1e 99 3c 5e e6 b5 3d 4b 3d 88 bc cd 4c ae bd
       0.018691463 0.0888183 -0.01663079 -0.08510742
000270 6f 60 94 bd f8 e1 10 be 24 aa 1b bd e8 0f 80 bd
       -0.07244956 -0.141487 -0.038004056 -0.06253034
000280 0d d6 0b bd 11 d2 4c be 48 ab 24 bd 79 a5 04 3c
       -0.03413968 -0.20002009 -0.04020241 0.008096092
000290 18 73 17 bd de b9 19 3d 58 8c 58 bd 22 89 42 3e
       -0.036974996 0.037530772 -0.052868217 0.18997625
0002a0 76 4f 6a 3d 97 6a fb 3d cf 71 85 bd df ad 09 ba
       0.057204686 0.1227619 -0.06515848 -0.0005252044
0002b0 26 c9 91 bd a9 66 af bd 99 fd b9 3d cd af 68 bd
       -0.07118444 -0.08564503 0.09081573 -0.05680828
0002c0 11 28 0c 3e 9b 1e 7c 3c 70 a6 ee 3d 49 10 8a 3d
       0.13687159 0.015388156 0.11652839 0.067413874
0002d0 a9 ac 0a be 19 79 d4 bd 5a e9 14 be 58 4f e1 bd
       -0.13542427 -0.1037466 -0.14542142 -0.11001462
0002e0 bf 5e b7 3d 4d d4 7a bd 37 19 d0 3d e4 eb d6 bd
       0.08953618 -0.061237622 0.10161059 -0.10494211
0002f0 65 8e fb 3d 28 40 12 3e eb 86 f2 3d a7 aa d9 3c
       0.12283019 0.14282286 0.1184214 0.026570631
000300 75 8e 8c bd 0b a3 86 bd 80 9c 78 3c 99 ee ec 3d
       -0.06863109 -0.06574067 0.015174031 0.115689464
000310 ac ef 0a 3e 0a 0b 1b bd 75 28 e0 bd 28 37 f6 3c
       0.1356799 -0.037852325 -0.109452166 0.030055597
000320 45 ac fb bd ca 22 00 3e f5 79 b3 3d 04 c9 86 3d
       -0.12288717 0.12513271 0.08763496 0.065813094
000330 b8 5f 17 3e e4 6e eb 3c 3f 74 dc 3b 2f 49 24 be
       0.14782608 0.0287394 0.006727725 -0.16043542
000340 3f ab 29 bc c1 ad 81 3d 4c 6a b2 3d 11 05 0b 3d
       -0.01035577 0.06331969 0.08711681 0.03394038
000350 33 bf a7 3c 5b f7 df bc 5f 50 4d 3d 77 00 65 3b
       0.020476913 -0.027339628 0.050125476 0.0034942904
000360 9b 52 e4 3d af 48 2a 3e e1 04 09 3d dc fb 2f 3e
       0.11148568 0.16629289 0.03345192 0.1718592
000370 9d 85 13 bc b2 0f 14 be 99 6b 11 3d f4 5c b0 bd
       -0.009004024 -0.14459112 0.035503004 -0.086114794
000380 db f5 b3 ba 65 8d 63 bd fe 63 65 bc d8 df 00 bd
       -0.0013729887 -0.055554766 -0.014000891 -0.031463474
000390 78 92 dc bd 78 1e 7a 3c 80 fe bc bd ca df 06 3e
       -0.10770124 0.015266053 -0.092282295 0.13171306
0003a0 fd ee 1b 3e ca 85 6f 3d 02 18 9b 3d 9a 29 00 3d
       0.15227886 0.0584772 0.075729385 0.031289674
0003b0 18 b1 73 bd bf 49 a7 bd c0 b5 79 bd f6 01 07 be
       -0.05949506 -0.08168363 -0.060964346 -0.13184342
0003c0 3a 48 a9 3d d6 f6 0f 3e 77 3e c9 bd f7 44 29 bd
       0.08265729 0.14059004 -0.09826367 -0.041325536
0003d0 65 05 e4 3d cd de 2f 3e db c7 14 be 80 a1 37 3e
       0.111338414 0.17174836 -0.14529364 0.17932701
0003e0 ee 10 f0 bd e9 53 b3 3d 00 fa 64 3d fc c0 97 3c
       -0.11721979 0.08756239 0.05590248 0.01852464
0003f0 60 04 aa 3d a3 d4 41 3e 91 7a 6a bd e5 9c 2c bd
       0.08301616 0.1892877 -0.057245795 -0.042141814

conv1.bias f4 [16]
000000 38 0b cd bc 9d d6 51 3d 16 43 39 bc a2 34 c7 bd
       -0.025029764 0.05123006 -0.011307498 -0.09726836
000010 19 09 94 bd 52 4b 86 bd 1d a7 ab 3d b7 ef 9f bd
       -0.07228298 -0.06557335 0.08381484 -0.07809394
000020 ad cd f1 3d 8f 11 d2 bd f5 e3 1a 3d 9c a4 04 3e
       0.11806808 -0.10257255 0.037815053 0.12953418
000030 25 db b7 bd b0 92 f3 bd 72 59 95 3d 5a 1e fb bd
       -0.089773454 -0.11893213 0.07292451 -0.122616485

conv2.weight f4 [32, 16, 4, 4]
000000 f1 41 6b bd 3e 47 9c 3c f7 21 32 bd 90 93 94 3d
       -0.057435934 0.01907694 -0.043489423 0.07254708
000010 b2 51 82 3d e9 d0 af 3d 1a ed 8d bd b7 b5 9c bd
       0.063632384 0.08584768 -0.06929989 -0.07651847
000020 e0 80 f8 bc c2 82 96 bd c3 15 3f bd c6 57 ac 3d
       -0.03033489 -0.07349159 -0.046651613 0.08415179
000030 3c 48 1f bd ca 8e 93 3d 3b b0 10 3d e5 74 2d 3d
       -0.038887247 0.07204969 0.035324316 0.042347807
000040 09 e5 0c bb 67 65 e7 3d 73 3c a0 3d 92 6a 58 3c
       -0.002149882 0.11298638 0.0782403 0.013209002
000050 bf 41 86 bc 94 e9 13 bd 5b b6 ad bb 7a 40 b4 3d
       -0.016388772 -0.03611143 -0.0053012795 0.088013604
000060 f7 2e ea 3a 1f 0a 74 bb f7 cb 5b 3c 77 c3 5f 3c
       0.001786678 -0.0037237478 0.013415328 0.013657442
000070 7c 5a b1 3d 23 80 f9 ba 0c 3f 8a 3d 1e a4 4f bd
       0.08659837 -0.001903538 0.067503065 -0.050693624
000080 0b 5f 98 3c f4 5f 5d bd ab 43 1e 3d 88 6e 02 3c
       0.018600008 -0.054046586 0.038638752 0.007960923
000090 57 73 9f 3b 1c ca 83 bd 42 0c 8a bd 7c 2e cf 3c
       0.0048660445 -0.06435034 -0.06740619 0.02529072
0000a0 2a 18 5c 3b ed e3 54 bd 07 3a 51 bc aa 65 b2 3d
       0.003358374 -0.05197518 -0.012770182 0.08710797
0000b0 c7 37 2d 3d 63 19 41 3b 4c 00 c3 bb 71 3e 5b bd
       0.04228952 0.0029464595 -0.005950963 -0.053526346
0000c0 e8 6c 8b bc 71 d9 29 bc 43 a2 35 3d d3 f4 b0 3c
       -0.017019704 -0.0103667835 0.044344198 0.021601116
0000d0 db 0c c0 3c 7e e7 9d 3d 32 69 87 bc 12 73 51 bd
       0.02344363 0.07710169 -0.016529653 -0.05113513
0000e0 3d 4c c2 3d 33 a5 f5 3d c7 d4 34 bd 25 79 97 3c
       0.094871975 0.119944 -0.044148233 0.018490383
0000f0 0a 9a 99 bc 51 a7 0a bd 94 aa 10 3d 37 47 43 bd
       -0.01875021 -0.03385097 0.035318926 -0.047675338
000100 7b fb 2e bd 77 16 05 bd 72 8a aa bd 1f 10 8e 3d
       -0.0427203 -0.032492127 -0.083271876 0.069366686
000110 8d 4a 4e ba 92 9e c0 bd e8 a6 bb bd e5 b5 86 bd
       -0.00078693853 -0.09405245 -0.09162694 -0.065776624
000120 bd 6b 0d bc dd 46 8d 3d c6 17 0d 3e 30 2c e4 bb
       -0.008631644 0.06898282 0.137786 -0.0069632754
000130 0a 33 8c 3c a4 0c 8a 3b 44 4e 0a 3e ba e7 a1 bd
       0.017114181 0.0042129327 0.13506418 -0.079055265
000140 d2 5e a6 3c 10 03 ca bc ba 82 e5 3d ea e0 4f bb
       0.020308886 -0.024659663 0.11206575 -0.0031719753
000150 b0 47 a2 bd 21 eb c5 3b 2a d9 ff 3d d4 e3 f3 3a
       -0.079238296 0.0060399924 0.12492593 0.0018607327
000160 24 e3 37 bd b0 63 e4 bb 59 71 44 3b f4 f7 59 3d
       -0.044894353 -0.0069698915 0.0029974787 0.053214982
000170 4c 8c 15 3e 6f c7 22 3d 4f af 9b bd 0f 1c de 3d
       0.146043 0.039740976 -0.07601797 0.108451955
000180 6a bf 90 3c c4 9a b7 bd 3a ee a2 3d a5 5f 28 3d
       0.017669398 -0.08965066 0.07955594 0.04110684
000190 3b 36 61 bd 42 5d 06 3d cf 6e a0 3c 26 52 dc bb
       -0.05498336 0.03280378 0.019584088 -0.00672366
0001a0 15 b1 ec 3b 52 43 8f bd 9d 81 84 bd b5 0f 9e bd
       0.0072232583 -0.06995262 -0.06470034 -0.0771784
0001b0 24 9b de bd 1a 2d 55 bd d5 3f 28 3a 60 96 b4 bd
       -0.108694345 -0.052044965 0.0006418203 -0.08817744
0001c0 29 9c b8 3d dd 99 8e bd 64 00 aa bc a1 44 a4 bc
       0.0901416 -0.06962941 -0.02075214 -0.020052256
0001d0 61 4c 18 bd 33 44 cb bc d0 7e ee 3a ed 8e cd 3d
       -0.037182216 -0.024812793 0.0018195752 0.100370266
0001e0 8f bb 6d 3d c1 5d af 3d 5c fc 65 bd 2d 62 aa 3d
       0.058040198 0.08562804 -0.05614887 0.08319507
0001f0 5c 1b 9c bd 6b 03 07 bd 97 1a 0b 3d 6e eb 61 3d
       -0.07622406 -0.032962244 0.033960905 0.055156164
000200 8b 83 71 bd 04 b9 ce 3d f3 4e 01 3c 3f fd a4 bc
       -0.05896334 0.10093883 0.007892358 -0.020140288
000210 90 13 67 3b e9 69 89 bd b5 a6 1c 3d 77 b5 ac 3d
       0.0035259463 -0.06709654 0.03824492 0.08433049
000220 93 df 58 3c ed 3a 0c bd 3f 4e 89 3d c0 fe 2d be
       0.013236898 -0.034235884 0.067043774 -0.1699171
000230 b8 ae b2 3d d3 60 1a bd 28 db 94 3d dd 2f 0c 3b
       0.08724731 -0.037689995 0.07268363 0.0021390833
000240 27 ca 81 ba c1 05 79 3c 65 de 40 3d 85 44 cf 3c
       -0.0009902165 0.015199126 0.047087092 0.025301227
000250 82 66 0a bd 58 64 2b 3d 0f a3 b3 3d 54 62 9f bd
       -0.033789165 0.041843742 0.08771335 -0.077824265
000260 39 79 83 bd 97 ea 7b 3c 6a 6f 8b bd 07 84 86 bd
       -0.06419606 0.015375755 -0.0680836 -0.06568151
000270 1f 83 a9 ba 22 2b 91 bc 57 c4 f7 3c fe 4c 60 bd
       -0.0012932754 -0.017720763 0.03024499 -0.054760925
000280 27 ae 82 3d 07 9b 6a 3d 46 4e 08 3c 5c 57 85 3d
       0.06380873 0.05727675 0.008319443 0.06510803
000290 b1 14 f4 bc 2f a3 b6 3d ef ff 73 bd 57 46 ba bd
       -0.029795023 0.089178436 -0.05957025 -0.090954475
0002a0 93 21 9c 3c c8 d4 7b bd 70 67 76 bd b6 95 57 bc
       0.019058978 -0.06148222 -0.06015724 -0.013158252
0002b0 2c ea e9 bd 8a 7d 56 bd b0 b8 04 bd 2e 18 82 bd
       -0.11421618 -0.052365817 -0.032402694 -0.06352268
0002c0 8e 6b 0b bd 0b 9f e7 bd b1 19 8f 3b f9 df 4d bd
       -0.03403812 -0.11309632 0.0043670763 -0.050262425
0002d0 4d 6b 85 3c 73 ba 8f 3b c8 54 18 bc f5 c1 8e 3d
       0.016286517 0.00438624 -0.009297557 0.06970588
0002e0 ba 56 55 3d b6 5b 2e bd 12 7a a6 3c 91 9b 64 bc
       0.052084662 -0.04256793 0.02032188 -0.013953106
0002f0 aa f1 08 bb 30 88 33 3c c8 0d d0 bd 2e 02 8b 3d
       -0.0020895996 0.010957763 -0.101588786 0.06787525
000300 f4 e4 c1 bc a3 a7 38 3d bd 5f 8f 3d 92 b2 e7 bb
       -0.023668744 0.045081746 0.070006825 -0.007070848
000310 64 7d 40 bd 46 7d fb 3c 68 1f 08 3e fd 9f d5 bc
       -0.04699458 0.030699383 0.1329323 -0.026077265
000320 14 65 c2 bc 74 f3 85 bb 96 21 ac 3d 33 c5 a2 3b
       -0.023729838 -0.0040878598 0.084048435 0.0049673556
000330 0d fe 1d bd b1 46 37 bd 20 87 f8 bc 66 8c fb bd
       -0.03857236 -0.04474515 -0.03033787 -0.12282638
000340 ca 44 a6 bd 50 c5 3b bd 41 97 ee 3d 23 cf 9b bc
       -0.08118589 -0.04584247 0.11649943 -0.019019669
000350 ce 8e 7b bd a3 cb d7 3b 18 73 2b 3c 6b d2 04 bb
       -0.061415486 0.0065855547 0.010464452 -0.002026702
000360 af 21 de 3d e1 7c 68 3d 69 46 b3 bd a0 68 a8 bc
       0.108462684 0.05675972 -0.08753664 -0.020557702
000370 4b ff 5b bd ea 51 8f bc 19 52 e9 3c 62 c1 d7 bc
       -0.053710263 -0.017495114 0.02848153 -0.02633733
000380 0a fe 16 3b 23 64 b0 3d e7 38 05 3d 2c 59 06 3d
       0.0023039603 0.086128496 0.03252497 0.032799885
000390 18 c8 bd bc 4f 7b 82 bb 45 06 97 bd e8 e3 1d 3c
       -0.023166701 -0.0039819847 -0.07374243 0.009636857
0003a0 3c 3e 12 3d 78 46 86 3c 6b 25 24 3d 2e d4 8a 3d
       0.035703883 0.016391024 0.040074747 0.06778751
0003b0 bd a8 c9 3d 78 eb fb 3d 09 0e 2c 3d bd 7c 1b bd
       0.098466374 0.123007715 0.042005572 -0.037960757
0003c0 a2 a7 af 3d c8 f0 4b 3c a1 0e 86 bd c9 85 74 bd
       0.08576895 0.012447543 -0.06545759 -0.0596979
0003d0 33 4f f2 3c db 6e 90 bc 29 a3 0b 3c f4 8c 91 bc
       0.02957878 -0.017630985 0.008522787 -0.017767407
0003e0 0a b2 f8 bb c4 75 00 bc 74 05 55 bb 59 c9 61 bd
       -0.0075895833 -0.0078405775 -0.003250447 -0.05512366
0003f0 ac 57 33 3d 13 1b f1 bc 97 5d 8c 3b 91 a2 95 bc
       0.043784782 -0.029431855 0.0042836177 -0.018265994

conv2.bias f4 [32]
000000 8d 30 e7 bb 1e 63 63 bd d2 d4 8a bd fc 8f 43 bb
       -0.0070553483 -0.055514447 -0.067788735 -0.002984046
000010 c6 cb f3 bc b1 0f fb 3d 6b 5d 50 bc 6e 57 37 3d
       -0.029760253 0.12258852 -0.012717585 0.044761114
000020 1a b1 38 3d c0 94 c5 bb 27 88 2f bd f6 f4 9b bd
       0.045090772 -0.0060296953 -0.042854454 -0.07615082
000030 6b f8 51 bb 4e 54 a9 3d 0f 6f 82 3d 84 d1 d5 ba
       -0.0032038938 0.08268033 0.06368839 -0.0016313051
000040 6c 75 52 3d 8a 4f 90 ba dd 40 a0 3d 2a 91 1c 3b
       0.051381513 -0.0011010033 0.07824872 0.0023890235
000050 fa 3d fd 3b 6b ca 1e bd 97 b1 e3 bd 07 3d c2 bd
       0.0077283354 -0.03876726 -0.11117857 -0.09484296
000060 da b4 38 bd 0c 14 84 3b 59 92 bc 3d d3 a6 a8 bb
       -0.04509435 0.00403071 0.09207601 -0.00514684
000070 90 bb 08 3c 17 7d 5a 3d de 67 cf bb 83 3d 07 3e
       0.0083455 0.05334195 -0.0063295206 0.13207059

fc1.weight f4 [32, 512]
000000 6d 68 5d bd 49 9e 03 3c 14 dc 8c 3d e0 bc 09 bd
       -0.054054666 0.008033344 0.06877914 -0.03362739
000010 ff 10 c7 bd 69 5e f6 3c 68 8a ad bd 4f 9b fe bb
       -0.097200386 0.030074315 -0.084736645 -0.007769979
000020 64 fa 52 bd b7 54 7e bd da f5 d4 3d 08 cc 0a 3e
       -0.051508322 -0.06209251 0.10398455 0.13554394
000030 55 0b 2e 3d 2d 9a 63 bc a9 4d 91 3c 55 a9 31 bd
       0.042491276 -0.013891739 0.017737227 -0.04337438
000040 39 94 55 3c 30 18 50 bc af 98 7d 3c 58 92 ef 3d
       0.013035827 -0.012701079 0.015478297 0.11697835
000050 ec 9c 1b 3e 1b c6 c2 bd f5 05 7d bb f6 cb 8e bd
       0.1519658 -0.09510442 -0.0038608287 -0.06972496
000060 22 cd eb 3c aa 2a e4 3c 88 94 81 bd e9 6e 34 bd
       0.028784338 0.027852375 -0.06327158 -0.044051085
000070 49 c8 64 3d 98 43 a3 bc 35 53 84 3c 34 58 2a 3d
       0.05585507 -0.019929692 0.016152957 0.041588023
000080 0b b0 bb bd 9f bf ad bd 6a 3f b0 bb 94 d2 9b bd
       -0.09164437 -0.084838144 -0.0053786533 -0.07608524
000090 48 99 87 3d db 9d b2 bc 16 ff 1a be cf 05 9c bd
       0.06621033 -0.021803787 -0.1513637 -0.076182954
0000a0 c6 3b 80 bc 5c f9 d8 3c 63 bd df bc 3d d9 3f bd
       -0.015653502 0.026486091 -0.027311986 -0.046838034
0000b0 a0 85 bb 3c 36 12 59 3d 56 8d b3 bd c3 d2 90 3d
       0.022890866 0.052995883 -0.08767192 0.070714496
0000c0 13 c9 50 3c 08 5d 66 3d e7 5c 9c 3c e5 03 fe 3c
       0.012743252 0.056241065 0.019087268 0.031007716
0000d0 a5 23 c9 bd ac 21 f6 bc 07 75 b8 bd 48 1d 90 bd
       -0.09821252 -0.030045353 -0.09006696 -0.07036835
0000e0 64 72 f0 bc 57 4b 6d 3c 40 26 1f 3d 64 b4 77 bc
       -0.02935142 0.014483294 0.038854837 -0.015118692
0000f0 7b 62 c1 bd 31 f0 46 3d b0 41 a6 3d 78 5d 58 bd
       -0.09442612 0.048568908 0.08117998 -0.052823514
000100 b1 89 55 bb 82 41 0d bd 41 9d 57 bd 72 09 2a 3d
       -0.0032583291 -0.0344863 -0.052640203 0.041512914
000110 be b9 c9 bc 14 50 1f 3e ec 5a 39 bd 0a 9c b8 bd
       -0.024624702 0.15557891 -0.045252725 -0.09014137
000120 fe 43 d2 bd 6c e8 a0 bd 95 89 31 3d e7 f4 06 3d
       -0.10266875 -0.07856831 0.0433441 0.0329484
000130 d7 0d 8f bd a6 93 d7 bb ea a3 85 bc d3 77 2e 3c
       -0.069850616 -0.0065788804 -0.016313512 0.0106486855
000140 fa fe 3c bc 03 e2 50 bc 2e 0a 88 bc 29 7b 61 3d
       -0.0115354005 -0.012749198 -0.016606417 0.055049095
000150 3d 76 67 3d 73 db 85 3d 7e 23 2a bd 42 46 26 3d
       0.056509245 0.06535997 -0.041537754 0.040594347
000160 e5 0e 4c 3d ff d0 88 3d 56 3c de 3d 9a f7 f2 bc
       0.049818892 0.06680488 0.10851352 -0.029659081
000170 d3 05 b0 3d 8d b5 5f bd 4b 4b a5 3c 24 35 1a 3d
       0.08594861 -0.0546165 0.020177504 0.037648335
000180 e0 2e de bd ce 7e 2b bd 31 ac 93 bd 97 f3 43 bb
       -0.108487844 -0.041868977 -0.07210577 -0.002989983
000190 84 5d 21 3e ee b1 ad 3d 5d da 52 bd 4c c4 41 3d
       0.1575833 0.08481203 -0.05147778 0.047306344
0001a0 79 d3 66 3d 71 c6 b8 3d 06 58 ba 3c a9 95 c9 bd
       0.05635402 0.09022225 0.022747051 -0.098429985
0001b0 26 45 14 bd b3 3a bd 3c 61 d2 b7 bc 2f ad e2 3d
       -0.036198758 0.023099279 -0.022439184 0.110681884
0001c0 5e cf 59 3d 79 62 05 bc 02 83 c9 3d b5 92 5d bd
       0.053176276 -0.0081411535 0.09839441 -0.05409499
0001d0 e6 9a 09 3d 01 29 ad 3d 1a 2b 17 bd 3b 16 bf 3d
       0.03359499 0.084550865 -0.03690634 0.09330412
0001e0 00 24 73 3d 76 d3 ba bd 44 21 2c bb 9a 56 21 3d
       0.059360504 -0.09122364 -0.0026264945 0.03938923
0001f0 5e c0 f5 3b be 95 e4 bd 10 86 cc 3c dc 2f e9 3b
       0.0074997386 -0.111613736 0.02496627 0.007116301
000200 81 2a 0e 3d dc 3c d2 3b 08 46 44 bc c8 0c 3d bd
       0.034708504 0.0064159464 -0.011979587 -0.046154767
000210 b2 5d 62 3d f5 64 73 bc bd 97 c4 3d aa 40 92 3d
       0.055265136 -0.014855613 0.09599254 0.0714124
000220 28 31 a7 ba 20 ef ac 3d c1 2b cc bc 7c b5 6e bc
       -0.0012755739 0.08444047 -0.024923207 -0.014569636
000230 0b 62 ae 3c 87 fe a6 3b 8a 6a 5f bd 92 19 8b 3d
       0.021286985 0.00509626 -0.054544963 0.067919865
000240 9f bb bc bc 2e 0c aa bd b1 fd 5f 3d ec fd 97 bc
       -0.023038683 -0.08303104 0.0546853 -0.018553697
000250 3c 0a 8e bc 90 14 ca bb 90 66 57 3d 47 13 e0 3d
       -0.017338865 -0.006167002 0.052588046 0.10941177
000260 1d aa 3d bd 38 fc 25 bd 78 66 95 3d 4c 19 61 bd
       -0.04630481 -0.040523738 0.07294935 -0.054955766
000270 78 fc 17 bd 25 97 9c bd d6 b9 c2 3d a2 2f a9 3d
       -0.037106007 -0.07646016 0.09508102 0.08261038
000280 db ce 32 bd 5f 3e 9c bd 6b 29 90 3c 69 cb 87 bd
       -0.043654304 -0.07629084 0.017597875 -0.06630594
000290 50 e8 80 3d e8 95 b8 3d c1 0d 37 3d 67 f6 e2 3c
       0.0629431 0.09012967 0.04469085 0.027705384
0002a0 59 ef c5 3d 59 40 57 bd 3d 35 93 3d b7 29 4a 3a
       0.096647926 -0.0525516 0.07187889 0.00077119045
0002b0 eb 19 d1 3c 36 cd ef bd 4a b9 08 3d 27 e6 49 bd
       0.025525054 -0.11709063 0.03337983 -0.049291756
0002c0 ac d7 7b bd 59 8c 1b 3d 07 7b 8a 3d 68 4b 6a bc
       -0.061484978 0.037975643 0.06761747 -0.014300205
0002d0 3b 3b 54 bc 7a 68 f8 3a ab d6 e6 3c 92 e3 0d 3d
       -0.012953575 0.0018952035 0.028178534 0.034640856
0002e0 10 f7 1b 3d ab b7 2b bc 8b 0e 07 bd 58 c4 aa 3c
       0.038077414 -0.010480802 -0.032972854 0.020845577
0002f0 4b 89 ee 3b d3 a8 c7 3c f1 06 9e 3c d0 bd f9 bd
       0.00727955 0.024372494 0.01929042 -0.12194407
000300 35 21 ae bd 12 44 71 3d b1 67 62 3c 3e b0 a9 3c
       -0.085024275 0.058902808 0.013818667 0.020713922
000310 16 0b c4 3b 48 6a 81 3d a6 6e c6 3d de 02 5e 3d
       0.005982767 0.063191 0.09689073 0.054201953
000320 07 83 66 bc 9a 80 0f bc c0 0e 92 3d 96 a6 b0 bd
       -0.014069325 -0.008758688 0.071317196 -0.08625524
000330 28 fb bf 3d df a5 0c 3d 94 0e 33 3d f7 d7 1f bc
       0.09374076 0.034337875 0.043715075 -0.00975608
000340 a0 5b f4 3d 70 c2 81 bd ca 9f 79 3b 06 a5 b8 3d
       0.119315386 -0.06335914 0.0038089626 0.09015851
000350 dc e6 ae bc 9a 73 3e bd 0a 15 c9 bd b7 28 a7 3d
       -0.021350317 -0.046496965 -0.09818466 0.081620626
000360 d9 e0 9d bd 79 b7 0e 3e c4 d3 97 3d 3e bb d5 bb
       -0.07708902 0.13937177 0.07413438 -0.006522565
000370 6f 8a 7c 3d b7 fc 7d bd 00 14 a5 bd 84 66 58 bd
       0.061655458 -0.062008586 -0.08060455 -0.05283214
000380 6c 93 a6 3c 7b 0e 24 bd 2c 62 25 bd 18 28 29 3d
       0.020333968 -0.040052872 -0.040376827 0.041298002
000390 18 7e c1 3d 98 25 a0 bd 6e f4 54 bb 7a 8d 8b bd
       0.094478786 -0.078196704 -0.0032494324 -0.06814094
0003a0 d1 6e 30 bd 28 96 49 3d bc e0 15 bc 91 55 5c 3c
       -0.043074433 0.049215466 -0.009147819 0.013448135
0003b0 f6 fe 1f bd 5c 28 df bd 5e 95 77 3c ce d6 81 bc
       -0.03906151 -0.1089637 0.0151112955 -0.015849497
0003c0 ba 56 5f 3c 3c 73 d8 bd 52 a9 3c 3d 56 ab 01 bd
       0.013631517 -0.10568854 0.046059914 -0.03165754
0003d0 f5 03 3a bb 23 e2 32 3d a8 04 dc 3c ba 43 3a bb
       -0.0028383706 0.043672692 0.026857689 -0.0028421716
0003e0 6a e6 98 bd ba 7f c1 bc ca 2c 09 3d 50 79 ea bc
       -0.07465823 -0.023620475 0.03348998 -0.0286223
0003f0 3f 7f 4d 3d 18 e5 8a bd 7e 04 c1 bd 66 57 5b bc
       0.05017018 -0.067819774 -0.09424685 -0.013387537

fc1.bias f4 [32]
000000 16 37 06 be 63 1a 01 3d e7 82 95 3b bf 37 72 bc
       -0.13106951 0.031519305 0.004562724 -0.014783799
000010 7c 16 e6 3c 4b ff df bc 3b 59 c8 3d 08 b4 da bd
       0.028086893 -0.027343413 0.09782644 -0.106788695
000020 40 52 fe 3d e8 50 cf bb 97 ee d2 b9 77 0c bf 3c
       0.12418032 -0.0063267834 -0.00040232085 0.023321373
000030 3c af 92 bd 44 ff b5 3d 71 ed f4 3c 9f f0 64 3d
       -0.071623296 0.08886579 0.029898377 0.055893537
000040 a6 d0 1b 3e df 9f 8a bd 74 e2 b2 bd 60 37 0c 3d
       0.15216312 -0.06768774 -0.08734599 0.034232497
000050 4f 3a 88 3d 5e 0f 4b 3c 98 35 a6 3d 29 f9 2a 3c
       0.066517465 0.012393801 0.08115691 0.010435381
000060 bb 25 44 3d db 58 00 bd ef 17 2a be 4c 74 81 3d
       0.047887545 -0.03133474 -0.16610692 0.0632101
000070 46 e3 af 3b 5a 48 a9 bc 67 df 85 bd 30 01 db bb
       0.0053676693 -0.020664383 -0.06536751 -0.006683491

fc2.weight f4 [10, 32]
000000 b7 93 4b 3c 56 9d d8 3d 6f 6a 46 3e bc 40 43 3d
       0.012425355 0.105768844 0.19376539 0.047669157
000010 c6 84 cd 3d a8 c4 e3 bd 80 48 c2 bd 69 ab c8 bd
       0.1003509 -0.111214936 -0.094864845 -0.09798319
000020 12 e5 60 3e 46 6b 10 bd c1 79 53 3d 58 ba 7f bd
       0.21962383 -0.035258554 0.051629785 -0.06243357
000030 c0 50 79 be 98 04 4e 3e 28 fe b0 3d 71 09 1c 3e
       -0.2434721 0.2011894 0.086422265 0.15237977
000040 81 92 f4 3c 33 6e ae 3d 79 28 30 3d fc 51 90 3d
       0.029855015 0.085171126 0.043007348 0.07046887
000050 e5 a6 94 3d 16 e6 81 be 34 37 cd 3c e5 60 b4 3d
       0.07258395 -0.25370854 0.025050737 0.08807544
000060 30 f2 25 be a4 7e 5c 3d f0 37 2b be e4 75 a7 be
       -0.16205668 0.05383171 -0.16720557 -0.3270713
000070 e3 8d 6d be 23 fd 07 bd d5 aa b9 3d 72 28 b4 be
       -0.23198657 -0.033200394 0.09065787 -0.35187107
000080 5b 8a c0 bc 32 48 21 bd 7e 7c 21 3e 3a ab 1a 3d
       -0.023503473 -0.03937549 0.15770146 0.03776095
000090 b8 3c 91 3b 51 05 c7 3d c6 e2 2c 3e 10 b1 78 bd
       0.004432287 0.09717811 0.16883382 -0.060715735
0000a0 f5 ad 7f be 71 43 1a 3e ed db c2 3c a2 cc 1c 3e
       -0.24968703 0.1506479 0.02378651 0.15312436
0000b0 12 ff eb 3d 48 15 d7 3d d2 de 1a 3e b0 64 42 be
       0.1152326 0.10502106 0.15124062 -0.18983722
0000c0 7e 0c de bc 65 77 8c 3d 67 bf 5e be 40 01 1f be
       -0.027105566 0.0685871 -0.21752702 -0.1552782
0000d0 85 dc 7a 3e c4 ce 18 3e 93 ce 59 be 0c 16 65 be
       0.24498184 0.14922625 -0.21270208 -0.22371691
0000e0 e0 49 5c be 71 b4 d6 bd 12 1a ae bb df 3d 98 3d
       -0.21512556 -0.10483635 -0.0053131664 0.07433676
0000f0 8e a4 31 be d9 5a 64 3b bc b7 25 be eb fa 50 be
       -0.17347929 0.0034844188 -0.1618337 -0.20408218
000100 af 57 35 3d 91 cc 3e be 6b 05 86 3d 1b 5f f6 3d
       0.044273075 -0.18632723 0.06544002 0.12029859
000110 ca 54 38 be fd 36 a4 bd e1 7d 04 be dc e7 08 3d
       -0.18001094 -0.08018301 -0.12938644 0.033424243
000120 e8 c9 61 3d 70 ec 56 3e ff 2d 77 be 87 68 72 3d
       0.055124193 0.20988631 -0.2413864 0.059181716
000130 ac 9a 17 3e f2 89 65 3e b7 83 ba bd ef e3 c1 bd
       0.14805096 0.22415903 -0.09107154 -0.09467303
000140 33 d5 34 be 61 f1 45 3e ad 6a a3 be 47 5a 59 bd
       -0.17659454 0.1933036 -0.31917325 -0.05306461
000150 cb ca 84 bb 3b b9 7b 3c fd 0f 2e 3e fc 5e bf 3e
       -0.004052495 0.015363987 0.16998287 0.37377155
000160 77 95 c6 bd 0b af 31 be 5e da 2b 3e 74 01 30 bd
       -0.09696477 -0.1735193 0.16782519 -0.042970136
000170 03 bf 89 3d dc ec ea 3d e1 37 e9 3d 45 dd 2b 3d
       0.06725886 0.114709586 0.11387611 0.041959066
000180 7d 06 3f 3e 2c 78 d9 bd de 4a 22 be 08 99 42 be
       0.18654819 -0.10618624 -0.15848872 -0.1900369
000190 7e b0 20 3e 87 0d 75 3e ce b4 1e bd 3e b3 a7 3e
       0.15692326 0.23930942 -0.038746648 0.32753938
0001a0 a5 82 ae bd 33 b4 48 bc af 39 e9 bd 69 bd d6 3d
       -0.08521012 -0.012249994 -0.113879554 0.10485346
0001b0 82 38 97 bc ca c4 0f be 73 28 21 3d 61 63 9e bd
       -0.018459562 -0.14039913 0.039345216 -0.07733799
0001c0 2a 01 a0 3d 85 c0 70 be cc 89 47 be c1 26 39 3e
       0.07812722 -0.2351094 -0.19486159 0.1808119
0001d0 46 ab 1c be 1a 28 29 be c9 d7 0f 3c ca 99 44 3e
       -0.1529971 -0.16519204 0.0087794745 0.19199291
0001e0 20 b5 38 3e 7b 8d 89 3e 4a e0 b1 bd 34 62 1b be
       0.18037844 0.26865754 -0.08685358 -0.1517418
0001f0 26 5f 0f 3d 6f f1 99 bd 41 35 a0 bc 25 c1 15 bd
       0.03500285 -0.07516753 -0.019556643 -0.03656115
000200 2d 98 09 3e 08 40 07 bd 92 08 77 bd 87 4e 35 be
       0.13436957 -0.03302005 -0.060310908 -0.17705737
000210 ff 94 8a 3d 6a d0 8e be 4c bf 42 be fd a7 d7 3d
       0.067667 -0.27893382 -0.19018286 0.10530088
000220 97 d1 9f bd 41 dc 3c 3e 11 ca 39 3e 77 cf 99 bd
       -0.07803648 0.18443395 0.18143488 -0.07510274
000230 5b 18 78 be 8a 53 01 3e 1c ca 08 bb 52 5d 90 bd
       -0.24228041 0.12629524 -0.002087242 -0.070490494
000240 2a 18 fe 3c 26 33 bc 3d 3e ed 99 3e 52 1b 5a be
       0.031017382 0.09189443 0.30063814 -0.21299484
000250 bf ba 9d 3d 6a 3d 3a 3d e8 6b 03 3d ab 33 fc 3c
       0.077016346 0.045468725 0.03208533 0.030786356
000260 6c 25 80 be 11 f7 2f be c7 5c 7e bc 98 bc 7f 3e
       -0.2502855 -0.17184092 -0.0155250495 0.24974287
000270 01 2b 54 3e 2e 57 5c 3e 8f 55 f5 bd 7f 98 27 3d
       0.2071953 0.21517631 -0.1197921 0.040916916
000280 e2 88 02 be 19 84 1c 3e 49 54 6e 3e d0 96 12 be
       -0.12747529 0.15284766 0.2327434 -0.14315343
000290 1e 05 32 3e 9b de 24 bd 66 5e 3f bd 04 56 e8 3c
       0.17384765 -0.040251356 -0.046720885 0.028361328
0002a0 0f aa cb 3d 8f 9b 05 3e 26 23 92 3e ee 92 a9 3d
       0.099445455 0.13047622 0.2854244 0.08279978
0002b0 28 64 c1 3d 99 f7 94 be ec b5 01 be ba 3f c3 bd
       0.094429314 -0.29095152 -0.12667054 -0.09533639
0002c0 dd 14 80 3d 99 b2 8f 3d c2 e6 65 3e 6b 8a 00 3e
       0.06253979 0.07016487 0.22451308 0.12552802
0002d0 1d 85 6f be fe b7 cc 3b 5d 51 2b 3e bf bc 5b bd
       -0.23390622 0.0062475195 0.16730256 -0.0536468
0002e0 c3 93 52 3e 0a 7f fa bd 1b 94 17 3e a7 3e fb bd
       0.20564179 -0.12231262 0.14802592 -0.12267809
0002f0 ac d0 d9 3d ef cf 0b be 65 67 12 3e 12 5e 56 be
       0.10635504 -0.13653539 0.14297254 -0.20934322
000300 f1 f4 d4 bd 57 f8 d0 bd 7f 8b 23 be f7 24 1a be
       -0.10398281 -0.10203617 -0.15971182 -0.15053163
000310 9d 0c cb 3c 4a 40 fc bd 75 73 a3 be 5b 71 8c bd
       0.024786288 -0.1231695 -0.31924024 -0.06857558
000320 15 7a 84 bd 77 cf c4 bd 9a bb aa 3d eb 12 64 bd
       -0.06468598 -0.09609883 0.083365634 -0.055682104
000330 c7 12 df 3d 56 2c 99 bb 11 68 2c bd 93 ee 5a 3e
       0.10892253 -0.0046744747 -0.042091433 0.21380071
000340 e2 d0 fe 3d c1 aa 3e bd 31 ff 52 3e 6d fc a9 bd
       0.12442185 -0.046549562 0.2060516 -0.083000995
000350 8a f7 8e be 69 26 67 3e a5 21 45 be ef f2 c9 3d
       -0.27923232 0.22573246 -0.19251116 0.09860789
000360 04 43 25 3e bb 79 60 bd ec c3 0c be 73 62 55 3d
       0.16138846 -0.05480359 -0.13746613 0.05209584
000370 ab e8 2d 3c a3 1d 9d 3d 1b a5 48 3e 40 40 28 be
       0.010614554 0.076716684 0.19594233 -0.1643076
000380 49 ac 9e 3c d4 eb 58 bd 1c 4e a8 bd 9e f8 9f 3c
       0.019369261 -0.05295928 -0.08218023 0.01952773
000390 3f 84 11 be 8b 39 8a 3d 46 22 8c 3e 8d b5 9d bc
       -0.14210604 0.06749257 0.273699 -0.01925161
0003a0 fa 83 6b 3b 3d a4 96 3d 43 41 6a 3e 6e 57 ff bd
       0.0035936818 0.07355545 0.22876458 -0.12467848
0003b0 0b 29 86 be ce 41 73 be f1 fc bd 3d 9b 69 52 be
       -0.26203188 -0.23755571 0.0927676 -0.20548098
0003c0 c2 34 18 3e 4c 31 29 bd bb 41 0b be 79 88 f6 bc
       0.14863876 -0.04130678 -0.13599293 -0.030094372
0003d0 4b af 82 3e 54 a2 65 be 05 ce 71 3e eb 79 a0 3d
       0.25524363 -0.22425205 0.23613746 0.07835754
0003e0 d8 ab 27 be e1 fc bc bd 22 6d 54 bc 0c 75 b5 3c
       -0.16374147 -0.0922792 -0.012965472 0.022150539
0003f0 81 58 4d 3b 5c 2f 31 3e 57 6c 56 bd 1b 85 58 be
       0.003133327 0.17303222 -0.052349415 -0.21144526

fc2.bias f4 [10]
000000 4c 2b bf 3d fd ee d6 bc 33 2c 41 be c2 63 86 bd
       0.0933443 -0.026237005 -0.18864517 -0.06561996
000010 e0 ea 3e be 22 62 30 3e 53 49 74 3a 92 3c e5 bd
       -0.18644285 0.17224935 0.00093187875 -0.111931935
000020 a1 e1 10 be 2b 7b 12 3e
       -0.1414857 0.14304797
