Codes/mnist_cnn_mnist_13_True_16974_0.1_1.0_1.0_64_1.pt (torch, 106255 bytes, 8 tensors)

conv1.weight f4 [16, 1, 8, 8]
0	0xbd5f29a7	-0.054483082
1	0xbdf79689	-0.12089259
2	0x3dbc8705	0.092054404
3	0xbdefa7ea	-0.11701949
4	0xbe27f54a	-0.16402164
5	0xbd0bb917	-0.034112062
6	0xbd10ff7d	-0.035399903
7	0x3e42108c	0.18951625
8	0x3df981c3	0.12182953
9	0xbdb99256	-0.090611145
10	0xbdf99dab	-0.12188276
11	0xbd9eef09	-0.07760436
12	0x3e01d229	0.12677826
13	0x3db36b51	0.08760703
14	0x3d8e9542	0.069620624
15	0xbcf1e2c4	-0.029527076
16	0xbd3cb439	-0.04607031
17	0xbd673e04	-0.056455627
18	0x3d8dd491	0.069253094
19	0xbd9784fd	-0.073984124
20	0x3db66dcd	0.089076616
21	0xbdcfef10	-0.101530194
22	0xbbfe0470	-0.007751994
23	0x3e517fed	0.20458956
24	0x3e36c4b5	0.17848475
25	0xbda006e5	-0.07813815
26	0xbc3240ad	-0.010879678
27	0x3dac0656	0.08399646
28	0x3c6d58c6	0.014486497
29	0xbcf79d15	-0.03022627
30	0xbdaf5a09	-0.08562095
31	0xbd3dc524	-0.046330586
32	0x3b88f3f5	0.0041794726
33	0x3e1c57e0	0.15267897
34	0x3e46cf79	0.19415082
35	0x3da27111	0.07931722
36	0x3b986d98	0.0046517365
37	0xbce36beb	-0.02776142
38	0x3d99d0e5	0.075105466
39	0xbd40dd48	-0.04708603
40	0x3e163434	0.14668351
41	0xbd82bd81	-0.06383801
42	0x3cd75d23	0.026289528
43	0x3dcf3275	0.10117046
44	0x3e289024	0.16461235
45	0x3e13ca6f	0.14432691
46	0x3e38a9cf	0.18033527
47	0xbd748ac2	-0.059702642
48	0xbda0409c	-0.07824823
49	0x3db0000a	0.085937575
50	0x3ddb7c21	0.10717035
51	0x3db2b2ea	0.087255314
52	0xbd51b7bb	-0.05120061
53	0x3dba7d89	0.09105975
54	0x3db9a63c	0.0906491
55	0x3d9b226c	0.07574925
56	0xbdceaccc	-0.10091552
57	0x3be2c4a6	0.006920415
58	0xbd003141	-0.031296972
59	0xbd012688	-0.031530887
60	0xbe173b5c	-0.14768738
61	0xbc54c10b	-0.012985478
62	0x3c88ec7a	0.016714323
63	0xbd80f660	-0.06296992
64	0xbe4ae232	-0.19812849
65	0xbe7cb195	-0.24677117
66	0xbd1fd88c	-0.039024875
67	0xbda8d3da	-0.082435325
68	0x3dfeee6c	0.12447819
69	0x3e04d06d	0.12970133
70	0x3ca69a98	0.020337388
71	0xbd3fcb96	-0.046825014
72	0xbe0f10cd	-0.13971253
73	0xbc0d174f	-0.008611514
74	0xbd7b4916	-0.061348997
75	0xbd9b12bd	-0.075719334
76	0x3b89c840	0.00420478
77	0xbc818fce	-0.015815642
78	0xbdca7a09	-0.098865576
79	0x3d95b6f4	0.07310286
80	0x3d489b18	0.048976034
81	0xbd5f6b52	-0.054545708
82	0xbe00340c	-0.12519854
83	0x3e31b23d	0.17353149
84	0xbd4ca066	-0.049957655
85	0x3e5c83e7	0.21534692
86	0x3de50bb4	0.11183873
87	0x3db950bd	0.09048603
88	0xbceab117	-0.028648896
89	0x3d85b0ff	0.065279
90	0x3bdc6c5b	0.006726784
91	0x3db1eeba	0.086881116
92	0x3d1958a2	0.037438042
93	0x3dc7cf6f	0.09756362
94	0x3db62939	0.08894581
95	0xbda1c1c7	-0.07898288
96	0x3da30add	0.079610564
97	0xbcd0882b	-0.025455555
98	0x3cce5239	0.025185691
99	0x3dafb80c	0.08580026
100	0x3e229d69	0.1588036
101	0xbcb648cd	-0.022251511
102	0x3caf1dd8	0.021376535
103	0xbdedba34	-0.11607781
104	0xbdbad61c	-0.09122869
105	0xbe1938f2	-0.14963129
106	0x3c8608b4	0.016361572
107	0x3e63b8f6	0.22238526
108	0x3e30585d	0.17221208
109	0x3dfe5d23	0.12420108
110	0x3db70cf5	0.08938018
111	0xbe0048ab	-0.1252772
112	0xbdd0d57c	-0.10196969
113	0xbb6d30d7	-0.003619244
114	0xbcd98265	-0.026551435
115	0x3e8db44c	0.27676618
116	0x3e8951ad	0.26820126
117	0x3d055989	0.03255609
118	0x3d045a11	0.032312457
119	0xbc88d0a2	-0.016701046
120	0xbd91be56	-0.07116382
121	0x3d41040c	0.047123
122	0x3d9efbb5	0.07762853
123	0x3dfb84b3	0.1228117
124	0x3e36bf12	0.17846325
125	0xbbf66513	-0.007519373
126	0x3e026c04	0.12736517
127	0x3de3e1a4	0.11127022
128	0xbe2212d6	-0.15827498
129	0x3db3781f	0.08763146
130	0x3df365f3	0.1188468
131	0x3e727d01	0.23680498
132	0xbc59c5fb	-0.013291831
133	0xbc77c9b8	-0.015123777
134	0xbdf321db	-0.11871692
135	0x3e12d305	0.1433831
136	0xbe11aa6f	-0.14225172
137	0xbd71e358	-0.059054703
138	0x3d4e316f	0.050340112
139	0x3d5ac7e9	0.053413305
140	0x3ce2b0d6	0.027672213
141	0xbd9d34a7	-0.07676058
142	0xbd60b9a5	-0.054864544
143	0xbcc321c7	-0.023819817
144	0xbb1b0f24	-0.0023660148
145	0x3db1e02a	0.08685334
146	0xbcbffc16	-0.023435634
147	0xbd4e9f1a	-0.0504447
148	0xbe598885	-0.21243484
149	0xbc055e28	-0.008140124
150	0xbd4ab300	-0.049487114
151	0xbe08566a	-0.13314214
152	0x3e5c3e48	0.21508133
153	0x3dcebdcd	0.100947954
154	0x3d776628	0.06040016
155	0xbdb51fe8	-0.08843976
156	0xbd60b1ad	-0.054856945
157	0xbaf086ef	-0.001835076
158	0xbdbe7e6f	-0.09301459
159	0x3d88f3a3	0.06687095
160	0x3daaa0d1	0.083314545
161	0x3e1e2a46	0.15445814
162	0xbe18370a	-0.14864746
163	0x3dcca3a4	0.099921495
164	0xbd990acd	-0.07472763
165	0x3e3a81b8	0.18213546
166	0x3d1dfa29	0.03856865
167	0x3dfe4628	0.12415725
168	0x3dc381b2	0.09546222
169	0x3e8bae2f	0.2728133
170	0x3e719ead	0.23595686
171	0x3bfd2da2	0.007726387
172	0x3d788e51	0.0606826
173	0x3de01977	0.10942357
174	0xbc84635f	-0.016160665
175	0x3de7a4d5	0.11310736
176	0x3dbd4fb2	0.09243716
177	0x3e75c0ae	0.23999283
178	0x3e565afa	0.20933142
179	0x3ddd9ce0	0.10820937
180	0xbd880485	-0.06641487
181	0x3d05f41f	0.032703515
182	0xbc5b1b27	-0.013373173
183	0xbb65b6e6	-0.0035051643
184	0x3e005ad2	0.12534645
185	0x3e576e38	0.21038139
186	0x3dfa9c0c	0.12236795
187	0x3d98ed25	0.07467107
188	0xbb88c838	-0.0041742586
189	0x3e3f4454	0.18678409
190	0xbd3158ee	-0.0432977
191	0x3d858f0a	0.06521423
192	0x3e2cc36f	0.16871427
193	0xbcece081	-0.028915646
194	0x3e5e0814	0.21682769
195	0xbd730f87	-0.05934098
196	0xbcb9ef6c	-0.022697173
197	0x3e1673f3	0.14692669
198	0x3e632ccb	0.22185056
199	0x3dc0495a	0.09388991
200	0xbdc69718	-0.096967876
201	0xbddf3464	-0.108986646
202	0xbd37d71f	-0.04488289
203	0x3dec2eee	0.11532389
204	0xb9f68555	-0.00047020116
205	0x3dbabda5	0.09118203
206	0x3e37a733	0.17934875
207	0x3e4aa7fa	0.1979064
208	0x3da0fd86	0.07860856
209	0xbdedc880	-0.11610508
210	0xbd963935	-0.0733513
211	0xbd9347f7	-0.071914606
212	0xbc8f5a3d	-0.017499084
213	0x3e335e3c	0.17516416
214	0x3d725197	0.05915984
215	0xbd81f0f3	-0.063447855
216	0xbe67662f	-0.22597574
217	0xbccbcebd	-0.024878854
218	0x3bf672df	0.007521018
219	0xbc0323e1	-0.00800416
220	0x3e1bd8a3	0.15219359
221	0x3e0afe05	0.13573463
222	0xbcc4a46b	-0.024004182
223	0xbd30df5a	-0.043181755
224	0x3d5a051d	0.053227533
225	0x3df54b7d	0.11977289
226	0x3d9861fa	0.074405625
227	0x3deb5ee7	0.114927106
228	0x3d893c09	0.06700904
229	0x3da4e30f	0.080511205
230	0x3df16a80	0.117878914
231	0x3d5cd950	0.053918183
232	0xbba97c96	-0.0051723225
233	0xbd4720f7	-0.048615422
234	0xbd6420c9	-0.05569533
235	0x3e42dd8a	0.19029823
236	0x3d5be253	0.053682636
237	0x3e287e1e	0.1645436
238	0x3dbacd70	0.09121215
239	0x3d95d903	0.07316782
240	0x3bf209d1	0.007386424
241	0x3d80a439	0.06281323
242	0x3d96b019	0.07357807
243	0x3d9826d9	0.074292846
244	0x3dd66f91	0.10470498
245	0xbd3f1665	-0.046652216
246	0x3d7d85b9	0.061895106
247	0x3dabd2b8	0.08389801
248	0xbd10f33a	-0.03538821
249	0x3d231572	0.039815374
250	0xbdd6f046	-0.10495047
251	0x3d26ed4e	0.040753655
252	0xbe0a4d92	-0.13506153
253	0x3daa986a	0.08329852
254	0x3d1faef1	0.038985197
255	0x3e065825	0.13119562

conv1.bias f4 [16]
0	0xbda9451f	-0.08265137
1	0xbd997f71	-0.07495011
2	0x3d343de1	0.044004325
3	0x3cdeb8e4	0.027187772
4	0x3d614b4e	0.055003457
5	0xbc973ce0	-0.018461645
6	0x3c9382fd	0.018006796
7	0xbdd3166e	-0.103070125
8	0xbdc07867	-0.09397965
9	0x3d2c1d45	0.0420201
10	0x3e11921a	0.1421589
11	0x3cad7076	0.02117179
12	0x3c39a1a5	0.011330043
13	0x3d7301a3	0.059327733
14	0xbdbe4ecc	-0.09292373
15	0x3d92e7d8	0.07173127

conv2.weight f4 [32, 16, 4, 4]
0	0xbd8a6778	-0.06758016
1	0xbd88dec5	-0.06683115
2	0xbbd5b6d4	-0.006522039
3	0x3bd3f3f2	0.0064682895
4	0x3d2672c3	0.04063679
5	0x3d9b8bcb	0.07595023
6	0xbaa09972	-0.0012252762
7	0xbd674410	-0.056461394
8	0xbe0e0970	-0.13870788
9	0x3d916582	0.07099439
10	0x3bc952c4	0.0061438996
11	0x3ce06147	0.027390135
12	0xbd990dc5	-0.074733295
13	0x3d42d1c2	0.047563322
14	0xbcdff971	-0.027340623
15	0x3b0b7821	0.002128132
16	0x3c62b042	0.013835968
17	0x3b96e1cb	0.0046045533
18	0x3dc4e401	0.09613801
19	0x3d6aa96f	0.05729049
20	0x39b22e31	0.0003398522
21	0x3cdab4ad	0.026697481
22	0x3dd18b51	0.102316506
23	0x3d9412e4	0.072301656
24	0xbd8821a3	-0.06647041
25	0xbd6f9d1a	-0.058499433
26	0x3d0648c7	0.03278425
27	0x3bc4e827	0.00600912
28	0x3d471728	0.048606068
29	0x3dbefa9b	0.09325143
30	0xbbaf4bd6	-0.0053496165
31	0xba0a8085	-0.0005283433
32	0xbd23988f	-0.039940413
33	0xbdd35db3	-0.10320606
34	0xbd5baab1	-0.05362958
35	0xbd0a4072	-0.033752866
36	0x3d63957b	0.055562478
37	0x3d8f2e80	0.06991291
38	0x3d6cb318	0.057787985
39	0x3dc3f718	0.09568614
40	0xbd80fe10	-0.062984586
41	0x3df2ecd4	0.11861578
42	0x3d81ed44	0.06344083
43	0xbdd8f088	-0.10592753
44	0xbc863557	-0.016382856
45	0xbd32f27e	-0.04368829
46	0x3ddc0f13	0.10745063
47	0x3d2799af	0.04091805
48	0x3baa1210	0.0051901415
49	0x3d08fb4b	0.033442777
50	0xbd728dea	-0.05921737
51	0xbd1d1397	-0.03834876
52	0xbe1c9b3b	-0.1529359
53	0x3e22658d	0.15859051
54	0xbc08513a	-0.008320147
55	0x3b527144	0.0032110969
56	0x3d9107fd	0.07081602
57	0xbc625b35	-0.013815691
58	0x3b9f64f7	0.004864331
59	0x3d8d60b4	0.0690321
60	0x3d77baa5	0.060480732
61	0x3d4f8513	0.05066402
62	0x3dbc8980	0.092059135
63	0x3c98b00b	0.018638631
64	0x3ccc66c0	0.024951339
65	0xbd7bfcb7	-0.061520305
66	0xbddef453	-0.10886445
67	0x3dad9da7	0.084773354
68	0xbd1067eb	-0.035255354
69	0x3d94f7d6	0.072738335
70	0x3e1a3727	0.15060101
71	0x3c97cdce	0.018530753
72	0xbc6a5fac	-0.0143050365
73	0xbd8a6504	-0.067575485
74	0xbca4a246	-0.02009691
75	0x3c07adcd	0.008281183
76	0x3cd0217a	0.025406588
77	0x3d5b5308	0.05354598
78	0x3d1c487e	0.03815507
79	0x3d322149	0.043488774
80	0x3dace0f4	0.08441344
81	0x3c732fcc	0.014842939
82	0x3dbf45e4	0.093395025
83	0x3d0b749d	0.034046758
84	0x3b0aff9e	0.0021209489
85	0x3c5f0f76	0.013614526
86	0xbc10644f	-0.008812978
87	0x3dcb8dec	0.09939179
88	0x3c724176	0.014786115
89	0x3da20526	0.07911138
90	0x3d646f9e	0.05577051
91	0xbd2471f8	-0.04014775
92	0xbdb57ab8	-0.08861297
93	0x3d25b929	0.040459786
94	0xbd113fdc	-0.03546129
95	0xbca9f584	-0.020746954
96	0x3ce31c62	0.027723495
97	0xbc11e9c0	-0.008905828
98	0xbda17f05	-0.07885555
99	0xbd07798a	-0.033074893
100	0x3c7a6fee	0.015285475
101	0x3c44f21f	0.012020617
102	0x3b6a0359	0.0035707562
103	0x3d28a894	0.041176394
104	0x3c37c7b0	0.011217043
105	0xbcbab9f7	-0.022793753
106	0xbe43bd3c	-0.19115156
107	0x3d232699	0.03983173
108	0x3b93962f	0.0045039873
109	0x3b5191ef	0.0031977852
110	0xbc9875d5	-0.018610874
111	0xbcf464d5	-0.029833237
112	0x3c4e0294	0.012573857
113	0xbbac64c6	-0.0052610366
114	0x3ce85436	0.028360467
115	0x3cda7598	0.026667401
116	0x3bfe92e0	0.0077689737
117	0x3da86acb	0.08223494
118	0x3d2b30ad	0.041794468
119	0xbd425a75	-0.047449548
120	0x3db43a0c	0.08800134
121	0x3df88b88	0.121359885
122	0x3dab147c	0.083535165
123	0x3d9da292	0.076970235
124	0x3cb82578	0.022478804
125	0x3da56e18	0.08077639
126	0xbb94cde6	-0.0045411466
127	0xbd44b098	-0.048019975
128	0xbcf24d2a	-0.02957781
129	0xbd90eb37	-0.07076114
130	0xbe11dd9e	-0.14244696
131	0x3ca0c532	0.01962528
132	0x3da13b80	0.07872677
133	0xbd099e5c	-0.03359829
134	0x3b33ff81	0.0027465525
135	0x3d21347b	0.03935669
136	0xbdb2a95e	-0.087237105
137	0x3c871f0c	0.016494296
138	0xbdd37c92	-0.10326494
139	0xbbec34f7	-0.0072084623
140	0xbd5cddde	-0.053922527
141	0xbde8a2e3	-0.11359193
142	0xbcbf01cb	-0.023316285
143	0x3d6a5d52	0.057217903
144	0xbde7b003	-0.113128684
145	0xbdae2342	-0.08502819
146	0xbd92639e	-0.07147907
147	0xbd8d332e	-0.068945274
148	0x39c7722b	0.000380413
149	0xbd94a71f	-0.07258438
150	0x3af59d03	0.001873881
151	0x3e15c5fb	0.14626305
152	0xbd607c20	-0.054805875
153	0xbc4b169c	-0.012395527
154	0x3e2c6860	0.16836691
155	0xbd3ae619	-0.045629594
156	0x3da1c01b	0.07897969
157	0x3dff6aac	0.12471518
158	0xbbecf440	-0.0072312653
159	0x3d2cbf81	0.04217482
160	0x3be5d328	0.007013697
161	0x3d8a2243	0.06744816
162	0xbbc6e765	-0.006070065
163	0x3c7ccb35	0.015429308
164	0x3c23101a	0.009952569
165	0xbdb88c89	-0.0901118
166	0xbd95c2d8	-0.07312554
167	0xbd549c66	-0.051906966
168	0x3d22bfae	0.03973358
169	0xbd640ce9	-0.055676375
170	0xbd38776f	-0.045035776
171	0x3d867609	0.06565482
172	0x3d9eaecc	0.077481836
173	0xbd183d04	-0.037167564
174	0xbd848f73	-0.06472673
175	0x3cf89505	0.030344496
176	0x3e033a51	0.12815215
177	0xbbb67e36	-0.0055692447
178	0x3c4acd2d	0.012378019
179	0x3d34b921	0.044121865
180	0x3dba92a7	0.09110003
181	0xbd267eb2	-0.04064817
182	0x3d6f624d	0.058443356
183	0x3db730d5	0.08944861
184	0x3d81c706	0.06336789
185	0x3ddc29d1	0.10750163
186	0x3d221860	0.039574027
187	0xbe1fe633	-0.15615158
188	0x3d176091	0.036957327
189	0x3d0fafe4	0.03507985
190	0x3dcb2443	0.09919026
191	0x3d1e8bc4	0.03870751
192	0xbd3ef511	-0.046620432
193	0xbe041a50	-0.12900662
194	0xbd4417bb	-0.047874194
195	0xbc8b3fe7	-0.016998244
196	0x3caaee17	0.020865483
197	0x3cdb9acc	0.026807211
198	0x3bd3b79f	0.0064610983
199	0x3bd703e5	0.0065617436
200	0xbc06a751	-0.008218602
201	0xbd0aa2ca	-0.033846654
202	0xbb84ad24	-0.0040489603
203	0xbbd707b1	-0.006562196
204	0x3ce447cc	0.027866267
205	0xbbc63bc2	-0.006049604
206	0x3c409bc2	0.011755886
207	0xbd5ddbea	-0.054164805
208	0x3d699faa	0.057037033
209	0x3b729515	0.003701513
210	0xbd741f2f	-0.05960005
211	0x3da72962	0.0816219
212	0xbdea5428	-0.11441833
213	0xbd0b2a80	-0.033976078
214	0x3bbb293b	0.005711702
215	0x3da47d37	0.08031695
216	0x3dba3093	0.09091296
217	0xbd2dabba	-0.0424001
218	0x3c9f745d	0.019464666
219	0x3d89f6df	0.0673654
220	0xbdf4f7ad	-0.11961303
221	0x3d9343e1	0.07190681
222	0xb92ecaa7	-0.00016669427
223	0x3d3ccd5d	0.046094287
224	0xbd8aaaf5	-0.06770889
225	0xbd8e9905	-0.0696278
226	0x3d8add29	0.06780464
227	0xbc207777	-0.009794108
228	0x3dd2ffab	0.10302671
229	0x3d455def	0.048185285
230	0x3cf64e31	0.030066581
231	0xbdc87dcb	-0.09789618
232	0x3e078fb4	0.13238412
233	0xbaeb178b	-0.0017936093
234	0xbda480d4	-0.080323845
235	0xbd26b1d7	-0.040696945
236	0x3df0e350	0.117621064
237	0xbdb20991	-0.08693231
238	0xbe0c1395	-0.13679345
239	0xbdda6fe1	-0.106658705
240	0x3d843ed2	0.064572945
241	0x3dbed848	0.09318596
242	0x3c94e5d8	0.018176004
243	0xbced08e6	-0.028934907
244	0x3cdae404	0.026720054
245	0x3c9d5beb	0.019208869
246	0x3d0863f5	0.03329845
247	0xbe293ed3	-0.16527872
248	0xbd09a928	-0.033608586
249	0x3e23ce57	0.15996681
250	0xbd01636b	-0.031588953
251	0xbcd5c6c2	-0.026095752
252	0x3cbd3c85	0.023100147
253	0x3ddf20a2	0.10894896
254	0x3e0cb420	0.13740587
255	0x3d4657d4	0.048423603

conv2.bias f4 [32]
0	0x3de2bae0	0.110708
1	0x3d26e502	0.040745743
2	0xbcb89687	-0.022532715
3	0xbd389d2a	-0.04507176
4	0x3b22833c	0.002479746
5	0x3db86e6e	0.09005438
6	0x3d1d985d	0.038475383
7	0xbd90793b	-0.07054373
8	0x3d567ff4	0.05236812
9	0x3cffa528	0.031206682
10	0x3cd2ac00	0.025716782
11	0xbc88f2be	-0.016717311
12	0xbdcb7455	-0.09934298
13	0xbd4f2ddf	-0.050580855
14	0xbe04cb4b	-0.12968175
15	0x3bf552c9	0.0074866754
16	0x3c131d1f	0.008979111
17	0x3d524926	0.05133929
18	0xbdbd6b3f	-0.09248971
19	0xbcb5dea0	-0.022200882
20	0xbd3b10fc	-0.045670494
21	0xbc77af6d	-0.015117508
22	0x3db03e78	0.08605665
23	0xbdc2e701	-0.09516717
24	0xbdc5baa8	-0.096547425
25	0x3b280100	0.0025635362
26	0x3c0c272f	0.008554264
27	0x3ca6c160	0.02035588
28	0x3cfe5fbb	0.031051507
29	0xbd29b474	-0.04143186
30	0xbabdad17	-0.001447114
31	0xbd06447c	-0.032780156

fc1.weight f4 [32, 512]
0	0xbd7da02c	-0.06192033
1	0x3d6bd7a0	0.057578683
2	0x3d9a9696	0.07548253
3	0xbd17e2ea	-0.037081636
4	0xbcfd2d93	-0.03090552
5	0x3bc7fbe0	0.006103024
6	0xbcc3e010	-0.023910552
7	0xbcc27f15	-0.023742238
8	0xbc49a404	-0.012307171
9	0xbd035910	-0.03206736
10	0x3c50682b	0.012720148
11	0xbd3d4e1a	-0.04621706
12	0x3c135c97	0.008994243
13	0xbdb1686c	-0.08662495
14	0xbcb39699	-0.021922396
15	0x3c72b3ae	0.014813347
16	0xbda73a37	-0.081654005
17	0xbb36f787	-0.0027918534
18	0x3d70395a	0.058648445
19	0x3c44f162	0.012020441
20	0xbda7515b	-0.08169814
21	0x3da38436	0.079842016
22	0x3c820333	0.015870666
23	0x3d63dce3	0.055630576
24	0xbd2a9557	-0.041646328
25	0x3cf18d07	0.029486192
26	0x3d32cef0	0.043654382
27	0x3da9faec	0.08299813
28	0xbc8b3ee4	-0.016997762
29	0x3d9dd5d6	0.077068016
30	0xbd6c9b25	-0.057765145
31	0xbc57f451	-0.013180808
32	0xbcd38382	-0.025819544
33	0x3cb3cc30	0.02194795
34	0xbd608b4d	-0.054820348
35	0xbcc807ea	-0.024417836
36	0xbcbcb9af	-0.02303776
37	0x3ced110a	0.028938789
38	0xbd07c5de	-0.033147685
39	0x3c77e8d1	0.015131191
40	0xbca82122	-0.020523611
41	0x3e03c71a	0.1286892
42	0xbc1c2644	-0.009530608
43	0x3d7aad69	0.061200533
44	0x3de27ae1	0.110585935
45	0x3e03667e	0.12832066
46	0xbcba08ad	-0.022709215
47	0x3c80e575	0.015734414
48	0x3d22ca70	0.03974384
49	0xbbe98261	-0.007126138
50	0xbd9b0fa3	-0.07571342
51	0x3d651d43	0.05593611
52	0xbcfd8909	-0.030949133
53	0xbc72df73	-0.014823782
54	0xbd2d4fdc	-0.042312488
55	0xbd5b8bf3	-0.053600263
56	0x3d74653e	0.059666865
57	0x3d3e8adb	0.04651914
58	0x3d8895d5	0.06669203
59	0xbd8fabe4	-0.070152074
60	0x3ce37921	0.02776772
61	0x3d5ab612	0.053396292
62	0xbda3a3e5	-0.07990245
63	0x3dd2d412	0.102943555
64	0xbd8e8cdc	-0.069604605
65	0x3cb02d0b	0.021505853
66	0xbcfb72b7	-0.030694349
67	0xbde81d29	-0.11333687
68	0x3c574905	0.013139968
69	0xbd0db433	-0.03459568
70	0x3d21a5b4	0.039464667
71	0xbd80a9db	-0.06282397
72	0x3d0f6625	0.035009522
73	0xbb210fda	-0.0024576099
74	0x3d447135	0.047959525
75	0xbd2391f8	-0.03993413
76	0x3ca4446f	0.020052163
77	0xbadbfbb6	-0.001678339
78	0x3d8e9268	0.069615185
79	0xbc54cb8d	-0.012987983
80	0x3ba82c47	0.0051322314
81	0x3b14960d	0.0022672445
82	0x3dbf25b4	0.09333363
83	0x3cee40ec	0.029083692
84	0xbd51e692	-0.05124528
85	0x3d213f6a	0.039367117
86	0x3d5490a2	0.051895745
87	0x3c8cb9d3	0.017178452
88	0xbd04f0ea	-0.032456316
89	0x3d99451b	0.07483884
90	0x3de6b9f8	0.112659395
91	0x3dc26997	0.09492796
92	0xba94e5d0	-0.0011359993
93	0xbd56efd6	-0.05247482
94	0xbd8a3aa3	-0.06749465
95	0x3dcdf11d	0.10055754
96	0xbc0abfdb	-0.0084685935
97	0x3cd9fe1e	0.02661043
98	0x3ba5798e	0.005049891
99	0x3ce7e129	0.028305607
100	0x3cee142c	0.029062353
101	0xba195ded	-0.0005850483
102	0x3bad0710	0.005280383
103	0x3cf61c20	0.030042708
104	0xbccc41e4	-0.024933763
105	0xbc219aff	-0.009863614
106	0xbc4ab492	-0.012372153
107	0xbd50a516	-0.05093869
108	0xba96ae13	-0.001149597
109	0xbb9a91ac	-0.0047170725
110	0x3b9806a1	0.004639462
111	0xbb03aff6	-0.0020093895
112	0xbba994c1	-0.0051752036
113	0xbcf59f9c	-0.029983334
114	0x3dfde1d8	0.12396592
115	0x3d8f2b4b	0.06990679
116	0xbd22fb9e	-0.039790742
117	0x3d50460a	0.050848044
118	0x3d778761	0.06043184
119	0xbd286e27	-0.041120674
120	0xbc523105	-0.01282907
121	0x3c02a56d	0.007974011
122	0xbb37cc70	-0.0028045438
123	0xbddcfb21	-0.107900865
124	0xbbaca5c6	-0.005268785
125	0x3dbe40be	0.09289692
126	0x3d758e21	0.059949998
127	0xbc8f465b	-0.017489603
128	0x3d49d1c8	0.04927233
129	0xbd88d263	-0.06680753
130	0x3d48ab11	0.048991267
131	0xbc4f504e	-0.0126534235
132	0xbc8edd9a	-0.017439652
133	0x3cde6d96	0.027151864
134	0xbd340a01	-0.043954853
135	0xbcc4f955	-0.024044672
136	0x3c22cdc8	0.009936757
137	0x3c927800	0.017879486
138	0x3cfc735e	0.03081673
139	0x3cced48a	0.02524783
140	0xbd956794	-0.072951466
141	0x3ca4f325	0.020135472
142	0xbd836546	-0.06415801
143	0x3d1c787c	0.03820084
144	0x3aee9412	0.0018202087
145	0xbb787046	-0.0037908717
146	0x3db7b852	0.08970703
147	0xbcce5201	-0.025185587
148	0x3cd8c335	0.02646027
149	0x3da0ee9c	0.07858011
150	0x3d2d9a55	0.04238351
151	0x3bdbdd22	0.0067097107
152	0xbc918d25	-0.017767498
153	0x3cbd37e5	0.023097942
154	0xbd5673fb	-0.0523567
155	0x3db6c70f	0.08924686
156	0x3da3b84f	0.079941384
157	0xbd064a92	-0.03278596
158	0xbda41a9a	-0.08012886
159	0x3c1d62b9	0.009606057
160	0x3d10dacd	0.035364915
161	0x3da61741	0.08109904
162	0x3c6653cc	0.014058065
163	0xbd568a97	-0.052378263
164	0x3d001c71	0.031277124
165	0xbd086282	-0.03329707
166	0x3d336fd5	0.043807823
167	0xbd658d14	-0.056042746
168	0x3d8d264c	0.0689207
169	0xbda482a0	-0.08032727
170	0x3d54afdf	0.051925536
171	0xbc18a143	-0.009315792
172	0x3dd17cac	0.102288574
173	0x3bac7151	0.005262532
174	0x3d9bf6f9	0.07615466
175	0xbd35c5ac	-0.044377968
176	0x3d3c659f	0.04599535
177	0x3c6af7d5	0.014341314
178	0x3b2d57c4	0.0026450017
179	0xbd16864e	-0.036749177
180	0x3d5a95ae	0.053365402
181	0xbe0d0386	-0.13770875
182	0x3b8ad3d6	0.0042366786
183	0x3d9ab9f2	0.075549975
184	0x3c599e7a	0.013282413
185	0xbd843c17	-0.06456774
186	0x3c493bd1	0.012282328
187	0xbd52de05	-0.051481266
188	0x3cc5f3e7	0.024164153
189	0xbcd13266	-0.025536727
190	0x3cb5ca47	0.02219118
191	0xbd46f327	-0.048571732
192	0x3dbf3564	0.09336355
193	0xbdc64487	-0.09681039
194	0x3d0b69f5	0.034036595
195	0x3c8a8bf6	0.016912442
196	0x3deaefcb	0.11471518
197	0x3cc6065d	0.024172956
198	0xbd0fd66b	-0.035116594
199	0x3d0455c2	0.032308348
200	0xbc8d2d90	-0.01723364
201	0x3db2e940	0.08735895
202	0x3d452d50	0.048138916
203	0xbc616d44	-0.013758961
204	0xbd37db1c	-0.044886693
205	0x3cd9816e	0.026550975
206	0x3d939d07	0.07207685
207	0x3d3a285f	0.045448657
208	0xbc3d1bf6	-0.011542311
209	0x3e147425	0.1449743
210	0x3cc09d03	0.023512369
211	0x3db849da	0.08998461
212	0xbd8a413e	-0.06750725
213	0x3b11c2d2	0.0022241366
214	0xbd303924	-0.043023244
215	0xbd3b1aab	-0.04567973
216	0xbdae23fb	-0.085029565
217	0xbc9eaa82	-0.019368414
218	0x38782c8e	5.9169302e-05
219	0x3b2950fe	0.0025835629
220	0x3be4072a	0.006958862
221	0xbd6a933a	-0.057269312
222	0xbde990f3	-0.114046
223	0xbd8971fb	-0.06711193
224	0xbd883856	-0.0665137
225	0xbcd25c4b	-0.025678774
226	0xbbb865f7	-0.0056273895
227	0xbd6d93c3	-0.058002245
228	0xbc77d1be	-0.01512569
229	0xbd8056c6	-0.06266551
230	0x3d6fb7e7	0.058524992
231	0x3df13277	0.117772035
232	0xbd4349bd	-0.047677744
233	0xbcfd8baf	-0.030950395
234	0x3cb2d7cd	0.021831417
235	0xbd66734a	-0.056262292
236	0x3c4cc6a2	0.01249853
237	0xbcdec4af	-0.027193395
238	0x3cfa9229	0.030587273
239	0xbd6fe1c3	-0.058564913
240	0x3dd20cc4	0.10256341
241	0xbd82763b	-0.06370207
242	0x3c0ce8a6	0.00860039
243	0x3b6f6d4b	0.003653365
244	0xbda2d7e1	-0.07951332
245	0x3d4e6037	0.050384726
246	0xbd006828	-0.03134933
247	0xbd2e5704	-0.042563453
248	0x3cc1d1ac	0.02365955
249	0xbd985048	-0.074371874
250	0xbd3501eb	-0.044191282
251	0x3c84ac56	0.016195457
252	0x3dd16c12	0.10225691
253	0xbb9e28b6	-0.0048266305
254	0x3d5648f8	0.052315682
255	0xbb14d508	-0.0022709984

fc1.bias f4 [32]
0	0x3be49669	0.006975938
1	0x3d2e04ea	0.042485155
2	0xbd1d2034	-0.03836079
3	0x3cd78abb	0.026311269
4	0x3d5a4509	0.053288493
5	0xb713e143	-8.814331e-06
6	0xbd2f7c75	-0.0428433
7	0x3db7f111	0.08981527
8	0x3cb7fde7	0.022459937
9	0xbd115b26	-0.035487317
10	0x3d11de4c	0.03561239
11	0xbd24ab7a	-0.040202595
12	0xbe0764c7	-0.13222037
13	0xbdd906a4	-0.1059697
14	0xbce467db	-0.027881553
15	0x3bdd6a54	0.00675706
16	0x3d546c53	0.05186112
17	0x3d7473ad	0.05968063
18	0xbd4dad38	-0.050214022
19	0xbd0862f7	-0.033297505
20	0xbd5e0cae	-0.05421131
21	0x3cd0d205	0.02549077
22	0x3c050bf4	0.008120526
23	0x3ca58cb6	0.020208698
24	0x3c7c1bd6	0.015387496
25	0xbd037708	-0.03209594
26	0xbdd9ce48	-0.10635048
27	0x3c8a2684	0.016864069
28	0x3dcb69fb	0.099323235
29	0x3cd988b9	0.026554452
30	0xbd3a4396	-0.04547461
31	0x3d0da587	0.034581687

fc2.weight f4 [10, 32]
0	0xbdd2f140	-0.10299921
1	0xbc50f043	-0.012752595
2	0xbdd5b63e	-0.104351506
3	0x3d4026bd	0.046911944
4	0x3d597864	0.05309333
5	0x3e90841c	0.2822579
6	0x3e42de07	0.19030009
7	0xbe3de0a3	-0.18542723
8	0x3db6b102	0.0892048
9	0x3d5fe507	0.054661777
10	0x3e35773e	0.17721269
11	0x3e846fc3	0.25866517
12	0x3d9b327a	0.07577987
13	0x3de20196	0.11035459
14	0x3c2b19e7	0.010443187
15	0x3d8ba3f9	0.06818385
16	0xbda2c8c8	-0.07948452
17	0x3ea25ec8	0.31712937
18	0xbd20090d	-0.03907113
19	0x3e090c5f	0.13383625
20	0xbe8196b5	-0.25310293
21	0xbea29852	-0.31756836
22	0x3debef76	0.11520283
23	0x3e1a511d	0.15070005
24	0x3d1a0390	0.037601054
25	0x3d0e55e0	0.034749866
26	0x3d200c00	0.039073944
27	0xbe1feb02	-0.15616992
28	0xbd0bbdcf	-0.034116562
29	0xbe201b62	-0.15635446
30	0x3e0c3487	0.13691913
31	0xbe3c1a14	-0.18369323
32	0x3e9bb9f5	0.3041531
33	0xbddbaa6e	-0.10725866
34	0xbe4d3eed	-0.20043536
35	0x3d05abd2	0.032634564
36	0xbc896a27	-0.01677425
37	0xbe582e9c	-0.2111153
38	0x3dc45538	0.09586567
39	0x3e490989	0.19632544
40	0x3dea0abc	0.11427829
41	0x3e77f1ce	0.24213335
42	0xbea3423b	-0.31886467
43	0x3d874bad	0.06606231
44	0xbd85e798	-0.065383136
45	0x3ca079f2	0.019589398
46	0xbd89291d	-0.06697295
47	0xbd15c887	-0.03656819
48	0xbe1d34af	-0.15352128
49	0x3d2a3b15	0.04156025
50	0x3e30b611	0.17256953
51	0xbd3b8d27	-0.04578891
52	0xbe791675	-0.24324973
53	0xbda3b1ac	-0.079928726
54	0x3ebe359c	0.37150276
55	0x3dbdcc4c	0.09267482
56	0xbd681fbb	-0.056670886
57	0x3e23acba	0.15983859
58	0x3deb86fe	0.11500357
59	0xbc9634d0	-0.01833573
60	0xbe362ae3	-0.17789797
61	0x3e28e8f0	0.16495109
62	0xbd37469c	-0.044745073
63	0xbd049437	-0.03236791
64	0xbe79e2c6	-0.24402913
65	0x3dc50d69	0.096216984
66	0xbc3d122a	-0.011539975
67	0xbeb6d649	-0.35710362
68	0xbda59be0	-0.080863714
69	0x3d0b2b14	0.03397663
70	0xbe80b482	-0.25137717
71	0x3e74892f	0.23880456
72	0xbe4b68eb	-0.19864242
73	0x3e3bd139	0.18341531
74	0x3d1cb1ba	0.03825543
75	0x3e045492	0.12922886
76	0xbdcc98bb	-0.099900685
77	0xbe39601a	-0.18103066
78	0x3e09a5b4	0.13442117
79	0x3e05ef35	0.13079531
80	0x3d299288	0.04139951
81	0xbe1fdd39	-0.15611733
82	0x3eb81fe6	0.35961837
83	0xbe4a7686	-0.19771776
84	0x3e385334	0.1800049
85	0xbdc04fd3	-0.09390225
86	0xbd554566	-0.052068137
87	0x3e154a3a	0.14579096
88	0xbe31d113	-0.17364912
89	0xbe73c9cf	-0.23807453
90	0xbe65b985	-0.22434051
91	0xbd5c7cc5	-0.053829927
92	0xbe3e420c	-0.18579882
93	0xbe1b8c73	-0.15190296
94	0x3ddafd0a	0.106927946
95	0xbdc5a4a8	-0.09650546
96	0x3df1a3f7	0.11798852
97	0x3dc8363c	0.097759694
98	0xbe258fc0	-0.16168118
99	0x3e3521a8	0.1768862
100	0xbdf36c23	-0.1188586
101	0x3dec569c	0.11539957
102	0xbd21b750	-0.03948146
103	0x3e75ab6a	0.2399117
104	0x3db27286	0.0871325
105	0xbe4e9b8b	-0.20176522
106	0xbe406f0a	-0.18792358
107	0x3e9fa684	0.3118173
108	0xbe51e583	-0.20497708
109	0xbcfe794e	-0.031063702
110	0x3e3c0471	0.1836107
111	0x3db85719	0.090009876
112	0x3d80c512	0.06287588
113	0xbe8c6e6e	-0.27428
114	0xbdd1c6b3	-0.10242977
115	0xbe59c739	-0.21267404
116	0x3e0a0cb6	0.13481411
117	0x3e07c603	0.13259129
118	0xbe13023b	-0.1435632
119	0xbdcd4642	-0.10023166
120	0x3e07b288	0.13251698
121	0x3e749a88	0.23887074
122	0xbe02e686	-0.1278325
123	0xbe2395b4	-0.15975076
124	0x3dcf758f	0.101298444
125	0x3e09a8ed	0.13443346
126	0x3e61a411	0.22035243
127	0xbe74c3ca	-0.23902813
128	0xbd9993fc	-0.07498929
129	0xbd0212b6	-0.031756125
130	0x3ea9e09a	0.3317917
131	0xbe69459f	-0.22780465
132	0x3e2ca2c2	0.16858962
133	0xbdfe2697	-0.12409704
134	0x3d70c448	0.05878094
135	0xbd12e523	-0.035863053
136	0x3ce9a26e	0.028519835
137	0x3e6f629c	0.2337746
138	0xbccce75d	-0.025012666
139	0xbe02c7df	-0.12771557
140	0xbddc9b84	-0.1077185
141	0xbdccf5a0	-0.10007787
142	0x3cb8adeb	0.022543868
143	0x3e7f4920	0.24930239
144	0xbdecb6c8	-0.115583
145	0x3d73e798	0.059547037
146	0xbe404fb6	-0.18780407
147	0x3d884955	0.06654612
148	0xbe389adb	-0.18027823
149	0x3e21cabc	0.15799993
150	0xbd39b771	-0.04534096
151	0xbe120e92	-0.1426337
152	0xbdf4ff03	-0.11962702
153	0xbda64634	-0.08118859
154	0xbdcc1e6d	-0.09966741
155	0xbe22ca3e	-0.15897462
156	0x3d4b5d2a	0.049649395
157	0x3e243fc6	0.16039953
158	0x3d8b4a54	0.06801286
159	0xbd098dc5	-0.033582468
160	0x3df582de	0.119878516
161	0x3dbe010e	0.09277545
162	0x3dec0756	0.11524837
163	0x3e9cec2b	0.30648932
164	0xbced6c67	-0.028982354
165	0xbde1be1d	-0.11022589
166	0xbccfdc67	-0.02537365
167	0xbd4ef471	-0.050526086
168	0xbe6b6a78	-0.22989833
169	0xbe8218b4	-0.25409472
170	0x3c2fb4e1	0.010724277
171	0x3b7e523a	0.0038806335
172	0x3db29e6d	0.087216236
173	0x3e088a31	0.13333966
174	0xbdc3e2cb	-0.09564742
175	0xbd789ae9	-0.06069461
176	0xbdec4832	-0.11537208
177	0x3e2f578b	0.17123239
178	0xbe19d9f7	-0.15024553
179	0xbd29166c	-0.04128115
180	0x3db020d4	0.086000115
181	0x3d80eb7a	0.062949136
182	0xbe17f7f8	-0.14840686
183	0x3e11516c	0.14191216
184	0x3d4cf7ac	0.050040886
185	0xbbff3b7f	-0.007789075
186	0x3e32a3a5	0.17445238
187	0x3e2a4ae1	0.16630127
188	0xbd876d24	-0.06612614
189	0x3cccf4b7	0.025019033
190	0x3a92de0e	0.0011205093
191	0x3daeb595	0.08530728
192	0x3e4fa832	0.20279005
193	0xbd6e7e28	-0.05822578
194	0x3e23e870	0.16006637
195	0xbeb94b0d	-0.36190072
196	0x3c1b10c1	0.009464444
197	0xbead1582	-0.33805472
198	0xbe172c80	-0.14763069
199	0xbe44593d	-0.19174667
200	0xbdb4666c	-0.08808598
201	0xbe423881	-0.18966867
202	0x3d59dd3c	0.0531895
203	0x3e733bad	0.23753233
204	0x3e0dc291	0.13843752
205	0x3e3c5378	0.18391216
206	0xbdec68f1	-0.115434535
207	0xbd648383	-0.05578948
208	0xbe30cd22	-0.17265752
209	0x3e1dcdb5	0.15410502
210	0x3deef8cb	0.11668547
211	0x3e35a91d	0.17740293
212	0xbe2321c4	-0.1593085
213	0x3dc61eb1	0.09673823
214	0x3e06365a	0.13106671
215	0x3df647e3	0.1202543
216	0x3dcd5e94	0.10027805
217	0xbe3668de	-0.17813441
218	0xbd8834ca	-0.06650694
219	0xbe1104a5	-0.14161928
220	0x3d493ea5	0.049132008
221	0xbe30616d	-0.17224665
222	0xbdcde88f	-0.10054123
223	0x3e4cf277	0.20014368
224	0xbdfb1564	-0.12259939
225	0xbe0d895f	-0.13821934
226	0xbe374148	-0.17895997
227	0x3e9e9b5b	0.30977902
228	0xbd41e918	-0.047341436
229	0x3e5a7e5e	0.21337268
230	0x3da3a376	0.07990162
231	0x3daa087c	0.083023995
232	0xbc35a646	-0.011087006
233	0x3e8a0e6f	0.26964137
234	0xbe814045	-0.25244346
235	0x3cac3d54	0.021025337
236	0xbd8d2d00	-0.06893349
237	0xbd308c6a	-0.04310266
238	0xbd0982e9	-0.03357211
239	0xbe1b3ac7	-0.1515914
240	0x3d69608d	0.056976844
241	0x3e681d74	0.22667485
242	0xbdfb02a8	-0.12256366
243	0x3e2cf89d	0.16891713
244	0x3e8432b4	0.25819933
245	0xbdbba4fd	-0.091623284
246	0x3e085f8b	0.13317697
247	0xbc62d0f2	-0.013843762
248	0xbc6e21bd	-0.014534411
249	0xbe3243bb	-0.1740865
250	0xbe584880	-0.21121407
251	0xbd8d6850	-0.06904662
252	0x3d4f3e73	0.050596666
253	0xbdd498f9	-0.1038074
254	0x3e2867a8	0.16445792
255	0xbd4ad944	-0.049523607

fc2.bias f4 [10]
0	0xbde1688e	-0.1100627
1	0x3d54568a	0.051840343
2	0xbe010a2c	-0.12601537
3	0xbd0cec74	-0.034405187
4	0xbd8670bd	-0.06564472
5	0xbc610aee	-0.013735516
6	0x3dfd3001	0.12362672
7	0x3dea642c	0.114448875
8	0x3d7f0eb3	0.062269878
9	0xbe4638f7	-0.19357668
