Codes/mnist_cnn_mnist_3_False_0.1_1.0_1.0_64_1.pt (torch, 106255 bytes, 8 tensors)

conv1.weight f4 [16, 1, 8, 8]
0	0xbe0479fc	-0.12937158
1	0xbe0e9421	-0.13923694
2	0xbe1138e6	-0.14181861
3	0xbd814303	-0.063116096
4	0xbd644048	-0.055725366
5	0xbdc418ec	-0.09575066
6	0x3dfed3f2	0.12442769
7	0x3de60978	0.11232275
8	0x3d5ae44e	0.053440385
9	0x3df82c92	0.12117876
10	0x3e09eee4	0.13470036
11	0x3d89daa3	0.06731155
12	0xbe2baa25	-0.16764124
13	0xbd3230c9	-0.043503556
14	0xbe14c29a	-0.1452736
15	0xbd2947ee	-0.041328363
16	0xbd9cb3a7	-0.076514535
17	0x3e5221c2	0.2052069
18	0x3e0f9226	0.14020595
19	0x3cf908d9	0.030399727
20	0x3d830491	0.06397355
21	0xbe028919	-0.12747611
22	0x3e0d95a8	0.1382662
23	0xbdd5a39d	-0.104315974
24	0xbd031b17	-0.032008257
25	0xbe18e1f5	-0.14929946
26	0xbc514241	-0.012772144
27	0x3dc5445e	0.09632181
28	0xbd91d4a0	-0.07120633
29	0xbd5f8465	-0.05456962
30	0xbd87ee3c	-0.066372365
31	0x3da2bb40	0.07945871
32	0xbd3726fa	-0.044714905
33	0xbdb8b733	-0.090193175
34	0xbddc9737	-0.107710294
35	0x3bb4ac34	0.0055136923
36	0x3d826d08	0.06368452
37	0xbe14b273	-0.14521198
38	0xbd8f43ef	-0.06995379
39	0xbd56e937	-0.052468505
40	0xbd3c46d5	-0.04596599
41	0xbc58d2d4	-0.013233859
42	0xbd3e7dbc	-0.04650663
43	0xbe154da4	-0.14580399
44	0x3e1e5296	0.15461192
45	0x3d0dfa16	0.03466233
46	0xbdb4601c	-0.08807394
47	0x3cac868d	0.021060253
48	0xbbcbec13	-0.0062232106
49	0x3e5b800e	0.21435568
50	0x3de60c05	0.11232761
51	0xbb8a9ec7	-0.0042303535
52	0x3d264ad1	0.040598694
53	0x3d9d9e1c	0.076961726
54	0x3e3a4364	0.1818977
55	0x3d3d79ad	0.046258617
56	0xbd6359f5	-0.05550571
57	0x3e13611c	0.14392513
58	0x3da9ddd4	0.082942635
59	0xbce53796	-0.027980607
60	0x3dfe5c57	0.12419956
61	0x3d2b3484	0.04179813
62	0xbcfdef71	-0.030997964
63	0xbc5e7261	-0.013577075
64	0xbe0d28fb	-0.13785164
65	0xbe0cf1ee	-0.13764164
66	0xbd1c3cbf	-0.03814387
67	0xbe327afb	-0.17429726
68	0x3d0aca9a	0.033884622
69	0x3cfba282	0.030717138
70	0x3d9747b6	0.07386725
71	0x3e3dc1af	0.18530916
72	0xbddabe19	-0.106807895
73	0xbc2526b3	-0.010080027
74	0x3d1ee428	0.038791806
75	0xbc9454a0	-0.018106759
76	0x3d9fd671	0.07804573
77	0x3e48f4d0	0.19624639
78	0x3e3452a0	0.17609644
79	0x3e82c107	0.25537893
80	0xbd3f96a2	-0.046774514
81	0xbdbfa4e3	-0.093576215
82	0xbdc37f14	-0.095457226
83	0xbd99d11a	-0.07510586
84	0x3df59831	0.11991919
85	0xbd16f0d8	-0.03685078
86	0x3e81fc99	0.2538803
87	0xbc666be1	-0.014063806
88	0xbe40fc9f	-0.18846367
89	0xbc8ea8f6	-0.017414551
90	0xbdca0216	-0.09863679
91	0x3d740ecd	0.059584428
92	0xbd961a39	-0.0732922
93	0x3e8b7e82	0.27244955
94	0x3e835510	0.25650835
95	0x3e027255	0.12738927
96	0xbe01724e	-0.1264126
97	0x3d0f2857	0.03495058
98	0xbdf2a15d	-0.11847184
99	0xbdc1f371	-0.09470261
100	0x3dacdc2b	0.08440431
101	0x3e66625b	0.22498457
102	0x3e5e24eb	0.2169377
103	0xb994f48a	-0.00028410956
104	0xbd2ded21	-0.042462472
105	0xbe3c001d	-0.18359418
106	0xbaac1f1d	-0.0013131831
107	0xbcc21546	-0.023691785
108	0x3def544b	0.116859995
109	0x3c6c5779	0.014425152
110	0x3e4ff6e4	0.20309025
111	0x3e323b7e	0.17405507
112	0xbe257730	-0.16158748
113	0xbe1bed05	-0.15227135
114	0xbe19c6f1	-0.15017296
115	0xbc677276	-0.014126411
116	0x3e5350cd	0.20636292
117	0x3e933262	0.28749377
118	0x3d952d4c	0.0728403
119	0x3e0b77d8	0.13619936
120	0x3c9eac01	0.019369127
121	0xbe17f0ea	-0.14837995
122	0xbdcfa5a0	-0.10139012
123	0x3c996d03	0.018728739
124	0xbb3fc522	-0.0029261787
125	0x3da69141	0.08133174
126	0x3e313263	0.17304377
127	0x3c6212a5	0.0137983905
128	0x3c6c5412	0.014424341
129	0x3a66c3c2	0.0008802974
130	0x3d42de14	0.04757507
131	0xbd784b43	-0.06061865
132	0x3dbaac6e	0.091149196
133	0xbd6f73f7	-0.058460202
134	0xbe0616bd	-0.13094611
135	0x3da1a43c	0.07892653
136	0x3d97b214	0.074070126
137	0x3dc9727d	0.0983629
138	0xbe47e336	-0.19520268
139	0x3c0bcbbf	0.008532464
140	0xbe27a981	-0.16373254
141	0xbd561370	-0.05226463
142	0xbd834d2c	-0.06411204
143	0x3ddb944c	0.10721645
144	0x3d760c0f	0.060070094
145	0xbc5f940b	-0.013646136
146	0x3b8fbe69	0.0043867123
147	0xbdd00a46	-0.101582095
148	0x3d7adcb8	0.06124565
149	0x3df8b57c	0.121439904
150	0xbd86ec81	-0.06588078
151	0x3e14f85f	0.14547871
152	0xbbca303a	-0.0061703
153	0x3dbee192	0.09320368
154	0x3e09c696	0.13454661
155	0xbda44264	-0.080204755
156	0x3e40171a	0.18758813
157	0xbc5574ae	-0.013028307
158	0x3df7156e	0.12064634
159	0x3bc1e008	0.005916599
160	0xbe06ae9b	-0.13152544
161	0xbd433fec	-0.047668383
162	0x3c5f8611	0.013642804
163	0x3d8194c7	0.06327205
164	0xbe4a7c34	-0.19773942
165	0xbdbdc6c1	-0.09266425
166	0x3e2bc76d	0.16775294
167	0x3cad4855	0.021152655
168	0xb9328877	-0.0001702624
169	0x3d724dec	0.059156343
170	0x3d38f63c	0.045156702
171	0x3e173460	0.14766073
172	0xbd97b7fa	-0.074081376
173	0x3dffd85b	0.124924384
174	0x3db5b2c3	0.08871987
175	0x3da31535	0.07963029
176	0xbc8990f9	-0.016792761
177	0x3d8165e5	0.06318263
178	0x3e1a9065	0.15094145
179	0x3cc4bbb4	0.024015285
180	0x3e19f886	0.1503621
181	0x3da4ebd4	0.08052793
182	0x3e1f0284	0.15528303
183	0x3e1e409c	0.15454334
184	0xbca84411	-0.02054027
185	0x3d03084e	0.03199034
186	0x3d944c9a	0.07241173
187	0x3da66348	0.08124405
188	0xbdc5aae8	-0.096517384
189	0xbc796741	-0.015222372
190	0x3e1bd9fe	0.15219876
191	0xbcd39279	-0.02582668
192	0xbe0309bf	-0.12796687
193	0xbcdb5515	-0.026773969
194	0x3e10638c	0.14100474
195	0x3dfe5f66	0.124205396
196	0x3a15b2b4	0.0005710528
197	0x3df95b72	0.12175645
198	0xbc84b796	-0.016200822
199	0x3e159846	0.14608869
200	0xbd90ee72	-0.0707673
201	0xbd12b486	-0.03581669
202	0x3d9b7aec	0.07591805
203	0x3e024089	0.1271993
204	0x3e4f916b	0.20270316
205	0x3c9fd014	0.0195084
206	0x3ce2b0f5	0.02767227
207	0xbe496c1d	-0.19670148
208	0x3c534b85	0.012896423
209	0xbe177a64	-0.14792782
210	0xbbcf17b9	-0.0063199666
211	0xbd0cd836	-0.034385882
212	0x3e14a401	0.14515688
213	0x3dba8682	0.091076866
214	0xbe1aad26	-0.15105113
215	0xbe51fbad	-0.20506163
216	0x3d9faaff	0.07796287
217	0xbcc2af21	-0.023765149
218	0x3e849610	0.2589574
219	0x3e19a98e	0.15006086
220	0xbd46e3d6	-0.048557125
221	0xbdd9bed9	-0.106321044
222	0xbcab4b8b	-0.020910045
223	0x3dfe998b	0.1243163
224	0x3e0fe46f	0.14051984
225	0xbce7804a	-0.028259415
226	0xbc3c4ded	-0.011493188
227	0x3e2b7b84	0.16746336
228	0x3dec4866	0.115372464
229	0xbddf1ee1	-0.108945616
230	0x3dba54ff	0.09098243
231	0x3dc57422	0.09641291
232	0x3e44e8af	0.19229387
233	0x3e374dc0	0.17900753
234	0x3e130565	0.14357527
235	0x3e8c413c	0.2739352
236	0xbc7f8d8f	-0.015597715
237	0x3dda59cb	0.10661658
238	0x3ddd97f9	0.10820002
239	0x3e6da927	0.23209058
240	0x3dae13b6	0.08499853
241	0x3e088628	0.13332427
242	0x3d169f03	0.03677274
243	0x3e685042	0.22686866
244	0x3e4daaa8	0.20084631
245	0x3e875d7c	0.2643851
246	0x3d1500af	0.036377605
247	0x3d548525	0.05188479
248	0x3b6b8476	0.0035937107
249	0x3da39c04	0.07988742
250	0x3e5a9f11	0.21349742
251	0x3e69f523	0.22847418
252	0x3e48885a	0.19583264
253	0xbd792dc9	-0.06083468
254	0x3c49519b	0.012287523
255	0xbdc61c1a	-0.09673329

conv1.bias f4 [16]
0	0xbc090939	-0.008364015
1	0x3d77bffb	0.06048582
2	0xbd728524	-0.059209004
3	0x3dd7b112	0.1053182
4	0xbd066061	-0.032806758
5	0xbd8c7721	-0.068586595
6	0xbd9cecc4	-0.07662347
7	0x3dc258ee	0.09489618
8	0x3dcd7508	0.100320876
9	0xbbf91207	-0.007601026
10	0x3db2b0e0	0.087251425
11	0x39f5fa23	0.00046916408
12	0xbdffa8ce	-0.12483369
13	0xbb652522	-0.003496476
14	0xbcb3a4d7	-0.021929188
15	0xbd45cc9c	-0.048290834

conv2.weight f4 [32, 16, 4, 4]
0	0xbd332abd	-0.04374193
1	0xbd14514f	-0.036210354
2	0xbd3828a6	-0.04496064
3	0xbd18208e	-0.03714042
4	0xbc141e24	-0.009040389
5	0x3cdacb7b	0.026708355
6	0xbc85a967	-0.016316129
7	0x3ddcd555	0.10782877
8	0xbd44c4c0	-0.048039198
9	0xbcbd9ab5	-0.02314506
10	0x3dcb8189	0.09936816
11	0xbd23bd02	-0.039975174
12	0xbd4b2e04	-0.04960443
13	0xbde28ded	-0.110622264
14	0xbdbdd8c6	-0.09269862
15	0xbcf81a85	-0.030286083
16	0xbc0629f9	-0.008188718
17	0xbd6df735	-0.058097083
18	0x3bc5aac6	0.0060323207
19	0x3e0a907b	0.13531677
20	0x3bdf6df4	0.0068185274
21	0xbdfb7453	-0.122780465
22	0x3e132ea7	0.14373265
23	0x3df50eb2	0.119656935
24	0xbcf66bdc	-0.030080728
25	0xbd05b4eb	-0.03264324
26	0x3e1638c8	0.14670098
27	0x3d916deb	0.07101043
28	0xbdaa5a2a	-0.08317979
29	0x3d213fc1	0.03936744
30	0x3e05519e	0.13019416
31	0x3dffe0ee	0.12494074
32	0x3d1191cf	0.035539445
33	0xbd89cb8e	-0.06728278
34	0x3c9ce63a	0.01915275
35	0x3c4ece2a	0.0126223955
36	0x3c470785	0.012147789
37	0xbde1cde3	-0.11025598
38	0x3d8d736d	0.06906781
39	0xbccf42b4	-0.025300361
40	0xbd5feb7d	-0.05466794
41	0xbc48cb9a	-0.012255574
42	0xbd5384b3	-0.051640224
43	0x3e211877	0.15731989
44	0xbbd6f8a5	-0.0065604025
45	0x3c964982	0.018345598
46	0x3d3cc062	0.046081908
47	0xbd62d943	-0.05538298
48	0x3d96cb27	0.07362967
49	0x3d0ce0ed	0.034394193
50	0xbd831261	-0.0639999
51	0xbd5127a9	-0.051063213
52	0x3d80aa81	0.06282521
53	0xbd4c80a3	-0.049927365
54	0x3d06c74a	0.0329049
55	0x3c5d9b23	0.013525757
56	0xbcd27df2	-0.025694821
57	0xbdefc418	-0.11707324
58	0xbdbe1892	-0.0928203
59	0xbd8706ef	-0.06593119
60	0xbb4bbe47	-0.0031088756
61	0xbd05b02a	-0.032638706
62	0xbd908de8	-0.070583165
63	0x3c84bd68	0.016203597
64	0x3cb323fe	0.021867748
65	0xbc2660c6	-0.0101549085
66	0xbcb6f164	-0.0223319
67	0x3db2b2ae	0.08725487
68	0x3d9426d8	0.07233971
69	0x3cd9d970	0.02659294
70	0x3dcea699	0.1009037
71	0x3c00ca58	0.0078607425
72	0x3e2949f3	0.16532116
73	0x3c0ae3da	0.008477176
74	0x3df47147	0.119356684
75	0x3ba996af	0.0051754336
76	0x3e178017	0.14794956
77	0x3dafa3d9	0.08576173
78	0x3cdac71f	0.026706276
79	0x3daa4953	0.08314767
80	0xbdb6fae2	-0.08934571
81	0xbc2e6084	-0.010643128
82	0x3df9ce72	0.121975794
83	0x3d45cef9	0.048293088
84	0x3c4b3197	0.01240196
85	0xbde1304f	-0.10995542
86	0x3d97c30e	0.074102506
87	0x3da85c13	0.08220687
88	0xbdab05e8	-0.08350736
89	0xbd0cfd96	-0.034421526
90	0xbdc16a67	-0.09444123
91	0xbca8dfdf	-0.020614563
92	0xbdde837b	-0.10864922
93	0xbca2ab50	-0.019857079
94	0x3d8e35c6	0.0694385
95	0xbd2a5a70	-0.041590154
96	0x3a2feea1	0.00067112787
97	0xbdc4250c	-0.09577379
98	0x3b9df697	0.0048206556
99	0x3d843ae1	0.06456543
100	0xbcd708ad	-0.026249254
101	0x3b7a1d5a	0.0038164468
102	0x3d852bb1	0.06502474
103	0x3db535bc	0.0884814
104	0xbd3b101f	-0.04566967
105	0x3c4abf57	0.012374721
106	0x3e1c89f0	0.15286994
107	0x3c9d761a	0.019221354
108	0xbda21d11	-0.079157
109	0x3da00245	0.07812933
110	0x3d6424b8	0.05569908
111	0x3e07bbf3	0.1325529
112	0xbd518ee1	-0.05116165
113	0xbcc2f844	-0.023800023
114	0xbdd8a2e0	-0.10577941
115	0x3db28ec7	0.08718639
116	0x3ca385a8	0.019961193
117	0xbd8760cb	-0.06610259
118	0x3daca6ac	0.08430228
119	0x3da04000	0.07824707
120	0x3d798ff5	0.060928304
121	0xbd9e9ebf	-0.07745122
122	0xbe07fc59	-0.13279857
123	0x3d402640	0.046911478
124	0xbd3d06b8	-0.046148986
125	0xbd6b7b25	-0.057490487
126	0xbd94c574	-0.07264224
127	0xbd01b287	-0.031664398
128	0x3d6524cf	0.055943307
129	0xbd5c3e52	-0.05377037
130	0x3da7e39d	0.08197711
131	0x3d54ac77	0.051922288
132	0x3db464c3	0.08808281
133	0xbcb0be3f	-0.021575091
134	0x3e266fd5	0.16253598
135	0x3db00d33	0.085962676
136	0x3d801580	0.06254101
137	0xbddb08a2	-0.10695006
138	0x3daf6593	0.085642956
139	0xbc8f7119	-0.017509984
140	0xbda139f8	-0.07872385
141	0xbbf2d12f	-0.0074101905
142	0x3e1f39ec	0.15549439
143	0xbd169453	-0.036762547
144	0xbd8175a6	-0.06321268
145	0x3e07e213	0.13269834
146	0x3d9e175c	0.07719299
147	0x3d8bd5e9	0.068279095
148	0xbde1e9f8	-0.11030954
149	0x3c2584b9	0.010102444
150	0x3d90f867	0.07078629
151	0x3cb450a2	0.022011105
152	0x3d861463	0.06546857
153	0x3d66e2eb	0.05636875
154	0x3c8b48a8	0.017002419
155	0xbb39c04f	-0.0028343385
156	0x3bf4d992	0.0074722255
157	0xbddcb408	-0.10776526
158	0xbde8366a	-0.11338504
159	0xbbfa3200	-0.007635355
160	0xbd91d50c	-0.071207136
161	0xbd40b8d9	-0.047051284
162	0xbbf5cd04	-0.0075012464
163	0xbd623bac	-0.05523269
164	0xbd35bca0	-0.04436934
165	0xbd35100d	-0.04420476
166	0xbc862677	-0.016375763
167	0x3e2c57a1	0.16830303
168	0xbbbab4e8	-0.0056978352
169	0x3d6b8400	0.057498932
170	0x3d2e05f6	0.042486154
171	0x3de76515	0.11298577
172	0x3d1c5eb0	0.03817624
173	0x3d83c838	0.06434673
174	0x3d4c58c8	0.049889356
175	0x3d1a3250	0.037645638
176	0x3d7fab01	0.06241894
177	0xbd4d185b	-0.050072055
178	0xbd58e033	-0.052948188
179	0x3c76eebd	0.015071568
180	0xbd2c8ad7	-0.042124595
181	0xbc24f351	-0.010067777
182	0xbc15ab41	-0.009135068
183	0x3d2671c6	0.040635847
184	0x3d3d430b	0.046206515
185	0x3d31accc	0.043377683
186	0xbce6c754	-0.028171219
187	0x3c890415	0.01672558
188	0x3d1a4efc	0.03767298
189	0xbcc489bd	-0.02399146
190	0xbb970ecd	-0.0046099187
191	0x3dbaafa9	0.09115536
192	0xbd6ac26c	-0.05731432
193	0x3dc63a6f	0.09679114
194	0xbce160f2	-0.027512047
195	0x3d23e323	0.040011536
196	0xbc9c6120	-0.019089282
197	0xbc3cc83a	-0.011522347
198	0xbcf51742	-0.029918317
199	0xbd4f447b	-0.050602417
200	0x3d8e619d	0.06952212
201	0x3c66aa1e	0.014078645
202	0xbcd23e34	-0.025664426
203	0x3c9b20d8	0.01893656
204	0xbdbc45f3	-0.09193029
205	0xbdec3456	-0.1153342
206	0x3d781a57	0.060571995
207	0x3cf62a88	0.030049577
208	0x3d93d5a7	0.07218485
209	0xbd343200	-0.043992996
210	0xbcebcf39	-0.028785335
211	0x3dcb7f66	0.09936409
212	0xbd985c90	-0.0743953
213	0xbd041603	-0.032247555
214	0x3a214465	0.0006151854
215	0x3acc332f	0.0015579219
216	0xbd357d71	-0.044309083
217	0x3d73abc8	0.059489995
218	0x3d5e45c2	0.054265745
219	0x3d2b78fc	0.041863427
220	0xbdba75ff	-0.09104537
221	0xbda2aa34	-0.0794262
222	0x3d95beee	0.073118076
223	0xbd9c939b	-0.07645341
224	0x3dba7256	0.09103839
225	0xbb89256a	-0.0041853683
226	0x3d17b9c6	0.0370424
227	0xbc9c3a09	-0.019070642
228	0x3b6ae2ed	0.0035840825
229	0xba6a286c	-0.0008932415
230	0x3c88b3df	0.016687332
231	0x3d2e9880	0.042625904
232	0x3d31dbbe	0.043422453
233	0xbd1a7a7a	-0.03771446
234	0x3d4dc165	0.050233264
235	0x3d6ac504	0.057316795
236	0x3d469e28	0.048490673
237	0xbb42a8a6	-0.0029702573
238	0xbd348158	-0.044068664
239	0xbc0271e2	-0.007961722
240	0x3e018c8a	0.12651268
241	0x3b605579	0.0034230633
242	0xbdc8606a	-0.097840145
243	0x3d0796bb	0.033102732
244	0x3d10c95b	0.035348278
245	0x3d84a7ce	0.06477319
246	0xbd35b65c	-0.044363365
247	0x3ddd07b5	0.107924856
248	0xbde184d0	-0.1101166
249	0x3dae7aab	0.08519491
250	0x3d55b12e	0.052170925
251	0xbd9472f7	-0.0724849
252	0x3d907412	0.07053389
253	0xbd1d0ca4	-0.038342133
254	0x3deb3d85	0.11486343
255	0xbd10ddb0	-0.035367668

conv2.bias f4 [32]
0	0x3cfeba2c	0.031094633
1	0x3d86ed76	0.06588261
2	0x3c104b2a	0.008806983
3	0xbd7e596a	-0.06209699
4	0xb9803f74	-0.0002446134
5	0x3ce87fd1	0.02838126
6	0x3d53448f	0.051579054
7	0xbd8fd4e7	-0.0702303
8	0x3cab45e8	0.020907357
9	0xbdd19800	-0.1023407
10	0xbd995d62	-0.074885145
11	0xbde1d504	-0.11026958
12	0xbd02a08c	-0.03189139
13	0x3e04045b	0.12892286
14	0xbd8ba7be	-0.06819104
15	0x3e1d942e	0.15388557
16	0xbd598048	-0.053100854
17	0xbca86952	-0.020558033
18	0x3daa3ebe	0.083127484
19	0xbd134332	-0.035952754
20	0x3da1361c	0.07871649
21	0xbc60675c	-0.013696518
22	0xbd21c81c	-0.03949748
23	0x3d63300f	0.055465754
24	0x3d58f402	0.05296708
25	0x3e088861	0.13333274
26	0xbd62318d	-0.055223037
27	0xbdf4fd3b	-0.119623624
28	0xbd21ea35	-0.039529998
29	0xbcc5597e	-0.024090525
30	0x3d218b3f	0.039439436
31	0x3dfe5cff	0.12420081

fc1.weight f4 [32, 512]
0	0xbe0ea6fc	-0.13930887
1	0x3d2be5a7	0.04196706
2	0x3a535f97	0.0008063255
3	0xbbc5a2db	-0.006031377
4	0x3cb0da5e	0.0215885
5	0xbca6364e	-0.020289566
6	0xbc1738db	-0.009229864
7	0xbdd56251	-0.10419143
8	0xbdbb51f8	-0.09146494
9	0xbd3b7153	-0.04576237
10	0xbd861213	-0.06546416
11	0x3d14aa44	0.03629519
12	0xbd9a2ea1	-0.07528425
13	0x3d86d222	0.065830484
14	0x3c194611	0.009355084
15	0x3cbe1eac	0.023207985
16	0x3cc45a16	0.023968738
17	0x3d91d088	0.07119852
18	0x3d9effa3	0.077636026
19	0xbd8afe6d	-0.06786809
20	0x3cb0e3c6	0.021592986
21	0xbdb9b90a	-0.090684965
22	0x3c8062e4	0.015672155
23	0x3cb0053c	0.021486871
24	0xbcb697c7	-0.02228917
25	0xbe073243	-0.13202767
26	0xbc9adf8e	-0.018905427
27	0xbd13853d	-0.036015738
28	0xbdac392c	-0.08409342
29	0x3cf079be	0.029354926
30	0x3ca4e8e6	0.020130586
31	0x3d2c71d1	0.04210073
32	0x3e3bfe84	0.18358809
33	0xbca79ee1	-0.020461502
34	0x3ad5ddeb	0.0016316747
35	0xbda041e1	-0.078250654
36	0xbd602d7f	-0.05473089
37	0xbd953796	-0.07285993
38	0x3d11a1dd	0.035554755
39	0xbca30e25	-0.019904206
40	0x3d12b245	0.035814542
41	0x3d53639b	0.051608663
42	0xbabdc1ff	-0.0014477371
43	0x3d5d9050	0.054092705
44	0x3e06fe6f	0.13182996
45	0x3bdbf6f9	0.006712791
46	0xbd493838	-0.04912588
47	0x3bab53d3	0.0052284985
48	0x3c960ac9	0.01831569
49	0x3da5cf9f	0.08096241
50	0xbd848c93	-0.06472125
51	0x3df48e61	0.11941219
52	0xbcc5ddd7	-0.024153633
53	0x3be1c741	0.006890208
54	0xbd9344d1	-0.0719086
55	0x3e23f389	0.1601087
56	0xbd5d856d	-0.054082323
57	0x3cb1a178	0.02168344
58	0xbbc7f831	-0.006102585
59	0xbc621b8b	-0.013800512
60	0x3cafd27a	0.021462668
61	0xbd42a40a	-0.04751972
62	0xbd17c4d6	-0.03705295
63	0xbbfe912b	-0.00776877
64	0x3d31f932	0.04345054
65	0x3d0866b5	0.033301074
66	0xbd481294	-0.048845842
67	0x3b835e78	0.0040090643
68	0xbc8dbd9a	-0.017302323
69	0xbc09a856	-0.008401951
70	0xbdb5f404	-0.08884433
71	0xbca413db	-0.020029
72	0x3d1d9314	0.038470343
73	0xbc42ccfe	-0.011889694
74	0xbdcc1bc6	-0.09966235
75	0x3cadd4f9	0.021219717
76	0x3d4bb659	0.049734447
77	0x3d977986	0.07396226
78	0x3da060a9	0.078309365
79	0xbc8cbb77	-0.017179234
80	0xbd9a1ddb	-0.07525226
81	0xbb0dd0eb	-0.0021639417
82	0x3d480612	0.048833914
83	0xbc94d4ec	-0.018167935
84	0x3beffc39	0.0073237685
85	0x3d75047b	0.059818726
86	0xbd3b73c5	-0.045764703
87	0x3a029c11	0.0004982362
88	0xbd973432	-0.07383002
89	0x3da72aac	0.08162436
90	0x3d4f665e	0.050634734
91	0xbd4aa2d4	-0.04947169
92	0x3cab415b	0.020905187
93	0x3c077ff3	0.008270252
94	0xbd4c32b4	-0.04985304
95	0x3cd8e224	0.02647502
96	0xbd5ea9e9	-0.054361258
97	0xbd2dc215	-0.04242142
98	0xbb7a52c4	-0.0038196305
99	0xbb8bc101	-0.004264951
100	0xbcf05120	-0.029335558
101	0xbd6fd01c	-0.058548078
102	0x3c9e3ec6	0.019317042
103	0xbc1e617d	-0.009666798
104	0xbd782514	-0.060582235
105	0xbd077d35	-0.03307839
106	0x3d78b2af	0.06071728
107	0x3ca27c7b	0.019834748
108	0xbd00242e	-0.031284504
109	0x3dd5ea49	0.10445077
110	0x3dd82e4d	0.10555706
111	0x39ec7b5e	0.00045105343
112	0xbe04657a	-0.12929335
113	0xbbd1bcd9	-0.006400686
114	0x3d58a6f1	0.052893583
115	0x3d41f707	0.047354724
116	0xbd39e1cc	-0.045381352
117	0x3c6d948b	0.014500747
118	0x3c74a2d1	0.014931397
119	0x3decffa4	0.11572197
120	0x3c6413aa	0.013920704
121	0xbd2a39e6	-0.041559123
122	0x3d6b80c4	0.057495847
123	0xbd06c84c	-0.03290586
124	0x3dd926bf	0.10603093
125	0xbd856078	-0.065125406
126	0xbd862047	-0.06549125
127	0x3cb86f5b	0.022514036
128	0x3c7eb1c1	0.0155453095
129	0x3d1dc00f	0.03851324
130	0x3d6047c0	0.054755926
131	0xbcef5474	-0.029215075
132	0xbd02a937	-0.031899657
133	0xbdfa4d41	-0.12221766
134	0xbe0181b5	-0.12647136
135	0xbdc1741a	-0.09445973
136	0xbcbad214	-0.022805251
137	0x3cca8f5a	0.024726558
138	0xbc2fc4cd	-0.010728073
139	0x3dd05b24	0.10173634
140	0xbb6a036e	-0.003570761
141	0x3d62c8ac	0.055367157
142	0x3cc8730d	0.024468923
143	0xbd7105c0	-0.058843374
144	0x3d10f538	0.03539011
145	0xbd08af1d	-0.033370126
146	0x3ca9b441	0.020715835
147	0x3d22748c	0.03966193
148	0x3d9692fb	0.07352253
149	0x3c296b65	0.010340546
150	0x3c88a693	0.016680991
151	0x3c1f876d	0.009736878
152	0x3cc751c6	0.024330985
153	0xbd3b533c	-0.045733675
154	0x3d5f57df	0.05452716
155	0xbc9d5594	-0.019205846
156	0xbddd8490	-0.108163
157	0xbd42db2c	-0.0475723
158	0x3da1337d	0.07871149
159	0xbdc70e82	-0.09719564
160	0x3d704cd8	0.058667034
161	0xbd485c02	-0.04891587
162	0xbd04fc21	-0.03246701
163	0x3d6a8099	0.057251547
164	0xbda797cd	-0.081832506
165	0xbd87c221	-0.06628824
166	0x3d7dadf9	0.06193349
167	0x3d9ba79d	0.07600329
168	0xbdd852d6	-0.10562675
169	0x3da9cbd7	0.082908325
170	0x3b9ce334	0.004787827
171	0x3c58731a	0.013211036
172	0x3d8eee5d	0.06979058
173	0x3d039af6	0.032130204
174	0xbc409499	-0.011754178
175	0x3e263031	0.16229321
176	0x3c93d237	0.018044574
177	0x3dbd8337	0.09253543
178	0x3cddebd0	0.027089983
179	0x3cebf303	0.0288024
180	0xbc2672a1	-0.010159166
181	0x3e1fd4d8	0.15608537
182	0x3bffd620	0.007807508
183	0x3cf3d281	0.029763462
184	0xbc6f5e63	-0.014609906
185	0x3cf19754	0.029491104
186	0xbc633510	-0.013867632
187	0xbd076c02	-0.03306199
188	0x3d2a3148	0.041550905
189	0xbd0603f3	-0.03271861
190	0xbd66ba2b	-0.056329887
191	0x3d402d49	0.046918187
192	0x3d3330bf	0.04374766
193	0x3c9139a5	0.017727682
194	0x3cd35d6b	0.025801381
195	0xbe1945ef	-0.14968084
196	0xbdda1481	-0.10648442
197	0x3d01010e	0.031495146
198	0x3d28f899	0.041252706
199	0x3c9861e0	0.018601358
200	0xbd39e511	-0.04538447
201	0x3d49b385	0.04924347
202	0x3c82eb6c	0.015981399
203	0x3c9a3b66	0.018827152
204	0x3c7d139b	0.015446569
205	0x3d93ece0	0.07222915
206	0x3d6512c9	0.055926118
207	0x3cf497cc	0.029857539
208	0x3c11f97b	0.008909578
209	0x3d258238	0.04040739
210	0xbde7c8f8	-0.113176286
211	0xbdf80637	-0.121105604
212	0x3c4cad62	0.01249251
213	0x3d5c57f5	0.05379482
214	0xb8df6a14	-0.00010653227
215	0x3dff4e32	0.124660864
216	0x3c0a811b	0.008453633
217	0xbd1445e1	-0.036199454
218	0xbd6cc05d	-0.05780064
219	0xbca64467	-0.020296289
220	0x3bbb7cc7	0.0057216617
221	0x3c4be6b4	0.012445141
222	0x3c767459	0.015042388
223	0xbb10cc64	-0.0022094483
224	0x3c89cc2a	0.016820986
225	0x3d774f9f	0.060378667
226	0xbd74e88c	-0.059792086
227	0x3ca7cff7	0.020484908
228	0x3be98ec0	0.007127613
229	0x3d606105	0.054780025
230	0xbd15db12	-0.036585875
231	0xbdc25c99	-0.09490318
232	0x3d1d7c07	0.03844836
233	0xbd322903	-0.043496143
234	0xbdb92e59	-0.09042043
235	0x3d78b96c	0.060723707
236	0x3d93bade	0.072133765
237	0x3d2961d3	0.041353058
238	0xbc96168c	-0.018321298
239	0xbc4f7a57	-0.012663445
240	0x3d0d7023	0.03453077
241	0x3dc42b76	0.09578602
242	0xbca60f42	-0.020270947
243	0xbcb4a136	-0.022049528
244	0xbdb16d6e	-0.0866345
245	0x3d7932b2	0.060839362
246	0xbd0f5f26	-0.03500285
247	0x3d78bb90	0.06072575
248	0xbaa37289	-0.0012470047
249	0x3d1980b0	0.03747624
250	0xbb33e6f5	-0.0027450894
251	0xbc2554dd	-0.010091034
252	0x3b937333	0.004499817
253	0xbdb1884e	-0.08668576
254	0xbdb9a03c	-0.090637654
255	0x3d8fa0fb	0.070131265

fc1.bias f4 [32]
0	0xbd0f24f2	-0.034947343
1	0x3c8ae3d0	0.016954333
2	0xbbe7e13d	-0.007076411
3	0x3d796032	0.060882755
4	0x3d5ec7c7	0.05438974
5	0xbd4d5a61	-0.05013502
6	0x3b624746	0.0034527346
7	0xbdbacbce	-0.09120904
8	0xbd2e910f	-0.042618807
9	0x3d0ee08d	0.034882117
10	0xbcf4a926	-0.029865813
11	0x3a8fa958	0.0010960503
12	0x3d156722	0.03647531
13	0x3da05385	0.0782843
14	0x3d1a50fc	0.03767489
15	0x3dbf279f	0.09333729
16	0xbcc16a8f	-0.023610381
17	0x3da8e1b5	0.08246175
18	0x3d77a21a	0.060457326
19	0xbbaf592d	-0.0053512068
20	0x3d443d15	0.047909815
21	0x3c9d7795	0.01922206
22	0x3c4551ab	0.012043397
23	0x3b4547f5	0.0030102704
24	0x3d8117fa	0.06303401
25	0xbdbcf03a	-0.09225507
26	0x3cc7c124	0.024384089
27	0xbd2f614c	-0.0428174
28	0xbb68df58	-0.0035533514
29	0xbdc86c2d	-0.09786258
30	0x3da2d3f2	0.079505816
31	0x3cdbcd9d	0.026831442

fc2.weight f4 [10, 32]
0	0x3d2b2213	0.041780543
1	0x3e2e1ea6	0.17003879
2	0xbddb48df	-0.107072584
3	0xbe8b72df	-0.27236077
4	0x3e9d83d5	0.30764642
5	0x3e15ff99	0.14648284
6	0xbe764e1c	-0.24053234
7	0x3e30b931	0.17258145
8	0xbe5bc161	-0.21460487
9	0x3e32748c	0.17427272
10	0xbda9174d	-0.082563974
11	0xbe6dd244	-0.23224741
12	0xbe57e0a6	-0.2108179
13	0xbdbbd697	-0.09171789
14	0xbe490537	-0.19630896
15	0x3dd63993	0.104602
16	0x3e17b0e6	0.14813575
17	0xbe47aaa8	-0.19498694
18	0xbd670d83	-0.05640937
19	0x3e313b00	0.17307663
20	0x3c4a9e21	0.012366802
21	0x3eb7e7a8	0.35918927
22	0xbdaa2500	-0.083078384
23	0xbe3ac458	-0.18238962
24	0x3e57358d	0.21016522
25	0xbcbc3ee0	-0.0229792
26	0x3c98a72d	0.018634403
27	0xbd42c2bf	-0.047549006
28	0x3e4193eb	0.18904082
29	0xbe0e7ccd	-0.13914795
30	0x3e09afbe	0.13445947
31	0xbde928e7	-0.11384755
32	0x3d3f4bcc	0.046703145
33	0x3e077e52	0.13231781
34	0xbc2dbb10	-0.010603681
35	0x3e5e46a1	0.2170663
36	0x3e1771c5	0.14789493
37	0x3e215986	0.15756807
38	0x3ca28294	0.019837655
39	0xbea83ba8	-0.32858014
40	0x3db9f85c	0.09080574
41	0xbc12418c	-0.00892676
42	0x3e5703b2	0.20997503
43	0x3b2aec6b	0.0026080857
44	0x3eb6bee1	0.35692504
45	0xbdbc0e86	-0.091824576
46	0xbd6e757c	-0.05821751
47	0x3cc47740	0.023982644
48	0x3d8151bb	0.06314417
49	0xbd9074f7	-0.07053559
50	0x3d459095	0.048233587
51	0x3d73165b	0.05934749
52	0xbe49c445	-0.19703777
53	0xbdc21443	-0.09476521
54	0xbdc6fde4	-0.097163945
55	0xbe2c530b	-0.16828553
56	0x3c8daad4	0.017293371
57	0xbe5fbed7	-0.21850143
58	0xbda39455	-0.079872765
59	0x3d52b9ce	0.05144673
60	0x3d9cec88	0.07662302
61	0xbd38a5cf	-0.045080002
62	0x3e098dbe	0.13432977
63	0x3eafb9ae	0.3432135
64	0x3e3adaa2	0.18247464
65	0x3d840e67	0.064480595
66	0x3e46ee1e	0.19426772
67	0xbe6473ad	-0.22309752
68	0x3dfea991	0.12434686
69	0xbce17157	-0.027519865
70	0x3e25477f	0.16140555
71	0x3dfa0870	0.122086406
72	0xbe174909	-0.14773954
73	0x3df39272	0.118931666
74	0x3e823e67	0.25438234
75	0x3db97054	0.09054628
76	0xbe01bfc3	-0.12670808
77	0xbd6037cc	-0.054740712
78	0x3de37d21	0.11107851
79	0x3e2c0307	0.1679803
80	0x3e5c859b	0.21535341
81	0x3cfc061a	0.030764628
82	0xbd877293	-0.0661365
83	0xbdc886ba	-0.09791322
84	0x3b8d4286	0.0043109087
85	0xbeb2a17e	-0.34888834
86	0xbdef895d	-0.11696122
87	0xbdea0423	-0.1142657
88	0x3e5ca49c	0.21547168
89	0x3e3bc2ac	0.1833598
90	0xba8aac89	-0.0010579984
91	0xbe4fa2c1	-0.2027693
92	0xbb32520b	-0.0027209546
93	0x3e5d03d1	0.21583487
94	0xbc203408	-0.00977803
95	0x3e85b7de	0.26116842
96	0x3a7b1784	0.0009578394
97	0x3e06d34b	0.1316654
98	0xbd88e589	-0.06684405
99	0xbe70fde2	-0.23534349
100	0xbdea07f3	-0.114272974
101	0x3d8c05d8	0.06837052
102	0x3e56ad03	0.20964436
103	0x3e66d1fd	0.22541042
104	0x3e51224e	0.20423242
105	0x3d98ed18	0.07467097
106	0x3e061948	0.13095582
107	0x3e22683e	0.15860078
108	0xbe66cdbd	-0.2253942
109	0x3d89f4b7	0.06736129
110	0x3c6f4bdd	0.01460549
111	0xbe5a0f69	-0.21294941
112	0xbcbb2390	-0.022844106
113	0xbc1fbec5	-0.009750073
114	0x3dcfc636	0.101452276
115	0xbe27eecc	-0.16399688
116	0xbe87c3cd	-0.26516572
117	0x3e102bf0	0.14079261
118	0x3dfcf1f6	0.12350838
119	0xbd7d93a8	-0.061908394
120	0x3e092335	0.13392337
121	0x3ded21b8	0.11578697
122	0xbbca825f	-0.006180092
123	0x3e0961ac	0.13416165
124	0x3d105a31	0.035242263
125	0x3bfba4c4	0.0076795537
126	0xbe539dda	-0.20665684
127	0xbe01d2ec	-0.12678117
128	0x3e51dcf0	0.20494437
129	0xbda057c7	-0.07829242
130	0x3dba3aed	0.090932705
131	0xbd49b7aa	-0.04924742
132	0xbd8f1555	-0.06986491
133	0xbbbd796a	-0.005782296
134	0x3e86403f	0.2622089
135	0xbe6aeb96	-0.22941431
136	0xbd085ae3	-0.0332898
137	0xbd7aa56d	-0.06119292
138	0xbc8857d0	-0.016643435
139	0x3d318a4a	0.043344773
140	0x3d1f49f4	0.038888887
141	0xbbf4fbda	-0.007476312
142	0x3bdd88d5	0.0067606964
143	0xbb36a22f	-0.0027867665
144	0xbd526430	-0.051365077
145	0xbe0b4863	-0.13601832
146	0xbe0fde01	-0.14049532
147	0xbd091f04	-0.033476844
148	0x3ea1ad0a	0.3157733
149	0x3e4d6222	0.20056966
150	0x3d99a20b	0.0750161
151	0xbdf82293	-0.121159695
152	0xbe885d9d	-0.2663392
153	0xbce90505	-0.028444776
154	0xbc9a56c8	-0.018840209
155	0x3d94ea90	0.07271302
156	0xbd5decef	-0.054181036
157	0xbd773306	-0.060351394
158	0x3e404e1a	0.18779793
159	0xbcc47a70	-0.023984164
160	0x3db9ac9f	0.09066128
161	0x3cb567e8	0.022144273
162	0xbe8e96b8	-0.27849364
163	0xbdfdcafb	-0.12392231
164	0xbe56002e	-0.20898506
165	0xbdf9774c	-0.12180957
166	0xbe0b8d1b	-0.13628046
167	0x3e8b14df	0.2716436
168	0xbe5e7f2e	-0.21728203
169	0xbe26c3c6	-0.16285619
170	0xbd4dc755	-0.050238926
171	0x3e961653	0.29313907
172	0xbdb6d545	-0.08927397
173	0xbe2eb2e4	-0.17060429
174	0xbe16f796	-0.14742884
175	0x3b46ad2a	0.0030315616
176	0x3d3dfad6	0.046381794
177	0xbdd99a54	-0.10625139
178	0x3d21d8ba	0.039513327
179	0x3e5de358	0.21668756
180	0x3df47cde	0.11937879
181	0xbbbee58d	-0.0058257044
182	0xbe2400c5	-0.16015919
183	0xbd51d76f	-0.051230844
184	0xbd499e1a	-0.049223043
185	0x3b1f1fe1	0.0024280476
186	0xbd6df1a5	-0.05809178
187	0xbe333ae2	-0.17502931
188	0x3e8a247c	0.2698096
189	0xbd303f1d	-0.04302894
190	0xbcf3ca8f	-0.029759673
191	0xbde2b7bf	-0.11070203
192	0x3e83f28f	0.25770995
193	0xbe537d09	-0.20653166
194	0x3e93bae5	0.28853527
195	0x3dd4af60	0.103850126
196	0xbdc259d6	-0.09489791
197	0xbe52966a	-0.20565191
198	0xbe2cdc11	-0.16880824
199	0x3e0a2baf	0.13493226
200	0xbdbca4d2	-0.092111245
201	0x3dfa9aca	0.12236555
202	0xbd04d22f	-0.03242701
203	0x3d54f5dc	0.051992282
204	0xbdc11465	-0.09427718
205	0xbe0548f6	-0.13016114
206	0xbea47228	-0.32118344
207	0x3e73cb5d	0.23808046
208	0x3e5c8fa9	0.21539177
209	0xbcb72894	-0.022358216
210	0xbe657736	-0.22408757
211	0xbe0aa000	-0.13537598
212	0x3e6b6e5a	0.22991315
213	0xbe3912c3	-0.18073563
214	0x3db2cb67	0.08730202
215	0x3d3b4ddb	0.045728546
216	0xbe397880	-0.18112373
217	0xbdbf709a	-0.09347649
218	0x3d8fe153	0.07025399
219	0xbe3dfb0c	-0.18552798
220	0x3ddf07f2	0.10890187
221	0x3e480051	0.1953137
222	0x3e79dc35	0.24400409
223	0x3e14ff5a	0.14550534
224	0x3d98af5d	0.07455323
225	0x3dce198c	0.100634664
226	0xbe9bc7ac	-0.30425775
227	0x3dbef48a	0.09323986
228	0x3da699da	0.081348136
229	0xbd86e975	-0.06587497
230	0xbdf422f3	-0.119207285
231	0xbe804b02	-0.25057226
232	0x3ead85f2	0.33891255
233	0xbdb413ae	-0.08792816
234	0x3e586bef	0.21134923
235	0xbe4df257	-0.20111977
236	0xbdffc648	-0.12488991
237	0xbcafc860	-0.021457851
238	0x3e6b3631	0.22969891
239	0x3b88297c	0.004155336
240	0x3e217258	0.15766275
241	0xbe035631	-0.12825848
242	0xbcb0f313	-0.021600282
243	0x3e27d2fc	0.16389078
244	0x3e292ba8	0.1652056
245	0xbd4a6000	-0.04940796
246	0xbd0029fe	-0.031290047
247	0xbe469f6d	-0.19396754
248	0xbd23e6b7	-0.04001495
249	0x3dab549d	0.08365748
250	0x3d981fb0	0.07427919
251	0x3ea26f98	0.31725764
252	0xbe2201b1	-0.15820958
253	0x3de0a572	0.10969056
254	0xbda43541	-0.0801797
255	0x3c89356b	0.016749104

fc2.bias f4 [10]
0	0x3def30a8	0.11679202
1	0x3d8c0114	0.06836143
2	0xbcc2b763	-0.023769086
3	0xbdc3f0f3	-0.09567442
4	0xbe086f23	-0.13323645
5	0xbe17a3f8	-0.14808643
6	0xbddf2bac	-0.108970016
7	0xbba58a94	-0.00505192
8	0xbe10a0b3	-0.14123802
9	0xbcb9e3f0	-0.022691697
