Codes/mnist_cnn_mnist_6_False_0.1_1.0_1.0_64_1.pt (torch, 106255 bytes, 8 tensors)

conv1.weight f4 [16, 1, 8, 8]
000000 8b ae 56 3d 47 90 94 3d d4 f2 21 3e d8 42 88 3d
       0.05241255 0.07254081 0.15815288 0.066533744
000010 70 88 64 3d 8a 57 ba bd 5e db 28 3d 13 13 2d 3e
       0.05579418 -0.09098728 0.04122483 0.16901807
000020 b9 97 84 bc f3 43 03 bd c6 43 bb bc b5 6b f8 bc
       -0.016185628 -0.032047223 -0.022859465 -0.030324796
000030 c4 48 70 bb ec c3 97 3d d7 34 24 3d 2a 58 c9 3d
       -0.0036664465 0.07410416 0.040089455 0.09831269
000040 e2 a8 84 3d 78 9c a5 3d a3 4e 2a bd 68 93 12 bd
       0.06477524 0.08086485 -0.0415789 -0.03578511
000050 06 54 69 bc bc ef af 3c dd 71 05 bc 61 ff 99 3d
       -0.014241224 0.021476619 -0.008144823 0.07519413
000060 cd 93 c0 3d 1a 66 25 3d 02 ba d7 bd a0 ee e9 3d
       0.09403191 0.040380575 -0.10533525 0.11422467
000070 e4 d1 27 3c 12 61 44 3c 58 7a 10 3d ec 31 9a bd
       0.010242913 0.011986034 0.035272926 -0.07529053
000080 cf ec 33 3e b1 ab f8 bd fe 05 07 3e 50 31 fb 3d
       0.17570804 -0.121421225 0.1318588 0.12265265
000090 a0 cd 44 bc c0 dc fb bd 88 af 7b 3d 72 99 ac bd
       -0.012011915 -0.12297964 0.061446697 -0.08427705
0000a0 bb 08 a1 3d 22 9e 83 3d 5d d4 42 3e 03 86 22 3e
       0.07862993 0.06426646 0.19026323 0.15871434
0000b0 87 c2 74 3c 2e be df bb 5d fc 16 bc f9 ee 02 3e
       0.014938957 -0.006828091 -0.0092154415 0.12786473
0000c0 c1 76 6a 3d db 73 8c 3c 6f 81 ef 3c a6 88 74 3d
       0.05724216 0.017145088 0.029236523 0.05970063
0000d0 b9 d4 81 3e 7f a2 ed 3d b8 82 10 bd f3 79 0c bd
       0.25357607 0.11603259 -0.035280913 -0.034295987
0000e0 21 9e 98 bd 10 0e bd 3d ae 92 14 3e 58 d6 44 3d
       -0.07452036 0.09231198 0.14509079 0.048055977
0000f0 13 ee 29 3e 8e 35 11 3e ad 14 fd 3d bf a9 0f 3d
       0.16594724 0.14180586 0.12357459 0.035073992
000100 28 b0 09 38 6e 79 77 bc d1 e4 c9 3d b2 71 cf 3c
       3.2827404e-05 -0.015104635 0.098580964 0.025322769
000110 7e b9 11 3c d1 b5 a8 3a 84 21 f6 3d a8 b3 c3 bb
       0.008894322 0.0012871568 0.12018111 -0.0059723444
000120 d0 6d f1 3d bf da ea 3d 7d 4b bb bd 7e 97 29 3d
       0.11788523 0.11467504 -0.091452576 0.04140424
000130 0a 3f 67 3e e3 f0 53 bd 42 56 f5 bd e7 0d 44 3d
       0.22582641 -0.0517434 -0.11979343 0.04786482
000140 3e 59 f7 bd 44 00 d1 bd b5 62 14 bd a6 ed b8 bb
       -0.120775685 -0.10205129 -0.036226947 -0.0056435643
000150 57 ad a4 3e d5 24 f3 3d 0d a3 d0 bc 15 99 62 3d
       0.32163498 0.118722595 -0.025468374 0.05532177
000160 0f 8c 25 be c5 9c 8e bd d6 10 70 3d 29 eb 71 bc
       -0.1616671 -0.06963495 0.058609806 -0.014765539
000170 25 83 e8 3d e1 a0 c5 bc 0a b6 10 be ef c8 0d 3e
       0.11353139 -0.024124565 -0.14131942 0.13846181
000180 72 bb 84 3d 46 a7 6e bd 0b a6 87 bd 05 aa 79 3a
       0.06481065 -0.058264993 -0.06623467 0.0009523931
000190 41 54 19 3e 9f a4 e6 3d 22 67 a7 bc 62 0a 81 3b
       0.14973547 0.11261868 -0.02043492 0.0039380053
0001a0 cf d9 dc bd 15 7b 98 3d 7a 72 10 3e 08 71 69 3e
       -0.10783731 0.07445351 0.1410617 0.22797024
0001b0 12 04 94 3d 48 b1 25 bc 84 a6 2a bd f1 0d 58 3d
       0.07227339 -0.010113068 -0.041662708 0.05274767
0001c0 9b 8b f5 bc f4 6f d7 3c 3a f7 08 3e ce 7e 79 3d
       -0.029973796 0.0262985 0.1337556 0.060911946
0001d0 dd 0a d1 bd 59 fc ec 3c f4 ca 64 bd e2 47 44 3d
       -0.1020715 0.028928922 -0.055857614 0.047920115
0001e0 4b 59 d8 bc b5 a3 06 3d c4 e4 63 3e da cb 1b 3e
       -0.026409766 0.032870967 0.22255236 0.15214482
0001f0 05 a4 79 bd 66 b2 07 bd 20 28 f3 bd d7 8a a5 3d
       -0.060947437 -0.03312912 -0.118728876 0.08083122
000200 df e7 cc bc 5a 81 57 3d 24 92 14 3e 0c f9 e1 bd
       -0.025012909 0.052613594 0.14508873 -0.1103383
000210 46 c0 b2 3d 44 7b 87 bb 85 40 4e 3e df aa 0e 3e
       0.087280795 -0.0041345675 0.201418 0.1393237
000220 f7 5c 98 3d 64 12 9d bd 5f b4 57 3e 3e d0 a4 3d
       0.07439607 -0.07669523 0.210649 0.080475315
000230 3e b8 bf 3d e1 ac 4d 3e db 09 56 3e 38 54 a2 3c
       0.09361313 0.2008548 0.20902197 0.01981555
000240 c4 9c 3f bd 6f 00 29 bd d2 1e e1 3d f1 b6 3d 3e
       -0.046780363 -0.04126018 0.10992207 0.18526818
000250 19 e1 43 3e b4 20 35 bd 00 6a 0b 3e 21 bf 94 bc
       0.19128837 -0.04422064 0.13614655 -0.018157544
000260 d0 ad e8 3d 67 00 62 bd 78 84 a0 3d 86 5d 3b 3e
       0.11361277 -0.055176165 0.078377664 0.18297395
000270 a2 20 22 3e 68 a7 3a 3d b4 3c 6f 3e 96 57 9e 3d
       0.15832761 0.045569807 0.23363 0.077315494
000280 b5 62 23 bd 34 cc 28 be 38 77 59 3c 63 b5 c3 bd
       -0.039889056 -0.16484147 0.013273053 -0.09556081
000290 79 7c 02 3d fc 9e 85 3c 40 e2 2c 3e 40 08 54 3d
       0.031856988 0.016311161 0.16883183 0.05176568
0002a0 67 92 a4 bd cd 5b 19 be 57 43 22 bd c9 ff e4 bd
       -0.080357365 -0.14976425 -0.039615 -0.111816
0002b0 1d 34 ec 3d e9 7b ab 3e e4 02 81 3c 08 40 d7 bd
       0.11533377 0.33492973 0.015748449 -0.1051026
0002c0 10 ef 60 bd db 8e 7d 3c c2 04 40 ba 22 82 dd bd
       -0.054915488 0.015475954 -0.0007324928 -0.108158365
0002d0 1c 2d 56 3e 5b d1 a8 bd 5d d3 b9 3d f4 93 cb 3b
       0.20915645 -0.082430564 0.090735175 0.0062127057
0002e0 9b 1c b4 bd 50 1a 8a bc 0b bf 4e bc a0 ff 4e bc
       -0.087945186 -0.01685825 -0.01261879 -0.012634188
0002f0 f8 ed 0b 3b e8 2a 56 3e 87 d0 12 3e 46 ea 05 3c
       0.0021351557 0.20914805 0.1433736 0.008173531
000300 2d 21 ec 3d d8 78 c7 3d e8 37 28 3e eb c1 c1 3d
       0.11529765 0.09739846 0.16427577 0.09460815
000310 66 ef 44 3e e3 90 7c bc 33 f3 dd bd 7e 9b c7 bc
       0.19231948 -0.015415403 -0.10837402 -0.024366137
000320 13 16 48 bd ad 00 b9 3d 95 7e 5d 3d 2f d1 64 3e
       -0.048849177 0.09033332 0.054075796 0.22345422
000330 7e 8a 95 bd bf 82 e8 bc 3a 7c f4 bd ce ab f6 3d
       -0.07301806 -0.028382657 -0.11937757 0.12044488
000340 d9 71 82 bc 18 18 d3 bd 53 2b 93 3d b9 27 2d 3e
       -0.015923427 -0.1030733 0.07185998 0.16909684
000350 4c f1 7e 3d fa ec 1a bd 94 e5 3f 3d 37 61 08 be
       0.062241837 -0.037823655 0.046849802 -0.13318335
000360 91 c8 84 bd 08 cf 0f 3d ad d2 35 3e 0a 5b a1 3d
       -0.064835675 0.03510955 0.17756148 0.078786924
000370 e6 41 b2 bb 64 f4 b5 3c 6b cd 87 bd 6d 19 b3 bb
       -0.0054399846 0.022211261 -0.06630977 -0.0054656775
000380 3c 95 d5 bd 4d ff 05 3d 19 da 00 be c6 ed d1 3d
       -0.10428855 0.032714177 -0.12583198 0.1025043
000390 d1 f2 ab bc f8 fb f4 3c c2 60 44 bd 82 b8 42 3d
       -0.020989807 0.029905304 -0.047943838 0.04753924
0003a0 ff 24 a3 3d 0f d9 52 3c a2 94 b6 bd ee 41 a1 bb
       0.07966041 0.012869134 -0.08915068 -0.0049211895
0003b0 3a 2f d1 bb df 7d ff bd c8 4e b7 bb 57 08 63 bd
       -0.0063838037 -0.1247518 -0.0055941083 -0.055427875
0003c0 82 46 85 bd 03 e9 bb 3c 6f ba e4 3d 17 a5 f5 bb
       -0.06507589 0.022938257 0.11168372 -0.007496487
0003d0 35 be c3 bd 7a 88 4a bd 2f 94 f2 bd ef b8 ba bd
       -0.095577635 -0.04944656 -0.1184467 -0.091173045
0003e0 95 16 8e bd 6d 8d 65 3c 23 c1 98 bd 74 85 02 3e
       -0.06937901 0.014010769 -0.07458713 0.12746221
0003f0 d9 2c 5f bd bc 63 09 3e 49 94 73 bd b0 0a 92 bd
       -0.05448613 0.13416952 -0.059467588 -0.07130945

conv1.bias f4 [16]
000000 8e a7 9f bc af 6d ac bd f5 a9 25 3d fd bd 02 3e
       -0.019489076 -0.08419358 0.040445287 0.12767787
000010 5c d4 df 3c 0d d1 1f 3e 52 17 13 3e 87 33 2b bd
       0.02732294 0.1560709 0.14364365 -0.041797187
000020 11 7a c7 bd c5 8b 0e be 9d 3d 3c 3d 0c 4b da 3d
       -0.09740079 -0.13920505 0.045957197 0.10658845
000030 c7 da fe bd ac 13 dc 3d bc 01 89 bd a6 9e 42 bd
       -0.12444072 0.107459396 -0.06689784 -0.04751458

conv2.weight f4 [32, 16, 4, 4]
000000 9d 36 1b bd 1a ce a3 3b fd 7b fe bc 98 fb ec bc
       -0.03789388 0.0049989345 -0.031064982 -0.028928563
000010 eb ad 1a bd a8 87 8e 3d b9 83 99 bd fa 91 c3 bd
       -0.037763517 0.06959468 -0.07495827 -0.09549327
000020 57 da a7 bd 18 9c 95 3d 1d e5 0c bd ed fd b1 3c
       -0.08195942 0.07305163 -0.034398187 0.021727527
000030 de 1a 3a 3d f8 db 87 bd 44 49 29 bd 8d c6 2b bb
       0.04543578 -0.066337526 -0.041329637 -0.0026210875
000040 43 1f 59 3c df ef 3e 3b c0 e1 46 3d 6b 31 0b 3d
       0.013252082 0.0029134674 0.048555136 0.033982676
000050 33 73 2b bc 33 1b f4 3d 3e 18 15 bd af 09 54 bc
       -0.010464477 0.1191925 -0.036400072 -0.012941762
000060 b5 87 c0 3c ab 7e 4e 3d 0e 8e 8b 3c 0e f8 2e b9
       0.02350221 0.05041377 0.01703551 -0.0001668634
000070 c6 89 51 3d a8 4d 01 bc 90 51 c4 3d e8 51 85 3d
       0.05115678 -0.00789205 0.09585869 0.06509763
000080 5a 94 44 be e3 b7 2b bc 12 22 2a bd f6 72 f8 bd
       -0.19197217 -0.010480854 -0.0415364 -0.12131302
000090 ca a0 ce 3c 16 79 34 3d d1 0c a1 3c d2 79 d3 3c
       0.025223155 0.04406079 0.019659432 0.025814924
0000a0 c9 ff b3 bb a3 37 04 bc 2d 51 1b bd bf 26 b6 bd
       -0.0054931385 -0.008069905 -0.037919212 -0.08894109
0000b0 6a 76 80 bd 00 41 eb bd d2 98 8c 3d 85 d8 99 bc
       -0.06272586 -0.11487007 0.06865086 -0.018780002
0000c0 2c a9 8d 3b 70 05 2a 3d df f2 2d bc 82 db da 3c
       0.0043231454 0.04150909 -0.010616987 0.026715998
0000d0 12 4a 0a 3d 1c e1 a6 3d 41 92 7c bd 85 11 bd 3d
       0.033762045 0.08148405 -0.061662916 0.09231857
0000e0 72 f9 b7 bc 84 88 cb 3c 5a 64 40 bd 5b 0c 46 3d
       -0.022457812 0.02484537 -0.046970703 0.048351627
0000f0 df 3a 40 bb ce e4 85 bd 3e e9 fa 3b df 6f 87 3c
       -0.0029331965 -0.06537782 0.007657199 0.016532836
000100 2a 6c c6 bc ea bd 6a 3d f7 74 a5 bc cf 28 b3 bb
       -0.024221499 0.057310022 -0.020197375 -0.0054675112
000110 c0 c2 c8 bc cb 6b 38 bd f6 6b 4a bd 2c 5b 10 bd
       -0.024506927 -0.045024674 -0.049419366 -0.0352432
000120 9c e8 48 bd cc ae bd bc c3 bd 07 bd 6a 64 6e 3d
       -0.04904996 -0.023154639 -0.033139955 0.05820123
000130 ff de 0c bd f2 00 d7 3c 93 c9 03 be be 42 96 bd
       -0.034392353 0.026245568 -0.12869863 -0.07336949
000140 f3 50 b5 bd f7 b4 3d 3a f5 59 2f bd 92 75 16 3d
       -0.088533305 0.00072367437 -0.0428104 0.036733218
000150 e9 c3 03 3e a9 35 df bc 90 5c 1c 3d 57 59 6a bc
       0.12867703 -0.027247267 0.038174212 -0.014303527
000160 19 c4 34 3c c7 a8 c9 3b 07 91 00 3e 97 3e 71 3d
       0.011033081 0.006154153 0.12555324 0.05889758
000170 3d 42 31 bd f6 b7 5d bd 3d f3 69 bd 53 b8 a0 3c
       -0.04327606 -0.054130517 -0.057116736 0.019619143
000180 83 3a 9b bd 52 ec 49 3d 0b df 10 3d 91 96 d0 3d
       -0.075795196 0.04929764 0.03536896 0.10184968
000190 79 b5 29 bc 01 a0 10 3c 3d cd 9b bd d6 58 9f 3d
       -0.010358208 0.00882721 -0.076075055 0.07780616
0001a0 59 1a 03 3d 63 36 08 bd c6 d7 3b be cf ed ab 3d
       0.03200755 -0.033254992 -0.1834403 0.08394968
0001b0 f4 c4 ac bc 10 5b 5e bd 5d 5c 24 bd f8 2e 70 bd
       -0.021090008 -0.054286063 -0.040127147 -0.058638543
0001c0 e3 d3 41 bd 9a 6b 8f bd a9 8d 18 bd 40 b9 55 bc
       -0.04732121 -0.07002945 -0.037244473 -0.013044655
0001d0 04 8f 33 3d 90 46 f9 3b 80 46 0c 3d 61 ed ac bd
       0.043837562 0.0076072887 0.03424692 -0.08443714
0001e0 b1 11 91 3d 42 9c 4c bd 9d 7a ac bc 89 ef 0c be
       0.070834525 -0.049953707 -0.02105456 -0.1376325
0001f0 c5 19 0f bd f5 c6 d7 3c 9e 18 8a 3c a7 da e7 3c
       -0.034936685 0.026339987 0.016857442 0.028302504
000200 9b d0 38 3d 76 2e f8 bc ba 32 d2 bc 55 60 79 3d
       0.045120817 -0.030295592 -0.025658954 0.060882885
000210 15 e9 72 bd 6a eb 84 3c 56 4f 55 bd 7b e3 60 3d
       -0.059304316 0.016225535 -0.052077614 0.054904442
000220 45 71 0c 3d fc ba 06 bd 89 f6 b7 3d 07 51 27 3c
       0.03428771 -0.032893166 0.0898257 0.0102121895
000230 06 32 c9 3d 14 9a a2 bd f9 f7 2b 3c cf 0d e9 bc
       0.09823994 -0.07939544 0.010496133 -0.028448967
000240 ed 3b 3d 3d b4 d0 ac 3d bb 9f 32 bd ed c7 dd 3d
       0.046199728 0.084382445 -0.043609362 0.108291484
000250 9c cd bc 3d 83 e5 40 bd 4e 68 8e 3d ef 3c 90 3d
       0.092189044 -0.04709388 0.06953488 0.07042872
000260 c5 51 86 3c 9b fa 7d bc 53 89 f7 3c 64 95 7b 3d
       0.016396413 -0.0155016435 0.030216848 0.061421767
000270 d2 aa df 3c 0b 5c b9 bc d0 35 b0 bd f9 3e 6a 3d
       0.027303133 -0.022626897 -0.08604014 0.05718896
000280 60 b0 8c 3c e9 b9 52 3c d3 74 13 3d 3c ec 52 bd
       0.017173946 0.012861707 0.036000084 -0.051494822
000290 be 46 10 be 68 9d 8a bd de 8e b6 bc f5 bb 75 bd
       -0.14089486 -0.06768304 -0.022284921 -0.059993703
0002a0 66 e7 d4 bd fc 07 dc bc 87 8c ac 3a 77 ae f6 bc
       -0.10395698 -0.026859276 0.0013164439 -0.030112488
0002b0 98 cc 91 3d 59 17 cc bd 53 29 03 3d 00 2b fe 3c
       0.07119101 -0.09965391 0.03202183 0.031026363
0002c0 79 50 82 3c 43 ec fb 3d 25 56 52 3c 6d e1 f7 3c
       0.015907513 0.12300923 0.012837921 0.030258859
0002d0 3c 5d 8a bd 35 ea 23 3c 09 b0 ac bc 1d 67 53 3c
       -0.06756064 0.01000457 -0.021080034 0.012903002
0002e0 49 1f c8 3c 16 0b 0f 3d a3 99 1d 3d 45 fb 80 bc
       0.02442898 0.03492268 0.038476598 -0.015744815
0002f0 2c f3 70 3d 34 e6 72 3d 71 fc d2 3d 2c a3 86 bc
       0.058825657 0.05930157 0.103020556 -0.016435228
000300 94 d6 60 3c c4 2d 03 be 6e 0b 38 be 86 3a 0e 3d
       0.013723034 -0.12810427 -0.1797311 0.03472378
000310 04 b2 c6 3d e0 83 9a bb f9 92 89 3d 93 43 8a bd
       0.097019225 -0.0047154278 0.06717486 -0.0675117
000320 0b 4b f9 3d 01 2c b1 3d b2 70 68 bd 0d b0 67 bd
       0.121725164 0.08650971 -0.0567481 -0.05656438
000330 9a cb 17 be b4 c6 81 3c 30 0e d5 3c 0c c8 c8 3c
       -0.14823762 0.01584182 0.026007742 0.024509452
000340 0f e1 a1 bb 3a f5 c4 bd c7 80 89 bd c2 69 db bd
       -0.004940159 -0.09617086 -0.067140155 -0.10713531
000350 80 2b bd 3d db 63 96 bb 09 5e f8 bd 8a 98 19 3d
       0.092368126 -0.0045895404 -0.12127311 0.03749899
000360 50 73 97 3d 9b 2b ed 3c e1 ce 1d bd af ca 0f bd
       0.07395041 0.028951457 -0.038527373 -0.035105404
000370 dd 60 5b bd b9 93 7c bd cc 21 23 bd 4f ee 87 bd
       -0.053559173 -0.061664317 -0.039827153 -0.06637251
000380 2d 26 fb bd 3f 18 86 bd 54 94 64 bd fa 40 42 3d
       -0.12263141 -0.06547593 -0.05580552 0.047425248
000390 bc 79 5b 3d 32 70 5e bc 76 42 ec 3d a4 82 a1 3d
       0.05358289 -0.013576554 0.11536114 0.07886246
0003a0 55 a6 af bb 0b 64 ae bb 69 d9 6f 3d 02 f9 97 bd
       -0.0053604045 -0.0053219846 0.058556948 -0.07420541
0003b0 7e 3d cd 3c 60 d8 20 3c 10 4f 63 3c f8 e7 d7 bb
       0.025053736 0.009817213 0.01387383 -0.006588932
0003c0 51 59 25 3d d0 41 89 3c be c1 a2 bb 60 c3 d9 3d
       0.040368382 0.016755015 -0.0049669435 0.10632968
0003d0 d3 53 07 bd 60 6a 82 bc 09 49 b9 3d 05 bc e5 3d
       -0.033038925 -0.015919864 0.090471335 0.112175025
0003e0 3a 85 70 3d 7f 61 5b 3d f7 fe 80 bd 3b 77 9a 3a
       0.058720805 0.053559776 -0.06298631 0.0011784801
0003f0 e4 d0 a0 bd 2b 60 85 3d 6a cb fe 3d b4 e4 e9 3d
       -0.07852343 0.06512483 0.12441142 0.11420575

conv2.bias f4 [32]
000000 ea 7d eb 3c 40 23 57 3d 84 24 d9 bd bc f7 70 bc
       0.028746564 0.05252385 -0.10602668 -0.014707502
000010 66 a3 04 be cd 93 9e bd c6 e4 9a 3d dd 14 0c bb
       -0.12952957 -0.077430345 0.07563166 -0.002137474
000020 4e af 43 bd f7 11 d6 bd 8e df dd 3d 7f 00 c2 3d
       -0.047774605 -0.10452645 0.10833655 0.09472751
000030 54 03 ab 3d 2a a2 0e 3e c5 e5 ec bd 89 9a c0 bc
       0.08350244 0.13929048 -0.115672626 -0.023511188
000040 a9 b6 be ba 71 69 27 bd 78 71 32 3d a8 e9 94 bd
       -0.0014550287 -0.04087204 0.043565243 -0.07271129
000050 47 0a ab 3c 6e 7a 93 bd c6 80 9a 3c fa df ac bd
       0.020878924 -0.07201086 0.018860232 -0.08441158
000060 1e 54 bd 3c 00 17 88 bd f7 30 8a bd 0b 5f 84 3c
       0.0231114 -0.06645012 -0.067476206 0.016158601
000070 88 fc c7 bd eb 23 88 3d f6 07 37 bd 7d de 9f bd
       -0.097649634 0.06647476 -0.044685327 -0.07806108

fc1.weight f4 [32, 512]
000000 0a 83 1b bd 00 f6 9e 3c 51 48 98 3d 13 e6 04 3e
       -0.037966765 0.019404411 0.07435668 0.12978391
000010 19 76 02 3c 12 a4 85 bd 3d 4e 29 3d e1 2d ce bc
       0.007962727 -0.065254346 0.04133438 -0.025168361
000020 50 03 84 bc f0 59 62 bc 61 fc 15 3d a8 24 fa bc
       -0.01611486 -0.013815388 0.03661764 -0.030535057
000030 00 f6 60 3d 28 cf 8a bd 95 a4 b6 bd 26 1a 8b 3d
       0.054922104 -0.06777793 -0.0891811 0.06792097
000040 01 9f c1 bc 8b 11 d3 bc 52 92 f0 3d b5 fa 96 3d
       -0.02363539 -0.025765201 0.117466584 0.07372037
000050 5a 51 ad bb 1e d1 57 3d e7 9b aa bd 84 32 ff bc
       -0.005289239 0.052689664 -0.08330517 -0.031152017
000060 dd e5 b7 ba af bf 43 bb 1a 0d 6b bc 03 1b 2d bd
       -0.0014030297 -0.002986889 -0.014346385 -0.04226209
000070 d2 8b 96 bd 9a 7c 86 3c 3a 91 e4 bc 6d a2 dd 3c
       -0.07350887 0.016416837 -0.02790128 0.02705499
000080 6f 89 9c 3c 85 77 04 be 22 bd 59 bd cd 83 2e 3d
       0.019108502 -0.12936218 -0.053158887 0.042606164
000090 9c d8 0e bd 34 36 a2 3d 65 01 fc 3d c0 45 22 3d
       -0.034874544 0.07920495 0.123049535 0.0396173
0000a0 43 b8 59 bd ec db 4c bc 79 6d 86 bd 6e dc 3d bd
       -0.05315424 -0.012503605 -0.06563849 -0.046352796
0000b0 89 34 47 bd 44 b0 f3 bb 45 72 cb 3c 59 5c 0d bc
       -0.048634086 -0.007436784 0.024834761 -0.008627974
0000c0 8c 2e cf bc b1 7a c9 3d 26 5e c7 bb 0b 8d 7f 3c
       -0.02529075 0.09837855 -0.0060842214 0.015597592
0000d0 e6 1a 65 3d 59 b9 22 3c 08 c1 e9 b9 fd 7f 95 3d
       0.055933855 0.009931886 -0.00044585043 0.072998025
0000e0 e6 6f b9 3d 8b ea 0c 3d 35 50 d7 bc 1d 3e 08 3d
       0.09054546 0.034403365 -0.026283363 0.03326236
0000f0 68 a8 6c bb 23 a8 ac bd 5f fd c0 bd 8f 9f a5 3c
       -0.003611112 -0.08430507 -0.09423327 0.020217685
000100 70 12 ce bc 07 ee da 3c d5 fe 6d 3c 5e db 2b 3d
       -0.025155276 0.026724828 0.014526089 0.04195725
000110 22 b3 26 3c d1 bc 5f bd 1f 25 29 3d 75 c9 c3 bc
       0.0101745445 -0.05462343 0.041295167 -0.023899773
000120 5e ee e2 3d 51 ca 10 3e d1 a1 ab bd b7 d0 9a 3d
       0.11080621 0.14139678 -0.083804734 0.075593404
000130 84 c0 d3 3d 1c a7 cc 3d 60 2d b7 bd 79 cd 4d 3b
       0.10339454 0.09992811 -0.089442015 0.0031402989
000140 14 72 2a ba 45 86 53 3d 2b 2a a4 bd 23 b3 05 3d
       -0.00065019843 0.05164172 -0.080158554 0.03264154
000150 56 f3 8b 3d 90 84 d1 3d 68 79 a6 ba 11 a2 95 3c
       0.06833522 0.102303624 -0.0012700977 0.018265756
000160 6d f8 89 3d e0 84 2c bc ed d3 09 bd 63 9b 25 bc
       0.067368366 -0.010529727 -0.033649374 -0.010107848
000170 ee df 40 3c ab 84 a6 3c 76 d8 9d bc 70 d7 d1 3b
       0.011772139 0.020326933 -0.019268256 0.006403856
000180 14 6a ae 3b 94 0d 09 3d 65 98 51 3d 2e 3c 89 bc
       0.005322704 0.033460215 0.051170725 -0.016752329
000190 e8 39 95 3d 24 4e 53 bd 5a 4c 4c bd 2c 3c 1f 3c
       0.07286435 -0.051588193 -0.049877502 0.009718936
0001a0 ef a4 a1 3a 04 16 01 bd 39 e8 a9 3d c0 c4 80 3d
       0.0012332479 -0.031515136 0.08296246 0.06287527
0001b0 d1 97 3b 3d 04 90 14 bd 72 4b 14 3d 6a 72 a1 bc
       0.04579908 -0.036270157 0.036204763 -0.019707877
0001c0 01 79 fe 3c 17 3f b1 3c b5 ea c8 3c 1e 54 ee 3d
       0.031063559 0.021636529 0.02452598 0.11637138
0001d0 42 ac f1 3d 3d 69 6a bd 95 ec 2c bc ce a5 88 bd
       0.11800434 -0.05722927 -0.010554452 -0.0667225
0001e0 54 44 8a 3b c1 07 b1 3d 85 8e 26 3d 32 4e ad bc
       0.004219571 0.08644057 0.04066326 -0.02115545
0001f0 87 e5 c2 bc f5 b3 13 3d a1 95 17 bc 51 18 92 bd
       -0.023791088 0.036060292 -0.009251983 -0.07133544
000200 4c 79 19 3b e9 2c aa 3d ad 7c a6 bd ce fb ad bc
       0.0023418246 0.08309347 -0.08129249 -0.021238234
000210 25 24 83 bc fb 37 66 bd 58 90 e9 3b dc 46 5d bd
       -0.016008446 -0.05620573 0.007127803 -0.054022655
000220 7d ab 13 3d ae 57 1a bd f4 9b b8 3b 87 4b 85 bc
       0.036052216 -0.037681274 0.0056338254 -0.016271366
000230 c3 31 94 bd 65 13 24 3d 14 d7 b9 bc 9e 13 05 bd
       -0.07236054 0.04005756 -0.022685565 -0.03248941
000240 cf 54 ab bd fc f5 0b bc c3 f7 31 bb 8b c8 17 bc
       -0.08365785 -0.008542534 -0.0027155734 -0.009264122
000250 8c 19 83 3d d4 d7 11 3d 13 82 96 bd c0 8d 36 bd
       0.06401357 0.03560622 -0.073490284 -0.044568777
000260 54 02 4c 3b 1d 25 87 3c 70 35 00 bb bc 39 d2 3c
       0.0031129317 0.01649719 -0.0019563101 0.025662296
000270 26 43 ff bb a6 87 9c 3d b3 97 97 bd 17 ab 85 bd
       -0.007789987 0.076430604 -0.07401981 -0.065267734
000280 f1 cd 4a bd 43 98 82 bb fd 5c 8c 3b db c9 ca bc
       -0.049512807 -0.003985436 0.004283546 -0.024754455
000290 ab 47 96 3d 76 2a e0 bd eb bd 5d bd 2a 05 51 3d
       0.07337888 -0.10945599 -0.054136198 0.051030315
0002a0 2a 03 6f 3d ed 2d bf 3d 26 4f f8 3c a4 5a 31 3d
       0.058352627 0.093349315 0.030311178 0.043299332
0002b0 e7 1f d4 3d 8d 5a 60 bd 24 6a 14 bd cc 29 8b 3b
       0.103576474 -0.054773856 -0.036234036 0.004246926
0002c0 0b bc 03 3e 23 c6 5b 3c d8 9c 46 3b fa f9 e4 bc
       0.12864701 0.013413939 0.0030305889 -0.02795123
0002d0 e2 0f 88 bb 5e aa 55 bd ea 16 b0 bc ab b9 28 3d
       -0.004152284 -0.052164428 -0.021495301 0.04119269
0002e0 96 50 ba bc e7 dd c1 3b 60 90 a5 3d 96 90 f8 3c
       -0.022743504 0.0059163454 0.08084178 0.030342381
0002f0 11 db 62 bc 96 69 4d bd 0b c2 b0 bd f7 c9 18 3d
       -0.013846175 -0.050149523 -0.08630761 0.037301984
000300 66 f7 a0 3d c5 a0 e5 bd 64 ef 84 3c f5 1b 00 3c
       0.078596875 -0.11212305 0.016227432 0.0078191655
000310 4c 10 5a 3c d7 06 9e 3d 92 6b a1 3b 9e 66 84 3d
       0.01330955 0.07716148 0.0049261535 0.06464885
000320 d8 4b 94 3d b6 2c f0 bd ff 5c 0e bd 32 4b ff bb
       0.072410285 -0.11727278 -0.034756657 -0.0077909464
000330 05 60 01 bd 05 cf 4c 3d 74 b4 76 bc 04 95 12 3d
       -0.031585712 0.050002117 -0.015057672 0.035786644
000340 92 e0 e0 3c 9b 99 a0 bc f9 08 14 bd 02 96 ef 3d
       0.027450833 -0.019604495 -0.03614137 0.116985336
000350 18 22 96 bd 9c 6f 14 bc 45 6a ec bc 83 a7 dc bc
       -0.073307216 -0.009059813 -0.028859267 -0.026935345
000360 5b 3b 42 3c 95 bd 46 bc e3 e5 d8 bc b3 7d 26 ba
       0.011854972 -0.012130161 -0.026476806 -0.0006351128
000370 8b 71 23 bd ba 22 ac bb 84 a2 5d bd ef e4 0b bd
       -0.039903205 -0.005253163 -0.054110065 -0.034153875
000380 f4 a1 8a 3d a2 4a 61 3d 6d e5 2e 3c 8c c3 64 bd
       0.06769171 0.055002816 0.010674817 -0.05585055
000390 c2 ab c4 bc 2b 25 04 3c 02 80 3e 3d 09 f3 53 3c
       -0.024007682 0.008065502 0.046508797 0.012936362
0003a0 cf b8 8f 3d 0f 5c cf bd 26 36 72 3d 99 aa d0 bd
       0.07017671 -0.10124981 0.05913367 -0.10188789
0003b0 a9 4b 1d bd 90 65 f6 bc 59 ff 87 3d 48 53 80 3c
       -0.038402233 -0.030077726 0.066405006 0.015664712
0003c0 4b b8 97 bd e3 ea f6 bc 53 6e a9 3c cc 66 19 3d
       -0.07408198 -0.0301413 0.02068249 0.03745155
0003d0 9a e2 ae bc ea 98 a0 3d 69 0a 21 3d a1 5e fd 3c
       -0.021348286 0.07841666 0.03931657 0.030928912
0003e0 40 a6 2a 3d c0 3f d0 3c 36 b4 b3 3c 23 a0 d3 bd
       0.041662455 0.025421023 0.021936517 -0.10333278
0003f0 3f d1 ea 3c ec b0 a6 bc 89 35 1c 3d 6b c9 66 3c
       0.02866423 -0.020348035 0.038136993 0.014086108

fc1.bias f4 [32]
000000 cf 29 0f bd f8 b7 25 3c 14 c1 83 3c d6 e1 b5 3d
       -0.03495198 0.010114662 0.016083278 0.088809654
000010 5b aa 2c 3d d9 9f ff bd e0 b9 86 3b 94 59 e1 bc
       0.04215465 -0.124816604 0.0041115135 -0.027508534
000020 40 99 a6 bc 51 98 64 3c 91 46 6b bc 3b a3 ac 3c
       -0.020336747 0.013952331 -0.014360086 0.021073928
000030 02 d1 40 3d 36 c7 9f bd 3a ee f6 bc d3 b6 08 bb
       0.047074325 -0.07801668 -0.030142892 -0.0020860925
000040 c9 8c a5 bd 82 58 19 3d d4 ee 2c 3c 81 ce 97 3d
       -0.08083493 0.037437923 0.010554988 0.07412434
000050 23 6e 06 3d f6 38 c2 bd 59 a6 ce bc ac 8f bb bd
       0.03281988 -0.09483521 -0.025225805 -0.091582626
000060 43 78 69 bd 58 67 20 bd aa 53 fd 3c 58 7a a0 bc
       -0.056999456 -0.039161056 0.030923683 -0.019589588
000070 40 9f 8e bd 29 fb 81 bc 73 71 10 bd e9 e2 f8 3c
       -0.06963968 -0.015866833 -0.035264444 0.030381637

fc2.weight f4 [10, 32]
000000 8e 22 be bd 8e 83 c2 bd e7 8e f0 3d a4 c9 b8 3d
       -0.092839345 -0.09497748 0.117460065 0.09022835
000010 34 c5 57 3d 2b 16 e6 3d 77 93 28 be 2c 8c 7c 3e
       0.052678302 0.11234697 -0.16462503 0.24662846
000020 ee 7f fc bd 78 f0 ef bd 83 03 ab bd ac ee 42 bc
       -0.12329088 -0.11715788 -0.08350279 -0.011897724
000030 68 7e 99 be de 89 79 3e 07 04 15 bd d7 0c 17 be
       -0.29979253 0.24368998 -0.036380794 -0.14750992
000040 8b 20 a8 3d 34 3f d0 bd d9 41 d4 3d 35 ad 69 3d
       0.08209332 -0.10168305 0.10364122 0.05704995
000050 e0 2a fd bd 4c b0 1f bd f6 3f d7 3c ca 7a 28 3e
       -0.123616934 -0.03898649 0.026275616 0.1645309
000060 4f 2d 25 be 0e dd f0 bd 63 2c 5e be b4 b8 bf 3c
       -0.16130565 -0.11760913 -0.2169662 0.023403503
000070 a1 f4 0d bc aa 76 88 bd a8 67 c6 3e 9b e9 7c 3e
       -0.008664281 -0.066632584 0.38750958 0.24698488
000080 de cd 5e 3e d8 08 bf 3c 89 f5 09 3e 42 67 85 be
       0.2175822 0.023319647 0.1347257 -0.26055342
000090 33 eb 81 be 1e ef c9 bd 20 1d 01 3e 3e af b2 3d
       -0.25374755 -0.09860061 0.12608767 0.08724831
0000a0 a6 18 ff 3c 2c c3 f7 3e 54 47 29 3e 50 d6 36 3e
       0.031139683 0.48391092 0.16531116 0.17855191
0000b0 7f 9f 6e bd 5c 82 22 be a8 28 e7 3c 5b 40 30 3e
       -0.058257576 -0.1587004 0.028217629 0.1721205
0000c0 d9 74 08 3e ea 10 6d 3e 9e 0c bf 3d 4e 31 7e 3c
       0.13325824 0.23150983 0.093285784 0.015514685
0000d0 9d 4f f4 bd 52 a6 84 be 40 db b5 be 72 ee f7 bd
       -0.119292475 -0.25908142 -0.35518837 -0.12106027
0000e0 b0 f8 8f bd 45 59 3e be ee 3b 9b 3b ac f4 9b 3e
       -0.07029855 -0.18588741 0.004737369 0.30460107
0000f0 60 b3 a6 3d f7 38 f2 bc c7 47 6f be 0b 0a f9 3b
       0.08139682 -0.029568179 -0.23367225 0.007600074
000100 92 ee 59 bd 4b 2b 07 be 3d 9a b3 3d 1f 68 33 be
       -0.053206034 -0.13200109 0.08769653 -0.17520188
000110 ef a0 1d 3e 54 1d 61 3e d5 74 af 3d 85 f7 8b be
       0.15393423 0.21983844 0.08567206 -0.2733728
000120 2c 15 57 bd 77 b2 42 3e b2 b3 cc bb 84 9f e1 3d
       -0.052510425 0.19013391 -0.0062470073 0.11016753
000130 31 e0 06 3e 7a 13 6f 3c a3 43 95 be 3c c6 6c bd
       0.1317146 0.014592046 -0.29153165 -0.05780624
000140 59 f4 62 3d ba 56 ff bd 60 f5 8d 3d 84 92 f5 bd
       0.05540881 -0.12467714 0.06931567 -0.11990836
000150 16 42 a7 3c a9 4e 7a be a0 8e d3 bd b1 a2 15 3d
       0.020417254 -0.24444069 -0.10329938 0.036532108
000160 0a c3 54 3e 03 e6 0e 3e 01 4e 7c be c3 94 f3 bc
       0.20777526 0.1395493 -0.24639131 -0.029734021
000170 02 ee d7 bd 02 5a 98 3c b6 db 77 bd 04 db 45 3e
       -0.10543443 0.018597607 -0.060512267 0.19321829
000180 30 6f dc bd b0 a8 05 be 9f be 7d be 43 44 26 be
       -0.10763395 -0.1305263 -0.24779747 -0.16236977
000190 90 95 42 3c d4 c0 35 3e 49 6f 3f bd a2 33 19 be
       0.011876479 0.1774934 -0.04673699 -0.14961103
0001a0 7d dc 0d 3e 7e df 73 3c c4 be ac bd 5c db a2 bc
       0.13853641 0.014884828 -0.08434823 -0.01987999
0001b0 27 8f 5d 3e 35 5d 75 be d4 6a 30 bd f7 6b 7b bd
       0.2163664 -0.23961337 -0.04307063 -0.06138226
0001c0 e1 94 e1 bd 06 5f 51 be 38 35 c1 3c 21 1a b9 3d
       -0.110147245 -0.20446405 0.023584947 0.09038187
0001d0 04 bd df 3d 90 a7 ad 3e 7d 9b 08 be 96 0f 88 3e
       0.10924724 0.33916903 -0.13340564 0.2657439
0001e0 4a fb 5f 3e 85 f6 3a 3e 8f d7 9b 3d 49 8f 23 3d
       0.21873203 0.18258102 0.07609474 0.03993157
0001f0 37 4f 1c 3e b3 4c de bd 3e 74 bb bc 9f ed 49 be
       0.15264593 -0.10854473 -0.022882577 -0.19719552
000200 82 0b cb bd f7 c8 1b bc f2 95 67 3c 83 c7 ed bd
       -0.09914304 -0.009508363 0.014134871 -0.116103195
000210 e0 c0 f7 bd f5 57 f8 bd f5 de a9 3e a8 37 40 3d
       -0.12097335 -0.121261515 0.33177915 0.046928078
000220 6f 7f 64 be 37 cf 2b be 23 f7 18 be 5e aa 29 be
       -0.22314237 -0.16778265 -0.14938025 -0.16568896
000230 bc c9 ba 3b 7c a3 42 3e 1b 5c 0a be 9b 03 3f be
       0.005700318 0.19007677 -0.13511698 -0.18653719
000240 6d 6a df bd 28 75 51 3e eb ac 39 be 88 78 b0 be
       -0.10908971 0.20454848 -0.18132369 -0.34466958
000250 87 43 50 be 7b ef 3c be 8a b2 48 3e d8 13 38 be
       -0.2033826 -0.1845073 0.19599357 -0.1797632
000260 be 8d 8a bd 4a 71 3b 3e 46 08 1d 3e 0e c5 c2 3d
       -0.067653164 0.18304935 0.15335187 0.095102414
000270 90 89 9f 3d 81 82 4d bd 21 34 c4 bc 5e ea 8a be
       0.0778991 -0.050173286 -0.023950638 -0.27131933
000280 45 5b 9f 3d 4e 35 b9 bd 67 ef d1 bd bb 30 0f 3e
       0.0778108 -0.0904337 -0.102507405 0.13983433
000290 8a 30 07 be 1c 8f 01 3e 93 85 73 be ca 80 b4 3c
       -0.1320211 0.12652248 -0.23781423 0.022034068
0002a0 fc 58 b2 3d 7e 45 99 3d f0 20 0f 3e e4 2a dc bc
       0.08708379 0.07483958 0.13977408 -0.02687592
0002b0 4d 2b 07 3e 6d ba 76 3e 8c 98 ae 3d 7b d3 e6 bd
       0.13200112 0.24094553 0.0852519 -0.112708054
0002c0 4a 8a 01 3e b0 8d 12 3e c4 e4 4c be b1 ad 6f 3e
       0.1265041 0.14311862 -0.20009142 0.23406102
0002d0 8a f3 7a be 4e fb ac bd 1e 7a b5 bd 41 46 a6 3e
       -0.24506965 -0.0844637 -0.08861183 0.32475474
0002e0 90 af e7 3d 67 1a 53 be 95 d7 63 3e 8e 83 fe bd
       0.11312783 -0.2061554 0.22250207 -0.12427436
0002f0 54 1e f3 bb e3 35 3f bd 5a f1 7d 3e e8 a2 ec bd
       -0.007419387 -0.04668225 0.247991 -0.115545094
000300 3d fe 0c be 92 00 b5 3e f1 6a 0c bd 80 c3 de 3d
       -0.13768859 0.35351998 -0.034281675 0.108771324
000310 19 96 99 bd 81 8e 64 3e 61 80 87 3e 57 74 25 be
       -0.07499332 0.22319986 0.26465133 -0.16157661
000320 a0 43 12 bd 32 be 9a be df 63 8a bd fc c0 af 3c
       -0.035709023 -0.30223233 -0.0675733 0.021454327
000330 e8 dc 03 3b ce f3 ea 3d 7b 99 66 3c 06 27 8d bd
       0.0020120684 0.11472283 0.0140746785 -0.06892209
000340 b5 62 09 be 6c 0b 2f bc 1a 26 ec 3d 12 57 5e bc
       -0.1341656 -0.0106838755 0.11530705 -0.013570564
000350 9a 58 f3 bd ba af 18 3e 6a f4 81 be 1e 93 8d be
       -0.11882134 0.14910784 -0.25381786 -0.27651304
000360 e5 14 a4 3d dd cc ba bd b5 bf a0 bd 43 fe 40 3d
       0.08011798 -0.09121106 -0.07849065 0.047117483
000370 7b 30 ec 3d 4d 1f 04 bd be 9f 26 3e 4f 5d 6b 3e
       0.115326844 -0.032256413 0.16271874 0.22984813
000380 c4 22 db bd 32 3b a7 be f3 80 35 3e 2f c9 ab 3d
       -0.106999904 -0.3266235 0.17724971 0.08387982
000390 91 1c 5b bd 81 2f 44 be b0 e3 f8 3d 93 3f d7 3d
       -0.05349404 -0.19158746 0.12152803 0.10510173
0003a0 16 82 19 bc 71 fb 2d 3e 28 3b cc bd 3b 9f d5 bd
       -0.009369394 0.16990449 -0.09972221 -0.104307614
0003b0 9b 50 a8 3d e1 69 68 bd 28 a3 42 3e 6f 54 fc bd
       0.08218499 -0.0567416 0.19007552 -0.12320792
0003c0 0e 95 32 bc 78 da 07 3e 7a 61 3f be ea c3 57 bd
       -0.010899795 0.13266933 -0.18689528 -0.052677073
0003d0 18 ff b6 3b df 73 22 3e cb 19 f5 3d b9 af 3f 3c
       0.0055846088 0.15864514 0.1196781 0.01169961
0003e0 76 a0 80 be bc 4d de bd 5d 91 4f be 0b 1d 2d bd
       -0.25122422 -0.108546704 -0.20270295 -0.042264026
0003f0 2c 1e c2 bd e0 75 34 be 8a ef 86 3d 6e 72 b4 3e
       -0.09478411 -0.1762309 0.06588657 0.35243553

fc2.bias f4 [10]
000000 b0 12 03 be ac 26 2c 3e d8 27 ce bd b1 f9 08 be
       -0.12800097 0.16811627 -0.10066193 -0.133765
000010 2f 9c 2f be 37 6c b1 bd f6 18 94 3d 13 b0 ea 3d
       -0.17149423 -0.086632185 0.072313234 0.11459365
000020 ae 0e a3 3d e5 45 b1 bd
       0.07961784 -0.086559094
