Codes/mnist_cnn_mnist_5_False_0.1_1.0_1.0_64_1.pt (torch, 106255 bytes, 8 tensors)

conv1.weight f4 [16, 1, 8, 8]
0	0x3d3b9bbf	0.045802828
1	0xbdbe1400	-0.092811584
2	0x3e221c3d	0.15831085
3	0x3e0e29e9	0.13883175
4	0x3e7ed290	0.2488501
5	0xbc24c5fb	-0.010056968
6	0x3d7b2025	0.061309952
7	0x3a826b12	0.0009950122
8	0xbe055523	-0.13020758
9	0x3e324553	0.17409258
10	0x3dd970be	0.10617207
11	0x3d77ad3d	0.060467947
12	0xbdc1c50b	-0.09461411
13	0x3e046322	0.12928441
14	0x3d9a3024	0.07528713
15	0x3e062c9c	0.13102955
16	0x3e33e44c	0.17567557
17	0x3d00e8de	0.03147208
18	0x3d1a75ef	0.037710126
19	0x3e91ae28	0.28453183
20	0x3e4fa5ba	0.20278063
21	0xbd2fe4dc	-0.042942867
22	0xbe2ecb06	-0.17069635
23	0x3dedb7c3	0.116073154
24	0x3df57e1b	0.11986943
25	0xbde2ce95	-0.11074559
26	0x3da78455	0.08179537
27	0x3e481740	0.19540119
28	0x3cd1f719	0.02563052
29	0xbd04c644	-0.032415643
30	0xbde7dd4a	-0.113215044
31	0xbd73d2d7	-0.059527244
32	0xbdb29bc8	-0.08721119
33	0x3d3dbb3f	0.04632115
34	0x3dd530d3	0.10409703
35	0x3e2db62f	0.16964029
36	0x3e8449ef	0.25837657
37	0xbc68e362	-0.014214369
38	0x3cddb91d	0.027065808
39	0x3e43c3cf	0.19117664
40	0x3d578413	0.05261619
41	0xbd53d8ce	-0.051720433
42	0x3c6183ea	0.013764361
43	0x3e1990d0	0.14996648
44	0x3e57fbed	0.21092196
45	0x3e81c262	0.25343615
46	0x3e64adf8	0.22331989
47	0x3dd7b928	0.105333626
48	0x3e0f1992	0.13974598
49	0xbda5710b	-0.08078202
50	0x3e4c01b9	0.19922532
51	0x3b01b744	0.0019793073
52	0xbb82d506	-0.0039926795
53	0x3d09b87a	0.033623196
54	0x3e2f2481	0.17103769
55	0x3da4e2fa	0.08051105
56	0x3cfdd1fd	0.03098392
57	0xbd43b7b4	-0.047782615
58	0xbdd3b6bb	-0.103375874
59	0x3e5e679c	0.21719211
60	0xbd2fad72	-0.04289002
61	0xbdda5805	-0.1066132
62	0xbc9d1195	-0.019173423
63	0xbd645e1b	-0.05575381
64	0xbc79491f	-0.015215187
65	0x3e27a885	0.16372879
66	0x3d820788	0.06349093
67	0x3d0c2aa8	0.034220368
68	0x3e66653b	0.22499554
69	0xbd6aefde	-0.05735766
70	0x3e253112	0.16132
71	0xbc23d3fb	-0.009999271
72	0xbc890cbf	-0.01672971
73	0x3dabdc59	0.08391637
74	0x3e4c727a	0.19965544
75	0x3e2bf258	0.16791666
76	0x3e312f6d	0.17303248
77	0x3e9eb81a	0.30999833
78	0xbd761e13	-0.060087275
79	0xbd8740a4	-0.06604126
80	0xbd737c36	-0.05944463
81	0x3acc2079	0.0015573642
82	0x3db68f8f	0.089141004
83	0x3e3ea9f6	0.18619522
84	0x3dd03e44	0.10168126
85	0xbd39c56a	-0.045354284
86	0xbd82bcfb	-0.063837014
87	0x3b80660c	0.003918415
88	0xbb88ed95	-0.0041787126
89	0xbe01ba63	-0.12668757
90	0xbc00e215	-0.007866402
91	0xb991dcb7	-0.00027821
92	0xbcaab195	-0.02083663
93	0xbce6c2bc	-0.028169028
94	0x3c3dc0a4	0.011581574
95	0xbd9033e1	-0.07041145
96	0xbe062d56	-0.13103232
97	0x3c9802d5	0.018556038
98	0x3dfb34ae	0.12265907
99	0x3e2542f8	0.16138828
100	0xbd07c548	-0.033147126
101	0xbe1500fb	-0.14551155
102	0xbdc224ee	-0.094797
103	0xbdcdc34f	-0.10047018
104	0xbc23f98d	-0.010008228
105	0xbc90c631	-0.01767263
106	0xbcce9890	-0.025219232
107	0x3d050c0f	0.032482203
108	0xbd0b8d75	-0.03407045
109	0x3c2dd350	0.010609463
110	0xbccd3b7a	-0.025052775
111	0x3db7439f	0.089484446
112	0xbe0e3b2a	-0.13889757
113	0x3c56f48d	0.013119829
114	0x3dd0303a	0.101654485
115	0x3d1f84d8	0.03894505
116	0xbe17f57d	-0.1483974
117	0xbb9e324e	-0.004827774
118	0x3d87c628	0.06629592
119	0xbdbbf751	-0.09178031
120	0x3d64877a	0.055793263
121	0xbce88e72	-0.028388236
122	0x3e2e655e	0.17030856
123	0xbd462bff	-0.0483818
124	0xbe1a9d42	-0.15099052
125	0x3e052beb	0.13005035
126	0x3da6e2a2	0.081486955
127	0xbd2ae450	-0.041721642
128	0xbd80c0f7	-0.06286805
129	0xbcc749c7	-0.024327172
130	0xbe5989d1	-0.21243979
131	0xbdb6faa8	-0.08934528
132	0xbd8a87ac	-0.067641586
133	0x3d833cab	0.06408056
134	0xbe4317ab	-0.19051997
135	0x3d3d46f7	0.046210255
136	0x3d5db200	0.054124832
137	0xbdf74420	-0.12073541
138	0x3e1b1174	0.15143377
139	0xbddfb2e6	-0.10922794
140	0xbdb73908	-0.08946425
141	0x3dc967c6	0.09834246
142	0xbd9dd967	-0.07707482
143	0x3c41d96c	0.011831623
144	0x3d51c62c	0.051214382
145	0x3d782064	0.060577765
146	0xbd3649f4	-0.04450412
147	0xbca8606e	-0.020553794
148	0xbb455c91	-0.0030114988
149	0xbe0f7a2d	-0.1401145
150	0xbdd6ddce	-0.10491525
151	0x3d7ea97a	0.062173344
152	0xbd600c06	-0.054698966
153	0xbd4d938c	-0.05018954
154	0xbd3ff5db	-0.046865325
155	0xbe32600d	-0.17419453
156	0xbdb7ea42	-0.08980228
157	0xbd55fdda	-0.052244045
158	0xbd34a83f	-0.044105764
159	0x3d9382db	0.07202693
160	0x3d56f6fb	0.052481633
161	0x3cbdd3cc	0.023172282
162	0x3d8d820d	0.06909571
163	0x3b2a2f9e	0.0025968323
164	0x3d99b7d6	0.07505767
165	0x3d914997	0.07094114
166	0x3cfadbb0	0.030622333
167	0x3d536370	0.051608503
168	0x3c96daa3	0.018414801
169	0x3e2a793f	0.16647814
170	0x3c3d0ea0	0.011539131
171	0x3e690943	0.2275744
172	0xbb1dfa53	-0.0024105504
173	0x3ce058b9	0.027386056
174	0xbe10a659	-0.14125957
175	0xbd6dd4dc	-0.058064327
176	0x3b7512d1	0.0037395249
177	0xbd5fb3fe	-0.054615013
178	0xbdab860d	-0.083751775
179	0xbe1583a9	-0.14601006
180	0xbe1cddb8	-0.15318954
181	0xbe094ec6	-0.13408956
182	0xbd7ff945	-0.06249358
183	0xbe158bde	-0.14604136
184	0xbca8b6a0	-0.020594895
185	0x3d6f5a9b	0.058436017
186	0x3d34f477	0.044178452
187	0x3df670a0	0.120332
188	0x3d554d3d	0.052075613
189	0xbdbd20d6	-0.092347786
190	0xbdf4521b	-0.11929723
191	0x3c94e653	0.018176233
192	0x3dfb048e	0.12256728
193	0x3d47a6fe	0.04874324
194	0xbd1aafdf	-0.03776538
195	0x3ba3b6f2	0.004996174
196	0xbba26e1f	-0.004956975
197	0x3d25fa47	0.040521886
198	0xbdc93c1c	-0.09825918
199	0xbe0fb49d	-0.14033742
200	0x3cbbbb77	0.022916539
201	0x3d88cef4	0.06680098
202	0xbcf9f081	-0.030510189
203	0xb8eb0cb0	-0.000112080364
204	0x3e0b377b	0.13595383
205	0x3d143afb	0.03618906
206	0x3d6fb608	0.058523208
207	0x3dc3cb2c	0.09560236
208	0x3d73b3f3	0.059497785
209	0xbda6c390	-0.08142769
210	0x3d644574	0.0557303
211	0x3d710904	0.05884649
212	0xbe1df71d	-0.15426297
213	0xbc7fcc4e	-0.015612675
214	0xbd23a70f	-0.03995424
215	0x3dc23cdb	0.094842635
216	0x3e1c8492	0.15284947
217	0xbc74961c	-0.014928367
218	0xbd8a88cd	-0.06764374
219	0xbc0905a9	-0.008363166
220	0xbcdfac0e	-0.027303722
221	0xbcbe38bb	-0.02322041
222	0xbe0d6f47	-0.1381198
223	0x3ddd5d1d	0.108087756
224	0xbce977a4	-0.028499432
225	0x3d2a9867	0.04164925
226	0xbe0e86fd	-0.13918681
227	0xbcd7d1f1	-0.026345225
228	0x3c891275	0.016732434
229	0x3d1f5b18	0.038905233
230	0xbdda5b13	-0.10661902
231	0xbdcdfa9e	-0.10057567
232	0x3cb218ee	0.021740403
233	0x3d8323c7	0.06403308
234	0xbe33a217	-0.17542301
235	0xbd9501a8	-0.072757065
236	0xbe3f6f25	-0.18694742
237	0x3dcfe484	0.10151008
238	0xbdecd8e2	-0.115648046
239	0x3e08094d	0.13284798
240	0x3d8ad35d	0.067785956
241	0x3d87092e	0.06593548
242	0xbd9516ad	-0.07279716
243	0x3ddffa77	0.10936444
244	0xbcd2b739	-0.025722133
245	0x3ccaa886	0.024738561
246	0xbd3faee3	-0.046797644
247	0xbcbf3851	-0.023342283
248	0x3d5c6b38	0.05381319
249	0xbe0654f0	-0.13118339
250	0xbd212700	-0.039343834
251	0xbdd1250c	-0.10212144
252	0xbd7e6a0a	-0.062112845
253	0xbc8f0924	-0.017460413
254	0x3d9f1be7	0.07768994
255	0xbc90590f	-0.017620591

conv1.bias f4 [16]
0	0x3d917221	0.071018465
1	0x3d32815b	0.043580394
2	0x3b5d5adc	0.003377608
3	0x3dc5c8c3	0.09657433
4	0x3d2cfc66	0.042232893
5	0x3e097763	0.13424449
6	0x3dbeb6cf	0.09312212
7	0xbc626904	-0.013818983
8	0xbdaf5a28	-0.08562118
9	0x3d3a7715	0.04552372
10	0xbccf8b96	-0.025335114
11	0x3abb9ead	0.0014314257
12	0xbc3cc968	-0.011522628
13	0xbd6b7873	-0.057487916
14	0xbd457168	-0.048203856
15	0xbda28137	-0.07934802

conv2.weight f4 [32, 16, 4, 4]
0	0x3cdac56c	0.026705466
1	0x3d5699a9	0.052392635
2	0x3cfe0fa3	0.031013316
3	0xbd207c3f	-0.03918099
4	0xbbbbdc1c	-0.005733026
5	0xbd04ebfa	-0.032451607
6	0xbdbbdcd1	-0.09172977
7	0x3c54c68a	0.0129867885
8	0xbd06ffef	-0.03295892
9	0x3da22751	0.07917655
10	0x3d8aa1f2	0.0676917
11	0xbcde146d	-0.02710935
12	0x3cc9a0ab	0.024612745
13	0x3d2de204	0.042451873
14	0xbd0f76e2	-0.035025485
15	0xbd4cdfe3	-0.050018203
16	0x3c364a0c	0.011126053
17	0xbd857c14	-0.06517807
18	0x3ce0b0fc	0.027428143
19	0x3bc66f47	0.0060557458
20	0x3d43020c	0.047609374
21	0x3e1acdd1	0.15117575
22	0xbc6cc099	-0.014450216
23	0x3d81cc98	0.06337851
24	0xbcdba7fe	-0.026813503
25	0xbcfa5f8a	-0.030563135
26	0xbd83a051	-0.06427062
27	0x3cd21f82	0.02564979
28	0x3dce128d	0.10062132
29	0xbdb89314	-0.09012428
30	0xbd3c675e	-0.045997016
31	0x3c9be015	0.01902775
32	0xbce31dff	-0.027724264
33	0x3bf843e1	0.007576451
34	0x3c5497d9	0.012975656
35	0x3d911fa9	0.07086117
36	0xbd472876	-0.04862257
37	0xbd1153de	-0.035480373
38	0xbd46b15a	-0.04850898
39	0xbd292bf0	-0.041301668
40	0xbc533570	-0.012891158
41	0x3c70495d	0.014665929
42	0xbcc021dd	-0.023453647
43	0x3c5d750f	0.0135166785
44	0x3c4f0b5c	0.012636986
45	0x3d196a7f	0.03745508
46	0xbd2ba38f	-0.04190403
47	0x3d32dcf5	0.043667752
48	0x3d855b11	0.0651151
49	0x3c9dd70a	0.019267578
50	0x3c892dc9	0.016745465
51	0x3d4c0fbb	0.04981969
52	0x3dc06c07	0.093956046
53	0xbbcb5b35	-0.006205941
54	0xbcd93c81	-0.026518108
55	0x3b24a732	0.002512407
56	0x3d9cd79a	0.0765831
57	0xbcfbca58	-0.030736133
58	0xbd483ed9	-0.04888806
59	0x3b34157e	0.002747863
60	0xbbbd673f	-0.00578013
61	0xbd833fc7	-0.06408649
62	0x3c9ef6a2	0.019404713
63	0xbda43965	-0.0801876
64	0x3de7a83e	0.113113865
65	0x3d945525	0.072428025
66	0xbcff7f04	-0.031188495
67	0xbd371367	-0.044696238
68	0x3c9a8930	0.018864244
69	0x3cffe977	0.031239254
70	0xbc1063d1	-0.008812861
71	0xbd4c638f	-0.049899634
72	0xbdb0a5eb	-0.08625396
73	0x3c94dc67	0.018171502
74	0x3d996679	0.07490248
75	0xbd5f3f11	-0.054503504
76	0x3dab3cec	0.08361229
77	0xbd489180	-0.048966885
78	0xbbbfae76	-0.005849655
79	0xbd4edaa5	-0.050501484
80	0x3d598634	0.0531065
81	0x3d12a05d	0.035797466
82	0xbd084f75	-0.0332789
83	0x3d8b9d85	0.06817154
84	0xbdc38f41	-0.09548808
85	0xbe449534	-0.19197541
86	0xba86a6bd	-0.001027308
87	0x3b1544d7	0.0022776627
88	0x3d05dc48	0.03268078
89	0xbcaa987a	-0.02082466
90	0xbde2ad48	-0.11068207
91	0x3cc21f63	0.023696607
92	0x3bbd3756	0.005774419
93	0x3bac5cb0	0.0052600726
94	0x3d16ecf4	0.03684707
95	0x3d840ecf	0.06448137
96	0x3d1c90d3	0.038224053
97	0x3df70309	0.12061126
98	0xbd6aaf3e	-0.05729603
99	0x3c979986	0.018505823
100	0xbcd1e1e3	-0.025620406
101	0x3c50c9df	0.012743442
102	0x3ca52808	0.02016069
103	0x3ad0dc2a	0.0015934755
104	0x3d4f419e	0.050599687
105	0x3c2a5c89	0.010398039
106	0xbd3878ec	-0.045037195
107	0xbd65e647	-0.056127813
108	0xbb069808	-0.0020537395
109	0xba995ece	-0.0011701228
110	0x3c3d29c6	0.011545604
111	0xbddad486	-0.10685067
112	0x3cd55e5b	0.026045969
113	0x3b6ece98	0.0036439057
114	0xbdaa18aa	-0.083054855
115	0x3ce210ef	0.027595965
116	0x3b6026bc	0.0034202775
117	0x3d2d3a08	0.04229167
118	0xbd59deb0	-0.053190887
119	0x3bc139a2	0.005896763
120	0xbc6397e1	-0.013891191
121	0xbded32dd	-0.11581967
122	0xbc4fdeff	-0.012687444
123	0xbe2abdae	-0.1667392
124	0x3d43ae20	0.04777348
125	0x3d5a88fe	0.053353302
126	0x3db17138	0.08664173
127	0xbb407195	-0.0029364575
128	0xbd9e707d	-0.07736299
129	0x3d3d0545	0.046147604
130	0xbde420fd	-0.111391045
131	0x3c9f4f0a	0.019446868
132	0xbd18a8bb	-0.03727029
133	0xbbbfd2e8	-0.0058539994
134	0x3da3d34e	0.079992875
135	0xbd814d6f	-0.063135974
136	0x3d34e0dc	0.044159755
137	0x3afec8fb	0.0019438559
138	0xbdd54c9e	-0.10415004
139	0xbd66542b	-0.056232613
140	0xbd31019b	-0.04321442
141	0xbdc5b69b	-0.0965397
142	0xbbea98dc	-0.0071593355
143	0x3ceef895	0.029171268
144	0x3d46436e	0.04840415
145	0x3d5b3451	0.05351669
146	0x3be25fcf	0.006908394
147	0xbc41ca87	-0.011828071
148	0xbda662ff	-0.08124351
149	0xbb75279f	-0.003740765
150	0xbd972e62	-0.07381894
151	0x3b358e1a	0.0027703107
152	0x3bcfb6c1	0.0063389246
153	0xbd89c93c	-0.067278355
154	0xbcad196f	-0.021130292
155	0x3d29dbc0	0.041469336
156	0x3cd5b125	0.026085446
157	0x3d1e2103	0.0386057
158	0x3bca5c08	0.0061755218
159	0xbc1962a0	-0.009361893
160	0xbd25c442	-0.04047037
161	0xbdb04eb7	-0.08608764
162	0xbd7ba280	-0.06143427
163	0xbd380f17	-0.044936266
164	0x3cbb30d0	0.022850424
165	0xbd4c107a	-0.0498204
166	0x3d5cd9a1	0.053918485
167	0x3ce92653	0.028460657
168	0x3b87bebe	0.0041426113
169	0x3db19a02	0.08671953
170	0xbdf6d367	-0.120520405
171	0xbd1eb577	-0.038747277
172	0xbbb931d9	-0.0056516943
173	0xbc32743d	-0.010891971
174	0x3d69eca0	0.05711043
175	0xbcfcd452	-0.030862961
176	0xbdb7f3a0	-0.08982015
177	0xbcbcedcb	-0.023062607
178	0xbce9e3f0	-0.028551072
179	0xbc12317f	-0.008922934
180	0x3d2ca958	0.042153686
181	0x3c85db33	0.016339874
182	0x3cd174d0	0.025568396
183	0x3daa4609	0.083141394
184	0x3d31aa78	0.043375462
185	0x3d142df1	0.036176626
186	0x3d1770e9	0.036972914
187	0x3d3a01cb	0.045411866
188	0xbd26bd3c	-0.04070781
189	0x3bb3d3d3	0.005487898
190	0x3d73249c	0.059361085
191	0xbba0ca02	-0.0049068937
192	0xbd2114fd	-0.039326657
193	0xbca7544d	-0.02042594
194	0xbde611a3	-0.11233833
195	0x3e239f85	0.1597882
196	0xbd65821d	-0.05603229
197	0x3d2ff93c	0.042962298
198	0xbb8360d8	-0.0040093474
199	0x3d84a456	0.06476657
200	0x3d724767	0.059150126
201	0x3d41ad1d	0.047284234
202	0xbd7b51ef	-0.061357435
203	0xbda52cde	-0.08065198
204	0x3c5d429c	0.01350465
205	0xbe028ab5	-0.12748225
206	0xbd5a6221	-0.05331624
207	0x3d7ab1d7	0.061204758
208	0x3db110b8	0.08645767
209	0x3c20cfca	0.009815166
210	0xbd95aea5	-0.073087014
211	0xbdb49285	-0.08817009
212	0xbc3fb9bc	-0.011701997
213	0x3d85f14f	0.065401666
214	0xbd9f791e	-0.07786773
215	0xbd6e01a4	-0.058107033
216	0x3b0ccbee	0.0021483856
217	0xbdeae230	-0.11468923
218	0xbcd3f5ec	-0.0258741
219	0x3c4d046f	0.012513264
220	0xbe14f236	-0.14545521
221	0x3da8b9e6	0.08238582
222	0xbab98c2d	-0.0014156156
223	0x3e476e6a	0.19475713
224	0xbadf1d87	-0.001702235
225	0xbbcbe750	-0.006222643
226	0xbd335a76	-0.043787442
227	0xbcd23b25	-0.025662968
228	0xbd81b47f	-0.06333255
229	0xbda811f5	-0.0820655
230	0xbb86186f	-0.004092268
231	0x3d2d30c6	0.042282842
232	0xbd566cdd	-0.052349914
233	0xbdc3a017	-0.09552019
234	0x3dfa2e80	0.122159004
235	0x3d09e3dd	0.033664573
236	0x3d28aec9	0.041182313
237	0xbcbbe21a	-0.022934962
238	0x3cab991e	0.020947035
239	0x3cc8008a	0.02441432
240	0xbc1dc5e7	-0.009629703
241	0xbc618588	-0.0137647465
242	0xbd8ad781	-0.06779385
243	0xbd15e388	-0.036593944
244	0x3de1c288	0.11023432
245	0xbd86d9bd	-0.06584499
246	0x3d915b01	0.07097436
247	0xbd6c609b	-0.057709318
248	0x3dd1a6df	0.10236906
249	0x3dacbc62	0.08434369
250	0x3ddec4d7	0.10877388
251	0x3d4ab89a	0.049492456
252	0xbd978c51	-0.0739981
253	0xbc84eeb6	-0.016227107
254	0x3d1c0e39	0.0380995
255	0x3d496bb5	0.049174983

conv2.bias f4 [32]
0	0x3d637319	0.055529688
1	0x3d2130a5	0.03935303
2	0x3cf6efda	0.030143667
3	0x3d891bdb	0.06694766
4	0xbdb30828	-0.0874179
5	0x3d63e048	0.055633813
6	0xbd55dbc4	-0.052211538
7	0x3cbfe794	0.023425855
8	0xbd943440	-0.072365284
9	0xbc38c786	-0.011278039
10	0x3de4a2e8	0.111638844
11	0x3d32dcd3	0.043667626
12	0xbd966f23	-0.073454164
13	0xbd6a923f	-0.057268377
14	0x3b228d34	0.0024803402
15	0x3bdf98bf	0.0068236287
16	0xbd1d49b6	-0.038400374
17	0xbd1b07f0	-0.037849367
18	0xbd24bd5a	-0.040219642
19	0xbd940dd7	-0.07229202
20	0x3e143849	0.14474596
21	0x3d804c67	0.062645726
22	0x3c2ba1da	0.0104756
23	0xbcbe7e77	-0.023253663
24	0x3c93adf5	0.018027285
25	0x3b15e5aa	0.0022872486
26	0xbdb62726	-0.08894186
27	0x3d65bc29	0.056087647
28	0xbd04b46d	-0.03239863
29	0xbd9e74f7	-0.07737153
30	0xbbb3694d	-0.0054751993
31	0xbd5c7b0a	-0.053828277

fc1.weight f4 [32, 512]
0	0xbd318603	-0.043340694
1	0xbdb223cf	-0.08698236
2	0x3d8b2edd	0.06796048
3	0xbcb42629	-0.021990852
4	0xbd22ec42	-0.039776094
5	0xbc32ec57	-0.010920606
6	0x3c176103	0.009239438
7	0xbccd47e8	-0.025058702
8	0x3d93e6b8	0.072217405
9	0xbd88df78	-0.06683248
10	0xbd3dd890	-0.04634911
11	0xbd8ac2a9	-0.0677541
12	0xbd066d4b	-0.032819074
13	0x3c7c0a37	0.015383295
14	0x3dafa005	0.08575443
15	0x3c0ca2c8	0.008583732
16	0x3ce964e8	0.028490499
17	0xbd9559dd	-0.07292531
18	0xbd8eef93	-0.06979289
19	0xbc523ebe	-0.012832342
20	0x3d0f7a3c	0.03502868
21	0x3d9d730e	0.076879606
22	0x3cadf02f	0.021232693
23	0x3d8498b2	0.06474437
24	0xbcd8bc8a	-0.02645709
25	0x3d8cb38c	0.06870183
26	0xbca11faf	-0.019668428
27	0x3d16a4a3	0.036778104
28	0x3d7c4229	0.061586533
29	0x3ca13c14	0.019681968
30	0xbb8f3570	-0.004370384
31	0xbd16d0f9	-0.036820386
32	0x3d53b734	0.051688388
33	0x3dbf0048	0.093262255
34	0x3c8e3bca	0.017362494
35	0x3d710aaf	0.05884808
36	0x3d917a49	0.07103402
37	0xbd3f15ee	-0.046651773
38	0xbd03a171	-0.032136384
39	0xbd76246b	-0.060093325
40	0x3d75a4f1	0.059971754
41	0xbd9362c8	-0.071965754
42	0x3e07c778	0.13259685
43	0xbd4425f8	-0.047887772
44	0xbdab7db7	-0.083735876
45	0xbd42300d	-0.047409106
46	0xbcb2cdc8	-0.02182664
47	0x3d7366dc	0.059424266
48	0x3cd09ed6	0.025466364
49	0xbc7df9e5	-0.015501474
50	0xbd9bd229	-0.07608444
51	0xbdac7ae7	-0.08421879
52	0xbc7593ac	-0.014988821
53	0x3d3eb249	0.046556745
54	0x3d21e28c	0.039522693
55	0x3de0cba5	0.10976342
56	0xbd69bbac	-0.057063743
57	0xbbc9ed57	-0.0061623263
58	0x3cac53e1	0.02103609
59	0x3c37885b	0.011201943
60	0xbc4a620c	-0.012352478
61	0x3d156066	0.036468886
62	0xbb2ac850	-0.0026059337
63	0xbce3f50d	-0.02782681
64	0xbc18308b	-0.009288917
65	0x3d682db9	0.05668423
66	0xbc8ee90b	-0.017445108
67	0x3db5b620	0.08872628
68	0xbda1b143	-0.07895138
69	0x3d6ecc01	0.058300022
70	0x3cfe50be	0.03104436
71	0x3e216959	0.15762843
72	0x3c79b844	0.015241686
73	0x3d5e14d2	0.054219075
74	0x3c854506	0.016268265
75	0x3ace3c2b	0.0015734484
76	0x3cb0fab6	0.021603923
77	0x3da6675b	0.08125182
78	0xbdfe2630	-0.124096274
79	0x3d96c0bc	0.0736098
80	0x3d07e9e0	0.033182025
81	0xbd0dd1c7	-0.034623887
82	0x37b94620	2.2086373e-05
83	0xbcbf75cb	-0.023371598
84	0xbd207569	-0.03917447
85	0x3cf657ed	0.030071223
86	0xbce29598	-0.027659222
87	0xbc33b00b	-0.010967265
88	0xbde7ba13	-0.11314788
89	0xbd4d003a	-0.050049044
90	0x3d3f5d38	0.04671976
91	0xbd9deb52	-0.077108994
92	0xbd424aa5	-0.047434468
93	0x3e1fe33b	0.15614025
94	0x3d017d9e	0.03161394
95	0x3d3fc745	0.046820898
96	0xbd1c429f	-0.038149472
97	0x3b82ab7b	0.003987727
98	0x3dc245c7	0.09485965
99	0x3d43ffea	0.04785148
100	0xbd806a4d	-0.06270275
101	0xbd07305f	-0.033005115
102	0x3ce73997	0.028225703
103	0xbc2a67b3	-0.0104007
104	0xbca9253f	-0.020647643
105	0xbccc424c	-0.024933957
106	0x3d6dbeac	0.058043167
107	0x3d23439b	0.039859395
108	0xbc0d8361	-0.00863728
109	0x3d8b755c	0.06809494
110	0x3cb50dcc	0.022101305
111	0x3cb504e8	0.022097066
112	0x3b12e471	0.0022413994
113	0xbcbf4f4f	-0.023353247
114	0xbcc077d6	-0.023494642
115	0xbb966c5c	-0.004590554
116	0xbcdaf76f	-0.026729314
117	0xbc1ce79e	-0.009576706
118	0xbc9dc6a2	-0.019259755
119	0xbcb03b80	-0.021512747
120	0xbd832a3e	-0.064045414
121	0x3b1a84a2	0.002357759
122	0xbd8e3b0a	-0.069448546
123	0x3c4adee7	0.012382246
124	0xbc63516a	-0.013874391
125	0x3be43601	0.0069644456
126	0x3c8200b7	0.015869481
127	0x3badaeb5	0.0053003677
128	0x3d90cd93	0.0707046
129	0x3dd9cc0e	0.106346235
130	0xbd6e137a	-0.058124043
131	0xbc87ad62	-0.016562168
132	0xbd249bb5	-0.040187556
133	0xbcf311fa	-0.029671658
134	0xbc20c376	-0.0098122265
135	0x3cc58950	0.024113327
136	0x3cbec1ea	0.023285825
137	0xbbe381e7	-0.006942976
138	0xbdc03d91	-0.09386743
139	0x3d0df46d	0.03465693
140	0x3d130a14	0.035898283
141	0x3c8abb84	0.016935118
142	0xbd2b8629	-0.041875992
143	0x3bbeedfb	0.0058267093
144	0x3d59ea33	0.053201865
145	0xbdee9a8f	-0.116505735
146	0xbcd75269	-0.026284413
147	0x3be809ef	0.0070812623
148	0xbdf3fa8b	-0.11913022
149	0x3bcd7213	0.006269702
150	0x3d236246	0.039888643
151	0x3d646ca1	0.05576766
152	0xbce571b1	-0.028008314
153	0xbb8cb407	-0.004293922
154	0x3b377a7a	0.0027996586
155	0x3ce7be0c	0.028288864
156	0xbda36318	-0.07977885
157	0xbb9ca82b	-0.0047807894
158	0xbbb60697	-0.005554985
159	0xbd4abc5f	-0.04949605
160	0xbe06f088	-0.13177693
161	0x3d159501	0.036519054
162	0xbda03d18	-0.07824153
163	0x3d38b4d6	0.045094334
164	0x3da1a760	0.078932524
165	0xbcfee617	-0.031115575
166	0x3c6e58a0	0.014547497
167	0x3c95f438	0.01830493
168	0x3e10d580	0.14143944
169	0x3d680e21	0.0566541
170	0xbc71c477	-0.0147563135
171	0x3cc45ca2	0.023969952
172	0x3cc70376	0.024293642
173	0x39b9b05f	0.00035417356
174	0xba73031c	-0.00092701777
175	0x3d9ff70a	0.07810791
176	0xbd856a0e	-0.06514369
177	0x3c51da75	0.012808432
178	0xbd8f532d	-0.069982864
179	0x3c998262	0.01873893
180	0x3cfaddf5	0.030623415
181	0x3d34567d	0.044027794
182	0x3c242ce3	0.010020467
183	0x3d25b095	0.040451605
184	0xbc30ce7f	-0.01079142
185	0x3d3a323d	0.045458067
186	0xbdcf8b13	-0.10133948
187	0xbc8af956	-0.016964596
188	0xbc9e4c8a	-0.019323606
189	0x3c94edaf	0.018179743
190	0x3c8329c7	0.016011132
191	0xbc076369	-0.008263447
192	0x3d381d91	0.04495007
193	0x3c406588	0.011742957
194	0xbc21f515	-0.009885092
195	0xbcbe31a3	-0.023217028
196	0xbd4dcf63	-0.050246608
197	0x3d5e53bf	0.054279085
198	0x3d846dc2	0.06466247
199	0x3db0b6f7	0.08628648
200	0xbd868803	-0.06568911
201	0x3d378b87	0.044810798
202	0xbc1d4061	-0.009597869
203	0x3d57f719	0.052725885
204	0x3e07891a	0.13235894
205	0x3d6a1c72	0.057156034
206	0x3d59f34d	0.053210545
207	0x3dd15a83	0.10222342
208	0x3c492440	0.012276709
209	0x3d1a8d61	0.037732486
210	0x3d910ff4	0.07083121
211	0xbae16607	-0.0017196544
212	0x3b9dd3c9	0.0048165065
213	0x3d4a2878	0.049355
214	0xbc818aa0	-0.015813172
215	0xbd26eaa5	-0.04075112
216	0xbd713fd9	-0.05889878
217	0x3d303e4d	0.043028165
218	0xbd7b0c32	-0.061290927
219	0xbcbe5601	-0.02323437
220	0x3d0bfdc6	0.034177564
221	0x3db7ee1d	0.089809634
222	0xbb9855d2	-0.0046489025
223	0x3c8893fe	0.01667213
224	0xbbaa720c	-0.0052015837
225	0x3d669c9e	0.056301706
226	0x3d85c7ba	0.065322354
227	0xbd954a10	-0.07289517
228	0xba479f00	-0.00076149404
229	0x3d9516e1	0.072797544
230	0xbd648f65	-0.055800814
231	0x3d5b7147	0.053574827
232	0xbd1869c5	-0.037210245
233	0xbd7da97b	-0.061929207
234	0xbcfbef73	-0.030753827
235	0xbd047067	-0.032333758
236	0x3cb55c77	0.022138817
237	0x3cf4a521	0.029863896
238	0xbd832c1a	-0.06404896
239	0xbdc0a0e0	-0.094056845
240	0x3c0de2b5	0.008660008
241	0xbcbfae54	-0.023398556
242	0x3db461d5	0.088077225
243	0xbd035447	-0.032062795
244	0xbd5cab24	-0.05387415
245	0x3d443268	0.047899634
246	0xbd69b153	-0.057053875
247	0xbccf6270	-0.025315493
248	0x3dca8dcb	0.09890326
249	0x3c02eb4c	0.007990669
250	0x3d56e358	0.052462906
251	0xbc98d3a0	-0.018655598
252	0xbd6d3e5a	-0.05792079
253	0x3d6fb432	0.058521457
254	0xbd2d3472	-0.042286344
255	0x393b4392	0.00017858882

fc1.bias f4 [32]
0	0x3d07edff	0.033185955
1	0x3d7975a1	0.060903195
2	0xbce1a218	-0.027543113
3	0x3e164bb6	0.14677319
4	0xbdc6c838	-0.097061574
5	0x3d9818ee	0.0742663
6	0x3cd16385	0.02556015
7	0xbd20582d	-0.03914659
8	0x3c767115	0.015041609
9	0x3d1c2916	0.03812512
10	0x3c30b4e2	0.010785313
11	0x3db600cc	0.08886871
12	0x3d7aa97b	0.061196785
13	0x3d940b3b	0.072287045
14	0xbb8b2d36	-0.004247333
15	0xbceb36ee	-0.028712716
16	0xbb8455f3	-0.0040385663
17	0xbd9e3190	-0.07724297
18	0x3b2310f2	0.0024881926
19	0x3ccd3897	0.025051398
20	0xbe01939c	-0.12653965
21	0x3d24237c	0.040072903
22	0xbd385fe2	-0.045013316
23	0x3d17d966	0.03707256
24	0xbd04ba6b	-0.032404345
25	0x39a9c5e7	0.0003238164
26	0x3d23a3c1	0.03995109
27	0x3e29beb5	0.16576655
28	0x3c94119b	0.018074801
29	0x3de7437c	0.112921685
30	0x3b8c7054	0.0042858515
31	0xbcb391da	-0.021920133

fc2.weight f4 [10, 32]
0	0x3df6e06c	0.12054524
1	0x3cec4e4b	0.028845927
2	0x3debe35f	0.11517977
3	0x3e9bb4d6	0.30411404
4	0xbc6e722c	-0.014553588
5	0xbe693839	-0.22775353
6	0xbe3ddc65	-0.18541105
7	0xbe009915	-0.12558396
8	0x3c72050d	0.014771712
9	0xbca9b55b	-0.02071636
10	0x3e2bf97a	0.16794387
11	0xbe30decb	-0.17272489
12	0x3dd7fc29	0.105461426
13	0x3d256d7b	0.04038761
14	0x3e82fccf	0.25583503
15	0x3e8758b9	0.26434878
16	0xbe2f3218	-0.17108953
17	0x3e534086	0.20630082
18	0x3b5a0478	0.0033266824
19	0x3d90c83b	0.07069441
20	0xbe8bf73b	-0.2733706
21	0x3db51655	0.0884215
22	0x3dea0139	0.114260145
23	0x3d48ed81	0.049054626
24	0xbb335e37	-0.002736939
25	0xbe329cab	-0.17442577
26	0x3e3ac9e4	0.18241078
27	0x3e56cd94	0.2097686
28	0x3e2b4d21	0.16728641
29	0xbe0903cd	-0.13380356
30	0xbb57a112	-0.0032902402
31	0x3e4068a2	0.18789914
32	0x3d2d6116	0.042328916
33	0x3c7818af	0.015142604
34	0x3d21b6d1	0.039480988
35	0xbbc13344	-0.005896004
36	0x3e773613	0.24141721
37	0xbea28aca	-0.31746513
38	0x3ea55f41	0.32299235
39	0x3e33c55a	0.17555752
40	0xbc71e86f	-0.014764889
41	0xbde632d3	-0.11240163
42	0xbe8562a3	-0.26051816
43	0x3e244e91	0.16045596
44	0x3cb04517	0.02151732
45	0xbd46bf28	-0.048522145
46	0xbd418903	-0.047249805
47	0xbe2ea89c	-0.17056507
48	0x3ce28561	0.02765149
49	0xbe803de7	-0.25047228
50	0x3d959099	0.073029704
51	0xbe9909b1	-0.29890206
52	0x3e8fad0e	0.28061718
53	0xbc67f6c0	-0.014157951
54	0xbe6052a8	-0.21906531
55	0xbe514956	-0.20438132
56	0x3cba8684	0.02276922
57	0xbea4bcbd	-0.32175246
58	0x3d2bdfbc	0.041961417
59	0xbe62fbf1	-0.2216642
60	0xbe851480	-0.25992203
61	0x3f02bd03	0.5106966
62	0xbdae3f15	-0.08508126
63	0x3da68c73	0.08132257
64	0xbe8fd168	-0.28089452
65	0xbb3691e6	-0.0027857958
66	0x3cc97596	0.024592202
67	0xbc93b323	-0.018029755
68	0xbddf698e	-0.10908805
69	0xbe096793	-0.13418417
70	0xbe6ce15f	-0.23132847
71	0xbe71cd29	-0.23613419
72	0xbdc18bc1	-0.09450484
73	0x3d8f055b	0.06983443
74	0x3d8b0ae7	0.06789189
75	0x3e4e6be0	0.20158339
76	0xbe7bd0cc	-0.24591368
77	0xbdcd7371	-0.10031784
78	0x3e9532c9	0.29140308
79	0xbdd4833d	-0.10376594
80	0x3e24edf9	0.16106404
81	0xbd68e749	-0.056861196
82	0xbdc04b67	-0.09389382
83	0x3e76ec4f	0.24113582
84	0x3dd19951	0.10234321
85	0xbdf41fc6	-0.11920123
86	0xbe3a540a	-0.18196121
87	0x3cade32e	0.021226492
88	0x3d404805	0.046943683
89	0x3e195edd	0.14977594
90	0x3e0c4927	0.1369978
91	0xbdcd9449	-0.10038049
92	0xbe0448e7	-0.12918435
93	0xbd852eb5	-0.06503049
94	0x3ea613e9	0.32437065
95	0x3d8dd338	0.069250524
96	0x3e68aec3	0.22722916
97	0xbcb0a99f	-0.021565257
98	0xbdd7c9b0	-0.10536516
99	0x3d84531c	0.06461164
100	0x3e73dee4	0.23815495
101	0xbe3a9ba3	-0.18223433
102	0x3def0ab9	0.11671967
103	0xbe22795e	-0.1586661
104	0xbc06b50e	-0.008221878
105	0x3e34a767	0.17641984
106	0x3e733333	0.2375
107	0x3e0c1d0d	0.13682957
108	0x3d7d47d7	0.06183609
109	0x3d9f5ee4	0.07781771
110	0xbe7d54ac	-0.24739331
111	0xbe0f2c8d	-0.13981839
112	0xbe448cba	-0.19194308
113	0x3e77ed93	0.24211721
114	0x3e692cd2	0.22771004
115	0x3e5b156d	0.21394892
116	0x3d4ce145	0.05001952
117	0x3df97b08	0.121816695
118	0x3deeaa25	0.11653546
119	0xbb873bc7	-0.004126999
120	0x3d60e266	0.05490341
121	0x3d546a64	0.051859275
122	0x3d251990	0.04030758
123	0xbdc754d7	-0.09732979
124	0xbd7bd780	-0.061484814
125	0xbd9af7d4	-0.07566801
126	0x3db963de	0.09052251
127	0x3d365541	0.0445149
128	0x3dae798e	0.085192785
129	0xbdc9b893	-0.09849658
130	0x3d38b0f4	0.04509063
131	0xbd8f2044	-0.06988576
132	0xbccdea85	-0.025136242
133	0x3e8912a6	0.2677204
134	0xbde15421	-0.110023744
135	0x3e05d8f7	0.13071047
136	0xbe2ca892	-0.1686118
137	0x3e561ebd	0.20910163
138	0xbe7b2658	-0.24526346
139	0xbdd62ce5	-0.10457782
140	0xbeab0340	-0.33400917
141	0x3eb50a8b	0.35359606
142	0xbe4225b6	-0.18959698
143	0xbe0bb25c	-0.13642257
144	0xbd455552	-0.04817707
145	0xbe45c941	-0.19315054
146	0x3df06b9a	0.11739273
147	0xbd3d7a86	-0.046259426
148	0xbe1355d4	-0.1438821
149	0x3c393e5b	0.011306371
150	0x3de91cdd	0.11382458
151	0x3e53de89	0.20690359
152	0xbe1c689f	-0.15274285
153	0xbd98059d	-0.07422946
154	0x3ddf4b40	0.10903025
155	0x3d8ddb99	0.069266506
156	0x3e7040e5	0.23462255
157	0xbd708c4a	-0.05872754
158	0x3dc5ff21	0.096678026
159	0xbd5f2798	-0.05448112
160	0x3e4a0300	0.19727707
161	0xbd2c2fd9	-0.04203782
162	0x3cb06284	0.02153135
163	0x3e067aac	0.13132733
164	0x3d37c890	0.044869006
165	0xbbdb0c00	-0.00668478
166	0xbe6f22f7	-0.23353182
167	0x3e7c8ff8	0.24664295
168	0xbe031069	-0.12799229
169	0xbe1691b6	-0.14704022
170	0xbe281767	-0.16415177
171	0xbd7e9124	-0.062150136
172	0x3e0d80a9	0.13818611
173	0xbcb39e44	-0.021926053
174	0x3e126a5c	0.14298385
175	0xbe6bc196	-0.23023066
176	0x3b37797b	0.0027995992
177	0x3e8d3cab	0.27585348
178	0xbac04a64	-0.0014670608
179	0xbe5255cd	-0.20540543
180	0x3d991706	0.074750945
181	0x3e1c6fb5	0.15276988
182	0xbcd752a8	-0.02628453
183	0x3dea0b7e	0.11427973
184	0x3de00521	0.10938478
185	0x3d89c54f	0.06727087
186	0x3ce93dbd	0.028471822
187	0x3e4a1207	0.1973344
188	0x3c4e004a	0.012573311
189	0x3d00c1e5	0.031434912
190	0x3da85140	0.08218622
191	0x3de2fa52	0.11082901
192	0xbce50fda	-0.02796166
193	0x3d893ffc	0.06701657
194	0x3e9d319e	0.30701917
195	0xbd982785	-0.07429413
196	0x3dc87d63	0.097895406
197	0x3ce8ac28	0.028402403
198	0xbc54e71b	-0.012994553
199	0xbe6aca88	-0.22928822
200	0xbe0fb5b0	-0.14034152
201	0x3d6f0abc	0.058359846
202	0xbe23fec3	-0.16015153
203	0xbe9a83c8	-0.30178666
204	0xbe64c849	-0.22342028
205	0xbe4a8bd1	-0.19779898
206	0x3de5c93a	0.112200215
207	0x3cc23e4c	0.023711346
208	0xbd7b060e	-0.06128507
209	0xbdb81e09	-0.08990104
210	0xbe044c97	-0.12919842
211	0x3d90c7ee	0.070693836
212	0x3ea2cae1	0.3179541
213	0x3e6a1235	0.22858508
214	0xbe61de8c	-0.22057551
215	0x3e37b90b	0.17941682
216	0x3e0f9ef6	0.14025483
217	0xbe06f565	-0.13179548
218	0xbb6fa607	-0.0036567466
219	0x3e86d4af	0.2633414
220	0x3e1368ed	0.14395495
221	0xbe3bb98b	-0.18332498
222	0xbe5b988f	-0.21444915
223	0x3c5eb877	0.0135937845
224	0xbdcf5952	-0.101244584
225	0xbda628f7	-0.08113282
226	0x3dfa01b5	0.12207357
227	0xbe4193e4	-0.18904072
228	0xbce17d98	-0.027525708
229	0xbe8de2dc	-0.27712142
230	0x3e84379b	0.25823674
231	0x3e81d9f7	0.25361606
232	0x3e719b51	0.23594405
233	0x3d9eeffb	0.077606164
234	0xbe43b124	-0.19110543
235	0x3dbd7dfb	0.092525445
236	0x3e14a3fb	0.14515679
237	0x3e65e3ce	0.22450182
238	0x3dc3db24	0.09563282
239	0xbdc826b6	-0.097730085
240	0xba972af1	-0.0011533183
241	0xbcd3e7e6	-0.025867414
242	0xbd36ea73	-0.044657182
243	0x3e35df02	0.17760852
244	0xbe51e583	-0.20497708
245	0x3e217bc1	0.15769865
246	0xbe402979	-0.1876582
247	0xbe662564	-0.22475201
248	0xbd63ece9	-0.055645857
249	0x3e27f175	0.16400702
250	0xbd936349	-0.071966715
251	0xbc98c0e3	-0.018646663
252	0xbe65d684	-0.22445112
253	0xbe47b16e	-0.19501278
254	0x3c0b5a9a	0.008505488
255	0x3e215a3a	0.15757075

fc2.bias f4 [10]
0	0xbde66c18	-0.11251086
1	0x3e1f7bbb	0.15574543
2	0xbdcc61ad	-0.09979568
3	0x3c40e4c6	0.011773294
4	0xbe2998f8	-0.16562259
5	0xbdbfafaa	-0.09359677
6	0x3dd37c24	0.10326412
7	0x3da39fa2	0.07989432
8	0x3d27bcff	0.040951725
9	0x3e240209	0.16016401
