Codes/mnist_cnn_mnist_1_False_0.1_1.0_1.0_64_1.pt (torch, 106255 bytes, 8 tensors)

conv1.weight f4 [16, 1, 8, 8]
00000000: 5ec5 1c3e 1e7e bd3d f947 0fbd f92d 043e
00000010: 7bf3 c1bd d65f 9b3d 321b 053c 33a0 9b3d
00000020: 48f1 ce3c fd49 123d fd7a 823d 0e81 a73d
00000030: e8b5 b33d 2ee0 3abd e1ee 973d 3c6e ac3d
00000040: 6d0b 6a3c f3a6 a2bc 0874 bf3d ffa1 b03d
00000050: c8b8 43bd 3aa4 3e3d 27ee 123d 051b ac3d
00000060: c19e e7bc 3b1e cbbb dcaf 153d c194 1c3d
00000070: 397f bcbd 3042 863d 51d8 d53d 7da8 2c3e
00000080: cd7f 8c3d 5e83 cbbd 8b5b 13be 9477 06be
00000090: 3956 ad3d b1be e1bc 306e 173e fe84 773d
000000a0: 65e6 89bc 89e8 80bd 440b b13d 1f43 08bd
000000b0: 458f 2ebd a909 b13d 6fac 93bc 3947 d23d
000000c0: c9bb d7bd f46e 55bd 2391 cfbd a5cb 0abe
000000d0: 57db 903d 25a5 393c 5afb 773e c05b 613e
000000e0: 4585 98bd 8a5f 31be 1fe2 263d f8a4 2c3b
000000f0: bfe3 02bc d952 183e 1d09 fe3d ca85 003e
00000100: 1d24 a3bd 670e f3bd a8c6 7ebd e64f eb3c
00000110: be1d 91bd f799 0abe 6fd6 cc3d a001 a83b
00000120: a721 66bd d3cd e53b 0380 d73d fa5c 7e3d
00000130: 18fa b33d 75a9 123d 0ff8 10be eac6 df3c
00000140: c241 d9bd d07f 3dbe 7953 4e3d 5793 1d3d
00000150: 17ab 243e cdf6 f2bc 3fe1 01bd 8e18 a23d
00000160: d7ab d2bc cfd6 123e 80fe 523b 0d04 71bd
00000170: 63ca 063d 6e07 ecbb ce02 dfbd 0f07 a4bd
00000180: e22a 1ebd 82b0 10bb 8244 05bc d503 a43d
00000190: 1085 5e3e fb5c 623d 8c36 c9bc 5d8f a33b
000001a0: acee 29be 08b9 e8bd 76cd 1e3e 2149 a33d
000001b0: dc89 f13d a2d8 af3c 3398 ad3d 21b1 f33d
000001c0: c12c c23d 7329 1fbe d12c 593d 40d7 383e
000001d0: 1c4f f43d 0fb6 cc3d 565d 89bd 7f79 92bd
000001e0: 4355 33be c6b8 99bc a403 403e c344 f2bd
000001f0: c62f 103e dc45 89bc 6f91 08be 599b 3fbd
00000200: 603e 383e 8697 6a3d 84f3 9cba c17d b53d
00000210: b437 843e ea3c 473e f9d3 153e e58a 603e
00000220: 8e26 f73d 9c57 733a e601 82bd 2281 cc3d
00000230: 3e80 b33d 821e 143e 8286 be3d 75a0 4f3e
00000240: 933e d03d d5fb 293d 6589 2a3d 80ab 8a3d
00000250: 1a58 153e d7c5 193e f9de 4b3d b80f 853e
00000260: 4d91 52bb 8ddb 49bb aa90 b2bd d1c6 c6bd
00000270: b4f3 7cbd bb1b 32bd 0843 263e 7bff a53b
00000280: 606c 07be e13a e43d 81b8 6ebc c007 fd3c
00000290: 602e 57be d87b f33c 5e70 973d cce6 de3d
000002a0: 3a33 0abe 1f43 11be 416d b3bd a27e 5bbd
000002b0: b18d 85bd a2c6 c43c 3fd6 633e 4fc0 0c3e
000002c0: 83ca b4bc 337b 64bc a626 2abe 6561 943d
000002d0: 35b0 abbc 0497 8b3d 927a 09be ef8e 293d
000002e0: a88b 6cbd caed 0e3e 7b1b 12be 4f55 40be
000002f0: 52bf 36bd 9f8f afbc 532f 0d3e d8cc dd3d
00000300: 99e7 86bd 7fb2 043d 01e7 8c3e 8cb3 b6bc
00000310: fe33 a73d 8c9a 193e 23f5 d33d 813c 7cbd
00000320: e553 c03d 5a3f adbd 7040 bd3d 5549 333d
00000330: 9b84 813e ac0f f33d d44d a8ba e737 1ebd
00000340: 1640 3ebd a804 00bd 6cf0 ba3c 5bf7 ce3d
00000350: ddf3 a53c eabe 403e 5820 ea3d c708 a53d
00000360: dbe7 883d 2b60 51bd 2fff ddbc 982d 063e
00000370: 7e08 5d3d 2e06 703e 9047 c13c 7be6 8abd
00000380: cdd4 f53c 0cfa 42be 0318 4cbd fb64 173e
00000390: 1740 483e e3d7 163e e5d7 cd3c 7da6 2dbe
000003a0: 8357 343d 2c0e 3dbd 84a6 86bd eb6d 443e
000003b0: 8e72 90bd 4998 053d 5dd6 103e 04c7 b4bd
000003c0: 7b4c e1bd a77e 863c 0280 093e c743 633d
000003d0: 3822 1b3c b57d b0bc 46d0 f7bc 2c3d babd
000003e0: 4f1e a6bd eea6 1d3e 25a3 0c3e 4c21 04bc
000003f0: c88a d03c 8774 933d 7224 093d 1c32 d9bd
0.15309665 0.092525706 -0.034980748 0.12908162 -0.09470268 0.07586639 0.00812416 0.07598915
0.025261536 0.035715092 0.063711144 0.08178912 0.0877493 -0.04562395 0.074186094 0.08419463
0.014284951 -0.019854998 0.09348303 0.08624648 -0.047783643 0.046543337 0.03587165 0.08403591
-0.028273942 -0.006198672 0.036544666 0.0382278 -0.09203953 0.06555593 0.1044165 0.16861148
0.068603136 -0.09937166 -0.1439039 -0.13131553 0.08463711 -0.027556749 0.14788127 0.060429566
-0.016833493 -0.062943526 0.08644727 -0.033267137 -0.0426171 0.08644421 -0.018026559 0.10267491
-0.10533864 -0.052107766 -0.101351045 -0.13554247 0.07073086 0.011330877 0.24216977 0.22007656
-0.07447294 -0.17321602 0.04074299 0.0026343446 -0.007988869 0.14875354 0.12404082 0.12551036
-0.079658724 -0.118679814 -0.062201172 0.028724622 -0.07085751 -0.13535295 0.100018375 0.005127147
-0.056184437 0.0070130615 0.10522463 0.062100388 0.08787936 0.035806138 -0.14157127 0.02731653
-0.106082454 -0.18505788 0.050372574 0.038470592 0.1608089 -0.0296587 -0.031708952 0.0791484
-0.025716705 0.14339755 0.003219515 -0.058841754 0.032907855 -0.007203034 -0.10889207 -0.08009159
-0.038615115 -0.0022077863 -0.008134009 0.080085434 0.21730447 0.055264454 -0.024562143 0.0049914555
-0.16594952 -0.11363417 0.15508065 0.079729326 0.11793873 0.021465603 0.08476295 0.11899019
0.094811924 -0.15543155 0.053021256 0.18050861 0.119291514 0.099956624 -0.067072555 -0.0715208
-0.17512994 -0.018764865 0.18751389 -0.118295215 0.14080724 -0.016756944 -0.13336729 -0.04677901
0.17992544 0.05727341 -0.0011974429 0.08861876 0.25823748 0.1945683 0.14631642 0.21927984
0.120679006 0.0009282769 -0.06348018 0.09985568 0.08764695 0.14464763 0.09302999 0.20276053
0.10168185 0.04149993 0.041634936 0.06770992 0.1458439 0.15016876 0.04977319 0.25988555
-0.0032130063 -0.0030801028 -0.08718999 -0.0970589 -0.06175585 -0.043483477 0.16236508 0.005065856
-0.13224936 0.11144043 -0.014570356 0.030887485 -0.21013784 0.02972214 0.07394479 0.10883865
-0.13496104 -0.14185761 -0.08761073 -0.053587563 -0.06521166 0.024020497 0.22249697 0.13745235
-0.022069221 -0.013945389 -0.16616306 0.07245139 -0.020958045 0.06815913 -0.13425663 0.041396078
-0.057750374 0.13957897 -0.14268295 -0.18782543 -0.04461605 -0.021430789 0.13787584 0.108300865
-0.065871425 0.03239679 0.27519992 -0.022302411 0.081642136 0.15000361 0.103494905 -0.06158114
0.093910016 -0.08459349 0.09240806 0.043771107 0.25296482 0.118682235 -0.0012840577 -0.03862753
-0.046447836 -0.03125444 0.02281972 0.10105773 0.020257885 0.18822828 0.1143195 0.08058315
0.06684848 -0.051117104 -0.02709922 0.1310333 0.053963177 0.23439857 0.023593694 -0.06782242
0.030008698 -0.19040698 -0.049827587 0.14784615 0.19555698 0.14730792 0.02512736 -0.16958041
0.04402877 -0.046156093 -0.06574729 0.19182555 -0.070530996 0.032615934 0.14144273 -0.08827022
-0.110009156 0.016417814 0.13427737 0.05548456 0.009468608 -0.021544317 -0.03025068 -0.09093699
-0.0811125 0.1539571 0.1373411 -0.008064579 0.025456801 0.0719996 0.033482023 -0.10605261

conv1.bias f4 [16]
00000000: b7df a3bd 6a40 833d 921f ad3d 5634 cdbd
00000010: 8dc3 873b 696e 553c 24f3 cbbd c447 a33a
00000020: eeec 353e 2df0 593d 33da 153e ee53 5d3c
00000030: 0d7e 2bbd 061f 2d3c 5083 f5bd aeb9 8b3d
-0.080016546 0.064087704 0.08453287 -0.10019748 0.0041431845 0.013026812 -0.09958485 0.0012457301
0.17766163 0.053207565 0.14634018 0.01350878 -0.04186826 0.010566479 -0.119879365 0.06822525

conv2.weight f4 [32, 16, 4, 4]
00000000: 54d2 893c 0e6e 873d d3a5 82bc 5144 543b
00000010: d71e e03c b5ff 243e 725e 9f3d f813 b5bb
00000020: 6a58 1b3d 1ffb 603d bbab 6fbd d9ff 94bd
00000030: 9632 833d 8db8 5ebb 5991 36bc 10a3 98bd
00000040: 7e7c d1bb b0f1 cb3c f5f8 59bd 3c68 d0bc
00000050: ce45 61bc 658a 623d be4d 3dba 1f39 253d
00000060: fca8 13bd acff c43c b7f1 533c a17f d7bc
00000070: 9d11 c3bd 4083 963c ceb0 283e 4bfd 0d3e
00000080: a67e 4e3d 019e 863d eab7 58bd 70e9 a2bd
00000090: 6c0e 8a3d b49f 7d3e 2626 c23d de72 363d
000000a0: 0a4d c23d 2a22 ad3d ec9d 183e 0646 1b3d
000000b0: 3c5b a43d 7668 fdbc 1122 03be 5e59 e8bd
000000c0: d25d ad3c 83a1 1a3e 956b e93d c928 203d
000000d0: 1c82 91bd 0828 e93b f600 623e dc28 a43d
000000e0: 2f1e b5bd 9a36 8fbd 523e f4bb 1f09 cb3d
000000f0: 2133 5a3d 0484 ad3c 6890 8e3d 8b72 3d3c
00000100: d981 c4bc a0b0 b93c 8a0e 2a3d 5629 333d
00000110: a8e1 fe3d b1dd d93d d649 06be 6db6 3d3d
00000120: 2e9f cc3c 3f08 903c 7382 9dbd c3ae a13c
00000130: 44cc 8f3c 84c6 1fbe 9feb cc3c 4703 a13d
00000140: c38c 6b3d b5c9 943d 39aa 8ebb 5a10 ec3c
00000150: 6cf0 54bd 5a77 ee3d 5882 0bbd b74d c6bc
00000160: a160 893c 92b3 7a3d cf5c 56bd 1485 703d
00000170: 353e f4ba c521 353d 5dfb 5fbd d10f 4bbc
00000180: 61c2 453d 844d f03d 5464 86bd 7229 cd3d
00000190: e6ab 923d 1727 383e 40a8 2e3e 0281 833d
000001a0: 4c59 673d cda7 973d 68c5 b6bd 0a00 34bc
000001b0: fcc7 a1bc 326d 91bd 9118 11be fbfc 2e3c
000001c0: addf 0d3e 2c98 88bd 23d4 533d 5844 ecbc
000001d0: 9499 663d ae70 5bbd 730f 22bd 3e13 1c3d
000001e0: 67e6 c6bd 8a15 70ba 08b2 9b3d d05a 80bd
000001f0: 87f4 c7bd 3d4d e23c 408c adbd d28a f73c
00000200: b5c1 d83b e282 8fbd 06ce 4b3d cc50 1bba
00000210: 82e3 ad3d 12b8 49bd af32 53bc 2b90 913d
00000220: c967 97bc 0d93 893d 1410 2fbd 6137 35bc
00000230: 3886 17bd fd91 873d cf86 4e3c d89b 953c
00000240: 23d9 cc3b d0db c53d 55d4 ffbb dabf 4d3d
00000250: fdd1 e53d 1f5e de3c 4d40 153d 6568 c83d
00000260: e765 6f3d aa9e 51bd 8cad 043d f81d c33d
00000270: d719 213d c52f 12bd 83af 6abd 2409 323d
00000280: 9fcf b63d 73f0 f53d c44a 60bd 7ca7 393d
00000290: 2381 16bd ebc5 c3bd 51ba 77bd 06f5 963d
000002a0: f661 e63c c9f8 99bd d9ed 573d 0898 67bd
000002b0: 0907 17be b2d7 c83a cf28 a73d 9cf6 b93d
000002c0: c379 cc3d ea32 b03d 724b 853d c801 a6bc
000002d0: 258a e9ba 5745 24bc 5b17 863c 12fb cb3d
000002e0: bd57 80bb 9bd8 c3bd b882 3bbd 9ce8 c0bc
000002f0: d2ca 0c3b ce79 bbbd cf1f 983b d3c2 023e
00000300: 5902 9ebc d61b 30bd 79ae a03c db38 a3bd
00000310: 0658 09bd e4f0 d6bd 2e7d 0bbd 3acf 053d
00000320: b0df f2bc 3fff 60bd d080 8c3c be40 d9bd
00000330: 1c6a 0ebe 092a 5cbd 607c 8a3d 12ef 833c
00000340: 51aa babd 57bb b4bd bbc4 a63c e247 3abd
00000350: 8227 ba3d 0e42 91bd da14 2b3a aa1e e73d
00000360: 54ec c83d dcb0 043d 352e 523d 7d2a 6c3d
00000370: 3170 503e 3ff8 cb3c 4ce2 2cbd 5421 c33d
00000380: 4864 773d a31c ad3c 42e6 a73d 2764 7a3d
00000390: 5272 8cbd 8388 933d 0c2b b6bc dc40 433d
000003a0: 2901 b03d 2a2b cd3d 3d36 e5bd 88c9 04be
000003b0: 8fdb 02bd be59 29bc 7c8c 9abd e99a 42bd
000003c0: 1ed3 273c 391f bb3d 9a04 0a3e 3b8a c03d
000003d0: e8f1 993d df65 14bc e790 ae3d 2b72 573e
000003e0: da24 cc3b d8ff 6bbd b61d 5d3c 90f1 a73d
000003f0: 5671 01bd 9208 f4bb d5a0 d03c 9b1e 66bc
0.016823925 0.06612788 -0.015948212 0.0032389353 0.027358456 0.1611317 0.07781686 -0.005526062
0.037926115 0.054926988 -0.058513384 -0.072753616 0.06406133 -0.0033984513 -0.011143052 -0.07452977
-0.0063930145 0.024895519 -0.05321594 -0.025440328 -0.013749553 0.055307765 -0.00072213623 0.040337678
-0.036049828 0.024047695 0.012936047 -0.026305975 -0.09524844 0.018373132 0.16473696 0.13866155
0.05041375 0.065731056 -0.05290977 -0.07954681 0.06741032 0.24767953 0.094799325 0.04454314
0.0948735 0.08453782 0.14903992 0.037908576 0.08025214 -0.0309336 -0.12805964 -0.113451704
0.021162901 0.15100674 0.11397473 0.039101396 -0.071048945 0.007115368 0.22070679 0.08015606
-0.08843648 -0.06992836 -0.007453718 0.09913849 0.053271417 0.021181114 0.06961137 0.011562954
-0.023987697 0.02266723 0.04151777 0.043740593 0.12445384 0.106379874 -0.13114104 0.046316553
0.024978247 0.017582057 -0.07690897 0.019736653 0.017553456 -0.15603071 0.025014697 0.07861953
0.057507288 0.07265035 -0.004353788 0.02881639 -0.051987097 0.11643858 -0.034059852 -0.02420698
0.016769709 0.061206408 -0.052334603 0.058720663 -0.0018634262 0.04422166 -0.054683078 -0.012393908
0.048281077 0.11733535 -0.06562105 0.10017671 0.07161693 0.17983662 0.1705637 0.06421091
0.056481645 0.07405052 -0.08924371 -0.010986337 -0.01974868 -0.071009055 -0.14169528 0.010680432
0.13854857 -0.066696495 0.05171598 -0.028841183 0.056298807 -0.053574257 -0.039565515 0.03810429
-0.097119145 -0.0009158483 0.07602316 -0.06267321 -0.09763437 0.02762472 -0.08474016 0.030217562
0.0066148886 -0.07007386 0.049757026 -0.00059248204 0.08490659 -0.04924781 -0.012890502 0.07107576
-0.018482106 0.06717501 -0.042739943 -0.011060567 -0.036993235 0.06619642 0.012605383 0.018262789
0.0062514707 0.096610665 -0.0078072944 0.050231792 0.11221693 0.02714449 0.036438275 0.09785537
0.05844679 -0.051176704 0.03239207 0.095272005 0.039331283 -0.035690088 -0.057296287 0.04346575
0.08926319 0.12008753 -0.054758802 0.04532574 -0.036744248 -0.09559234 -0.06048042 0.07370953
0.028122883 -0.07518155 0.052717064 -0.056541473 -0.14748777 0.0015323071 0.081620805 0.0908024
0.09984162 0.08603461 0.06508531 -0.020264521 -0.001781766 -0.0100262975 0.016368559 0.09959997
-0.003916709 -0.095627986 -0.04577896 -0.023548417 0.0021483195 -0.09154092 0.0046424638 0.12769632
-0.019288229 -0.042995296 0.019614445 -0.07969829 -0.03353121 -0.10495165 -0.034054928 0.03266833
-0.029647678 -0.05493092 0.017151266 -0.10608052 -0.13907665 -0.053751025 0.06762004 0.016105209
-0.091145165 -0.08824795 0.02035748 -0.04547871 0.09089567 -0.07092677 0.00065262394 0.112851456
0.09810701 0.03239523 0.051313598 0.057657707 0.20355298 0.024898646 -0.042208 0.09527841
0.06039837 0.02113182 0.08198215 0.06113067 -0.06857742 0.07203772 -0.022237323 0.047669277
0.08593971 0.100179985 -0.11191986 -0.12967503 -0.03194767 -0.010336338 -0.075463265 -0.047511015
0.010243205 0.091368146 0.13478318 0.09401365 0.07516843 -0.009057491 0.08523732 0.21039645
0.006229979 -0.05761704 0.013495853 0.08200371 -0.031602226 -0.0074473107 0.025467316 -0.014045383

conv2.bias f4 [32]
00000000: c660 1c3d 902d 8dbc f650 a2bd ddf5 dc3d
00000010: 5b7c 93bc 7c42 a93d a705 743c 7f70 1f3a
00000020: b3a4 08bd 2619 cabd 29d4 78bd 508f 5cbd
00000030: dc47 4abd 37b7 b0bc 8923 0bbe b391 163d
00000040: 12b5 10bd 141f 593d 8b1e 1f3e bb13 d63d
00000050: 69ca a73d dbe1 993d 804e 75bc 71c0 343d
00000060: 7de5 cf3d 70f5 a3bd 7f62 d13c 1353 e2bc
00000070: f31f 903d 073f ac3d 1ed9 003e 1575 013d
0.038178228 -0.01723364 -0.07925598 0.10789082 -0.018003633 0.08264634 0.014893926 0.0006082132
-0.033360194 -0.09868078 -0.060749207 -0.05384761 -0.049384937 -0.021571739 -0.13587774 0.036760043
-0.035328932 0.053008154 0.15538995 0.10452982 0.081929035 0.07513782 -0.014972329 0.04412884
0.10151193 -0.08005798 0.025559662 -0.027627503 0.07037344 0.08410459 0.12582824 0.0316058

fc1.weight f4 [32, 512]
00000000: 9e4d 09bc 7366 1a3d b5e3 be3d 14c4 c03c
00000010: 05f6 f2bb 493d 89bc 9099 2b3d 1ef2 e13b
00000020: 3e21 013b 97af e93c b3b0 1b3d b8ec 6ebd
00000030: 114b 493d 9915 173c 1ae3 423c 433e 733c
00000040: 1d0b b83d 1228 97bc 21a4 19bd d26c 07bb
00000050: 863b e4bc bb43 36bd 4384 833d 34ef 6cbd
00000060: 32bc 103d 95b7 d03d 1dad ca3c 4a15 ae3d
00000070: c8ac b9bd 107f 8cbd 4774 f43c a98e b2bc
00000080: 18c2 0f3d 8e65 0c3e a955 f43d 2a59 c03c
00000090: b440 573a 8682 e93d d432 243d 967f 4b3d
000000a0: 9dbf 7a3c 75c9 9abc 08d7 85bd 0c90 7dbc
000000b0: 2af5 18bc 12ba dbbc f321 95bc 3922 95bd
000000c0: 297c 283d 4643 6c3d 5793 00bd 41b8 833c
000000d0: c8e6 fabc 3834 02bc 9083 053d 64e7 d53c
000000e0: 3d18 7d3b 54e0 043d 2746 b43c f7b8 08bc
000000f0: 0023 54bd 0e43 57bd cf42 913c 342d e3bc
00000100: cba9 363d 5474 e53d df7c 933d 5dda 79bd
00000110: d973 9d3b 7985 833c 124f 813d eb30 f23d
00000120: f05a 0dbd 83fc 6c3d 292a 863d 66ca b33b
00000130: d328 e6bd 2e8f 8ebd 789e 023d 216c f9bd
00000140: 2c0b b23c 02f8 ee3c 73ad 353d 7768 dabb
00000150: 5fde 0abd ef14 0dbd 6c2e a5bd 2b8e c53d
00000160: fbbe 68bc 4336 d6bd 9fd8 8d3c 7070 b9bd
00000170: 394d 64bc e900 b63d 1103 943d 34ac d33c
00000180: af7d 473d 6ff9 123a 33c6 613c 5ab8 f8bd
00000190: 635d 4e3d 2b68 dbbc 499c c13d 98ae 173d
000001a0: 5cdf 03bc ddc1 2bbd ed7c 6dbd 8a30 a63d
000001b0: e9aa febb d1df 873d 5afb c43d 714b 6bbd
000001c0: 252e 5a3d db31 65bd 0dbf 5e3d b8c2 063d
000001d0: bab2 cf3c df06 4d3d d25d 3dbd f817 2f3d
000001e0: c1e9 e5bd 4ed4 a23d 590c 61bd e621 603c
000001f0: 9984 ccbd 66bc 8bbd d984 203d fdab 54bd
00000200: d87e d8bc 5af8 30bd 8b79 e3ba 2e00 9fbc
00000210: 7c6e 8d3d 8868 e73b c52e fbbc 5e63 4c3d
00000220: f733 cfbc b633 3a3c a2b2 82bd a091 723d
00000230: 216f 72bc 2083 423d 7f37 4e3c 7207 2f3d
00000240: fc4a a93d 6443 98bd 2983 95bd 9f93 893d
00000250: e9ca 5ebd f6d4 8cbd 902c 29bc 2516 883c
00000260: f314 3cbb 0000 b13b ce2a 0abd 4051 8ebd
00000270: b949 ed3c 7474 72bd 2bdf cc3c 4e98 4d3d
00000280: 086c fc3d 4d1b 35bd 2f53 50bd 1062 883d
00000290: cbc3 af3d 6297 1a3d a06d 3f3d 6c89 49bc
000002a0: 0a6a 62bd 2e25 21bd b603 4d3d 5200 cf3d
000002b0: f3b6 cc3d b87d d43d fa91 b4bd 0e5b b73d
000002c0: 237f dbbd d5ae 093c ade6 ac3d 9d0b 89bb
000002d0: c14b 30bc 7d9b 9f3d e7c4 c63d 998d ad3d
000002e0: 51d4 ba3c b5d8 483d 6646 0dbd 6e9a d33c
000002f0: a5f9 a6bd ad7d b0bd 6ba2 a2bb 6086 163d
00000300: 86ec 79bd 490a 05be 064f 2fbd 5e04 963d
00000310: 27c2 fabb 0abd 8f3d af53 9fbd 784b 5b3d
00000320: 5905 0e3e b0ac b83c f754 693c 251c a7bd
00000330: b95b aa3d 55c7 203d e0b5 06bb 9adb cb3c
00000340: 7f5e 7d3d 4503 0a3d 156c af3d e134 94bd
00000350: 91fb dbbd 54ba 51bd 395b d538 1c80 073d
00000360: 4854 893c eb40 333c 54d7 98bc c74d e93c
00000370: aa03 82bd b4f2 2abc d0b4 3abd 8aa5 c53c
00000380: 865d 9abd c891 273d a53b 98bc 153a 2b3c
00000390: 343b 223d 1cc9 1f3d b162 51bb 5369 f7bc
000003a0: 5f22 8cbd 5d31 d03c e7a1 51bd 4b10 65bd
000003b0: f75b 0cbd 52a0 ad3b 0dcd f33a 34ce 58bd
000003c0: 52ce e53c d77e acbd 003d e4bc cba6 bc3d
000003d0: 0eac 79bd 0398 5cbb 65ec 60bd 386e bbbc
000003e0: a708 f0bd 2e98 e2bd 5d87 303d a7da d3bd
000003f0: 5bb7 d4bc cdde c73d 1092 b13d 526a d8bc
-0.008380322 0.03769536 0.093207754 0.023530997 -0.0074145817 -0.016752856 0.041894495 0.0068953177
0.0019703652 0.02852611 0.03801031 -0.05833122 0.049143855 0.009221458 0.011894966 0.014846387
0.08986495 -0.018451724 -0.03751004 -0.0020664227 -0.027860414 -0.044498187 0.06421711 -0.05784531
0.035335727 0.101912655 0.02474075 0.08500154 -0.090661585 -0.06860173 0.029840602 -0.021796541
0.03509721 0.13710615 0.11930401 0.023480017 0.00082112406 0.114018485 0.040087536 0.049682222
0.015304473 -0.01889489 -0.065351546 -0.015476238 -0.009335795 -0.026822124 -0.018204665 -0.07281918
0.041134033 0.057681344 -0.031390514 0.01607907 -0.030627623 -0.00794702 0.03259617 0.026111312
0.0038619183 0.0324405 0.022006107 -0.00834488 -0.05179119 -0.052554183 0.017732052 -0.027731515
0.04459552 0.112038285 0.07201552 -0.060999263 0.00480507 0.016054856 0.063139096 0.118257366
-0.034510553 0.057858 0.0655101 0.0054867743 -0.11238255 -0.06960903 0.03188941 -0.12178827
0.021733843 0.029170994 0.044354867 -0.006665285 -0.033903476 -0.034443792 -0.08065495 0.09646257
-0.01420569 -0.10459568 0.017315207 -0.09054649 -0.013934427 0.08886892 0.07227147 0.025838949
0.048703846 0.00056066265 0.0137801645 -0.12144537 0.05038203 -0.02678307 0.09453637 0.03703174
-0.0080488585 -0.04193293 -0.057980467 0.08114727 -0.007771839 0.066344865 0.09618254 -0.057444993
0.053266663 -0.05595575 0.05438142 0.032900542 0.025353778 0.05005538 -0.046232052 0.042747468
-0.11226226 0.0795065 -0.054943416 0.013679957 -0.099862285 -0.068230435 0.039189193 -0.051921833
-0.026427671 -0.043205597 -0.0017354948 -0.019409265 0.06905839 0.0070620216 -0.03066195 0.04989945
-0.025293333 0.011364868 -0.06381728 0.05922091 -0.014797003 0.04748833 0.0125864735 0.04273171
0.08266255 -0.07434729 -0.073004074 0.067176096 -0.05439273 -0.068765566 -0.010325566 0.016612122
-0.002869901 0.0054016113 -0.033732228 -0.06949091 0.028965818 -0.05919309 0.025008759 0.050194077
0.12325293 -0.04421549 -0.05086058 0.06659329 0.085822664 0.037742026 0.046735406 -0.01230083
-0.055276908 -0.039342098 0.050052367 0.10107483 0.09995832 0.103755414 -0.08816905 0.08952914
-0.10717609 0.0084035 0.084424354 -0.0041822926 -0.010760249 0.07793329 0.09705525 0.08474273
0.022806318 0.049034793 -0.034490965 0.025830474 -0.08153085 -0.08617721 -0.0049632094 0.036749244
-0.061016582 -0.12992205 -0.042799972 0.07325052 -0.0076525393 0.07018478 -0.07779633 0.05353877
0.13869227 0.022543281 0.014241449 -0.08159665 0.08318276 0.039252598 -0.0020555183 0.024884988
0.061857697 0.033694524 0.08565537 -0.07236648 -0.10741342 -0.051203087 0.00010173623 0.03308116
0.016763821 0.010940771 -0.018657364 0.02847947 -0.06348355 -0.0104338415 -0.045582592 0.024126787
-0.075373694 0.040910512 -0.018583128 0.01045086 0.03960724 0.039010152 -0.0031949694 -0.03020159
-0.06842493 0.025414163 -0.051179793 -0.05592374 -0.034267392 0.0052986527 0.0018600539 -0.052931026
0.028052483 -0.0842263 -0.027861118 0.09211501 -0.0609551 -0.0033659942 -0.054912943 -0.022879705
-0.117204 -0.11064182 0.043097842 -0.10344439 -0.025966337 0.09759293 0.08670437 -0.026417885

fc1.bias f4 [32]
00000000: dea0 463d daa7 10bd f60b 133d 1a9b 1abd
00000010: e1d8 17bb 0738 84bd 0b99 653b 5a5a 4c3d
00000020: ea1f c5bc 7eaa a63d a1c5 e8bd 9df1 023d
00000030: 9575 e5bc bd21 2a3d 9ae0 c93c 5837 fc3a
00000040: 8af4 d23d 16bc 88bc 0754 9dbd d10f 2b3d
00000050: 902c 76bc 0cd8 f73d 8260 c4bd a67f 903c
00000060: 0a08 abbd abd9 a5bc 0952 ccbc 13e6 b3bc
00000070: 68b1 94bc d046 95bd 9d25 603c 2524 693c
0.04849326 -0.035316326 0.03590008 -0.037745573 -0.0023170041 -0.06455999 0.0035033848 0.049890853
-0.02406307 0.081379876 -0.1136582 0.0319687 -0.028010169 0.04153608 0.024643231 0.0019242568
0.103005484 -0.016691249 -0.076820426 0.04176313 -0.015025273 0.121017545 -0.0958872 0.017638993
-0.08351143 -0.020245394 -0.024941461 -0.021960294 -0.018151 -0.07288897 0.013680843 0.014229809

fc2.weight f4 [10, 32]
00000000: 875e 3fbd 1802 293d c2f1 bdbd b7c9 893c
00000010: 1129 7cbc f2fa a53d 6acb 29be dc1a 12be
00000020: 5157 6e3e 7964 2a3e a267 2ebe b500 c9bd
00000030: c5f0 863e 632f b7be 68af 35be 3560 823e
00000040: 5c5a 4dbe 49c2 903d 3bfa 1b3e aefe ffbd
00000050: db3c c3bd 76e4 723d 455b 1ebe 43a5 2b3e
00000060: c2c2 25be 54e6 e93d 72df 413e f4fd 9fbc
00000070: 09fb babd 9e98 4d3d 2c62 c1bd e8d6 813e
00000080: 03b1 953d f98f 14be b40a 5bbe feff 63bd
00000090: 781b 2bbe a9c7 293c 91b8 cb3d 47b6 abbe
000000a0: dd85 2ebe 0d73 3ebd 4f4c a73d e0d1 9c3e
000000b0: e2c1 1f3b 7950 a93e bf6f df3d 5c5b 3bbe
000000c0: 371c 973a 38a8 aabd 65fd a53b d595 9cbd
000000d0: c30a cf3d 92ab 1d3d 62d2 10be 563b e93c
000000e0: 219c fe3d 0736 debd 8b9a 29bd 0491 5cbe
000000f0: 0b07 633e 3bf3 923d 28db b03d 5cd5 0c3d
00000100: 53c8 f6bd 2d31 7d3e ef89 533e 2f9f 353c
00000110: 44e7 8f3e d08b 18be 473c 0cbe 428e d6bd
00000120: fea2 b43c caa0 3cbe a55e 23be beaf 743c
00000130: 9f3c 163e 1d11 803d 0a67 6cbe 502e 1ebe
00000140: ab7c 5ebe d3d6 fb3c c58c 173e 105d 203e
00000150: 163e e2bd 29eb 28be ffd1 203e 5201 98be
00000160: 1320 bd3d 24e5 113e 05b5 a1bd d8eb e1bd
00000170: d973 58be 3c57 adbd bf51 b33d cd53 203c
00000180: b888 b13d a196 8d3e b977 55bc 76d6 1d3d
00000190: 1655 66be a9ae 98bc 164e 1e3e adeb efbd
000001a0: 34d2 c43d 41f6 50be e317 2f3e 55ae 1f3e
000001b0: 01ab 363e 78f0 25be 539c c43d 951f 79bd
000001c0: 5252 733e 73f1 6abe a6d1 af3d f667 1ebe
000001d0: 65e9 d9bd 2431 cbbd 70ca 47bd 9bc7 23be
000001e0: 8326 803d fe9b 32bd b42c 74be 089e a33d
000001f0: 0d9e 89bd 5fb5 d7bd b1ae 8e3d 4ac1 69be
00000200: e399 23be 3dcb c2be 74e2 0fbd 6fe6 a53b
00000210: 000a 96be f4cc 3cbe fc25 17be 5b24 c03d
00000220: e032 a03e 5cb3 243d 1100 b83d 6c43 9b3d
00000230: 1996 5a3e 1fe7 b83e 33d1 e2bd 1acb e2bd
00000240: 29bf a43d 8ff0 c3bd 07a5 8e3d dadf a9bd
00000250: 1283 d1bb 613c 923d 168e d6bd 9641 153e
00000260: 1198 743d 6389 6bbe 50de 073d fa83 b83c
00000270: cf3a 44be be9e dbbd 3cdb 9c3d e2ed 20be
00000280: dbd0 a33c d130 333d 1a6a 20bd a2c4 063e
00000290: 871c 74bc c3d0 9dbc c6ef cebc 0bc7 a43e
000002a0: 2ef3 fe3d b68f a43c 47dc 4f3e b908 95be
000002b0: 27f2 86be b6b8 e1bd bc34 dcbc ae5d 943d
000002c0: b8e0 913d e070 8fbd f7e0 083e 6f21 26bd
000002d0: 183e 1a3c e394 bf3d a03f e73c d326 833d
000002e0: 9d93 b93d d8fb ab3c 74e8 413e 9a19 6cbd
000002f0: 60b1 3ebe d4f0 683e 2c04 a43d f5f9 883e
00000300: d3f4 483d cb30 db3d ab57 f1bd 25ec 2dbd
00000310: 3b1c 0cbe 36ed 343d d5a2 6a3e d4f8 a43e
00000320: 028e 3cbe fa02 9c3e d240 eabd 43df acbd
00000330: 3f6b 823e ebda 733e 3bd9 e3bd ec15 a7bc
00000340: 9b46 94be 5391 0f3d 941a a2bd 0f70 01bd
00000350: ceff 093e 70d3 953d ec9d fd3d d55b 49be
00000360: ba68 1bbe 2114 bebc d3f7 2bbc 12b3 103e
00000370: b8d7 48be 62d2 93bd 0937 a83d 324e 583e
00000380: f20e b83d c16c c43d 19d5 ac3d 9ca7 dc3c
00000390: e813 15be bd92 293e fbb8 35be d282 3b3e
000003a0: 4009 57be 49fe 833d c1f6 06be 756d 2bbd
000003b0: 86b0 00bd 9b01 a9be 051e 68be 5169 18bd
000003c0: cc09 7f3e 63e9 42bd 948c aabd cdef bb3d
000003d0: 5820 893d aceb f83d 895f 05be d6e4 433e
000003e0: 704a 7fbd 274b 8c3c 85c3 7c3d c339 febd
000003f0: eba1 db3e 90d6 f43b 6fec 07bd 7f87 bcbd
-0.046721008 0.041261762 -0.09274627 0.016819818 -0.01539065 0.08104505 -0.16581503 -0.14268059
0.23275496 0.1663989 -0.1703172 -0.09814588 0.26355568 -0.3577834 -0.17742693 0.25464025
-0.20054 0.07068307 0.15232174 -0.12499748 -0.09533092 0.05929991 -0.15464504 0.16762261
-0.16187575 0.11420885 0.18932894 -0.019530274 -0.091299124 0.050194375 -0.09442553 0.25359273
0.07309153 -0.14508046 -0.21390802 -0.055664055 -0.16709697 0.010362544 0.099473126 -0.33537504
-0.17043252 -0.04649644 0.081688516 0.30628872 0.0024377038 0.33069208 0.10909986 -0.1829657
0.0011528794 -0.083328664 0.0050656074 -0.07645766 0.101094745 0.0384937 -0.14142755 0.028470676
0.12432123 -0.10850149 -0.04140715 -0.21539694 0.22170655 0.07175299 0.08635551 0.034383163
-0.120499276 0.2472579 0.20658086 0.011085316 0.2810613 -0.14897084 -0.13694869 -0.10476352
0.022050377 -0.18420711 -0.15954073 0.014934478 0.14671563 0.06253264 -0.23086181 -0.15447354
-0.21727245 0.030742085 0.14799793 0.156605 -0.11046998 -0.16495956 0.15705107 -0.29688507
0.09234633 0.14247566 -0.07895855 -0.11031312 -0.21137942 -0.08463904 0.08755826 0.009785605
0.08668655 0.27653983 -0.013029032 0.038534604 -0.22493395 -0.018637972 0.15459475 -0.117148735
0.096104056 -0.20406438 0.17098956 0.15593846 0.1783867 -0.16205013 0.09600129 -0.060821135
0.23761871 -0.22943668 0.08584909 -0.15469345 -0.106402196 -0.09921482 -0.048777044 -0.15994112
0.062573455 -0.043605797 -0.23845178 0.079891264 -0.06719599 -0.10532641 0.069669135 -0.2282764
-0.15976672 -0.38045684 -0.035128072 0.00506287 -0.29304504 -0.18437558 -0.14760584 0.09381934
0.31288815 0.040210113 0.08984388 0.07581219 0.2134632 0.3611383 -0.11075058 -0.11073895
0.080442734 -0.09567367 0.0696507 -0.082946494 -0.0063937986 0.071404226 -0.104763195 0.145758
0.059715334 -0.23001628 0.033170998 0.022523869 -0.19163059 -0.10723637 0.07659003 -0.15715745
0.019997051 0.043747727 -0.039163686 0.13160947 -0.01489938 -0.019264584 -0.025260817 0.32183108
0.124487266 0.020088058 0.20298873 -0.29108217 -0.26356623 -0.11021559 -0.026880614 0.072444305
0.0712294 -0.07003951 0.13367067 -0.04055923 0.009414218 0.0935457 0.028228581 0.064038895
0.09061358 0.020994112 0.1893633 -0.057641603 -0.1862235 0.22748119 0.08008608 0.26753202
0.049061608 0.10702666 -0.117842995 -0.042461533 -0.13682644 0.044171534 0.22913678 0.3222109
-0.18413547 0.3047102 -0.11438145 -0.08441021 0.25472447 0.2381398 -0.11125418 -0.020396195
-0.28960118 0.0350507 -0.079152256 -0.031601008 0.13476488 0.07315719 0.12383637 -0.19663937
-0.15176669 -0.023202958 -0.010496098 0.1413081 -0.1961354 -0.07217862 0.08213622 0.21123579
0.089872256 0.09591056 0.08439083 0.026935391 -0.14558375 0.16559882 -0.17746346 0.18311623
-0.20999622 0.064449854 -0.13180067 -0.041852433 -0.031418346 -0.33009037 -0.22667702 -0.037209813
0.24906081 -0.047585856 -0.083275944 0.09176598 0.06695622 0.12154326 -0.13024725 0.19130263
-0.06232685 0.01712568 0.0617099 -0.12413361 0.4289697 0.007471867 -0.033184465 -0.09205531

fc2.bias f4 [10]
00000000: 5208 c73d b314 83bd b54f 04be 7228 f93d
00000010: 6044 413d 490e 0fbe 0eed 41be 4a2c bcbd
00000020: c203 11be aaad 213a
0.09718384 -0.064004324 -0.12921031 0.121659175 0.047184348 -0.13970293 -0.18938085 -0.09188135
-0.1416159 0.00061675406
