Codes/mnist_cnn_mnist_5_True_40822_0.1_1.0_1.0_64_1.pt (torch, 106255 bytes, 8 tensors)

conv1.weight f4 [16, 1, 8, 8]
00000000: d6be 2e3d 5dc1 bdbd 0cf2 253e 2f16 143e
00000010: 3946 813e e1ad 30bc ea47 6a3d 343a aebb
00000020: fb6a 08be 2605 333e ac02 e43d 364a 883d
00000030: 2234 bdbd a070 013e db98 8d3d 331a fc3d
00000040: 37ec 323e b541 0e3d 7f4c 373d b57a 943e
00000050: 685a 4f3e e327 44bd fda5 36be 95b7 d93d
00000060: 4e3b f93d b9db d8bd 0758 b53d b518 4e3e
00000070: c8d5 dc3c e5a4 13bd d95b f9bd 85c6 8fbd
00000080: 3235 acbd 1938 4f3d a5ef de3d 5b2a 333e
00000090: 8a2a 863e 5987 6fbc 17e5 ab3c d8ef 3a3e
000000a0: 4691 613d f3de 48bd fe15 883c 4373 1c3e
000000b0: c6e8 593e 70ad 813e 5a84 613e b9d5 d03d
000000c0: 6679 113e 6247 a2bd b5db 4c3e aa15 ec3a
000000d0: ce8d bfbb 9339 033d a593 2e3e 74b2 a53d
000000e0: 3521 043d c067 40bd 7de5 d2bd 3ed8 5c3e
000000f0: 6ea8 3bbd 32b2 e0bd a3bc a2bc a894 5ebd
00000100: b0fe 72bc 88dd 273e 5c89 813d f755 093d
00000110: c51f 653e db10 6dbd 2409 283e 7d15 99bb
00000120: 77d3 73bc 04ef ae3d a4ff 4d3e 1948 2e3e
00000130: eed2 323e 34e8 9f3e efa2 6bbd 55d8 7dbd
00000140: 8290 72bd 3c7f 963a 33c8 b83d 4713 413e
00000150: 985e d63d e63b 2dbd d896 7abd 04c1 d33b
00000160: 5e3b f4bb 2f07 05be 724b 2ebc cb10 e338
00000170: 62eb 94bc 784e cebc 9364 5d3c fd9f 8ebd
00000180: 84d0 09be a6de 653c f433 f33d 5447 243e
00000190: a9d5 00bd f451 14be eb31 c1bd dfa6 cdbd
000001a0: 758d 67bc 6b80 babc 7128 f1bc d591 023d
000001b0: 05ad 09bd 5fd2 1b3c c4ba d5bc 1c31 b53d
000001c0: 869e 12be aea3 053c 77a8 c83d e6f9 1a3d
000001d0: 4d88 19be 8e38 efbb e75f 843d 941a bebd
000001e0: cb78 523d f12f 05bd 6423 2b3e 1ec2 4fbd
000001f0: 602f 1dbe a2f7 023e 41ec a23d 960e 32bd
00000200: 8baa 87bd 68ed dbbc cfad 5abe 428b b8bd
00000210: 84f5 8cbd 94cd 813d 18c5 42be 4fd0 423d
00000220: 7c79 4c3d b135 fcbd 3cf1 193e d4e4 e1bd
00000230: ff4f b8bd f2a2 c93d 84e3 9bbd 2ab2 573c
00000240: fcf6 453d e700 6d3d 3c21 3fbd ff27 b0bc
00000250: 5920 3cbb 32a7 0ebe c420 d5bd 5937 7e3d
00000260: 464a 65bd e086 56bd bcae 47bd af87 32be
00000270: 1733 b6bd d866 53bd 5d77 37bd 7ce5 8f3d
00000280: c82a 573d 3038 ba3c e433 8d3d f59d 6c3b
00000290: 855e 9c3d f6fe 913d 3a79 f43c c59d 4f3d
000002a0: ecd9 973c 2992 2a3e 74e4 513c c7f7 6a3e
000002b0: 0c2c a0ba c5e6 e33c 7726 10be 3cff 6bbd
000002c0: fcf9 323b d71e 64bd 6c61 abbd af78 14be
000002d0: a488 1bbe 0db8 08be c3d5 7fbd eaca 14be
000002e0: 4089 bdbc bdb8 633d 2f58 313d 774b f83d
000002f0: 1677 5a3d 9ffa bcbd cab7 f5bd fb5d 9b3c
00000300: 8fcd fd3d a311 4e3d 5605 16bd fc04 cb3b
00000310: 9926 29bb ed17 323d 7f98 c3bd 4dcd 0ebe
00000320: 94dd c43c 0274 8c3d 5d0b eebc 9697 063b
00000330: 9526 0f3e 4c2f 2d3d 52e1 843d e921 cb3d
00000340: 53dc 7a3d b542 a4bd dcfb 673d 8be9 793d
00000350: 6d23 1abe f172 34bc 12e7 0bbd e5cb c83d
00000360: 1273 1c3e 9bc8 80bc c73f 8cbd 0d59 e6bb
00000370: 0dd3 cebc 9b86 b0bc c195 0bbe 6616 dd3d
00000380: 41d0 fabc 7ee7 213d f13f 0fbe 0437 d9bc
00000390: 206f 873c de12 1b3d ee21 e0bd d041 d6bd
000003a0: f1a8 8f3c 9ef5 7a3d a9e9 34be 0253 97bd
000003b0: 9d93 41be 67fd c73d e5b7 f7bd 774a 023e
000003c0: 54b7 813d 9bcf 813d 22f3 97bd 9919 dc3d
000003d0: f6da e6bc b618 a03c 7d0a 5abd b2b6 e8bc
000003e0: 83a5 4d3d 2fe8 08be c6ee 2abd 24c8 d6bd
000003f0: 8a3d 87bd 43cb bcbc b9d9 913d b782 abbc
0.042662464 -0.09265397 0.16205615 0.14461587 0.25248888 -0.010783643 0.05719749 -0.005316997
-0.1332206 0.17482433 0.11133322 0.066547796 -0.09238459 0.1264062 0.069139205 0.123096846
0.17472921 0.03473063 0.044750687 0.28999868 0.20249331 -0.0478896 -0.17836757 0.106307186
0.121695146 -0.10588784 0.088546805 0.20126612 0.026957408 -0.036045928 -0.12175722 -0.070202865
-0.08408584 0.05059061 0.10885552 0.17496626 0.2620433 -0.014619672 0.020983262 0.18255556
0.055070184 -0.049040746 0.01661205 0.15278344 0.21280202 0.25327635 0.22023144 0.10197014
0.14206466 -0.079237714 0.20005687 0.0018011827 -0.005845762 0.03203733 0.1704851 0.08090678
0.03225823 -0.046973944 -0.10297678 0.21566865 -0.045814924 -0.10971488 -0.01986534 -0.05434099
-0.01483123 0.16393101 0.06325027 0.033529248 0.223754 -0.057877403 0.16409737 -0.004671751
-0.01488196 0.08541682 0.2011705 0.1701969 0.17463276 0.31231844 -0.057528432 -0.06197389
-0.059219845 0.0011482011 0.0902256 0.1885501 0.10467261 -0.04229345 -0.061179012 0.0064622182
-0.007453366 -0.12991022 -0.010638105 0.000108273314 -0.018178646 -0.025183901 0.013512748 -0.06964109
-0.13458449 0.014030134 0.11875144 0.16042835 -0.031453762 -0.14484388 -0.09433349 -0.10041594
-0.014132847 -0.022766313 -0.02943823 0.031877358 -0.03361227 0.009510606 -0.026090033 0.088472575
-0.14318284 0.0081567 0.09797757 0.037835978 -0.14993401 -0.007300443 0.064636044 -0.09282413
0.05138473 -0.032516424 0.16712719 -0.050722234 -0.15350103 0.12789777 0.07955218 -0.04347094
-0.06624325 -0.026846603 -0.21355365 -0.09010936 -0.06882766 0.06338039 -0.19020498 0.04756194
0.049920544 -0.12314928 0.1503343 -0.110299736 -0.08999633 0.098455325 -0.076117545 0.013165036
0.048331246 0.05786219 -0.046662554 -0.021503447 -0.0028705804 -0.13930967 -0.1040664 0.062064502
-0.055979036 -0.05237472 -0.048750624 -0.17434572 -0.08896463 -0.05161175 -0.044791568 0.070261925
0.052531034 0.02273187 0.06894663 0.0036104892 0.07635216 0.07128708 0.029842962 0.05068757
0.01853653 0.16657318 0.012810815 0.22946082 -0.0012220158 0.02782 -0.14077173 -0.057616457
0.0027309647 -0.055693474 -0.08368191 -0.14499162 -0.15188843 -0.1335146 -0.06245972 -0.1453053
-0.023136735 0.055596102 0.04329699 0.12123769 0.053336225 -0.0922749 -0.119979456 0.018965712
0.12392723 0.05030979 -0.036626182 0.0061956625 -0.002581036 0.04347985 -0.09550571 -0.13945504
0.024031438 0.06858064 -0.029058153 0.002053713 0.13979562 0.042281434 0.06488289 0.09918577
0.061245274 -0.08020536 0.056636676 0.06101374 -0.15052576 -0.011013732 -0.034155913 0.09804515
0.15278271 -0.015720656 -0.06848102 -0.0070296586 -0.025247121 -0.02154856 -0.13631345 0.10795288
-0.030616881 0.03952741 -0.13989235 -0.026515491 0.01653248 0.03785979 -0.109439716 -0.104617715
0.017536612 0.061269395 -0.1766726 -0.07388879 -0.18903966 0.097651295 -0.12095622 0.12723719
0.06333795 0.06338426 -0.07419421 0.1074707 -0.02818058 0.019543033 -0.05323266 -0.028407428
0.050206672 -0.13369821 -0.04173162 -0.104873925 -0.066035345 -0.023046141 0.071216054 -0.020936353

conv1.bias f4 [16]
00000000: a21d 913d 1cdb 3a3d cebc 4b3b 47c9 c63d
00000010: 26c8 313d 696c 083e da13 be3d 88d4 4bbc
00000020: 8ba3 b0bd 36d9 353d 5715 e2bc 4197 163b
00000030: e265 37bc 3688 6cbd 4b6e 3ebd 3e30 9fbd
0.0708573 0.045619115 0.0031087878 0.09706359 0.043403767 0.13322605 0.0928113 -0.012440808
-0.08624943 0.0443966 -0.027598066 0.0022978338 -0.011193724 -0.05774709 -0.046491902 -0.07772873

conv2.weight f4 [32, 16, 4, 4]
00000000: 37f8 d03c b783 513d 8b46 f33c 1e0c 25bd
00000010: 848c e1bb 5a25 0abd e459 bdbd 5610 4d3c
00000020: 8e61 0abd 0391 a03d 2746 8a3d 8643 e0bc
00000030: 6918 c53c 6e58 2c3d ac31 10bd f80c 4dbd
00000040: 505d 1f3c f017 88bd 2537 d33c fc1b 9f3b
00000050: 48bc 413d eb91 193e 0a55 7ebc 9d3b 7e3d
00000060: 25f9 dabc ada0 ffbc cdb0 83bd 7600 cd3c
00000070: fdcb cc3d 4d53 babd 98bd 3ebd 81bf 973c
00000080: b995 e2bc 21bb fb3b c0f2 553c 97d8 903d
00000090: 043f 48bd 402e 12bd 2439 48bd 0fc6 2abd
000000a0: 52b7 58bc 13e8 6a3c 27d4 c1bc 3a40 573c
000000b0: eaea 483c e35b 183d 151f 2cbd 7686 323d
000000c0: 4d14 843d a055 9a3c 9ffb 883c 9ac0 493d
000000d0: 035b c03d 2520 d4bb 887e d9bc f7aa dd3a
000000e0: b1d9 9c3d 434c fbbc 180f 49bd e3e0 033b
000000f0: a75c c6bb 1e80 83bd a5f5 9d3c 9a6c a5bd
00000100: 0ec5 e63d 6fbb 923d 655d 01bd 1a26 3abd
00000110: cf1a 973c 3192 fd3c 4bda 11bc 8321 4dbd
00000120: 7a40 b1bd 5095 943c a722 993d bd48 60bd
00000130: 9be5 aa3d c589 49bd 9604 cfbb 6b9b 50bd
00000140: 6d14 4d3d 8ceb 073d bcbc 14bd 6b21 853d
00000150: c994 c6bd 9874 45be fe65 17bb f57c d539
00000160: 7d08 003d ac0e b1bc 9942 e4bd c0fc bf3c
00000170: c3be a53b 5f28 a73b b629 163d 9221 853d
00000180: 888b 173d cee7 f63d 1331 6dbd fe6e 913c
00000190: 22bb d9bc 31a1 503c aa3b a23c e298 9d3a
000001a0: e952 4c3d 96a8 2e3c 0864 38bd 9eea 66bd
000001b0: a6a1 27bb aa66 91ba d229 383c 8db4 dabd
000001c0: 276a d43c 87df 623b 9141 aabd 7ef4 dc3c
000001d0: 94e3 473b f99b 2c3d 9693 5abd c758 b13b
000001e0: ce68 68bc 25b4 edbd 7976 55bc c446 2bbe
000001f0: 1840 423d 1fe4 583d f39c b03d d272 62bb
00000200: cf22 9fbd 0f94 3b3d b4ed e4bd 66a5 9a3c
00000210: 9c49 19bd bf56 c6bb 6976 a33d 2122 82bd
00000220: 4538 353d ba88 0a3b 8d14 d5bd ff8f 66bd
00000230: 0c63 31bd cdb5 c5bd 62f8 eebb 482e ee3c
00000240: 83af 443d 7a0c 583d 9024 cb3b d6d0 4bbc
00000250: 4509 a7bd 16fd 8ebb 8beb 97bd 3a76 1c3b
00000260: f456 cc3b c35f 8abd 08ae acbc be7b 293d
00000270: db1e d53c 225d 1d3d 8d25 cb3b 3a96 18bc
00000280: 5da5 28bd 015d b2bd f074 80bd 24ff 3cbd
00000290: 75fc b63c 2634 4dbd bb3d 5a3d 9c88 e53c
000002a0: 9139 503b 797f b03d fca6 f7bd 04f0 1fbd
000002b0: d202 c9bb 2958 34bc 8721 6a3d 40d8 febc
000002c0: 2300 b9bd c3d3 bdbc fc36 eabc eaad 1fbc
000002d0: 6b78 2b3d 5781 843c 4b42 d03c e2c1 a83d
000002e0: f8fc 313d e972 133d 9ebd 163d c694 373d
000002f0: a079 27bd 557b a13b 51d0 713d dde9 b9bb
00000300: 519d 22bd a4dc aabc 6bb0 e7bd 56ca 223e
00000310: 1bf4 66bd 85d8 2c3d c604 a5bb d609 833d
00000320: b2ff 713d 2263 403d e466 7dbd 4479 a5bd
00000330: 07e5 5c3c 8fbf 02be 46e9 5abd 2ebb 7b3d
00000340: d0d8 af3d d00a 173c 2e17 96bd 54ec b5bd
00000350: 1b9c 46bc 01bc 853d 33d0 9fbd 064e 72bd
00000360: bf30 0f3b 46e9 eabd 9637 d6bc 455a 323c
00000370: a12c 15be 7f25 a83d 29fb fcba a126 463e
00000380: a813 08bb 7cfe d9bb e7c2 35bd 6b3e d6bc
00000390: 32fc 81bd 1b3a a8bd 0d72 9abb 0882 2b3d
000003a0: 65f4 55bd 0475 c4bd a7d3 f83d 2346 073d
000003b0: 801d 283d 369e c0bc 1e49 a43c c600 c23c
000003c0: 4b7b 21bc 41f7 68bc cb08 8cbd 300f 19bd
000003d0: cd65 e13d 1587 87bd 0773 903d d8b9 6fbd
000003e0: 4800 d13d 3273 ac3d be90 de3d c40f 483d
000003f0: bbf2 97bd 9d21 86bc ca66 1c3d e8a1 473d
0.025508983 0.051151004 0.029696723 -0.04029476 -0.006883206 -0.033727027 -0.09245661 0.012516102
-0.03378444 0.07840159 0.06751662 -0.027375948 0.024059491 0.04207652 -0.03520362 -0.050061196
0.009726837 -0.06645191 0.02578313 0.004855631 0.0472987 0.1499707 -0.015523205 0.06206857
-0.02673013 -0.031204546 -0.064302064 0.025024634 0.09999845 -0.090979196 -0.04656753 0.018523933
-0.027659284 0.0076822196 0.013058364 0.07072561 -0.04888822 -0.03568864 -0.04888262 -0.04169279
-0.013227301 0.014337557 -0.023660732 0.013137871 0.012263039 0.037197005 -0.04202183 0.043585263
0.064491846 0.018839657 0.016721545 0.049255945 0.09392359 -0.0064735585 -0.026549593 0.0016911913
0.07658709 -0.030676013 -0.04908666 0.0020123057 -0.0060535255 -0.06420921 0.019282172 -0.08077355
0.11268054 0.07164656 -0.03158321 -0.045446493 0.0184454 0.030953499 -0.008902143 -0.050080787
-0.08654876 0.018137604 0.074773125 -0.05475687 0.08344575 -0.049203653 -0.0063176854 -0.050929468
0.050068308 0.03318362 -0.036312804 0.065005146 -0.09696347 -0.19282758 -0.0023101564 0.00040719626
0.031258095 -0.021613441 -0.11145515 0.02343595 0.005058141 0.005101248 0.036660872 0.06500544
0.0369983 0.12055932 -0.05790813 0.01775312 -0.02657849 0.0127337435 0.01980384 0.0012023712
0.049883757 0.010660311 -0.045017272 -0.056376092 -0.0025578528 -0.0011093218 0.0112404395 -0.106789686
0.025929524 0.0034618096 -0.08313287 0.026972052 0.0030500637 0.042140935 -0.053363405 0.0054121944
-0.014185144 -0.116066255 -0.013028734 -0.16726214 0.047424406 0.05295193 0.08623686 -0.0034553302
-0.07770311 0.045795497 -0.11178151 0.018877696 -0.037423715 -0.0060528214 0.07981569 -0.06354166
0.044243116 0.0021138624 -0.104043104 -0.05628967 -0.04330735 -0.09653816 -0.007292793 0.029074803
0.048018944 0.052746274 0.006199427 -0.012439927 -0.08156065 -0.0043636663 -0.07417973 0.002387418
0.0062359516 -0.06756546 -0.021079078 0.041377775 0.02601569 0.038418896 0.0061995448 -0.009313161
-0.041173328 -0.08709145 -0.06272304 -0.04614176 0.022337178 -0.05009856 0.053281527 0.028019242
0.0031772594 0.086180635 -0.120923966 -0.039047256 -0.0061343694 -0.011007347 0.05716088 -0.031108975
-0.09033229 -0.023172265 -0.028590672 -0.009746054 0.041862886 0.016174955 0.025422236 0.08240105
0.04345414 0.03599826 0.036801927 0.044819616 -0.040887475 0.0049280324 0.059036557 -0.0056736306
-0.03970081 -0.020857163 -0.11312946 0.15897498 -0.05638514 0.042198677 -0.0050359694 0.063983604
0.05908174 0.04696954 -0.061865702 -0.0807977 0.013482339 -0.12768386 -0.053445123 0.061457805
0.085862756 0.0092188865 -0.0732864 -0.08882967 -0.012122179 0.065299995 -0.07803383 -0.05915644
0.0021849123 -0.114702746 -0.026149552 0.01088578 -0.14567806 0.08210277 -0.0019300926 0.19350673
-0.002076367 -0.0066526514 -0.044375326 -0.02615281 -0.063469306 -0.08214208 -0.004713303 0.041872054
-0.052235026 -0.095926315 0.121497445 0.033025872 0.04104376 -0.02351294 0.020054396 0.02368201
-0.0098560555 -0.014219106 -0.068376146 -0.037368 0.11005745 -0.06617562 0.0705319 -0.058526844
0.10205132 0.08420409 0.10867451 0.04884316 -0.07419344 -0.01637345 0.038183965 0.04873839

conv2.bias f4 [32]
00000000: b1c5 603d 4f38 1e3d c044 f93c e5c7 893d
00000010: a1d8 b3bd 5685 633d 975f 58bd 8a3e bf3c
00000020: 1738 93bd 1e79 1ebc 59be e43d 4d7d 343d
00000030: acda 98bd b7e0 69bd 089d 1f3b 5abd f73b
00000040: 9795 1fbd d7d7 1abd baf1 23bd 8bb9 93bd
00000050: c398 133e 743e 813d 0902 2f3c cb2a bfbc
00000060: bb82 8f3c a8aa de3a 26b4 b5bd d9fd 673d
00000070: f018 06bd 2158 9fbd 7c5f aabb a056 64bd
0.054876033 0.03862792 0.03042829 0.0672758 -0.08781553 0.05554708 -0.052825537 0.02334525
-0.07188433 -0.009672431 0.111691184 0.04406481 -0.07463583 -0.05709907 0.0024355073 0.0075604143
-0.03896102 -0.037803497 -0.04002545 -0.07213124 0.14413743 0.0631074 0.010681638 -0.023335835
0.017518392 0.0016988115 -0.08872251 0.056638572 -0.032738626 -0.07780481 -0.005199371 -0.055746675

fc1.weight f4 [32, 512]
00000000: 0809 32bd 2574 b2bd 05e7 8a3d daa7 b4bc
00000010: 5e2c 24bd fde9 34bc d7a7 163c e1f6 cdbc
00000020: cab0 933d 17c3 88bd 8c4b 3dbd 630e 8bbd
00000030: 5abf 05bd a833 803c f8a1 af3d afc8 093c
00000040: e6cf e83c ec5d 95bd 8f2f 8fbd 11b8 51bc
00000050: 19dd 0f3d fe73 9e3d 6fa2 af3c 5d7b 843d
00000060: c198 d8bc e7ea 8b3d 3e32 a5bc 3320 163d
00000070: 70ee 7b3d ec3f 9c3c cdc2 a3bb 8081 17bd
00000080: 88be 523d 0161 c03d 609d 973c 8c43 703d
00000090: 04fb 903d ebb2 3ebd 9d4d 02bd 7fc9 75bd
000000a0: 6077 743d 0142 94bd 12e7 073e 9208 45bd
000000b0: 6dee abbd a4b9 43bd c9e9 b0bc 76ba 723d
000000c0: de63 de3c fcef 49bc 37bd 9bbd d780 afbd
000000d0: 4024 6dbc a67b 413d fdfd 1c3d ac1e dc3d
000000e0: 92dc 6bbd ad75 fbbb d2fe 9a3c d4d6 1f3c
000000f0: b542 8ebc 6475 f23c 0981 b4bb 8acb d5bc
00000100: f7d8 00bc 44f1 683d 815c a2bc 891f b13d
00000110: d42a 9dbd 9587 793d 1f57 003d 2419 203e
00000120: 85b3 6e3c 2212 603d 09c0 883c a1a8 4439
00000130: 1574 b73c 82a1 ab3d 7bbb fcbd 254c 913d
00000140: bc54 0c3d bfed 05bd a386 b839 d260 bdbc
00000150: c935 21bd 89e8 f23c 2a9c f3bc 7000 65bc
00000160: f6da e7bd 00c9 55bd 3c12 313d 0509 a6bd
00000170: 745a 50bd a8c2 1c3e 0107 f23c e8df 3e3d
00000180: f629 1abd 88b9 b83b be63 c03d 5b5c 423d
00000190: b7f5 78bd 71fd e1bc 50c4 013d dc8e 12bc
000001a0: 019f b0bc e837 c2bc 4f19 7d3d 2d77 223d
000001b0: 69b5 9abb 8a67 8f3d c7ee c43c ec92 9c3c
000001c0: 377e fa3a d520 c2bc a0f3 c5bc b324 b6bb
000001d0: 0fce dfbc 601c 18bc 884f a5bc c815 a4bc
000001e0: 036d 83bd 6546 1c3b e8c3 8dbd 07c2 6e3c
000001f0: 5748 4fbc 0cf0 fd3b 151b 983c 0f5d bc3b
00000200: d649 923d 6029 da3d 4221 73bd c087 80bc
00000210: 9ee8 1dbd b27a eabc 374c 0ebc 006d c83c
00000220: 6ee5 c53c dbef debb 5d33 bdbd 2674 0d3d
00000230: 9e44 153d 0f7c 943c 53e7 2bbd aa1e c43b
00000240: a8c3 5a3d ab7e f0bd 683c dcbc 7792 dd3b
00000250: b205 f6bd 400b 703b a305 1a3d 130f 693d
00000260: 9dcb eabc b481 42bb 4395 903b b7d8 033d
00000270: d9ec a4bd a211 9ebb 865f ccbb 1001 4fbd
00000280: f5d0 06be f51c 163d ccfd 9fbd 0772 383d
00000290: 7594 a13d 97d4 00bd 0604 653c fabe 8f3c
000002a0: 118f 103e 8a62 663d 2eba 7dbc e8f1 c13c
000002b0: 63e8 c43c 3c17 7739 6d8a fcba 4f35 9d3d
000002c0: 3e8f 81bd 2d98 483c 1ede 94bd 97db 923c
000002d0: 7475 033d 7d05 393d d51a 063c 9990 253d
000002e0: c04b 43bc 6c08 3d3d 9615 d1bd 8945 94bc
000002f0: 1f81 aebc b382 933c 5a4f 843c e83d 24bc
00000300: df9c 353d 3674 2c3c e507 58bc 2a21 d9bc
00000310: ada7 4abd 66f3 5b3d fe73 803d e4a0 ad3d
00000320: adb1 87bd d25f 333d 0dd5 13bc cc20 5d3d
00000330: 9754 073e 4fd7 693d 69d1 653d 7d4e d63d
00000340: 8790 693c c22c 163d 3b7a 903d 9988 a6b9
00000350: 1b67 ed3b 1454 493d 86fb 77bc 17fc 23bd
00000360: 23e5 70bd 4bcf 2b3d 2e89 7bbd 8557 c4bc
00000370: 5c12 073d a836 b73d b2fe 9dbb d846 7b3c
00000380: e4b3 adbb ab74 663d 7f6c 853d 61bf 95bd
00000390: 75bb 1bba 3fd7 953d 329e 63bd 031a 5b3d
000003a0: 9da8 1abd d2e8 7fbd 99f4 01bd 71de 04bd
000003b0: 9f1f b43c 00aa ef3c 2138 83bd 8e5c c0bd
000003c0: d090 0b3c 8867 c9bc 94b1 b43d e638 01bd
000003d0: 92c2 5cbd affb 4a3d 5fd5 6abd 043d bbbc
000003e0: 5bd1 c83d c231 f83b d1c1 573d 25bc 7dbc
000003f0: f306 71bd 031f 663d 8e21 1bbd 34f3 673a
-0.043465644 -0.08713559 0.06782345 -0.022052694 -0.040081374 -0.011042115 0.00919529 -0.025142135
0.07211454 -0.066778354 -0.046214625 -0.067898534 -0.03265319 0.015649632 0.08575815 0.008409663
0.028419446 -0.07293305 -0.06991493 -0.0128002325 0.035122965 0.077369675 0.021439759 0.06468842
-0.026440026 0.068319134 -0.020165559 0.0366518 0.06150669 0.01907345 -0.0049975873 -0.036988735
0.051451236 0.09393502 0.01850766 0.058658168 0.070791274 -0.04655735 -0.0318123 -0.060006615
0.059684157 -0.07239152 0.1327174 -0.048103876 -0.083950855 -0.047784463 -0.021595852 0.059259854
0.02714723 -0.012325283 -0.07604449 -0.08569496 -0.014473975 0.04723706 0.03832816 0.10748038
-0.0575834 -0.00767394 0.018920336 0.009755809 -0.017365793 0.029596992 -0.0055085463 -0.026098032
-0.007864228 0.056870714 -0.0198195 0.08648593 -0.076741844 0.060920317 0.031333085 0.1563459
0.014569168 0.054704793 0.016693132 0.00018754836 0.02239422 0.083804145 -0.123404466 0.070946015
0.034260496 -0.032697435 0.00035195527 -0.023117457 -0.039357934 0.029651897 -0.02973755 -0.013977155
-0.1132106 -0.05219364 0.04323028 -0.08107189 -0.050867513 0.1530863 0.029544355 0.046600252
-0.037637673 0.0056373514 0.09394024 0.04745136 -0.060781207 -0.02758667 0.03168136 -0.008945193
-0.021560194 -0.023708299 0.061791714 0.039664436 -0.004721333 0.070021704 0.02403964 0.019113027
0.0019111101 -0.023697296 -0.024164021 -0.005558574 -0.027319936 -0.009284109 -0.020179525 -0.020029917
-0.06417277 0.002384567 -0.06922132 0.014572627 -0.0126515245 0.007749563 0.018567601 0.005748398
0.07142989 0.10652423 -0.05935789 -0.01568973 -0.03855192 -0.028622959 -0.008685163 0.024466038
0.024157252 -0.0068034953 -0.092383124 0.034534596 0.03644239 0.018125562 -0.041968655 0.0059851008
0.05340925 -0.1174291 -0.026884273 0.0067618447 -0.12012805 0.00366278 0.03760303 0.05689914
-0.028661544 -0.002967936 0.0044123246 0.032189097 -0.080529876 -0.0048238793 -0.006236973 -0.050538123
-0.13165648 0.03664871 -0.0781208 0.04503062 0.07889644 -0.03145274 0.01397801 0.01754712
0.14117076 0.056246318 -0.015486283 0.02367492 0.024036592 0.00023564411 -0.0019267328 0.076761834
-0.063261494 0.012243313 -0.07268928 0.017926974 0.032094434 0.04517125 0.008185108 0.040421102
-0.011919916 0.04615061 -0.10209195 -0.018099563 -0.021301804 0.018006658 0.016151119 -0.010024525
0.044339057 0.010525754 -0.013185476 -0.026505072 -0.049476314 0.05369892 0.06272124 0.08477953
-0.06625686 0.043792553 -0.009022963 0.053986356 0.13215862 0.0570901 0.056107912 0.10464189
0.014255649 0.036663778 0.070545636 -0.0003176376 0.007244957 0.04915245 -0.015135651 -0.040035333
-0.05881227 0.041945737 -0.06141012 -0.023967514 0.032976493 0.08945972 -0.004821622 0.015336715
-0.0053009856 0.056263607 0.065148346 -0.07311893 -0.0005940714 0.073164456 -0.05557079 0.053491604
-0.03775846 -0.062477894 -0.031727407 -0.0324387 0.021987734 0.029255867 -0.0640719 -0.093926534
0.008518413 -0.0245855 0.08822933 -0.031548403 -0.053896494 0.04955643 -0.057332393 -0.022856243
0.098055564 0.007574291 0.052675072 -0.015486752 -0.058844518 0.05618192 -0.037873797 0.0008848191

fc1.bias f4 [32]
00000000: ba82 073d b35f 7a3d 125c e0bc 00dc 163e
00000010: 9e16 c6bd eb26 973d de15 d43c 2668 1ebd
00000020: 7cb7 813c e084 273d fb35 243c f371 b63d
00000030: bcc8 7a3d bd3e 953d 98e1 91bb 0cd4 e5bc
00000040: f03f 80bb 6e82 9fbd 06be 2e3b 3e83 cb3c
00000050: 5069 01be 694e 253d 814d 38bd 8321 173d
00000060: 84b8 04bd beb2 0439 edb2 233d 58c6 293e
00000070: 8ddb 903c 5b64 e73d 1f1d 7c3b 2020 b1bc
0.033083655 0.061126422 -0.027387653 0.14732361 -0.09672283 0.0738047 0.025889333 -0.038673542
0.015834562 0.040898204 0.010022636 0.08908453 0.06122659 0.07287357 -0.0044519417 -0.028055213
-0.003913872 -0.07788549 0.0026663556 0.024842855 -0.1263783 0.04035798 -0.04499579 0.036897194
-0.03240253 0.00012655088 0.03996556 0.16579568 0.017682815 0.11298438 0.0038469506 -0.021621764

fc2.weight f4 [10, 32]
00000000: 87a6 ee3d f481 eb3c 7e61 f33d d6ea 9c3e
00000010: 8d86 66bc dd62 64be c2d6 39be be46 eabd
00000020: 254a 7e3c 57fb 40bd 467c 203e 0496 38be
00000030: 6c9e f03d c100 223d 9bef 813e 3e8e 873e
00000040: 73ae 31be e888 503e ec91 533b 0478 a03d
00000050: e1dd 8dbe d98a b73d cf01 ea3d 87eb 483d
00000060: 9732 33bb bf20 2bbe 6db7 3a3e 8ecf 533e
00000070: 0604 2e3e f924 06be d042 c1bb 188b 3f3e
00000080: dd58 2b3d b18b 843c 6575 013d e2b1 d33b
00000090: 8b02 793e 673a a4be 1393 a43e d4ec 3f3e
000000a0: e10b 64bc 3676 ecbd 796f 7fbe 19ce 203e
000000b0: b6cd b23c 5303 4fbd 1679 53bd 4a60 32be
000000c0: 2be4 063d 8611 81be 6697 953d ebf1 98be
000000d0: d10a 8f3e 6236 43bc 3a7f 60be 4238 51be
000000e0: 367b ba3c 0b7f a2be 45b7 2a3d ad40 63be
000000f0: 1148 87be c60f 033f f21b afbd f6ff a73d
00000100: d680 93be 4b13 3ebb ca81 d13c d454 92bb
00000110: 6368 e0bd 6097 08be bfda 6bbe 8fa0 70be
00000120: acf5 c9bd a238 4e3d c424 8a3d 5c3f 4d3e
00000130: a0d7 7dbe 1af3 cdbd 1772 933e cde9 d1bd
00000140: d9ca 283e d73b 6fbd 2147 c0bd 0520 763e
00000150: bec2 d93d f479 fcbd 3c53 3abe d1d5 ad3c
00000160: 2c48 403d 0a2d 173e cd49 0c3e 75f3 cdbd
00000170: 7e7c ecbd 47ea 7cbd 741f a13e e56a 8c3d
00000180: 8aaa 6a3e 83dc b5bc dbe5 dcbd 079f 803d
00000190: ade9 713e 6871 46be b315 da3d 08a7 25be
000001a0: a3a4 4abc 904c 3a3e 98df 6b3e a610 0e3e
000001b0: ef2c 663d d5ed a03d 8950 7ebe f43a 11be
000001c0: 03b6 4cbe 5b9c 7c3e 3e31 693e cdd4 523e
000001d0: ef69 333d 2208 eb3d 2bb4 ee3d e457 87bb
000001e0: a2e0 603d c6a3 4e3d 034d 243d 881b c0bd
000001f0: ab18 6fbd 1c2c a6bd ba96 a43d 2a08 593d
00000200: 72b2 bb3d c997 cabd 5268 073d 6bb8 9dbd
00000210: 6ab6 cabc ce05 843e 63f8 fbbd 6688 033e
00000220: f834 31be cea8 673e ed1e 63be b9dc ddbd
00000230: 1403 aabe 625a ae3e 40ef 49be 1ae5 04be
00000240: c977 69bd e3e0 3cbe 1477 f03d 3d06 84bd
00000250: 9077 15be 44c8 10ba d913 e93d 91dd 533e
00000260: b868 1cbe 7175 95bd 8048 df3d 24a0 903d
00000270: 33f1 6b3e caa6 83bd d79a cf3d 222b 52bd
00000280: 3d2f 493e 41c7 2bbd 4b02 093d e0b1 e63d
00000290: c79e 343d 1ef4 a93b 900e 63be 03e3 763e
000002a0: fbbf fcbd d0bb 32be 408b 39be b631 63bd
000002b0: b8ae 0a3e be1b 1ebc d7ac 123e 0183 72be
000002c0: c332 f13b a9a7 8a3e 243b bfba ad9f 3ebe
000002d0: 9ee0 a03d 4552 253e 1563 d7bc b413 ea3d
000002e0: f304 e03d 249b 913d 6ccf eb3c 7751 3f3e
000002f0: 46f6 1e3c 67e4 f03c 9595 ad3d 8604 e33d
00000300: 79b8 efbc ccb6 893d cad0 973e e425 68bd
00000310: 2107 c73d b2d3 fd3c 3ed1 33bc e84c 63be
00000320: 8078 14be c306 253d ad8a 1cbe fb0a 9fbe
00000330: b229 66be 47bf 48be 7e06 e83d 8b04 ce3c
00000340: 694d 7ebd 9605 bebd 074b 04be 423c 823d
00000350: 5e3a a53e 6a62 553e 3ad8 61be 0ab8 373e
00000360: de9e 0f3e 5b0a 10be b5a7 6cbb 2ef3 883e
00000370: 61eb 1e3e 13d6 2dbe 2df8 66be 16eb 493c
00000380: f75c d1bd 36e5 a5bd f91d 0e3e 5c1e 4fbe
00000390: aa64 e0bc e8aa 8abe 4929 843e af40 723e
000003a0: 50fe 733e 1cea 0e3e c27f 48be e7a9 ca3d
000003b0: 5b5b 0c3e e594 653e 85f3 dd3d bf26 cdbd
000003c0: 3753 033c 9f4b efbc 53eb 36bd cef8 3b3e
000003d0: ca53 49be 60f7 3e3e 1a27 40be cf27 66be
000003e0: d7e8 63bd 21e0 213e 1d2e 94bd 8c8b 82bc
000003f0: 817d 6fbe 081b 4fbe 32f5 ca3c 96f1 1a3e
0.11652856 0.02874849 0.118838295 0.30647916 -0.014070165 -0.22303338 -0.1814833 -0.11439274
0.015520607 -0.047114696 0.15672407 -0.18025976 0.117489666 0.0395515 0.25378117 0.2647571
-0.17351703 0.20364726 0.003228302 0.07835391 -0.27708343 0.0896203 0.11426126 0.04905274
-0.0027343386 -0.1671171 0.18234034 0.20684645 0.16993722 -0.13100041 -0.0058978572 0.18705404
0.041832794 0.016179891 0.031606097 0.0064604143 0.24317376 -0.32075807 0.3214346 0.18742687
-0.013918848 -0.115459844 -0.24944867 0.1570362 0.021826606 -0.05054028 -0.05162915 -0.17419544
0.03293244 -0.25208682 0.073042676 -0.2987207 0.2793794 -0.011914821 -0.21923533 -0.20431617
0.02276383 -0.3173755 0.041678686 -0.2219264 -0.2642217 0.51195943 -0.08550252 0.082031175
-0.28809232 -0.0029003199 0.025574584 -0.0044656787 -0.1095741 -0.13338995 -0.23032664 -0.23498748
-0.09861311 0.050346978 0.06745294 0.20043701 -0.24789286 -0.100561336 0.2879798 -0.10249672
0.1648363 -0.058406677 -0.09388567 0.24035652 0.10632847 -0.12327948 -0.18195814 0.02122012
0.04694383 0.14763275 0.13700028 -0.10056201 -0.115471825 -0.06174686 0.3146931 0.06856326
0.22916618 -0.022199875 -0.10786029 0.06280332 0.23624296 -0.19379199 0.1064867 -0.16176999
-0.012368354 0.18193269 0.23034513 0.13873538 0.056195196 0.07857863 -0.24835409 -0.14182645
-0.19991307 0.2466902 0.2277269 0.2058899 0.043802198 0.114761606 0.11655458 -0.0041303504
0.054901727 0.050449155 0.040112507 -0.09380251 -0.058373135 -0.08113882 0.08036561 0.0529863
0.09164895 -0.09892232 0.033058472 -0.077011906 -0.024745185 0.2578568 -0.123032354 0.12845
-0.17305362 0.22622988 -0.22179766 -0.10833115 -0.33205473 0.34053332 -0.19720173 -0.1297802
-0.056999 -0.18445162 0.11741462 -0.06446502 -0.1459639 -0.0005523006 0.11380739 0.2068999
-0.15274322 -0.07297791 0.109025 0.070617944 0.23041229 -0.06428297 0.10136955 -0.051310666
0.19646926 -0.04193807 0.033449452 0.11264396 0.044096734 0.0051865717 -0.22173524 0.24110036
-0.12341305 -0.17454457 -0.18119526 -0.05546733 0.13543212 -0.009650169 0.14323746 -0.23682787
0.0073607876 0.2708104 -0.0014589769 -0.18615599 0.07855342 0.16144665 -0.026292363 0.11429539
0.10938444 0.07109669 0.02878543 0.1868342 0.009702271 0.029405786 0.08475796 0.11084847
-0.029262768 0.06724319 0.2965148 -0.05667676 0.097181566 0.030984733 -0.01097518 -0.22197306
-0.14499092 0.04028965 -0.15287276 -0.31063065 -0.22476843 -0.19604217 0.11329363 0.02514865
-0.062085543 -0.09278409 -0.12919246 0.063591495 0.32271093 0.20838323 -0.2205514 0.17941299
0.14025447 -0.1406645 -0.0036110703 0.2674803 0.15519477 -0.16976194 -0.22555609 0.012324115
-0.1022281 -0.08100359 0.13878621 -0.20226425 -0.02739175 -0.27083516 0.25812748 0.23657487
0.23827481 0.13956493 -0.19579986 0.098956876 0.13706724 0.2242008 0.10837463 -0.10017156
0.008015445 -0.029210864 -0.044658016 0.1835663 -0.19660869 0.18649054 -0.18764916 -0.22476123
-0.055641975 0.15808155 -0.07235358 -0.015935682 -0.2338772 -0.20225155 0.024775121 0.1513122

fc2.bias f4 [10]
00000000: 96d7 e5bd 7bd0 1e3e 3369 cfbd 579a 253c
00000010: aa5e 2bbe 5f78 c6bd 3528 d43d 72d5 b03d
00000020: 9562 243d feaa 263e
-0.112227604 0.15509216 -0.10127487 0.010107598 -0.1673533 -0.09690928 0.103592314 0.086344615
0.040133078 0.16276166
