Codes/mnist_cnn_mnist_6_True_51992_0.1_1.0_1.0_64_1.pt (torch, 106255 bytes, 8 tensors)

conv1.weight f4 [16, 1, 8, 8]
000000 88 a7 57 3d 4f 49 93 3d 5f 7c 21 3e ef fb 86 3d
       0.052650005 0.07191717 0.157701 0.06591021
000010 05 01 61 3d 0f df bb bd 47 30 33 3d 51 97 30 3e
       0.054932613 -0.091734044 0.043747213 0.17245223
000020 1d f0 86 bc ef 19 09 bd f6 7f c1 bc 3d 97 fe bc
       -0.016471917 -0.033471998 -0.023620587 -0.031077975
000030 9c 18 99 bb d9 a5 9c 3d 0d 52 34 3d 51 c4 d0 3d
       -0.004672123 0.076488204 0.044023562 0.101936944
000040 84 99 82 3d 23 7c a2 3d 5c 23 32 bd 2b 0f 18 bd
       0.06376937 0.079338335 -0.043490753 -0.03712384
000050 c7 7f 5d bc 88 9f cc 3c e2 99 56 bb 6e 71 a2 3d
       -0.013519234 0.024978414 -0.003274553 0.07931791
000060 91 39 bc 3d 5e 78 17 3d 65 23 df bd d5 4b e8 3d
       0.091906674 0.036980025 -0.10895423 0.11342589
000070 29 57 3e 3c e6 78 86 3c fe b7 23 3d 04 9f 95 bd
       0.01161746 0.01641507 0.03997039 -0.073057204
000080 39 7d 2f 3e 6e f1 01 be 83 59 02 3e ed 53 fa 3d
       0.17137612 -0.12689754 0.12729459 0.12223039
000090 e3 73 0d bc 86 59 f0 bd 01 a3 84 3d 52 0b ac bd
       -0.008633587 -0.11735825 0.06476403 -0.08400597
0000a0 f6 68 94 3d b7 af 69 3d d1 1c 40 3e 36 64 24 3e
       0.07246582 0.05705234 0.18760993 0.16053852
0000b0 c0 ae 9b 3c e1 72 84 bb 15 b1 00 bc 22 65 01 3e
       0.019004226 -0.004042015 -0.00785472 0.12636235
0000c0 29 0f 58 3d d3 7e 66 3c 6e 9b f5 3c 36 56 83 3d
       0.052748833 0.014068323 0.029981341 0.06412928
0000d0 ed 98 83 3e d7 61 ee 3d 31 81 15 bd 04 6d 17 bd
       0.2570261 0.11639755 -0.03650016 -0.0369692
0000e0 ba e2 9b bd e3 61 bf 3d 5b fe 19 3e 75 5a 60 3d
       -0.07611604 0.09344842 0.15038435 0.054773767
0000f0 bb 57 2e 3e dd 99 11 3e fc 17 fa 3d cf 8c 04 3d
       0.17025654 0.1421885 0.12211606 0.032360848
000100 5b 62 b2 ba 4b 38 86 bc 5d 47 c7 3d 84 28 c6 3c
       -0.0013609634 -0.016384264 0.09730408 0.024189241
000110 4f 0d 0d 3c 47 aa 54 3a b4 da f5 3d 49 9c a2 bb
       0.00860913 0.00081125315 0.12004605 -0.0049624783
000120 aa a2 ee 3d 7b 43 e8 3d d1 32 bc bd e9 95 2e 3d
       0.116521195 0.11340996 -0.0918938 0.042623434
000130 5a 57 67 3e 34 0c 54 bd 0e 8b f3 bd 1e e7 45 3d
       0.22591916 -0.05176945 -0.11891757 0.048316114
000140 04 c1 f7 bd 59 02 d2 bd 12 96 13 bd a5 35 79 bb
       -0.12097362 -0.10254354 -0.03603179 -0.003802636
000150 19 b0 a4 3e dd 25 f1 3d 52 03 cf bc 93 ad 64 3d
       0.32165602 0.117748 -0.025270138 0.055829596
000160 a2 a4 26 be 9e a4 90 bd 5f 95 76 3d 38 44 2e bc
       -0.1627374 -0.07062648 0.060201045 -0.010636382
000170 f1 31 ec 3d f8 1b ce bc b5 0e 12 be bc ae 0c 3e
       0.11532963 -0.02515982 -0.14263423 0.13738531
000180 9e 09 81 3d 2d 6f 72 bd 92 91 80 bd 50 4b e4 3b
       0.063006625 -0.059188057 -0.06277765 0.0069669858
000190 99 9e 1c 3e 9b 8b e3 3d 34 98 bc bc 30 db 95 3a
       0.15294875 0.11110612 -0.023021795 0.0011433121
0001a0 59 08 e0 bd 9f 0f 9b 3d 7e 8b 15 3e 68 56 6e 3e
       -0.10939092 0.07571339 0.14603993 0.23275149
0001b0 18 2b 98 3d 7f 89 41 bc 3a 9a 35 bd 25 5e 4e 3d
       0.074300945 -0.011812567 -0.044336535 0.050382752
0001c0 b7 4e f2 bc 60 b9 e7 3c e4 76 0c 3e de 21 84 3d
       -0.02957855 0.028286636 0.13717228 0.06451772
0001d0 56 6f d0 bd a5 cd e7 3c d2 08 6b bd ae 41 3a 3d
       -0.10177486 0.028296301 -0.05738146 0.045472793
0001e0 c3 59 cc bc c0 00 11 3d 7c 42 67 3e 31 4d 1e 3e
       -0.024945145 0.035401106 0.22583956 0.15459134
0001f0 30 7c 75 bd 37 28 08 bd 19 8e f7 bd 9b 1e a0 3d
       -0.059932888 -0.033241477 -0.1208765 0.078183375
000200 be b1 c7 bc 8f 9a 59 3d 3e 60 15 3e 4b 0a e0 bd
       -0.024376746 0.053125914 0.14587495 -0.10939463
000210 e1 cc b3 3d 48 47 98 bb 5b cd 4d 3e ec 32 0e 3e
       0.08779312 -0.0046471693 0.20097868 0.13886613
000220 da 3f 9c 3d 17 0a 98 bd 23 a6 5a 3e df d5 a6 3d
       0.07629366 -0.074237995 0.21352439 0.081462614
000230 45 ed bf 3d a2 2c 4d 3e 01 5b 56 3e 2c 78 a2 3c
       0.093714274 0.20036557 0.20933153 0.019832693
000240 de f7 2e bd 76 b8 16 bd 97 bb e8 3d 74 4c 41 3e
       -0.042716853 -0.03679701 0.11363905 0.18876821
000250 92 33 45 3e 2e 79 32 bd 9c f0 0b 3e 7f 7b 8b bc
       0.19257954 -0.043572597 0.13666004 -0.017026661
000260 fc 2d ee 3d 0f e1 57 bd 11 8f a5 3d 69 c4 3c 3e
       0.116298646 -0.052704867 0.080839284 0.184343
000270 df cf 23 3e 67 d8 46 3d 18 1f 72 3e c5 b1 a4 3d
       0.15997265 0.04854622 0.23644674 0.08041719
000280 b5 cb 1c bd 39 5d 28 be 09 d4 52 3c 1a eb c2 bd
       -0.038280208 -0.16441812 0.012867936 -0.09517498
000290 26 91 09 3d 2e 89 a6 3c 62 e8 30 3e db 06 63 3d
       0.03358569 0.020329084 0.17276147 0.05542646
0002a0 b9 99 a3 bd 1b 63 1a be 65 85 2a bd dd 18 e6 bd
       -0.07988305 -0.15076868 -0.04163112 -0.11235211
0002b0 59 03 f3 3d ba 92 ad 3e b7 8c a1 3c d1 dc d0 bd
       0.11865873 0.33901006 0.019720418 -0.101983674
0002c0 ab 2a 60 bd 88 58 58 3c 6c f2 4d bb 5e 23 de bd
       -0.05472819 0.013204701 -0.0031425012 -0.108465895
0002d0 2c 81 58 3e d0 29 9e bd 90 0c c2 3d 6a 3c 19 3c
       0.21143025 -0.07722819 0.09475052 0.009352783
0002e0 7d e6 b9 bd 48 09 a5 bc 5e 30 74 bc f7 94 54 bc
       -0.09077165 -0.020146027 -0.01490411 -0.012974969
0002f0 cd fa 80 3b 6c bb 59 3e 6d c1 16 3e 4c 3b 4b 3c
       0.003936148 0.21262902 0.14722224 0.012404274
000300 9d 19 ee 3d ec 57 c6 3d c4 32 25 3e 64 80 b6 3d
       0.11625979 0.096847385 0.16132647 0.08911207
000310 6c 1e 40 3e bd 51 8a bc d6 b1 de bd 60 f8 c3 bc
       0.18761605 -0.016884679 -0.10873763 -0.023922145
000320 ef 1c 40 bd f9 60 bc 3d 13 80 54 3d c7 87 5f 3e
       -0.046902593 0.091981836 0.051879954 0.21829139
000330 f1 ec a0 bd f3 d4 fa bc 8f c2 f5 bd 4c 34 f6 3d
       -0.07857693 -0.03061912 -0.12 0.120216936
000340 6d 67 52 bc 77 e9 cc bd cf 49 8e 3d ca 6a 28 3e
       -0.012842041 -0.100054674 0.069476716 0.16446987
000350 84 10 6c 3d 4f 3f 20 bd da 8f 3e 3d 35 cd 08 be
       0.057632938 -0.039122876 0.046523906 -0.1335953
000360 d4 2b 81 bd f0 d7 10 3d a5 9d 32 3e 06 4d 95 3d
       -0.06307188 0.035362184 0.17442949 0.07290082
000370 f8 d2 17 bc 10 1a b3 3c 11 0f 87 bd 32 ad 98 bb
       -0.009266607 0.021863014 -0.065946706 -0.0046593184
000380 cf b0 d4 bd eb 40 fc 3c 0a 41 06 be e6 95 c5 3d
       -0.10385286 0.030792674 -0.13110748 0.096477315
000390 30 0e c7 bc 0e 49 f8 3c 3a 58 3f bd 57 38 49 3d
       -0.024298757 0.030308273 -0.046715 0.049125995
0003a0 95 9f a4 3d 39 3f 2f 3c 80 4a c1 bd 1c 46 29 bc
       0.0803825 0.010696226 -0.09438038 -0.010331657
0003b0 4d af 10 bc be a5 fd bd 32 3b 5e bb 3e 04 5a bd
       -0.008830857 -0.123851284 -0.0033909795 -0.053226702
0003c0 20 db 85 bd cd bf a6 3c e2 93 dc 3d 14 78 3d bc
       -0.065359354 0.02035513 0.10770394 -0.011564273
0003d0 49 35 c7 bd c6 d0 47 bd d2 ee ee bd 41 33 b6 bd
       -0.0972696 -0.048783086 -0.11666645 -0.08896495
0003e0 b7 1c 90 bd f1 95 3f 3c fa 26 9e bd 40 37 00 3e
       -0.07036727 0.011693464 -0.07722278 0.12521076
0003f0 25 4b 64 bd ec fc 09 3e a4 98 6b bd 0a 56 8c bd
       -0.055735726 0.13475388 -0.057518616 -0.06852348

conv1.bias f4 [16]
000000 8c 9d 94 bc 6e 61 aa bd 8e 9e 26 3d 2e 49 02 3e
       -0.01814153 -0.083193645 0.040678553 0.12723228
000010 4e e6 df 3c ba c9 1f 3e 4d 05 13 3e de c3 25 bd
       0.027331498 0.15604296 0.14357491 -0.040469997
000020 29 8a cc bd 36 2d 0e be c1 26 3e 3d bd 0c dd 3d
       -0.099872895 -0.13884434 0.046423677 0.10793445
000030 0e 4f fe bd 4b 86 da 3d 0a f5 85 bd 2b 9d 46 bd
       -0.12417422 0.106701456 -0.06540878 -0.04848973

conv2.weight f4 [32, 16, 4, 4]
000000 58 b2 1c bd d6 54 ac 3b 4d 97 f9 bc e3 21 e4 bc
       -0.03825602 0.0052591367 -0.030467654 -0.02784819
000010 0e 70 1d bd 1f aa 8c 3d 01 44 99 bd 00 53 c1 bd
       -0.03843694 0.068683855 -0.07483674 -0.09439659
000020 48 6b a9 bd b3 0c 95 3d 60 11 0c bd 01 eb b8 3c
       -0.082724154 0.07277813 -0.034196258 0.022572996
000030 08 a1 37 3d 2c 96 87 bd 9c ba 28 bd 64 84 10 bb
       0.044831306 -0.0662044 -0.04119359 -0.0022051567
000040 3a e1 58 3c 43 4e 29 3b 45 b5 3e 3d 5c f8 02 3d
       0.013237292 0.0025834 0.04655959 0.031975135
000050 53 56 33 bc 41 b7 f1 3d 56 e0 1b bd 79 17 60 bc
       -0.010945874 0.11802531 -0.03805574 -0.013677471
000060 5c 81 be 3c 72 f8 49 3d b1 65 83 3c 8d 9c d5 38
       0.023255043 0.0493092 0.016039701 0.00010185791
000070 98 08 51 3d 3f c3 11 bc 49 5e c3 3d b6 42 87 3d
       0.051033586 -0.008896648 0.09539468 0.06604521
000080 ee 83 44 be bb 3d 4a bc 67 2d 35 bd d3 ce fb bd
       -0.19190952 -0.012343819 -0.044232752 -0.12295308
000090 f1 71 c5 3c 56 f5 2c 3d e5 6c 9c 3c c4 a7 d6 3c
       0.024102183 0.042226158 0.019094894 0.026203044
0000a0 d3 a7 dc bb 02 9f 21 bc 39 79 1a bd ea 7b b2 bd
       -0.0067338734 -0.009864571 -0.037713263 -0.08715041
0000b0 c5 b0 82 bd 09 48 ec bd aa 4a 8d 3d d1 e1 95 bc
       -0.06381372 -0.11537177 0.06899007 -0.018296154
0000c0 7f 3d 98 3b 47 53 2b 3d fe 0f 40 bc 9d 2d cf 3c
       0.004646003 0.041827466 -0.011722563 0.025290305
0000d0 64 d9 09 3d 47 d9 a6 3d f8 39 81 bd f5 ce b8 3d
       0.033654585 0.08146911 -0.06309885 0.09023849
0000e0 38 23 bc bc c2 80 c5 3c 4e 0f 46 bd 0f 6c 41 3d
       -0.022966012 0.024109248 -0.04835444 0.047222193
0000f0 c8 07 5f bb 08 c8 88 bd cb 6b b6 3b 14 1b 85 3c
       -0.0034031738 -0.06678778 0.005567049 0.016248263
000100 84 a0 ca bc 44 48 6c 3d 6c 89 9c bc 8e ff 8c bb
       -0.024734743 0.057686105 -0.019108497 -0.0043029254
000110 10 cb ce bc ba cf 37 bd 3f 93 4a bd ae ce 12 bd
       -0.025243312 -0.044875838 -0.04945683 -0.035841636
000120 fe 40 4c bd 73 cc bd bc a7 1f 08 bd b3 10 6c 3d
       -0.04986667 -0.023168778 -0.03323331 0.057633113
000130 71 37 0d bd cf 7e d6 3c 36 81 03 be 37 ec 96 bd
       -0.0344767 0.026183514 -0.12842259 -0.07369273
000140 57 c4 b3 bd f8 d3 af 3a ea 59 32 bd ac 0d 0c 3d
       -0.08777683 0.0013414612 -0.04354278 0.034192726
000150 46 b5 03 3e 20 f6 e1 bc 23 18 19 3d 67 fa 84 bc
       0.12862119 -0.027583182 0.037376534 -0.016232682
000160 e0 44 33 3c 53 04 b6 3b 68 fc fe 3d b3 9e 70 3d
       0.010941714 0.0055547147 0.124504864 0.058745097
000170 8a 87 34 bd fd ab 63 bd 93 2d 6d bd 60 24 a5 3c
       -0.044074573 -0.055583943 -0.05790479 0.020158947
000180 7f 00 9b bd c1 49 4b 3d 70 6f 12 3d f1 b2 d0 3d
       -0.07568454 0.049630884 0.035750806 0.1019038
000190 b7 90 2b bc 36 d5 12 3c 0d f8 9a bd f5 65 9f 3d
       -0.010471514 0.008961966 -0.07566843 0.07783119
0001a0 f1 15 00 3d 10 ab 08 bd 69 8b 3b be ce a7 ab 3d
       0.031270925 -0.033366263 -0.183149 0.083816156
0001b0 80 9d af bc ee cf 60 bd 78 64 24 bd b0 b3 70 bd
       -0.021437407 -0.054885797 -0.040134877 -0.058765113
0001c0 24 c6 3d bd 88 61 8c bd 79 67 14 bd c8 35 5b bc
       -0.04633154 -0.0685454 -0.03623149 -0.013379522
0001d0 8a 4b 33 3d 8e 05 03 3c 3c db 0f 3d 23 9d ac bd
       0.04377321 0.00799693 0.035121188 -0.08428409
0001e0 72 60 8f 3d e9 92 51 bd c7 9f ab bc e0 91 0c be
       0.07000817 -0.051165495 -0.020950211 -0.13727522
0001f0 56 c7 17 bd 16 11 cd 3c 99 65 89 3c 98 a3 ed 3c
       -0.037055336 0.025032561 0.016772078 0.029008672
000200 78 f0 39 3d 7b 6c fe bc 48 00 d7 bc 4a 4a 79 3d
       0.045395344 -0.031057587 -0.026245251 0.060861863
000210 9a 25 72 bd cc 1b 79 3c ee 5c 58 bd e3 52 5f 3d
       -0.05911789 0.015204381 -0.052823 0.054522406
000220 e0 e6 0a 3d 6b dc 0b bd 52 b8 b5 3d dd a1 14 3c
       0.033911586 -0.034145754 0.08873047 0.009071794
000230 7d 00 c8 3d 5e 88 a4 bd 3b 79 1f 3c 01 e5 ef bc
       0.09765718 -0.080338225 0.009733493 -0.029284002
000240 30 4c 3d 3d 75 cc ac 3d 0f 90 31 bd b7 be dd 3d
       0.046215236 0.084374346 -0.043350276 0.108273916
000250 26 44 bd 3d 63 86 3f bd 0a e7 90 3d 32 5a 92 3d
       0.09241514 -0.04675902 0.07075317 0.0714611
000260 a9 dc 87 3c ae f6 7a bc d3 30 00 3d 46 33 7e 3d
       0.016584711 -0.015317602 0.031296562 0.062060617
000270 93 e6 de 3c cf fb b7 bc e5 26 af bd 6a ce 69 3d
       0.027209556 -0.022458939 -0.085523404 0.057081617
000280 f4 e5 86 3c 29 ee 3f 3c 82 ff 0f 3d 45 73 53 bd
       0.016467072 0.011714497 0.03515578 -0.0516236
000290 c6 38 10 be c6 12 8c bd ae 91 ba bc c3 d9 75 bd
       -0.14084157 -0.06839518 -0.022774544 -0.060022127
0002a0 20 20 d6 bd 98 79 dd bc 40 12 a9 3a d0 51 ff bc
       -0.10455346 -0.02703552 0.0012899116 -0.03116694
0002b0 fb ad 91 3d b5 f9 cb bd 2e 36 04 3d 17 5f fa 3c
       0.07113262 -0.09959737 0.032278232 0.03056292
0002c0 21 8f 69 3c af ce f5 3d 42 78 3b 3c 7f aa f7 3c
       0.014255316 0.120023124 0.011442246 0.030232666
0002d0 6a 7e 8f bd 1a e7 03 3c de 15 b3 bc 15 a6 46 3c
       -0.070065334 0.008050704 -0.021861013 0.012124558
0002e0 d7 87 b5 3c 26 85 0d 3d a4 04 20 3d 0a 8f 80 bc
       0.0221595 0.03455081 0.039066926 -0.015693206
0002f0 ff eb 6b 3d 82 f3 72 3d ee bb d5 3d 33 bb 81 bc
       0.05759811 0.05931426 0.10436235 -0.015836334
000300 98 0e 63 3c 2a f5 02 be ba 92 38 be c0 16 06 3d
       0.01385846 -0.12788835 -0.18024722 0.03273654
000310 3a a6 c6 3d f3 59 87 bb 89 a3 88 3d e5 60 8e bd
       0.09699674 -0.004130596 0.06671817 -0.06952075
000320 3f 86 f9 3d 6d 5e b1 3d aa 25 6c bd 48 6a 6b bd
       0.121838085 0.086605884 -0.057653107 -0.057474405
000330 b9 21 19 be 56 81 80 3c ec 58 ce 3c a8 06 c7 3c
       -0.1495427 0.015686672 0.025188886 0.024295166
000340 04 75 ad bb 24 28 c7 bd aa b5 8c bd e2 bf dd bd
       -0.0052934904 -0.09724453 -0.06870587 -0.10827614
000350 67 49 bb 3d 88 93 be bb 74 7b f9 bd 11 60 18 3d
       0.0914486 -0.005815927 -0.1218175 0.03720099
000360 7d 29 96 3d c3 df ea 3c d0 cf 1d bd 21 00 0f bd
       0.07332132 0.028671151 -0.038528264 -0.034912232
000370 9a a5 5e bd ac 95 7c bd 91 50 22 bd 89 28 88 bd
       -0.05435715 -0.061666176 -0.039627615 -0.066483565
000380 2a 46 fb bd eb 61 87 bd ec f2 67 bd c3 90 3f 3d
       -0.12269242 -0.06610473 -0.056628153 0.046768915
000390 84 ce 5b 3d 0a 00 65 bc c2 de ea 3d d5 96 a0 3d
       0.053663746 -0.01397706 0.11468269 0.07841269
0003a0 82 3c b5 bb ca 86 b1 bb 3a da 6e 3d 01 13 98 bd
       -0.0055308947 -0.0054176794 0.058313586 -0.074255
0003b0 c5 c2 cb 3c 6e ad 1e 3c 86 e0 5f 3c 34 8a db bb
       0.024873147 0.009684904 0.01366437 -0.0066998247
0003c0 8a 0d 25 3d e7 05 82 3c fe c9 d5 bb 50 25 d8 3d
       0.040296115 0.015871955 -0.0065243235 0.10553992
0003d0 f0 48 09 bd 70 1f 83 bc 5c 48 b7 3d cf 33 e4 3d
       -0.033516824 -0.016006202 0.08949348 0.11142694
0003e0 31 1b 6f 3d 70 95 58 3d 58 bb 81 bd 49 92 24 3a
       0.05837554 0.05287689 -0.06334561 0.00062779017
0003f0 6d 3b a1 bd bd 92 84 3d f1 6a fe 3d 44 71 e9 3d
       -0.07872663 0.064733006 0.12422741 0.11398557

conv2.bias f4 [32]
000000 81 23 e8 3c 3b 4e 5b 3d f7 55 d6 bd 14 18 60 bc
       0.028337242 0.053541403 -0.10465615 -0.013677616
000010 b5 68 03 be 94 a7 9f bd 8b d1 9b 3d 54 cb f8 b9
       -0.12832911 -0.07795635 0.076083265 -0.00047453737
000020 d8 ab 3d bd 80 b1 d6 bd 26 70 dd 3d 1c eb c0 3d
       -0.04630646 -0.10483074 0.10812406 0.094198436
000030 54 ef a8 3d bc 97 0d 3e 10 c9 ea bd 15 30 bf bc
       0.08248773 0.13827413 -0.11464131 -0.023338357
000040 e0 73 b3 ba 9f e2 28 bd 1c ec 2f 3d aa ab 96 bd
       -0.001369115 -0.041231748 0.04294978 -0.07356961
000050 73 36 a3 3c de c2 93 bd f4 12 9a 3c 78 d7 af bd
       0.019923424 -0.07214902 0.018807866 -0.08586019
000060 ec 90 be 3c e5 dc 88 bd 11 56 8b bd 55 41 7c 3c
       0.023262464 -0.06682757 -0.06803525 0.015396436
000070 0f a0 c6 bd 06 94 87 3d 4f 2e 39 bd fd 68 9e bd
       -0.096984975 0.0662003 -0.04521018 -0.07734869

fc1.weight f4 [32, 512]
000000 86 77 1b bd 8a 1d 9f 3c 4c 4e 98 3d 87 e9 04 3e
       -0.037955783 0.019423265 0.07436809 0.12979709
000010 6a 74 03 3c 94 8a 85 bd 70 63 29 3d 22 dd cd bc
       0.008023361 -0.06520572 0.041354597 -0.025129858
000020 d8 80 83 bc 3c 70 61 bc 92 25 16 3d 4d 9a f9 bc
       -0.016052648 -0.013759669 0.036656924 -0.030469084
000030 94 28 61 3d be b7 8a bd 70 86 b6 bd 92 36 8b 3d
       0.05497034 -0.06773327 -0.08912361 0.06797518
000040 8d d5 c1 bc 85 ad d4 bc f2 34 f0 3d a9 dd 96 3d
       -0.0236614 -0.025961647 0.117288485 0.07366497
000050 10 16 b2 bb 85 c1 56 3d 0f dd aa bd 85 62 00 bd
       -0.005434759 0.05243065 -0.08342945 -0.031343956
000060 69 6e d1 ba a3 bd 4f bb c9 31 6d bc ea 07 2e bd
       -0.0015978339 -0.0031698726 -0.014477202 -0.042488016
000070 99 d4 96 bd 00 06 85 3c b0 95 e6 bc 7f 52 db 3c
       -0.073647685 0.016238213 -0.028147548 0.026772736
000080 16 cf 9b 3c b9 bd 04 be e5 aa 5a bd 60 d6 2d 3d
       0.019019645 -0.12962998 -0.053385634 0.042440772
000090 d7 a3 0f bd 9d a3 a1 3d c8 8f fb 3d 28 ac 21 3d
       -0.03506836 0.07892535 0.122832835 0.03947082
0000a0 69 74 5a bd fd aa 50 bc 14 eb 86 bd a3 8f 3e bd
       -0.053333674 -0.012736079 -0.06587806 -0.0465237
0000b0 86 b2 47 bd 91 57 fb bb da 3e c9 3c a4 89 11 bc
       -0.048754238 -0.007670351 0.024566103 -0.008882914
0000c0 85 1f d0 bc ba 44 c9 3d b7 88 ca bb 6b 86 7f 3c
       -0.025405655 0.09827562 -0.0061808485 0.015596013
0000d0 e0 4a 65 3d 54 c7 23 3c 6b e6 b8 b9 d9 9c 95 3d
       0.05597961 0.009996254 -0.0003526689 0.07305307
0000e0 1b b8 b9 3d 1b e3 0c 3d f5 af d7 bc 99 a9 07 3d
       0.090683185 0.034396272 -0.02632902 0.033120725
0000f0 b3 54 70 bb 44 fe ac bd f4 6f c1 bd e7 62 a4 3c
       -0.0036671578 -0.08446935 -0.094451815 0.020066692
000100 ab 0e d0 bc 34 63 d8 3c 26 ad 6b 3c 37 88 2b 3d
       -0.02539762 0.026414491 0.0143845435 0.04187795
000110 53 fd 21 3c 9d ea 60 bd f7 be 28 3d eb 6c c4 bc
       0.009887057 -0.054911245 0.041197743 -0.023977717
000120 af 5b e2 3d a0 8c 10 3e c9 de ab bd 11 7a 9a 3d
       0.110526435 0.14116144 -0.08392102 0.075428136
000130 f3 46 d3 3d c2 42 cc 3d ae 87 b7 bd 1d 34 3b 3b
       0.10316267 0.099736705 -0.08961426 0.0028564997
000140 11 9d 45 ba 34 38 53 3d 06 51 a4 bd d9 66 05 3d
       -0.00075383583 0.05156727 -0.080232665 0.032568786
000150 a4 d9 8b 3d 7a 7d d1 3d 68 71 a6 ba 8e c0 95 3c
       0.06828621 0.10229011 -0.0012698593 0.018280294
000160 bd 02 8a 3d 41 5d 2c bc 9f ba 09 bd 35 fb 24 bc
       0.067388035 -0.01052028 -0.03362524 -0.010069658
000170 ac 4a 3f 3c e4 78 a5 3c 69 7d 9e bc 94 09 d2 3b
       0.011675518 0.020199247 -0.01934691 0.006409833
000180 39 17 ae 3b f9 7d 08 3d d8 79 50 3d c5 e7 8a bc
       0.005312827 0.033323262 0.05089745 -0.01695622
000190 51 fa 94 3d 7f dd 54 bd 77 a4 4d bd 45 e3 1a 3c
       0.072743066 -0.051969048 -0.050205674 0.009453599
0001a0 f6 30 8e 3a f3 3f 02 bd 68 21 a9 3d 9b 58 80 3d
       0.0010848332 -0.031799268 0.08258325 0.062669
0001b0 57 62 3b 3d 97 e3 15 bd 30 dc 12 3d bc 12 a3 bc
       0.04574808 -0.036594 0.03585452 -0.019906394
0001c0 86 d6 fd 3c 61 9e b0 3c 73 b5 c8 3c 45 5f ee 3d
       0.030986082 0.021559896 0.024500584 0.11639265
0001d0 a5 84 f1 3d e4 9d 6a bd d3 5e 2d bc 52 b4 88 bd
       0.11792878 -0.057279482 -0.01058169 -0.06675018
0001e0 77 df 87 3b d3 f5 b0 3d 1f 64 26 3d 53 75 ad bc
       0.004146512 0.08640637 0.040622827 -0.021174109
0001f0 7a 88 c3 bc 5c 8b 13 3d 2c 20 18 bc f8 20 92 bd
       -0.023868788 0.036021575 -0.009285014 -0.071351945
000200 1c a2 0d 3b 34 fb a9 3d ee 89 a6 bd 76 9d ad bc
       0.0021611517 0.08299866 -0.08131777 -0.021193247
000210 f5 17 85 bc 42 82 66 bd 58 f1 e6 3b 6f 6c 5d bd
       -0.016246775 -0.056276567 0.0070478134 -0.05405849
000220 82 34 13 3d 21 77 1a bd 7c b5 b5 3b 95 be 86 bc
       0.035938747 -0.037711266 0.0055453163 -0.016448298
000230 4d 4e 94 bd d5 ef 23 3d 57 ab ba bc 2d 0a 06 bd
       -0.07241497 0.040023644 -0.02278678 -0.032724548
000240 83 3b ab bd 86 c8 0b bc c7 35 30 bb 13 0e 17 bc
       -0.0836096 -0.008531695 -0.0026887523 -0.009219664
000250 29 37 83 3d f0 84 11 3d 32 80 96 bd 1a 8c 36 bd
       0.06407005 0.03552717 -0.0734867 -0.044567205
000260 9c 2a 44 3b 2f 9f 85 3c 73 48 02 bb a5 ee d1 3c
       0.0029932624 0.016311256 -0.001987961 0.02562649
000270 60 39 01 bc 8e 3d 9c 3d 31 aa 97 bd 79 d6 85 bd
       -0.007887214 0.07628928 -0.07405508 -0.06535048
000280 22 ea 4a bd 37 24 85 bb 25 c0 8d 3b 30 3a ca bc
       -0.049539693 -0.004063155 0.004325884 -0.02468595
000290 40 20 96 3d db 3b e0 bd f8 8e 5d bd ec 13 51 3d
       0.0733037 -0.109489165 -0.054091424 0.05104439
0002a0 6a 82 6e 3d 15 09 bf 3d 41 0b f8 3c b3 03 31 3d
       0.05822984 0.09327904 0.030278804 0.04321642
0002b0 03 e8 d3 3d c4 a8 60 bd 15 c1 14 bd ae fc 86 3b
       0.10346987 -0.054848447 -0.03631695 0.0041194772
0002c0 c8 d8 03 3e bd 50 5c 3c 6f 4e 4a 3b 6b 47 e4 bc
       0.12875664 0.013446984 0.0030869504 -0.027866086
0002d0 14 8b 85 bb 3a 87 55 bd 45 c9 ad bc e1 1b 2a 3d
       -0.0040754173 -0.052130915 -0.021214137 0.041530494
0002e0 c4 1e b9 bc 42 71 c6 3b 80 0e a6 3d a4 cf fa 3c
       -0.022597678 0.006055982 0.081082344 0.030616589
0002f0 34 2b 60 bc 1d 5f 4c bd 7d 16 b0 bd d9 eb 19 3d
       -0.013682175 -0.049895395 -0.08598039 0.037578437
000300 90 02 a1 3d bf e3 e5 bd 94 5e 84 3c a3 94 01 3c
       0.07861817 -0.1122508 0.01615838 0.007908973
000310 5a 09 5a 3c 66 e2 9d 3d 00 0a a5 3b bb e5 84 3d
       0.013307894 0.07709198 0.0050365925 0.0648913
000320 2f 29 94 3d bc 49 f0 bd 43 b6 0d bd 44 ac f8 bb
       0.07234418 -0.11732814 -0.034597646 -0.007588895
000330 a3 ef 01 bd 1c 0d 4d 3d 6c fd 74 bc 27 2a 13 3d
       -0.031722676 0.05006133 -0.014952999 0.03592887
000340 7b 56 e1 3c 7f de a0 bc 56 39 14 bd 78 77 ef 3d
       0.027507057 -0.019637344 -0.036187492 0.11692709
000350 c6 d2 95 bd ba 6f 12 bc 5d 0e eb bc 82 4e dc bc
       -0.073155925 -0.0089377705 -0.028693372 -0.026892904
000360 ed 06 45 3c 04 b9 44 bc 6f 84 d7 bc d3 14 19 ba
       0.012025577 -0.012007002 -0.026308266 -0.000583959
000370 67 db 22 bd 53 93 a6 bb 46 a6 5c bd ab d6 0b bd
       -0.03976002 -0.0050834804 -0.05386951 -0.03414027
000380 70 4f 8a 3d bd 95 60 3d 91 c8 2b 3c 9d a0 65 bd
       0.06753433 0.0548303 0.0104848305 -0.056061376
000390 e7 36 c5 bc 0e e4 01 3c ff ae 3d 3d f4 79 4f 3c
       -0.024074031 0.007927908 0.046309467 0.012663353
0003a0 e3 8d 8f 3d 05 12 d0 bd c1 c8 70 3d 01 28 d1 bd
       0.070094846 -0.10159687 0.058785204 -0.10212708
0003b0 5b a1 1d bd 6f 02 f9 bc d7 49 87 3d 7b 03 7d 3c
       -0.03848396 -0.030396668 0.06605881 0.015442724
0003c0 50 e5 97 bd c6 9e f7 bc dd 05 a9 3c 35 46 19 3d
       -0.07416785 -0.030227076 0.020632679 0.03742047
0003d0 94 da ae bc 7d 83 a0 3d f1 b7 20 3d 88 50 fc 3c
       -0.02134446 0.078375794 0.03923792 0.030800119
0003e0 f4 8e 2a 3d ad d2 cf 3c 60 d8 b2 3c ba 0e d4 bd
       0.041640237 0.025369013 0.021831691 -0.10354371
0003f0 ec e9 e9 3c 1a 49 a8 bc 66 53 1b 3d 51 91 63 3c
       0.028553925 -0.02054267 0.03792133 0.013889627

fc1.bias f4 [32]
000000 66 05 0f bd a7 1f 21 3c f8 bc 84 3c b9 ed b5 3d
       -0.034917258 0.009834207 0.016203389 0.088832326
000010 df 5a 2f 3d 6e 02 ff bd ad e7 49 3b 6c 31 e2 bc
       0.04281127 -0.12451635 0.0030808256 -0.027611457
000020 5b 9f a6 bc 7c 6d 4d 3c d4 1b 6d bc 3b a3 ac 3c
       -0.020339658 0.01253831 -0.014471967 0.021073928
000030 5e 40 40 3d 2c 32 9f bd ab fc f6 bc fd ab 1c bb
       0.046936385 -0.077732414 -0.030149778 -0.0023906224
000040 c2 b0 a5 bd 0d 3e 2f 3d 84 57 2d 3c 2d 2a 98 3d
       -0.080903545 0.042783786 0.010579947 0.074299194
000050 95 eb 07 3d 40 e5 c1 bd ca 94 cd bc 54 36 bb bd
       0.033183653 -0.09467554 -0.025095362 -0.09141222
000060 83 5c 69 bd 8e 8a 20 bd 10 48 f7 3c f0 e6 a2 bc
       -0.05697299 -0.039194636 0.03018573 -0.01988551
000070 7a a0 8e bd f7 a6 81 bc 33 8c 0f bd 5f cb fa 3c
       -0.06964202 -0.015826685 -0.035045814 0.030614553

fc2.weight f4 [10, 32]
000000 42 dd bd bd 98 dd b5 bd 80 8f f0 3d ec fa b8 3d
       -0.09270717 -0.08880156 0.117461205 0.090322345
000010 e1 74 55 3d a2 46 e0 3d 0b c8 1a be 59 17 89 3e
       0.052113418 0.10950972 -0.15115373 0.26775625
000020 cc ac fc bd 7f 15 ce bd e3 d1 aa bd ac ee 42 bc
       -0.12337646 -0.10062694 -0.08340814 -0.011897724
000030 5f e5 9b be e5 5e 78 3e 39 25 05 bd 99 bf 12 be
       -0.30448434 0.2425495 -0.0325062 -0.14330901
000040 ea 21 a8 3d 0c 7f 14 be a3 ca cc 3d 64 41 7b 3d
       0.082095936 -0.1450159 0.099995874 0.06134166
000050 43 34 02 be de eb f3 bc 0d c9 f3 3c 17 4a 35 3e
       -0.12715249 -0.029775556 0.029758954 0.17704044
000060 e4 01 2c be b3 48 01 be 78 81 52 be b3 d0 16 3d
       -0.16797596 -0.12625389 -0.20557201 0.036820125
000070 2f 8f 0b bc 9f df 6d bd 27 b6 c5 3e 11 85 83 3e
       -0.008518024 -0.05807459 0.38615534 0.2568746
000080 58 ce 5e 3e 79 e3 bd 3c ee d8 0a 3e 2b 46 85 be
       0.21758401 0.023179756 0.13559315 -0.26030096
000090 0e ac 80 be f7 7f cc bd 40 e6 f4 3d 3b 67 97 3d
       -0.25131267 -0.09985345 0.11957979 0.073927365
0000a0 6a 91 ff 3c 8e 8e f0 3e b7 45 29 3e 50 d6 36 3e
       0.031197269 0.4698376 0.165305 0.17855191
0000b0 f5 60 51 bd 14 7c 28 be 56 59 ec 3c 07 e9 2d 3e
       -0.051117856 -0.16453582 0.028851192 0.16983424
0000c0 c9 70 08 3e a1 e2 8e 3e 88 b5 ba 3d eb 4e 67 3c
       0.13324274 0.2790728 0.091166556 0.014117937
0000d0 4b e2 e4 bd dd 79 85 be aa 9d b7 be 62 7f fb bd
       -0.111759745 -0.26069537 -0.35862476 -0.12280156
0000e0 6f 8f 8f bd 4f ae 3d be 10 cb 9b 3b 1a 3c 95 3e
       -0.0700978 -0.18523525 0.0047544315 0.29147416
0000f0 ba b4 a6 3d 22 cf 09 bd 95 27 6c be 93 88 63 3b
       0.081399396 -0.033644803 -0.23061974 0.0034718856
000100 f6 e3 58 bd b8 94 06 be dd 32 b3 3d 72 62 33 be
       -0.052951775 -0.13142669 0.08749936 -0.17518023
000110 04 21 1e 3e f7 86 5e 3e 75 85 ad 3d 19 d1 84 be
       0.15442282 0.21731173 0.084727205 -0.2594078
000120 99 1b 57 bd 41 7b 46 3e 25 3d c9 bb 84 9f e1 3d
       -0.052516554 0.19382955 -0.006141322 0.11016753
000130 6b 21 03 3e 8c 8e a8 3c b6 d5 96 be 7c fe 62 bd
       0.12805717 0.020575784 -0.29459924 -0.055418476
000140 73 f7 62 3d b6 1e 19 be 0a 83 8c 3d a6 32 f8 bd
       0.055411767 -0.14953122 0.06860931 -0.121190354
000150 9e 8b 63 3c bc e6 7b be 0b 7d c1 bd 62 99 22 3d
       0.013888268 -0.24599737 -0.09447678 0.03969706
000160 e7 0b 50 3e 0f 87 0c 3e 05 c2 77 be b7 14 b3 bc
       0.2031704 0.13723396 -0.24195106 -0.021860464
000170 18 03 d8 bd 8d 6b d0 3c 5f 65 82 bd d5 95 45 3e
       -0.10547465 0.02544191 -0.06366991 0.19295438
000180 0d 86 dc bd 60 f0 fa bd 32 7a 7d be 7f 8a 26 be
       -0.10767756 -0.12252879 -0.24753645 -0.1626377
000190 a7 ad 95 3b b5 aa 2f 3e 56 a7 32 bd 9e 45 1c be
       0.00456782 0.17154963 -0.043616615 -0.15260932
0001a0 9e e7 0d 3e 7b 14 bd 3c 2a a7 ac bd 5c db a2 bc
       0.13857886 0.023081055 -0.084303215 -0.01987999
0001b0 52 74 60 3e fb 7e 77 be bb 6e 2a bd b5 70 7e bd
       0.21919373 -0.24169533 -0.041609507 -0.062119205
0001c0 a5 93 e1 bd 93 52 54 be 9b 96 d7 3c 00 7c bc 3d
       -0.11014489 -0.20734625 0.026316931 0.092033386
0001d0 3a 86 da 3d 35 79 ab 3e 20 20 0f be 13 61 85 3e
       0.10670133 0.3349091 -0.13977098 0.26050624
0001e0 93 e9 62 3e cb f3 3e 3e c6 77 a0 3d f9 3f 1b 3d
       0.22159414 0.18647687 0.07835345 0.037902806
0001f0 dd 48 1c 3e 0b c7 e6 bd f7 e5 f2 bc 47 19 4b be
       0.1526217 -0.11268433 -0.029650671 -0.19833861
000200 1e 1c ca bd fe fa 8d bc 8c 70 69 3c f1 d9 ed bd
       -0.09868644 -0.017331596 0.014248025 -0.11613835
000210 92 3f ec bd 95 07 ef bd 13 2d a4 3e 99 bb 36 3d
       -0.115355626 -0.11671368 0.3206564 0.0446125
000220 d3 83 64 be b5 16 32 be af 30 19 be 5e aa 29 be
       -0.22315912 -0.17391475 -0.14959978 -0.16568896
000230 a3 22 b8 3b 82 b9 43 3e ec 62 0c be 94 29 3d be
       0.0056193634 0.19113734 -0.1370961 -0.18472892
000240 8b 6d df bd c2 41 68 3e 31 e6 37 be 10 1c b2 be
       -0.109095655 0.22681335 -0.17958905 -0.34787035
000250 f0 07 4f be 5f 62 3a be 89 d4 49 3e 62 ac 38 be
       -0.20217872 -0.18201588 0.19709982 -0.18034509
000260 63 22 85 bd 33 fb 3a 3e b8 c6 12 3e 76 ce c0 3d
       -0.06500699 0.18259887 0.14333618 0.09414379
000270 55 89 9f 3d 47 00 5a bd 0c 45 b1 bc 75 21 88 be
       0.07789866 -0.05322292 -0.02163937 -0.26588026
000280 87 2d 9f 3d 3a dd c8 bd b3 1b d2 bd 13 d1 0e 3e
       0.077723555 -0.098078206 -0.102591895 0.13946943
000290 9c ce 09 be 5b 03 04 3e c9 37 6b be b3 f7 e1 3c
       -0.13457721 0.12891905 -0.22970499 0.027583933
0002a0 19 4c b2 3d 7b 08 a6 3d 41 30 0f 3e e4 2a dc bc
       0.08705921 0.08107086 0.13983251 -0.02687592
0002b0 e1 d3 06 3e d6 13 7c 3e 9f 56 b1 3d 3b d0 e7 bd
       0.13166763 0.24616942 0.086591 -0.11319014
0002c0 f7 8a 01 3e 8b 32 fd 3d 31 b0 4b be 21 75 6e 3e
       0.12650667 0.12363156 -0.1989143 0.23286869
0002d0 24 ff 7e be 4c 1b ab bd 8c d1 ad bd 64 a3 a6 3e
       -0.24902016 -0.08354816 -0.084872335 0.32546532
0002e0 21 10 ec 3d 7c c9 53 be ae 2c 5e 3e 01 b2 f6 bd
       0.11526514 -0.20682329 0.21696731 -0.1204567
0002f0 24 77 f3 bb 1b b3 37 bd 22 c6 7e 3e 34 11 e2 bd
       -0.007429974 -0.044848543 0.24880269 -0.110384375
000300 18 18 0d be b1 6e b2 3e 4b fa 0c bd 32 c1 de 3d
       -0.13778722 0.34850076 -0.034418385 0.10876693
000310 e1 2a 99 bd b1 ac 6a 3e a1 97 88 3e 88 35 1e be
       -0.074788816 0.22917439 0.26678184 -0.15450108
000320 ee 31 12 bd e5 1c 98 be 0b 6a 8a bd fc c0 af 3c
       -0.035692148 -0.29709545 -0.06758507 0.021454327
000330 e2 5e ec ba 2b d1 f2 3d f7 3f 82 3c 11 f8 8e bd
       -0.0018033648 0.11856302 0.015899641 -0.06980909
000340 00 62 09 be 2a 7f d8 bc 71 41 ef 3d d3 47 6c bc
       -0.1341629 -0.026427824 0.11682404 -0.014421421
000350 8e 70 f6 bd 14 16 19 3e ad a6 7f be 27 29 8d be
       -0.12033187 0.14949828 -0.24965926 -0.2757046
000360 02 95 a5 3d a0 ae bd bd 51 5d a4 bd ea 66 52 3d
       0.080850616 -0.09261823 -0.08025611 0.051367678
000370 af 32 ec 3d ec 5a 02 bd 6e a8 2d 3e bd 80 6d 3e
       0.11533105 -0.03182499 0.16958782 0.23193641
000380 22 42 db bd 8d 36 a7 be a7 76 35 3e 07 12 ac 3d
       -0.10705973 -0.32658806 0.17721044 0.08401876
000390 2b 52 5c bd 41 0f 41 be 23 e0 e5 3d 90 a7 b3 3d
       -0.0537893 -0.18853475 0.11224391 0.087721944
0003a0 b2 ec 19 bc 06 76 1f 3e c1 4c cc bd 3b 9f d5 bd
       -0.0093948115 0.15572366 -0.09975577 -0.104307614
0003b0 3e 04 af 3d eb 5c 7c bd 04 3b 41 3e 30 59 ff bd
       0.08545731 -0.06161205 0.18870169 -0.12468183
0003c0 be 88 32 bc 77 aa 26 3e 56 be 3b be 6c d1 60 bd
       -0.01089686 0.16275965 -0.18334326 -0.05488722
0003d0 d3 6d 5b 3c d7 19 20 3e f5 6f ec 3d 32 49 ee 3b
       0.013392883 0.15634857 0.115447916 0.007271909
0003e0 1c 3c 80 be 5f 16 d4 bd b6 8c 54 be 68 da 4e bd
       -0.2504586 -0.103558294 -0.20756802 -0.050501257
0003f0 4a 3f c2 bd fd 10 39 be c4 fd 86 3d 27 be b1 3e
       -0.09484728 -0.18072887 0.06591371 0.34715387

fc2.bias f4 [10]
000000 78 af f3 bd 88 c7 26 3e e0 69 cc bd 2d 8a 07 be
       -0.118987024 0.16287053 -0.099811316 -0.13236304
000010 43 05 32 be 1d 30 b2 bd ed e0 93 3d 45 be e2 3d
       -0.1738482 -0.08700583 0.072206356 0.11071447
000020 71 9c a4 3d 77 68 b1 bd
       0.08037651 -0.08662503
