Codes/mnist_cnn_mnist_11_False_0.1_1.0_1.0_64_1.pt (torch, 106255 bytes, 8 tensors)

conv1.weight f4 [16, 1, 8, 8]
00000000: 2886 aabd 9404 45bd f0ff 183e ca90 ed3b
00000010: 141f 163d 5ccc b13d 8d60 9f3c 51f6 99bd
00000020: 2c99 1c3d ce67 9d3d 065e 33bc 892b e23d
00000030: dcd5 6b3d 7a35 73bc b7c9 253e e099 b93d
00000040: 2f14 92bd f4b4 073e 3dfd cb3d fdc5 fc3d
00000050: 32b2 7f3e 4e03 ab3d f3e4 9f3d 55b3 f23d
00000060: 5ea4 f53c 083c 83bd 4440 f93c 4b02 753d
00000070: 4a0c c0bc ced4 ac3d 25ee 2b3e d543 a13d
00000080: fab4 06bd 0396 babd 9636 7c3d e2b0 193c
00000090: 6414 193d b04a 2cbe 9012 5dbd d653 99bc
000000a0: 3aee 83bd 419c 6c3c aca5 85bd 0a89 b8bd
000000b0: a44d 43be 7c93 e43d e424 15bd b39f 80bb
000000c0: 9457 9dbd 2a04 0dbe 6a1a 58bd 55fb 37bc
000000d0: 5bf0 44bd 4861 63bd 7b2e afbd 1c15 ffbb
000000e0: d67a dabc 762b 06be fdb7 c63d 3edf 61bd
000000f0: 73e3 e8bc d5c2 0ebe b067 cdbd 2c17 aa3d
00000100: ed23 083d 39fe 3b3d 37dd 80bc ea3f a63c
00000110: 2e93 e03d 4894 ef3d 3d1d 5d3e d513 8dbd
00000120: 3d61 83bc e0b5 143d bb12 3e3b b91a d1bd
00000130: 1fec 863d 3210 413d 8645 3b3e 7c81 183e
00000140: 5a3d 5abd 15fd 86be afaf e2bd dc44 6ebd
00000150: dcee d73d 226f 653e aec1 433e 35e0 3c3c
00000160: d629 bbbd 2cac babd 8f30 01bd 195c 2e3d
00000170: e130 d4bc d778 ff3d 4381 483e 1cb3 3d3e
00000180: 8576 c93d 2959 11bd 9219 a53d 27e0 be3d
00000190: a6c2 2f3e f36a 783e a81d a13d 04b6 86ba
000001a0: e95f 27be c566 b4bd 8089 833d 33dc 34bd
000001b0: c346 213d 6aba 233d 24ba 11bd 29f4 a4bc
000001c0: c4d8 6fbd df62 2a3e 0e81 b0bc 07b9 2a3e
000001d0: 7d68 8e3d 5558 643e e5b4 903d 8ccc 20bd
000001e0: 2d59 2cbe b5a4 fd3b ec6c d23d 66ed 4e3c
000001f0: 680f c73d 582b e23d 16b4 683d b192 aebd
00000200: 3577 9f3d 1f35 303c 7529 ac3d f5cc dc3d
00000210: 487f 56bd 90ec ab3d 7653 913d 8183 bcbd
00000220: e792 d5bd 0c36 2cbd be2b 77bd 3db9 20bd
00000230: 919a 0bbd e2bb 0a3e 2872 323e c0cc dc3d
00000240: 55d4 38bc 1050 8cbc 0e29 74bc 090c e8bc
00000250: 0d68 9a3d 3836 be3c eb1d 013e 0e30 3e3e
00000260: 2a4b fbbd cc09 4ebd af01 33bd 49ca 9ebd
00000270: 4f66 823e 75ef 103e 286c 183e 384a e63c
00000280: da4f f73d c93f 543d 09bf 92bc 6637 5d3c
00000290: 589f 613d 4a01 053e c320 68bd 2590 3bbe
000002a0: a4ce c0bd fa98 a73c fa5a 42bd 843c 04bd
000002b0: e9af 4abd 339e db3d 058c 73bc 797b eb3d
000002c0: 96df 083e 5df6 10be 5df2 99bd 7db6 c3bc
000002d0: 3ebd 293e 1d3c 293e 8c1b 72bd 4548 573d
000002e0: 17ab fe3b 02e0 b2bd d4ad a3bd bf3b 413c
000002f0: 59aa 603c 5092 a6bc ea46 17be ebaf a9bd
00000300: f276 903d a0d8 cd3c 97b2 09bc 7b3a 8f3d
00000310: 5462 ec3d 26b5 b63c ad74 703b 1aad 18be
00000320: 6594 f93c c26a dc3b a461 c93d 1546 303d
00000330: 97b3 9a3c a2d1 943d fadf 85bc ddaa efbd
00000340: 546b 71bd 1b4b ef3d 4fc9 30bd 04ab 493d
00000350: 7493 16be 1e9a f03d ec2c 213e b1f4 ffbd
00000360: a675 80bc 09bc 223e c2b8 dbba d522 b93c
00000370: ebad 31bc 879d 173e 58fe 19be 28b6 a1bd
00000380: 9987 4b3e 5700 68bd 5cd8 a5bd 07bc da3c
00000390: aad7 743d 01dd 363d a908 13bc 91fe c83d
000003a0: 5161 8dbc 6d67 043c 4f44 21bd f53d fb3d
000003b0: 8ba2 d73b 034f ba3c ab27 b9bd 50ca aabd
000003c0: a4d8 a03d 3570 3e3e 9136 c1bd 01b2 e83a
000003d0: d5d6 30bc 3cb8 2cbe f31d 8fbb f478 183d
000003e0: efe8 c6bd e950 d73d 0377 0cbe 40a4 34bd
000003f0: 9224 23bc f6ca bc3d e262 f63c 6ff4 bfbd
-0.083263695 -0.04810007 0.14941382 0.007249926 0.036650732 0.086815566 0.019455219 -0.07517684
0.038232014 0.07685815 -0.01094771 0.1104346 0.057577 -0.014844293 0.1619023 0.090625525
-0.07132756 0.13252622 0.09960411 0.12342451 0.2497032 0.0835024 0.078073405 0.11850611
0.029985603 -0.064079344 0.030426152 0.05981664 -0.02344336 0.08439027 0.16790064 0.07874266
-0.032887436 -0.09110644 0.061575495 0.009380551 0.03737296 -0.16825366 -0.05397278 -0.018716734
-0.064419225 0.014441551 -0.0652574 -0.09010513 -0.19072586 0.11160943 -0.036412135 -0.0039252876
-0.0768272 -0.1377112 -0.052759565 -0.011229356 -0.048080783 -0.055512697 -0.08553787 -0.007784499
-0.0266699 -0.13102517 0.09703062 -0.05514454 -0.028428769 -0.1394151 -0.100295424 0.08305201
0.033237386 0.045896742 -0.015730483 0.020294148 0.10965572 0.11698204 0.21593185 -0.06888548
-0.016037578 0.036306262 0.0029002863 -0.10210175 0.06588005 0.047134586 0.1828824 0.14893144
-0.053281166 -0.2636496 -0.11068665 -0.05817114 0.10543606 0.22405675 0.19116852 0.0115280645
-0.09138839 -0.091148704 -0.03154045 0.0425683 -0.025902214 0.1247422 0.1958056 0.18525356
0.09837059 -0.03548542 0.08061518 0.093200974 0.17164096 0.24259548 0.078669846 -0.0010277634
-0.1634518 -0.08808664 0.064227104 -0.04415531 0.039374124 0.0399727 -0.03557791 -0.020135956
-0.058556333 0.16639279 -0.021545913 0.16672145 0.06953523 0.22299321 0.07065753 -0.03925757
-0.16830893 0.007740582 0.102746814 0.012629842 0.097197354 0.110434234 0.05681237 -0.08524073
0.07786409 0.010754853 0.08406345 0.1078128 -0.05236748 0.0839473 0.07095997 -0.0920477
-0.1042841 -0.04204373 -0.06034445 -0.039239157 -0.034082953 0.13548234 0.1742636 0.107812405
-0.011281093 -0.01712802 -0.014902366 -0.028326051 0.07539377 0.023219213 0.12609069 0.18573019
-0.12270196 -0.05030231 -0.043702777 -0.077534266 0.2546868 0.14153846 0.14885008 0.028111562
0.12075777 0.051818643 -0.017913358 0.013501978 0.055083603 0.12988773 -0.05667187 -0.18316706
-0.094144136 0.020458687 -0.047450043 -0.032284275 -0.049484167 0.107235335 -0.014864926 0.1149816
0.13366541 -0.1415648 -0.0751693 -0.023890728 0.16576096 0.16526838 -0.059108302 0.052559156
0.0077718603 -0.08734132 -0.079921395 0.01179403 0.013712489 -0.02033344 -0.14773145 -0.08285507
0.07053937 0.025127709 -0.008404396 0.06993576 0.11542192 0.022303175 0.0036690638 -0.14909783
0.030466268 0.0067265937 0.098330766 0.043035585 0.018884463 0.07266547 -0.016342152 -0.117025115
-0.058940247 0.11684247 -0.043160733 0.04923536 -0.14704686 0.117481455 0.15739793 -0.12497843
-0.0156811 0.15892042 -0.0016763436 0.022599617 -0.010844688 0.14806186 -0.1503843 -0.07896072
0.19875945 -0.05664095 -0.08097908 0.026700987 0.059775986 0.04464436 -0.008974233 0.0981418
-0.017258318 0.008081299 -0.039371785 0.12267677 0.006580656 0.022742754 -0.09040769 -0.08339369
0.07853821 0.18597491 -0.09434236 0.0017753245 -0.010793407 -0.16867155 -0.004367584 0.037224725
-0.09712397 0.10513479 -0.13717274 -0.044101954 -0.0099574495 0.09218399 0.030076448 -0.09372794

conv1.bias f4 [16]
00000000: f3cb 153e 9cda 673d 20a4 3cbc 9cb7 d3bc
00000010: bec1 e13d a21d a33d 3605 3f3e 8568 afbc
00000020: e3a9 5c3d db73 573d 9b70 a13d 20fa 52bd
00000030: c2ba 2cbd b160 ffbd c0d9 56bd 1db9 d4bb
0.14628582 0.056604967 -0.01151374 -0.025844388 0.110232815 0.079646364 0.18654332 -0.021412143
0.053872954 0.052600723 0.07882806 -0.05150807 -0.042170294 -0.12469614 -0.052453756 -0.006491794

conv2.weight f4 [32, 16, 4, 4]
00000000: 0b54 66bd 0fdd 87bd f22b b1bc 2b7b 9b3d
00000010: d35e 553d ec30 443d b794 83bc 9587 72bc
00000020: db9a ae3d a883 3cba 9146 ffbc e883 b83d
00000030: c8a4 933c 6e8d cebb 3ab6 7c3c a452 cdbc
00000040: b894 873d 5e96 9fbd ee96 6cbd 6020 bdbd
00000050: f97a fe3c 7378 d3bc d2f4 8d3d e59c d53d
00000060: ada4 30bc a96e ccbc 6455 153d 3e4e 84bd
00000070: 4e81 6bbd bc71 d23d f59c bf3d 99dd f3bd
00000080: 839b 193e 2d10 21bd e8f7 25bd aebf 6abd
00000090: 4843 c03d 2fa8 10bd 2775 d0bd c913 35bd
000000a0: 5beb a03d d9d4 cbbc e4b3 933b 1984 7a3d
000000b0: 4c1e 1abd 8d8c a7bd def3 8cbd 80db 46bd
000000c0: f0ef 1c3e c09f b53d 8643 2e3d 05fd 2b3d
000000d0: 31d4 c23d 6160 3fbd 7b1a 9a3d 2302 123d
000000e0: 93c6 0c3d ca28 8abd 1c59 363d 731e 4dbd
000000f0: a5ac 383d 6904 b53d 6865 54bd 14e7 a7bd
00000100: b402 253d 1ade db3b 84c0 053c 01df e9bd
00000110: d474 66bb c83f 7b3c 740f e83c dc78 f03d
00000120: 827f a53b d427 2e3c 688a 82bd 2a8c babd
00000130: 9c7f 78bb 4639 02bd 2067 56bd 5776 073d
00000140: 3988 1e3d ecea a53d 63c6 813d 6d67 133e
00000150: 991e 10bc 36b4 a6bc be4d c7bc a7e2 eabc
00000160: 3301 9bbd fcde 33bd 2cc1 99bc f03c 0b3d
00000170: 9159 2f3d a7c7 b73c 86f9 013d cfe8 d83c
00000180: 0703 933d ed75 0e3c 81b2 bcbc d468 e43d
00000190: dc1b a13d c095 7e3d 8631 e63a 7ff5 fcbc
000001a0: bc80 5d3d 9908 b2bd 3075 503d 7c8b 5bbd
000001b0: 7795 433d 655b 34bd cebd 8c3d 6b88 5dbd
000001c0: 9ca1 d13d f9b8 16be e594 e83c 3933 5abb
000001d0: b0dc 2c3d 214b 1ebc c7d8 1d3c c626 35bc
000001e0: c939 4bbd 2799 993d e258 323d 5dec bebc
000001f0: 6877 963d 3027 e73c 2493 113c 59fc 9a3d
00000200: 57d4 36bc 93ca a1bd c018 c0bd fe8e 91bd
00000210: 017e 4fbc acf6 a7b9 63cd 2dbc 1cc4 813d
00000220: 16bf babd 6414 3abd b7af 9fbb cc25 2d3c
00000230: 65ab cebd 12a2 f9bc 8853 783d c22c d0bc
00000240: d743 623d 55eb ad3c 2b9b 39bc da8d 023c
00000250: 7f21 803d 3dfa 9d3d 8fce 2cbd b7da a5bd
00000260: 2294 f63c 707f 403d 9479 e4bc b145 103d
00000270: 042f afbb 1648 2abc b939 5abd 1dbf d53b
00000280: 8baa a2bc d871 8d3d 86ac 42bd ef02 8ebd
00000290: 3bab d9bc a0a1 93bb 602a de3d b576 b33a
000002a0: 33e5 4dbb fd9a 9d3d 057c 933d fae8 203c
000002b0: 67d8 53bc 87d5 0a3d cb08 5abd 6e86 4c3d
000002c0: 0e2c 583d d53f da3d 13a7 c33c 9050 4cbd
000002d0: 4ece 933d 84f0 fcbc 7035 c13c 2659 7abd
000002e0: 35db 293d cfb8 073d f98b 2d3d d1a9 3f3c
000002f0: 496e a0bc 0b48 8c3d 9ea2 ec3c ad8e 9a3d
00000300: a860 1fbd 5c82 4d3d cc68 8f3d 8be9 003c
00000310: a74c 3b3d fd07 1abc 2d9e 573c 5ca9 323d
00000320: d05d 2fbd 4940 a7bb 14aa bf3c e61d 79bc
00000330: 33b0 13bd 9c31 673d 96f4 18bc f7e0 933d
00000340: 7881 6bbd f878 d33d 1d22 0dbe ce75 cdbc
00000350: 1a8d 413c a5b7 a8bd eb1b 4ebd 95a1 acbb
00000360: 578c b93d 85dd 22bd 7dd8 b1bd b313 24bd
00000370: 0c8b a53c 18b7 b13d 6fcc d7bc adcb 8bbd
00000380: 17f6 263d 101a c4bc d60f 09bd 9bc7 ab3d
00000390: 0750 b4bd 6588 95ba 52ad a4bd 584a 8b3c
000003a0: 460e fcbc 842b 903c 085c 28bd b13f 76bc
000003b0: 6b1f 0d3d 9aa7 3b3c ea5e 093e a472 193e
000003c0: e14b a3bd 9715 b73c c6ec 223d 155c 22be
000003d0: bcad 853d 3e1c a8bd f90f ed3c 3567 23bd
000003e0: c198 34bd 4b29 903d f8f5 9bbd 60bf d8bc
000003f0: bc28 adbd b73d 0e3b 998a 49bc fb1a a33d
-0.056232493 -0.066339605 -0.0216274 0.07591852 0.052092385 0.047898218 -0.016062124 -0.014802833
0.0852563 -0.0007191249 -0.031161578 0.09009534 0.01802291 -0.006303481 0.015424306 -0.02506382
0.06620163 -0.07792352 -0.057761125 -0.09234691 0.031064497 -0.02581427 0.069314614 0.10430316
-0.010781449 -0.02495511 0.036458388 -0.06460236 -0.05749636 0.10275599 0.09356109 -0.11907501
0.1500073 -0.039322067 -0.040519625 -0.057311706 0.09387833 -0.035316642 -0.10178595 -0.04420832
0.078573905 -0.024881767 0.0045075286 0.061161134 -0.03762655 -0.08181105 -0.068824515 -0.048549175
0.15325904 0.088683605 0.042544864 0.041989345 0.095131285 -0.046722773 0.07524582 0.03564657
0.034369063 -0.06746061 0.044518575 -0.050077867 0.04508652 0.08838732 -0.05185452 -0.081983715
0.04028578 0.006709826 0.008163575 -0.11419488 -0.003516485 0.015335031 0.028327681 0.11741802
0.0050506005 0.010629613 -0.06374055 -0.091087654 -0.0037917858 -0.0317929 -0.05234444 0.033071842
0.03870413 0.081014484 0.063366674 0.14394923 -0.008796358 -0.020349603 -0.024329063 -0.02867253
-0.07568588 -0.043913826 -0.01876887 0.03399366 0.042810027 0.022434069 0.031732105 0.0264782
0.07178312 0.008695108 -0.023034336 0.11152807 0.07866642 0.06215453 0.0017562367 -0.03087878
0.05407785 -0.08693046 0.05089301 -0.05359982 0.047749963 -0.044032473 0.0687214 -0.054085176
0.10235903 -0.14718999 0.028391311 -0.0033294691 0.04220265 -0.009661467 0.009634203 -0.011056608
-0.049615655 0.074999146 0.043541797 -0.023306066 0.07346994 0.028216928 0.008885179 0.07567663
-0.011159024 -0.07899966 -0.09379721 -0.07107352 -0.012664319 -0.00032036507 -0.01060805 0.06336233
-0.09118478 -0.045429602 -0.0048732418 0.0105680935 -0.10091285 -0.030472789 0.060626537 -0.025411967
0.05524048 0.02123038 -0.011328499 0.00796839 0.06256389 0.07713745 -0.042189177 -0.08098357
0.030099932 0.046996534 -0.027890004 0.035222713 -0.005346181 -0.010393163 -0.053277705 0.0065230266
-0.019856712 0.069064796 -0.047527812 -0.06934153 -0.026570907 -0.004505351 0.10847926 0.0013691994
-0.003141713 0.07695577 0.07201389 0.009821171 -0.012930012 0.03389504 -0.053231042 0.04993289
0.05277639 0.10656706 0.023883378 -0.049881518 0.07217084 -0.030876406 0.023585051 -0.061120175
0.041468818 0.03313523 0.042369816 0.011698202 -0.019583838 0.068496786 0.028886136 0.075467445
-0.038910538 0.05017315 0.0700241 0.007868181 0.0457274 -0.009401319 0.013160271 0.043618545
-0.042814076 -0.005104099 0.02339653 -0.015204882 -0.03605671 0.056443796 -0.009335658 0.07220643
-0.057496518 0.10325807 -0.13782544 -0.025080588 0.011813426 -0.082381524 -0.050319593 -0.0052682855
0.09059971 -0.03976204 -0.0868387 -0.04005785 0.020207904 0.086775005 -0.026342599 -0.068259574
0.040762033 -0.023938209 -0.033462368 0.08387681 -0.088043265 -0.0011408447 -0.08040871 0.017003223
-0.030768525 0.017598875 -0.041103393 -0.015029834 0.03445379 0.011453534 0.13415113 0.14985138
-0.07973457 0.022349162 0.039776586 -0.15855439 0.06527278 -0.08208512 0.02893828 -0.039893348
-0.04409099 0.07039126 -0.07615274 -0.026458442 -0.08455035 0.0021704265 -0.012301111 0.079641305

conv2.bias f4 [32]
00000000: 8d11 ea3d 1f03 b93d 937c a8bd 787b 9abd
00000010: ac39 1c3d 3d10 4a3d fee5 133d 438f 3ebd
00000020: 2c71 47bd 676b 13bc 54b1 1f3d 641f d33d
00000030: 5ee0 853c fca6 f0bc c4e6 e4bc 2c3a 6abd
00000040: 1b75 0cbe 0fc7 113e 9099 ca3d a828 98bd
00000050: 9384 63bd 6c90 97bc 41d3 073c 34c4 b53c
00000060: 3863 073c 3968 453d 7fc3 383d 1f8b 9ebb
00000070: 6616 74bc aa15 7cbc 068c 013d 0cd7 e5bd
0.11429129 0.090337984 -0.08226886 -0.07543081 0.038140938 0.049331892 0.03610801 -0.046523344
-0.048691913 -0.008997775 0.038987473 0.10308722 0.016342338 -0.0293765 -0.027942069 -0.057184383
-0.13716547 0.14236091 0.09892571 -0.074296296 -0.055546355 -0.018501483 0.008290113 0.022188284
0.008263402 0.048195098 0.045108315 -0.004838362 -0.014897918 -0.0153860245 0.031627677 -0.112226576

fc1.weight f4 [32, 512]
00000000: cb34 5d3c 1143 b7bd a4f4 ccba dc0e da3d
00000010: 7ea3 abbc 86e8 963c 4046 ea3d ebf1 a93d
00000020: 505f a43d 8bd7 bd3b f00d d5bc a80c e63d
00000030: 152a 1cbd b697 6cbb 2a4c 8b3c c0d1 17bd
00000040: 6a70 6c3d 58c2 06bc 7d3e 623d 4f31 91bd
00000050: d2b8 83bd 443e 8dbc 0535 8fbd 310f 823d
00000060: a692 ad3c 9a75 3fbc 968f f7bd ec14 243c
00000070: 2a9d ed3d 02ba 73bd b771 fb3c 2973 413d
00000080: e18e 3dbd 0e6e 273d f613 f23d 40c5 4d3c
00000090: 1841 19be 0b54 ac3c 096b ec3c efa7 b1bd
000000a0: e07c 8a3d f118 0b3e 2a7e 5c3b 5864 5bbc
000000b0: f092 00bd d742 0ebd c63d f1bb 4593 093d
000000c0: bd2b aebc 1576 c8bd 5381 133d 1b2f 91bc
000000d0: 9d92 16bd 701d a33c 193b 553d 329b 66bd
000000e0: 029e fdbc 8d92 5839 692a 33bd 446f 80bd
000000f0: c001 903d 6b74 35bb a60a 3fbc 0477 c7bc
00000100: 49a8 a5bc 96d4 343c df45 753d 2015 e73c
00000110: b526 a63d 3d84 22bd b14f 55bb 67d0 9eb9
00000120: 19ff 40bd ceea ff3a 3997 363d 389c 123d
00000130: c5b9 a7bd 93a2 1e3d 0a7b ad3d 519c 05bd
00000140: 7355 84bd 9f59 053c 7f18 43bd 6170 e7bc
00000150: d100 9c3c 46fb 90bc 8af3 b3bc 8e6b d43c
00000160: 62d6 82bd 279b bdbd f186 0c3d 6892 6e3d
00000170: 625d 69bd 7745 103d 2574 323d 261b b4bd
00000180: b2d2 2cbc ce0c 503d 4507 2cbc de61 063d
00000190: f20e 25bd 333b 2b3d 029d b33d 3912 1ebc
000001a0: 37f6 1ebd 1767 29bc 4ab7 49bc 5e38 193e
000001b0: 68d5 b1bc 511b 2b3d e6cd e33d db47 3abc
000001c0: 1293 dabc 0b96 90bd 7469 ed3c 1e11 843c
000001d0: df0f b13d f486 9b3a dba3 69bd 4d77 b5bc
000001e0: 2656 01be 67ef 15bd 9a07 fd3c 8644 81bd
000001f0: 709f 473c 4a6f 1cbd b977 9a3c 551c 01bd
00000200: b977 c93d 5413 94bd a294 043d 6d4f 923d
00000210: 5f3b 033d e87f 993c 237a fabd c699 ba3c
00000220: 74f4 863d 3bbc e1bb 82b0 183d 1a1f d5bd
00000230: 3fc1 38bd b35d 01bb bfa9 8a3d b5a3 76bd
00000240: 5b90 adbd 6ef3 03be 15d3 973c 7080 593c
00000250: ddfe ea3d 4799 173d 3a0e 76bd f944 173c
00000260: 5b71 35bd c666 8dbc a209 833d f1d9 cb3c
00000270: 8fe2 68bd c2f1 5ebd 7ff3 893d db7d 173d
00000280: 4be7 953d 3483 063d 8c63 e83c e6c4 f7b9
00000290: 37b6 40bd be0e 8fbd 223e c4bb 609d 95bd
000002a0: 3a39 be3d f078 d13c b8cb 463d ff6d b33d
000002b0: ecc0 733c b660 2b3d acb7 c13c 7dde 083d
000002c0: 8789 98bb 8472 ab3d c9ad d63c 9c0d 5bbd
000002d0: 2175 233c de07 58bc 9793 e33c 4636 e3bd
000002e0: 3339 5ebc 427b b83d e69b 6c3d c2e3 cdbd
000002f0: 752a 483d d682 af3d 170e 413d 93f4 5b3b
00000300: 06c1 4d3d 52ff 04bb 8391 5ebd 5e26 d33c
00000310: ad4b debd b85d 47be 9487 39bd 2283 d33c
00000320: d79d c0bd 934e cd3c 9971 83bb 4dd3 a7bc
00000330: 9645 c0bd 768f 483d 35f5 ee3d f2b8 303c
00000340: cb57 d13d 5e9f 9fbd 05fc fa39 d849 d9bc
00000350: fbef 923d 065a c8bd da0e 11be cf25 4ebc
00000360: 1750 b33d 6f71 4d3b 5fe6 a03d 12ea 2dbd
00000370: 3e84 983d f9d2 87bc ea35 87bd d130 953c
00000380: c4ad bd3c 5f6f 6abd dc3a 4a3d bd0c 353d
00000390: 3231 9fbd 7a3c 353c cd48 c3bc 5e29 bcbd
000003a0: 1e19 133d 3290 db3d dd60 a53c fe23 493d
000003b0: d901 f5bc e6ea 3fbc 5c47 123d 47c7 6d3d
000003c0: d7bf 083e 732b 7bbd 21b2 353d 5103 02bd
000003d0: 7b27 d0bd 33c7 47bc 5f2d 733d e1d5 66bc
000003e0: 554d 32bc d581 c2bc a3bf 323d 8a25 2c3d
000003f0: a444 e83c efb9 1dbc 3bae a1b9 178e f43d
0.013501356 -0.08948339 -0.0015636873 0.106473655 -0.020951983 0.018421423 0.114391804 0.08298095
0.08025992 0.005793517 -0.026007622 0.11232883 -0.03812607 -0.003610117 0.017004091 -0.037065268
0.057724394 -0.008225046 0.055235375 -0.07089483 -0.06431736 -0.017241605 -0.069925345 0.06350554
0.021188091 -0.011685753 -0.12087934 0.010014754 0.11602242 -0.059503563 0.030693872 0.047228966
-0.046278838 0.04087644 0.118202135 0.012559235 -0.14966238 0.021036169 0.028859632 -0.08674609
0.06762099 0.13583733 0.0033644536 -0.013390623 -0.03139013 -0.034731712 -0.0073621003 0.033587713
-0.02126109 -0.09788147 0.036012005 -0.017722657 -0.036760915 0.019911498 0.052058313 -0.05630035
-0.030959133 0.0002065396 -0.043741617 -0.06271222 0.07031584 -0.0027687799 -0.011660254 -0.024348743
-0.020221846 0.011037013 0.059881087 0.028208315 0.081128515 -0.039676894 -0.003254872 -0.0003029138
-0.04711828 0.0019524933 0.04457781 0.035793513 -0.081897296 0.03872926 0.084707335 -0.032619778
-0.06461611 0.008139043 -0.047630783 -0.028251829 0.019043358 -0.017697942 -0.021966714 0.025930192
-0.063885465 -0.092581086 0.034308378 0.058245093 -0.056973822 0.035222497 0.043567795 -0.08794241
-0.010548281 0.05079346 -0.01049978 0.032808177 -0.040297456 0.041804504 0.08770181 -0.009647899
-0.038809028 -0.01033952 -0.012311766 0.14962909 -0.021708205 0.041774098 0.111232564 -0.011369671
-0.026681457 -0.070598684 0.028980948 0.016121443 0.08645605 0.0011865781 -0.05704103 -0.022151614
-0.1263052 -0.036605265 0.030887414 -0.06311898 0.012184009 -0.03819207 0.018855916 -0.03152116
0.098372884 -0.07230249 0.03236831 0.071440555 0.032039043 0.018737748 -0.12230327 0.022778403
0.065895945 -0.006888894 0.037277706 -0.10406323 -0.04510617 -0.0019739687 0.06770658 -0.060214717
-0.08474799 -0.1288583 0.018533269 0.013275251 0.114743926 0.03701141 -0.06007216 0.009232753
-0.044297557 -0.01726092 0.06398322 0.024884196 -0.056856688 -0.054429777 0.06735896 0.03698526
0.07319506 0.03283997 0.02836778 -0.00047258212 -0.047048774 -0.06985234 -0.005988852 -0.073054075
0.09288259 0.025570363 0.048534125 0.087612145 0.014877539 0.041840278 0.023647152 0.033415306
-0.0046550664 0.083714515 0.026205914 -0.053479776 0.009976656 -0.013185469 0.027780337 -0.11094336
-0.013563442 0.090078846 0.057765864 -0.10053207 0.048868615 0.08569877 0.047132578 0.0033562526
0.05023291 -0.0020293784 -0.05433799 0.02577513 -0.10854278 -0.19469345 -0.045295313 0.025819365
-0.094051056 0.025061881 -0.0040113446 -0.020486498 -0.093882725 0.04896494 0.11667863 0.010786282
0.10221823 -0.07794069 0.00047871485 -0.02652447 0.07174679 -0.097827956 -0.14165822 -0.012582256
0.0875551 0.003134813 0.0785644 -0.042459555 0.07447098 -0.016580092 -0.0660208 0.018211754
0.023154147 -0.057235118 0.04937254 0.0442016 -0.07773055 0.011061782 -0.023838425 -0.09187578
0.035912625 0.107208624 0.02018779 0.04910659 -0.029908108 -0.011713719 0.035712585 0.058051374
0.13354431 -0.061320733 0.04435933 -0.031741444 -0.1016378 -0.012193489 0.05936944 -0.014089079
-0.010882695 -0.02374355 0.04363979 0.042027988 0.028353043 -0.00962685 -0.00030838125 0.11941164

fc1.bias f4 [32]
00000000: 0d52 a8bd 26f9 143d 24bd 293c 9b44 00be
00000010: 7452 6b3d 367e b13d 1b27 423d 9d9a a5bd
00000020: eef6 b4bd 3d76 833d fb1b f63b e0d1 983c
00000030: 2ec1 cdbc ca25 0e3d 9d64 b1bc e80c fcbd
00000040: 8dd7 33bc 8e62 ccbd 3523 f7bd bc33 6abc
00000050: 3cee 51bd 5eaf 95bb d9f2 7ebd d2ab 4f3d
00000060: e9f6 9d3d 8674 22bd 72d5 713c 88c5 ed3c
00000070: 3e45 bb3b 1789 8b3d 854d 01be 2277 ac3c
-0.08218775 0.03637042 0.010360036 -0.12526171 0.05745168 0.08666651 0.047400575 -0.08086131
-0.088361606 0.064190365 0.0075106598 0.018654764 -0.02511653 0.034704007 -0.021654421 -0.12307149
-0.010976684 -0.09979735 -0.12067262 -0.014294561 -0.05125259 -0.0045680245 -0.062243316 0.05070097
0.0771311 -0.039661907 0.014760362 0.029024854 0.0057150414 0.06813257 -0.12627228 0.0210529

fc2.weight f4 [10, 32]
00000000: 9a48 04be b8c9 58be fa20 f7bd 3c43 35be
00000010: abcb abbd 6138 99bd 30fd 073d b6cd 3b3e
00000020: f958 62be e467 00bd 4461 c8bd babd 8c3e
00000030: cb4b 233e 42cb 943e 582f 53be d4e6 a8be
00000040: 8fc0 e23b 906b 1dbe 296b 04be 4b8b e4bd
00000050: dabd 4e3d 23d3 a6bc dc02 473e 412e 623e
00000060: 02a6 92bd e7a3 b2bd e125 023e 3af3 6bbd
00000070: 471e f2bd 8ec6 0f3e e412 913d f143 fcbd
00000080: 2a85 7b3e 250b c2bc ca51 083e 0260 a0bd
00000090: d406 65be f032 cb3c aea9 80bd 558e 35bd
000000a0: f7f8 883e 13ac eb3c 73a1 783e 5b96 5abe
000000b0: 9006 cd3d ad2c c3bd 2840 8abd d267 b83d
000000c0: 7104 bcba b65b 5bbe 4fca 7f3e 6858 d93d
000000d0: afee 813d 332c 023e 9c5e 23be 4f9e 2c3e
000000e0: 446d e5bb fd25 363e fbd4 8f39 c3da 70be
000000f0: 82d4 26be 8d9a ef3d b474 84be 0f6d 0bbe
00000100: 1246 773e 3447 c23d cc91 52bd 008b 323d
00000110: 182c d33c 4f07 32be ab59 183e 6b5c 6b3e
00000120: 8c66 0f3d c1e2 0dbe e3cd 10be 1d6c 02be
00000130: bf8a 3d3e 9299 15be a5c6 d23c b623 63be
00000140: 61c7 893e 1225 f2bd 46f6 e3bd c3e5 06be
00000150: c233 debd 050c b53c b903 8fbe af9c cdbd
00000160: 9c9a 67be 9537 e2bd 8a82 0abe e89d c5bb
00000170: 90cf fd3d 38ad 8a3d bb3b c3bd 3f44 6a3e
00000180: 49a3 7b3c bb4f 22bd 3db7 4f3e b01b 41be
00000190: 5d24 a13d 27bd b53d 8697 c83d 9662 9c3d
000001a0: f914 7cbe 0b24 9e3d 95b9 063e 68b8 4ebd
000001b0: 835a d4bb 6dd3 d33d 47e9 9bbd c3fe 9d3e
000001c0: 3d53 95bd b102 82bd 9aea acbe fa81 06be
000001d0: 564a 023c 7e58 06bd 363c 01be f1b0 843d
000001e0: 1141 873e 88f6 1fbe b5de 8abe a265 13be
000001f0: 4620 1d3e 017e b73d 78e7 6abd 754a f53d
00000200: 28e1 51be 6ac8 443b a05f 2abe 39e3 13bd
00000210: 04b7 423d e962 d1bc 88d5 07be 6d39 7ebe
00000220: 5cda 24be 4537 c83d e40a 713d dcbd e73c
00000230: 2015 b03c 9561 8bbe d183 523e 9f4a a33d
00000240: fe79 9fbd bd9b 083e 5bab c13d ea0a bfbd
00000250: 5593 85be e4c6 f2bc 283c b33d 480a 3abe
00000260: 7213 13be d310 163d 6bab 1cbe 614c ac3d
00000270: 458a 59be 4fe2 5e3e 38f2 3c3e 1ba8 313e
00000280: ccd0 19bd f617 563e f43c f23d 12ea b5bd
00000290: d71d 373e 19e4 a6bc 4bb1 b93d c5e7 4cbe
000002a0: abc8 61bb 7d3a f83d 9484 5abe 5fb1 893e
000002b0: 6496 72bd 891f 0fbd e608 70be 83ff d8bd
000002c0: 672f 52bd b8f8 053d 0399 45be e75a 513e
000002d0: 45d7 edbd 7656 93bc 6d0b 213d e393 163e
000002e0: 2213 333e 4615 d73d 2b73 363b 1aa0 2abc
000002f0: e206 78be fca7 8d3d c964 40be 4d3e c53d
00000300: c9e2 0b3e 9d56 7bbd a36b 353e 5b19 9b3e
00000310: 1682 b3bd ab36 10be 8dfe b8bd 28f9 d8bc
00000320: eeba 213e eb89 fbbd cf86 2dbe 5d6b d33c
00000330: 2f60 5fbe a3b7 c4bd f616 8a3d d458 53be
00000340: 718e 2a3e 9d9e c63d 7f77 673e b16c 12be
00000350: 48b4 5abe 63f0 253e cce0 a23d a01b 1ebd
00000360: 596d d83d 61b5 3dbe e5b8 4f3c b6b9 b8bc
00000370: 5915 bd3d 4a21 943d 8db8 513e 6689 27be
00000380: 1f26 0cbe f8d4 2dbd 21f0 98be 3f4b 58be
00000390: 7967 cdbd dbe3 063e 0b97 433e d1c9 0ebe
000003a0: 6edf 673e 19ed 2e3e 49f4 3cbe c770 66be
000003b0: d2f2 fe3d b48d 7c3e 80d4 823e 9bfd d53d
000003c0: 032a ad3d c04b e03c e226 41be 5fa3 2c3e
000003d0: ef66 92bd fc03 083e 2d57 813e 4496 6a3e
000003e0: e886 4ebe 1a43 ed3d 9007 56be cd27 f63c
000003f0: 7469 653e 7e45 75be 0440 f43d 1d39 3d3d
-0.1291832 -0.211707 -0.12066837 -0.17701429 -0.08388456 -0.074814565 0.033200443 0.18340191
-0.22104253 -0.031349078 -0.09784177 0.274885 0.15946881 0.29061323 -0.20623529 -0.32988608
0.0069199274 -0.15373063 -0.12931503 -0.111593805 0.050474025 -0.02036435 0.19434685 0.22087957
-0.0716057 -0.08722668 0.12709762 -0.057605006 -0.11822181 0.14040586 0.07083681 -0.12317646
0.24562517 -0.023686955 0.1331245 -0.07830812 -0.22365886 0.024804562 -0.06282364 -0.04432519
0.26752445 0.028768575 0.24280338 -0.21346419 0.10011017 -0.095300056 -0.06750518 0.09004177
-0.0014344585 -0.21421704 0.24979518 0.10612565 0.063443534 0.12712173 -0.1595406 0.16857265
-0.007001551 0.17787929 0.00027433768 -0.23520951 -0.16292003 0.116994 -0.25870287 -0.13615821
0.24147823 0.09486237 -0.051408574 0.043589592 0.025777861 -0.173856 0.14877956 0.22984473
0.035009906 -0.13856031 -0.1414104 -0.12736554 0.18509959 -0.14609364 0.025729487 -0.22181591
0.26909927 -0.11823477 -0.11130957 -0.13173585 -0.10849716 0.022100458 -0.27932528 -0.10039651
-0.22617573 -0.11045758 -0.13526359 -0.006030787 0.12393105 0.0677132 -0.09532877 0.22877596
0.015358754 -0.03962682 0.20284744 -0.18858218 0.07868264 0.088739686 0.09794526 0.07635991
-0.24617375 0.077217184 0.13156731 -0.050468832 -0.0064805164 0.10343061 -0.076128535 0.3085843
-0.07291267 -0.063481696 -0.33772737 -0.1313552 0.007952293 -0.032799236 -0.12620625 0.064790614
0.2641683 -0.15621388 -0.27123037 -0.14394239 0.15344343 0.0895958 -0.057349652 0.11977092
-0.20496047 0.0030026683 -0.1663804 -0.03610537 0.04753782 -0.02555986 -0.1326505 -0.24826594
-0.16098922 0.09776167 0.058848277 0.028288774 0.021494448 -0.27222887 0.20558096 0.07973217
-0.0778694 0.1334066 0.094565116 -0.093282536 -0.26088968 -0.029635854 0.08751708 -0.18167984
-0.14362887 0.03663714 -0.15299766 0.084130056 -0.21244152 0.21766017 0.18451774 0.17349283
-0.03755264 0.20907578 0.11828032 -0.08882536 0.17882477 -0.020372437 0.09067019 -0.20010288
-0.0034451883 0.12120531 -0.21339637 0.26893136 -0.059225455 -0.034942184 -0.23440894 -0.1059561
-0.051314738 0.0327079 -0.1929665 0.20444833 -0.11613325 -0.017985564 0.039317537 0.14704852
0.17487767 0.105021045 0.0027839642 -0.010414148 -0.24221376 0.06916806 -0.18788446 0.096310236
0.1366073 -0.061361898 0.17716841 0.30292782 -0.08765046 -0.14083354 -0.09032927 -0.026485994
0.15793964 -0.12282165 -0.16945957 0.02580803 -0.21814035 -0.096053384 0.06742661 -0.20639354
0.166559 0.09698222 0.22604178 -0.14299275 -0.21357834 0.16204982 0.07953033 -0.038600564
0.105677314 -0.18526222 0.01267836 -0.022549491 0.09232587 0.07232912 0.20480557 -0.16361007
-0.13686417 -0.04243943 -0.29870704 -0.21122454 -0.100295015 0.13172857 0.19100587 -0.13944174
0.22643825 0.17082633 -0.18452562 -0.22503959 0.12448658 0.2466343 0.2555275 0.10448762
0.08455279 0.02737987 -0.18862489 0.16859196 -0.07148539 0.1328277 0.25261822 0.22908884
-0.2016865 0.11585064 -0.20901322 0.030048275 0.22403508 -0.2395229 0.119262725 0.046197046

fc2.bias f4 [10]
00000000: 1620 adbc 9051 4e3e 3890 dcbd 038e eb3d
00000010: f178 0b3e c938 123d 1cfd 03be bfaf 3b3d
00000020: b780 a93d f879 863d
-0.021133464 0.20148301 -0.10769695 0.11501696 0.13620354 0.035698686 -0.12889522 0.0458219
0.082765035 0.065662324
