Codes/mnist_cnn_mnist_13_False_0.1_1.0_1.0_64_1.pt (torch, 106255 bytes, 8 tensors)

conv1.weight f4 [16, 1, 8, 8]
0	0xbd5cd6db	-0.05391584
1	0xbdf8196e	-0.12114225
2	0x3dbfbb86	0.09361939
3	0xbdea943f	-0.11454057
4	0xbe259fb3	-0.16174202
5	0xbd02300c	-0.031784102
6	0xbd0d3ea9	-0.034483586
7	0x3e405c4a	0.18785205
8	0x3dfd24a0	0.12360501
9	0xbdb4e06e	-0.08831869
10	0xbdf53260	-0.11972499
11	0xbd97f095	-0.07418934
12	0x3e041765	0.1289955
13	0x3db6bc48	0.089226305
14	0x3d8cfa4e	0.06883679
15	0xbd0544ad	-0.032536197
16	0xbd3376af	-0.043814357
17	0xbd593f29	-0.05303875
18	0x3d977229	0.07394821
19	0xbd8e08e2	-0.06935288
20	0x3dbbda30	0.09172475
21	0xbdce9f46	-0.10088973
22	0xbc1b2e3b	-0.009471471
23	0x3e4f629d	0.20252462
24	0x3e39c55b	0.18141691
25	0xbd9a6a92	-0.07539858
26	0xbbf567eb	-0.0074891946
27	0x3db21eb7	0.08697265
28	0x3c7f01c9	0.01556439
29	0xbcf36a9d	-0.029713923
30	0xbdb1fe93	-0.08691134
31	0xbd443e6e	-0.0479111
32	0x3b97a72a	0.004628082
33	0x3e1e0693	0.15432195
34	0x3e47cb24	0.19511086
35	0x3da5a05f	0.08087229
36	0x3bb6c064	0.005577134
37	0xbcda7846	-0.026668679
38	0x3d9be75d	0.076124884
39	0xbd3b51eb	-0.04573242
40	0x3e15fd00	0.14647293
41	0xbd805d98	-0.062678516
42	0x3cd7276a	0.026263911
43	0x3dd1227b	0.10211655
44	0x3e29b6d2	0.16573647
45	0x3e168147	0.14697753
46	0x3e3b8fba	0.18316546
47	0xbd657aae	-0.0560252
48	0xbd9c4cd0	-0.07631838
49	0x3db160b2	0.08661021
50	0x3ddaf164	0.10690573
51	0x3db0833c	0.08618781
52	0xbd53d443	-0.0517161
53	0x3dbda2b5	0.092595495
54	0x3dbf263e	0.09333466
55	0x3da2d979	0.07951636
56	0xbdc99047	-0.09841972
57	0x3c0d43ac	0.008622091
58	0xbd02656a	-0.031834997
59	0xbd048399	-0.032352064
60	0xbe167431	-0.14692761
61	0xbc502ae2	-0.012705537
62	0x3c91bed8	0.017791197
63	0xbd79d883	-0.060997497
64	0xbe478f47	-0.1948825
65	0xbe7a8c99	-0.24467696
66	0xbd20ad98	-0.039228052
67	0xbdace3ce	-0.08441888
68	0x3df9593b	0.121752225
69	0x3e05127a	0.1299533
70	0x3ca4a3bb	0.020097604
71	0xbd46978a	-0.048484363
72	0xbe09769f	-0.13424157
73	0xbba6041f	-0.0050664092
74	0xbd78a300	-0.060702324
75	0xbda10929	-0.07863075
76	0xba595560	-0.0008290615
77	0xbc955479	-0.018228756
78	0xbdccb0bf	-0.09994649
79	0x3d91a860	0.07112193
80	0x3d62938e	0.0553165
81	0xbd45ecac	-0.04832141
82	0xbdfd7eb1	-0.1237768
83	0x3e30d331	0.17268063
84	0xbd55ac49	-0.052166257
85	0x3e5cc211	0.21558405
86	0x3de53cb2	0.11193217
87	0x3db6f155	0.08932749
88	0xbcc1859b	-0.023623278
89	0x3d8eca43	0.06972172
90	0x3bf5da30	0.0075028166
91	0x3dae68b2	0.08516063
92	0x3d15c64d	0.036566067
93	0x3dd09063	0.101837896
94	0x3dbc1987	0.091845565
95	0xbd9f0e12	-0.077663556
96	0x3da1ea75	0.07906047
97	0xbccd29d5	-0.025044361
98	0x3cafdab5	0.021466592
99	0x3daa13ec	0.08304581
100	0x3e24dca5	0.16099794
101	0xbc98184d	-0.018566275
102	0x3cbbef94	0.022941388
103	0xbde9c66e	-0.114148006
104	0xbdbe92f1	-0.093053706
105	0xbe1bb72e	-0.15206596
106	0x3c4637c9	0.012098261
107	0x3e63003a	0.22168055
108	0x3e31c5bb	0.17360584
109	0x3e025c84	0.12730604
110	0x3dbdd094	0.09268299
111	0xbdfdf06b	-0.12399372
112	0xbdd33bcd	-0.103141405
113	0xbbabfc92	-0.0052486146
114	0xbcf0d161	-0.029396715
115	0x3e8c6d1b	0.2742699
116	0x3e892c9d	0.2679185
117	0x3d03e966	0.032205008
118	0x3d08bca3	0.033383023
119	0xbc6baace	-0.014383985
120	0xbd93ffc8	-0.07226521
121	0x3d391431	0.04518527
122	0x3d9a4f2c	0.07534632
123	0x3df7820a	0.1208535
124	0x3e360b43	0.17777734
125	0xbc01f27f	-0.007931351
126	0x3e035ca3	0.12828307
127	0x3deac300	0.114629745
128	0xbe2223e2	-0.15834
129	0x3db7fe3a	0.08984037
130	0x3df8e0c0	0.12152243
131	0x3e740881	0.23831369
132	0xbc5301b3	-0.012878823
133	0xbc928bbd	-0.017888898
134	0xbdf9dd0d	-0.12200365
135	0x3e126e51	0.14299895
136	0xbe139d0d	-0.14415379
137	0xbd699028	-0.057022244
138	0x3d5deea7	0.054182675
139	0x3d62831c	0.055300817
140	0x3ce2fd61	0.027708711
141	0xbda40c55	-0.08010165
142	0xbd6966b4	-0.05698271
143	0xbcca3b88	-0.02468659
144	0xbb3ca5fe	-0.0028785462
145	0x3db6fb64	0.08934668
146	0xbca93935	-0.020657161
147	0xbd485b81	-0.04891539
148	0xbe5a26ce	-0.21303865
149	0xbc28f799	-0.010312938
150	0xbd4d1d1a	-0.05007658
151	0xbe0a21a7	-0.134894
152	0x3e5ad40d	0.21369953
153	0x3dd46c0c	0.10372171
154	0x3d8108c5	0.06300501
155	0xbdb02a9c	-0.08601877
156	0xbd5d804c	-0.05407743
157	0xba7f2b28	-0.0009733909
158	0xbdbc5312	-0.09195532
159	0x3d857659	0.06516714
160	0x3dad0105	0.0844746
161	0x3e1f807b	0.15576355
162	0xbe173ad8	-0.14768541
163	0x3dce4152	0.100710526
164	0xbd9aa7ef	-0.07551562
165	0x3e3d009c	0.18457264
166	0x3d2bcb32	0.04194183
167	0x3dfd5ce0	0.1237123
168	0x3dc482e3	0.09595277
169	0x3e8b4472	0.27200657
170	0x3e702614	0.23452026
171	0x3ba69874	0.005084092
172	0x3d7033ca	0.05864314
173	0x3ddfac4f	0.10921537
174	0xbc5aea26	-0.013361489
175	0x3de5bfbc	0.11218211
176	0x3dbd1509	0.09232528
177	0x3e721cfa	0.23643866
178	0x3e542da1	0.20720531
179	0x3ddb5947	0.10710388
180	0xbd8bcf6d	-0.06826673
181	0x3cfdce9a	0.030982304
182	0xbc581bfe	-0.013190268
183	0xbbaa88a2	-0.005204276
184	0x3dfdc543	0.1239114
185	0x3e54645f	0.20741414
186	0x3df7d9bf	0.12102079
187	0x3d98f7a0	0.07469106
188	0xbba26adc	-0.0049565863
189	0x3e3e28b7	0.18570219
190	0xbd370b21	-0.044688348
191	0x3d808251	0.06274856
192	0x3e2b6250	0.16736722
193	0xbcfa1dca	-0.030531783
194	0x3e5bc6e8	0.21462595
195	0xbd7579a1	-0.059930447
196	0xbcb778f1	-0.022396537
197	0x3e176d30	0.14787745
198	0x3e62fd3a	0.22166911
199	0x3dbbb790	0.09165871
200	0xbdc6f1c0	-0.09714079
201	0xbde0128a	-0.10941036
202	0xbd39dda8	-0.045377403
203	0x3debc014	0.11511245
204	0xba42b739	-0.0007427815
205	0x3dbae1a4	0.09125069
206	0x3e35b03c	0.1774301
207	0x3e470dc3	0.19438843
208	0x3d9f654f	0.07782995
209	0xbded459e	-0.11585544
210	0xbd971bd2	-0.07378353
211	0xbd937865	-0.07200698
212	0xbc9241b1	-0.01785359
213	0x3e308097	0.17236553
214	0x3d623041	0.0552218
215	0xbd85a523	-0.06525638
216	0xbe69d3be	-0.2283468
217	0xbcd8f976	-0.02648614
218	0x3be3ace1	0.006948099
219	0xbc0131df	-0.007885425
220	0x3e19d8da	0.15024129
221	0x3e081150	0.13287854
222	0xbcdb99a6	-0.026806664
223	0xbd37bc1e	-0.044857137
224	0x3d4f3a3c	0.050592646
225	0x3df255ac	0.11832747
226	0x3d973124	0.0738242
227	0x3deecab2	0.11659755
228	0x3d8aa4bb	0.06769701
229	0x3da3bb01	0.079946525
230	0x3df00b9f	0.117209665
231	0x3d60167b	0.05470894
232	0xbc068896	-0.008211276
233	0xbd539bb9	-0.05166218
234	0xbd6c178f	-0.057639655
235	0x3e442154	0.19153339
236	0x3d6401b6	0.055665694
237	0x3e2897f9	0.16464223
238	0x3db9db4d	0.090750314
239	0x3d960496	0.073250934
240	0x3b8282cf	0.0039828788
241	0x3d778a81	0.060434822
242	0x3d93fb2c	0.072256416
243	0x3d99bc8e	0.07506667
244	0x3dd999fc	0.10625073
245	0xbd4181ef	-0.047243055
246	0x3d76b85a	0.060234405
247	0x3dac3409	0.084083624
248	0xbd1a9e46	-0.037748598
249	0x3d1b5e22	0.03793157
250	0xbdd56a8c	-0.10420713
251	0x3d2c90d9	0.042130325
252	0xbe0aadd8	-0.13542879
253	0x3dab9756	0.083784744
254	0x3d21d4e5	0.039509673
255	0x3e0582c4	0.13038164

conv1.bias f4 [16]
0	0xbda81238	-0.082066
1	0xbd9aebc6	-0.075645015
2	0x3d36f5f4	0.044668153
3	0x3ce156d8	0.02750723
4	0x3d58ed81	0.052960876
5	0xbc9356de	-0.017985757
6	0x3c96146c	0.018320285
7	0xbdd185dd	-0.102306105
8	0xbdc1c6af	-0.09461724
9	0x3d2fd638	0.042928904
10	0x3e114ffe	0.14190671
11	0x3cb0a5d9	0.021563457
12	0x3c2fd2da	0.010731423
13	0x3d73d525	0.059529442
14	0xbdc021f1	-0.09381474
15	0x3d91e61d	0.07123969

conv2.weight f4 [32, 16, 4, 4]
0	0xbd8ab470	-0.06772697
1	0xbd8b93a8	-0.068152726
2	0xbc08fbef	-0.008360847
3	0x3bd18222	0.006393687
4	0x3d28c2b6	0.041201316
5	0x3d9d93a6	0.07694177
6	0xba7a1c47	-0.0009540957
7	0xbd65e052	-0.05612213
8	0xbe0d1e97	-0.137812
9	0x3d941f74	0.07232562
10	0x3c051e6a	0.008124927
11	0x3ceb0fc1	0.028694035
12	0xbd998d18	-0.074976146
13	0x3d407a48	0.046991616
14	0xbcdfc825	-0.027317116
15	0x3b5a4454	0.0033304887
16	0x3c84c074	0.01620505
17	0x3bd77457	0.006575148
18	0x3dbdde53	0.092709206
19	0x3d609650	0.05483085
20	0x3b33d14c	0.0027437983
21	0x3cddae47	0.027060641
22	0x3dce78fd	0.100816704
23	0x3d919563	0.071085714
24	0xbd85c42e	-0.06531559
25	0xbd6d0d7a	-0.05787418
26	0x3cf75293	0.030190742
27	0x3bbcee41	0.0057657068
28	0x3d45c20f	0.04828077
29	0x3dba6bbe	0.091025814
30	0xbc11baca	-0.008894632
31	0xbb6c4a76	-0.0036055124
32	0xbd24b744	-0.04021384
33	0xbdd177c7	-0.10227924
34	0xbd54ea2f	-0.051981147
35	0xbd07ad53	-0.03312428
36	0x3d602b21	0.05472863
37	0x3d911bb4	0.07085362
38	0x3d7696fb	0.06020258
39	0x3dc4a1d5	0.096011795
40	0xbd832d8e	-0.06405173
41	0x3df5fbb2	0.12010898
42	0x3d865799	0.06559677
43	0xbdd7530f	-0.10513889
44	0xbc9a0323	-0.018800324
45	0xbd305f7b	-0.043059807
46	0x3dd8e86d	0.10591207
47	0x3d1bcb4a	0.03803567
48	0x3b8ef2c9	0.0043624383
49	0x3d05bee0	0.032652736
50	0xbd7b7953	-0.061395
51	0xbd214536	-0.039372645
52	0xbe1c6144	-0.15271479
53	0x3e210620	0.15724993
54	0xbc2c0a27	-0.010500467
55	0x3adca951	0.0016835128
56	0x3d925a49	0.07146127
57	0xbc6f0455	-0.014588435
58	0x3b633ca9	0.0034673607
59	0x3d8b816f	0.06811797
60	0x3d72911e	0.059220426
61	0x3d487efc	0.048949227
62	0x3db6251c	0.08893797
63	0x3c89cde0	0.016821802
64	0x3ccf0275	0.025269726
65	0xbd7832c8	-0.060595304
66	0xbdde1764	-0.10844305
67	0x3dadbad4	0.084829
68	0xbd0f0f4a	-0.03492669
69	0x3d95a404	0.07306674
70	0x3e19c976	0.15018257
71	0x3c9c370b	0.019069215
72	0xbc546a05	-0.01296473
73	0xbd87b903	-0.06627085
74	0xbca09935	-0.019604305
75	0x3c1d0b35	0.0095851915
76	0x3cdd2bad	0.026998365
77	0x3d63db5a	0.05562911
78	0x3d1f84c7	0.038944986
79	0x3d353bf5	0.044246633
80	0x3daa3ae6	0.08312015
81	0x3c4208aa	0.011842886
82	0x3dbbd5da	0.09171648
83	0x3d0b18a6	0.033959053
84	0x3b72f23d	0.0037070655
85	0x3c5c91bb	0.013462479
86	0xbc203e3e	-0.009780465
87	0x3dc7763d	0.09739349
88	0x3c8c3979	0.017117249
89	0x3da42769	0.080153294
90	0x3d61e616	0.055151068
91	0xbd2ea929	-0.042641792
92	0xbdb61759	-0.08891172
93	0x3d1d22a8	0.03836313
94	0xbd1ad13b	-0.037797194
95	0xbcbbc621	-0.022921624
96	0x3ce1f4ba	0.027582515
97	0xbc273373	-0.010205138
98	0xbda2df59	-0.079527564
99	0xbd05eea7	-0.0326983
100	0x3c69e766	0.014276361
101	0x3c11f1a5	0.00890771
102	0x3b5f597b	0.0034080434
103	0x3d2c7ea3	0.042112958
104	0x3c2f07b8	0.010682993
105	0xbcd35079	-0.025795208
106	0xbe43cad0	-0.19120336
107	0x3d263259	0.04057536
108	0x3b8ded09	0.0043312353
109	0x3a7e7914	0.0009707373
110	0xbca2cc3c	-0.019872777
111	0xbcf74fb7	-0.030189378
112	0x3c516a41	0.012781681
113	0xbb6cc171	-0.0036126042
114	0x3cee072e	0.029056158
115	0x3cbdd758	0.023173973
116	0x3be2fed8	0.0069273524
117	0x3dad5792	0.08463968
118	0x3d2ad289	0.04170469
119	0xbd4ba05d	-0.04971348
120	0x3db31ebf	0.08746099
121	0x3dfa95a0	0.1223557
122	0x3da92b97	0.08260267
123	0x3d983fd4	0.07434049
124	0x3cabb6fa	0.020961273
125	0x3da4aa7e	0.08040331
126	0xbc03069c	-0.007997181
127	0xbd56e747	-0.052466657
128	0xbcf21b6d	-0.029554093
129	0xbd9086f3	-0.070569895
130	0xbe11f2ae	-0.14252731
131	0x3ca9ca3b	0.020726314
132	0x3da0473e	0.07826088
133	0xbd0ca3f1	-0.034336034
134	0x3b47ad6c	0.0030468358
135	0x3d2660a2	0.0406195
136	0xbdb39fac	-0.08770689
137	0x3c85e686	0.016345274
138	0xbdd23397	-0.10263746
139	0xbbac270b	-0.0052536777
140	0xbd5c2f24	-0.053755894
141	0xbde8dcd0	-0.11370242
142	0xbcc0f8b6	-0.023556095
143	0x3d6d189a	0.05788479
144	0xbdeef67b	-0.11668106
145	0xbdb488fd	-0.08815191
146	0xbd92eebf	-0.071744435
147	0xbd8ea4eb	-0.06965049
148	0xbb6e5d4d	-0.003637153
149	0xbd9a938a	-0.07547672
150	0x3af6689e	0.0018799489
151	0x3e153074	0.14569265
152	0xbd66ed00	-0.056378365
153	0xbc5ec48d	-0.013596666
154	0x3e2b4238	0.16724479
155	0xbd3ef692	-0.046621867
156	0x3d9c9c29	0.07646973
157	0x3dfcfc0b	0.12352761
158	0xbc25b359	-0.010113561
159	0x3d1e95a6	0.038716935
160	0x3be32d32	0.006932878
161	0x3d89dc78	0.06731504
162	0xbbd02822	-0.0063524405
163	0x3c81aa37	0.015828235
164	0x3c365719	0.011129164
165	0xbdb85c08	-0.090019286
166	0xbd979314	-0.074011
167	0xbd5576b8	-0.052115172
168	0x3d29ea13	0.041482996
169	0xbd65fffe	-0.056152336
170	0xbd3721b3	-0.044709872
171	0x3d870bc4	0.06594041
172	0x3da29443	0.07938435
173	0xbd1b3eb7	-0.037901606
174	0xbd82d8ef	-0.06389033
175	0x3d00f51a	0.031483747
176	0x3e024a57	0.12723671
177	0xbba0b14a	-0.004903947
178	0x3c5a3810	0.01331903
179	0x3d31cb79	0.043406937
180	0x3db9b357	0.090674095
181	0xbd1eccbc	-0.03876947
182	0x3d6fa52c	0.05850713
183	0x3db53bce	0.088492975
184	0x3d815e71	0.063168414
185	0x3ddf6853	0.1090857
186	0x3d21eb2e	0.039530925
187	0xbe220c25	-0.15824945
188	0x3d177a27	0.036981728
189	0x3d134e9e	0.035963647
190	0x3dcaf6bf	0.09910344
191	0x3d18962a	0.037252583
192	0xbd434eb6	-0.047682486
193	0xbe031d48	-0.12804139
194	0xbd3e51bc	-0.046464667
195	0xbc8666f6	-0.016406517
196	0x3cb1e81e	0.021717127
197	0x3ce487d4	0.0278968
198	0x3be99464	0.0071282852
199	0x3be60d17	0.0070206034
200	0xbbb0c224	-0.005394237
201	0xbd030fcc	-0.031997487
202	0xbb2c9961	-0.0026336538
203	0xbbb638a0	-0.0055609494
204	0x3d000248	0.031252176
205	0xbb48c9d3	-0.0030637875
206	0x3c591326	0.013249194
207	0xbd5b5cda	-0.053555347
208	0x3d73352c	0.05937688
209	0x3ba87bd4	0.0051417146
210	0xbd71a92f	-0.058999237
211	0x3da763cc	0.081733316
212	0xbde7f19e	-0.11325382
213	0xbd0b6fe3	-0.03404225
214	0x3be51be0	0.0069918483
215	0x3da3091d	0.079607226
216	0x3dbab72d	0.09116969
217	0xbd30ba0f	-0.04314619
218	0x3c984ac3	0.018590337
219	0x3d87036d	0.0659245
220	0xbdf5b110	-0.119966626
221	0x3d8cbf0d	0.068723775
222	0xbb5aa587	-0.0033362822
223	0x3d36076e	0.04444068
224	0xbd8a83a9	-0.067633934
225	0xbd8e5a4e	-0.06950818
226	0x3d87ee39	0.06637234
227	0xbc30f4aa	-0.01080052
228	0x3dd56483	0.10419562
229	0x3d483dc8	0.048887044
230	0x3cec80fa	0.028870095
231	0xbdc9de41	-0.09856845
232	0x3e06fe93	0.1318305
233	0xbb17366c	-0.002307321
234	0xbda5fa9f	-0.08104443
235	0xbd248309	-0.040164027
236	0x3ded25a2	0.115794435
237	0xbdb77274	-0.08957377
238	0xbe0e59cd	-0.13901444
239	0xbddd7c91	-0.10814775
240	0x3d81deee	0.063413486
241	0x3db953c3	0.090491794
242	0x3c7a99d2	0.015295463
243	0xbceb9a05	-0.028759966
244	0x3cd2a629	0.025713997
245	0x3c8cd05a	0.017189194
246	0x3d010c6a	0.03150598
247	0xbe29a7ea	-0.1656796
248	0xbd0d3307	-0.03447249
249	0x3e2214ef	0.15828298
250	0xbd040212	-0.032228537
251	0xbcd5fc0f	-0.026121167
252	0x3ca68075	0.020324925
253	0x3dd8aba6	0.10579614
254	0x3e0a21c5	0.13489445
255	0x3d416af0	0.047221124

conv2.bias f4 [32]
0	0x3de3b1eb	0.111179195
1	0x3d245721	0.040122155
2	0xbcba76e6	-0.022761773
3	0xbd37ab42	-0.04484106
4	0x3b6a9f0f	0.0035800373
5	0x3db8558c	0.09000692
6	0x3d1c137a	0.03810451
7	0xbd8ed1d7	-0.069736175
8	0x3d5533fb	0.052051526
9	0x3d010dd5	0.031507332
10	0x3cca27f1	0.024677249
11	0xbc8adcfa	-0.016951073
12	0xbdcae812	-0.09907545
13	0xbd4cdb15	-0.05001362
14	0xbe044a47	-0.1291896
15	0x3bec7f06	0.007217291
16	0x3c1846ff	0.009294271
17	0x3d51682e	0.051124744
18	0xbdbd29b3	-0.09236469
19	0xbcabdbef	-0.020978896
20	0xbd3a47d6	-0.045478664
21	0xbc7982ff	-0.015228986
22	0x3dac4af0	0.08412731
23	0xbdc32449	-0.09528405
24	0xbdc558a8	-0.096360505
25	0x3b1eddad	0.0024241016
26	0x3c0c9eaa	0.00858275
27	0x3ca6f015	0.020378152
28	0x3ceb26a5	0.02870495
29	0xbd294f0e	-0.041335158
30	0xbabfceb0	-0.0014633741
31	0xbd0616fb	-0.03273676

fc1.weight f4 [32, 512]
0	0xbd796ab7	-0.060892787
1	0x3d62831e	0.055300824
2	0x3d98b258	0.07455891
3	0xbd14d815	-0.036338884
4	0xbcf44c38	-0.0298215
5	0x3b68bd4a	0.0035513216
6	0xbcbf77a4	-0.023372479
7	0xbcb74142	-0.022369985
8	0xbc5b8f9e	-0.01340094
9	0xbd07eb04	-0.033183113
10	0x3c5c069f	0.013429313
11	0xbd363d45	-0.044492025
12	0x3c052b8a	0.008128056
13	0xbdb239ab	-0.087024055
14	0xbcb03980	-0.021511793
15	0x3c82e2f4	0.01597736
16	0xbda6bc98	-0.0814144
17	0xbb9d078f	-0.004792161
18	0x3d68e819	0.05686197
19	0x3c3e22d7	0.011604986
20	0xbda947ed	-0.08265672
21	0x3d9fa110	0.07794392
22	0x3c7d3907	0.015455491
23	0x3d622b97	0.05521735
24	0xbd333306	-0.04374983
25	0x3cebe7a4	0.028796978
26	0x3d35ae0d	0.04435544
27	0x3daaf7cf	0.08348047
28	0xbc938cb5	-0.01801143
29	0x3d97f9ad	0.07420669
30	0xbd734ede	-0.059401385
31	0xbc603ecc	-0.013686847
32	0xbcb34ae2	-0.021886293
33	0x3ca8ac40	0.020589948
34	0xbd6d8447	-0.057987478
35	0xbcce2d37	-0.025168044
36	0xbc974650	-0.018466145
37	0x3cc89cd0	0.024488837
38	0xbd0f9311	-0.035052363
39	0x3c758fa5	0.014987861
40	0xbca2ab15	-0.019856969
41	0x3e006d05	0.12541588
42	0xbc31481a	-0.010820413
43	0x3d77cefc	0.06050013
44	0x3dde6c00	0.10860443
45	0x3e0198bc	0.1265592
46	0xbcc13ea5	-0.023589442
47	0x3c80138f	0.015634326
48	0x3d237829	0.039909516
49	0xbbee8dcf	-0.0072800885
50	0xbd9bf6ae	-0.0761541
51	0x3d6ae519	0.05734739
52	0xbcfc83ed	-0.030824626
53	0xbc769818	-0.01505091
54	0xbd2d7560	-0.042348266
55	0xbd5a080b	-0.053230327
56	0x3d737b7f	0.059443947
57	0x3d3d8dd9	0.046277855
58	0x3d8ac0c8	0.06775051
59	0xbd8fbd97	-0.07018583
60	0x3cdc4597	0.026888652
61	0x3d5a4ed3	0.05329783
62	0xbda30a10	-0.07960904
63	0x3dd2c76a	0.102919415
64	0xbd8e561e	-0.06950019
65	0x3ca459f6	0.020062428
66	0xbcf53cdb	-0.029936245
67	0xbdde7040	-0.10861254
68	0x3c526d1c	0.0128433965
69	0xbd15c3da	-0.03656373
70	0x3d20d99f	0.03927004
71	0xbd804840	-0.062637806
72	0x3d1a7a50	0.037714303
73	0xbb280ccb	-0.002564239
74	0x3d3fea0b	0.04685406
75	0xbd2599a6	-0.040429734
76	0x3c957579	0.018244492
77	0xba5534b9	-0.00081331615
78	0x3d8ea57f	0.069651596
79	0xbc6aa548	-0.014321633
80	0x3bec6ea2	0.007215337
81	0x3aa44fcf	0.0012535992
82	0x3dbada3d	0.09123657
83	0x3cd35e25	0.025801728
84	0xbd48319d	-0.04887544
85	0x3d20e074	0.039276555
86	0x3d51d1e6	0.051225565
87	0x3c7a0314	0.015259523
88	0xbd007a77	-0.03136679
89	0x3d979599	0.0740158
90	0x3deb7c2a	0.11498292
91	0x3dc513cd	0.09622917
92	0xbb7c7a22	-0.0038524945
93	0xbd5ce23c	-0.05392669
94	0xbd85e3fa	-0.06537624
95	0x3dd17622	0.1022761
96	0xbc0ef390	-0.008725062
97	0x3cd9de68	0.02659531
98	0x3ba5b3a0	0.0050568134
99	0x3ce7c3a1	0.028291525
100	0x3ced37ea	0.028957326
101	0xba30c422	-0.0006743093
102	0x3babc025	0.0052414113
103	0x3cf60df1	0.030035945
104	0xbccd692b	-0.025074562
105	0xbc2293e4	-0.009922955
106	0xbc4bd9be	-0.0124420505
107	0xbd50afbe	-0.05094885
108	0xbab3e03e	-0.0013723446
109	0xbb9e1f8b	-0.0048255376
110	0x3b960769	0.00457852
111	0xbb05ca06	-0.0020414605
112	0xbb6b2e65	-0.0035885808
113	0xbcf65ab0	-0.03007254
114	0x3e00bad2	0.12571266
115	0x3d9548e8	0.072892964
116	0xbd1f45f7	-0.038885083
117	0x3d4e76fd	0.050406445
118	0x3d71ddb5	0.059049327
119	0xbd240308	-0.040041953
120	0xbc4bc059	-0.012435996
121	0x3c0475be	0.008084713
122	0xbb225876	-0.0024771965
123	0xbddd2865	-0.1079872
124	0xbc0c832b	-0.008576195
125	0x3dc05588	0.09391314
126	0x3d77eafb	0.06052683
127	0xbc890683	-0.016726738
128	0x3d4f9ade	0.050684802
129	0xbd87fb56	-0.066397354
130	0x3d409046	0.04701259
131	0xbc59be0e	-0.0132899415
132	0xbc826119	-0.01591544
133	0x3ce42f22	0.027854506
134	0xbd39a63c	-0.04532455
135	0xbcbee47c	-0.02330231
136	0x3c258553	0.010102588
137	0x3c8bfa9a	0.01708727
138	0x3cfb274b	0.030658385
139	0x3cc683b9	0.024232732
140	0xbd940e5a	-0.072293
141	0x3caa2e5c	0.020774059
142	0xbd852c25	-0.065025605
143	0x3d1a3293	0.037645888
144	0x3b654edf	0.0034989638
145	0xbb1b73a3	-0.0023720048
146	0x3db955be	0.09049557
147	0xbcde6647	-0.027148379
148	0x3ce48bdc	0.027898721
149	0x3da43f05	0.080198325
150	0x3d2d56bf	0.042319056
151	0x3bc11c33	0.005893254
152	0xbc780586	-0.015138036
153	0x3caf0b04	0.021367557
154	0xbd56bdb1	-0.052426998
155	0x3db86daf	0.090052955
156	0x3d9eeb5b	0.07759734
157	0xbd0a0b86	-0.033702396
158	0xbda23834	-0.07920876
159	0x3c213fc0	0.009841859
160	0x3d0764d3	0.033055138
161	0x3da00461	0.07813335
162	0x3c5b5e79	0.013389223
163	0xbd59591b	-0.053063493
164	0x3ce986fb	0.028506747
165	0xbd119fb3	-0.03555269
166	0x3d3880a5	0.04504456
167	0xbd63d7df	-0.055625793
168	0x3d8dfe5d	0.069332816
169	0xbda47a08	-0.08031088
170	0x3d55c2d4	0.052187756
171	0xbc10f73d	-0.008848009
172	0x3dd23648	0.102642596
173	0x3b9e7ac4	0.004836412
174	0x3d98a13c	0.07452628
175	0xbd34e4c8	-0.044163495
176	0x3d3dc6b4	0.046332076
177	0x3c57c4bc	0.013169464
178	0xb85f7f8c	-5.328613e-05
179	0xbd16ad96	-0.03678664
180	0x3d5ac92a	0.0534145
181	0xbe0e65e0	-0.1390605
182	0x3b4d8be5	0.0031363901
183	0x3d9c15ce	0.076213464
184	0x3c532398	0.012886904
185	0xbd851a43	-0.0649915
186	0x3c3eb5c2	0.011640014
187	0xbd50265d	-0.050817836
188	0x3cc08c2e	0.023504343
189	0xbcd86163	-0.026413625
190	0x3cb50d21	0.022100987
191	0xbd477b05	-0.048701305
192	0x3dbf2f98	0.0933525
193	0xbdc64525	-0.09681157
194	0x3d0b74b5	0.034046847
195	0x3c88ff64	0.016723342
196	0x3deae947	0.11470275
197	0x3cc608fe	0.02417421
198	0xbd0fcf0d	-0.03510957
199	0x3d03bc48	0.03216198
200	0xbc8d2ec6	-0.017234217
201	0x3db2e901	0.08735848
202	0x3d452856	0.04813417
203	0xbc62f9ae	-0.013853474
204	0xbd37d7ac	-0.044883415
205	0x3cd980c9	0.026550667
206	0x3d939d5c	0.07207748
207	0x3d39fd2c	0.04540746
208	0xbc3eb6f0	-0.011640295
209	0x3e14a29f	0.1451516
210	0x3cc5b8b0	0.024135917
211	0x3db907d9	0.090347
212	0xbd8ba4b0	-0.06818521
213	0x3a9dbb1a	0.001203391
214	0xbd31b1d8	-0.043382496
215	0xbd3a1f8b	-0.045440238
216	0xbdadb631	-0.08482016
217	0xbc9d6802	-0.019214634
218	0xb9e1c2af	-0.00043060395
219	0x3af64128	0.0018787729
220	0x3bf43ea5	0.007453757
221	0xbd683699	-0.056692693
222	0xbde901ca	-0.11377294
223	0xbd8a797d	-0.06761453
224	0xbd873cf6	-0.06603424
225	0xbccd5d7c	-0.02506899
226	0xbb898847	-0.0041971537
227	0xbd6a6782	-0.05722762
228	0xbc7524b7	-0.014962367
229	0xbd7df15e	-0.061997764
230	0x3d70e589	0.05881265
231	0x3df23543	0.11826565
232	0xbd431fc5	-0.04763772
233	0xbd0044b3	-0.031315517
234	0x3cade5d4	0.021227755
235	0xbd6991cf	-0.05702382
236	0x3c4d517a	0.012531633
237	0xbcdb301d	-0.02675634
238	0x3cfdebbe	0.0309962
239	0xbd72ecb1	-0.059307758
240	0x3dd365a5	0.103221215
241	0xbd825b3b	-0.06365057
242	0x3bf5f1fa	0.0075056525
243	0x3b3fa059	0.0029239862
244	0xbda06a99	-0.07832832
245	0x3d557227	0.052110817
246	0xbcfbdfd4	-0.030746378
247	0xbd2ab874	-0.041679814
248	0x3cbede2a	0.023299295
249	0xbd9a02ff	-0.07520103
250	0xbd3b63b4	-0.04574938
251	0x3c817c25	0.015806267
252	0x3dd085ef	0.10181796
253	0xbba2680f	-0.0049562524
254	0x3d54a368	0.05191365
255	0xbb41f2e4	-0.0029594237

fc1.bias f4 [32]
0	0x3bd3a532	0.006458902
1	0x3d2df72b	0.042472046
2	0xbd1eb831	-0.038749877
3	0x3cd2d962	0.025738422
4	0x3d591d39	0.053006385
5	0xb927776b	-0.00015970848
6	0xbd2f34f2	-0.042775102
7	0x3db81b3c	0.089895695
8	0x3cb7f592	0.022455964
9	0xbd11ea82	-0.035624035
10	0x3d1680ce	0.03674393
11	0xbd250e75	-0.04029699
12	0xbe06ebf3	-0.13175945
13	0xbdd909e1	-0.105975874
14	0xbce534b5	-0.027979234
15	0x3be1af78	0.0068873726
16	0x3d546c5f	0.051861163
17	0x3d71d635	0.059042174
18	0xbd4d5e40	-0.050138712
19	0xbd0806ba	-0.03320954
20	0xbd5b86f5	-0.053595502
21	0x3cd083eb	0.025453528
22	0x3c0138e3	0.007887098
23	0x3ca80a30	0.02051267
24	0x3c7b805a	0.015350426
25	0xbd02e2a4	-0.031954423
26	0xbdd8ed2d	-0.10592113
27	0x3c8b0272	0.01696894
28	0x3dcb8b1a	0.09938641
29	0x3cd988b1	0.026554437
30	0xbd3acbec	-0.04560463
31	0x3d0def0b	0.034651797

fc2.weight f4 [10, 32]
0	0xbdd9fe15	-0.106441654
1	0xbc844b39	-0.01614915
2	0xbde1bbde	-0.11022161
3	0x3d1de927	0.03855243
4	0x3d54a9f3	0.05191989
5	0x3e91b09b	0.28455052
6	0x3e3fdf19	0.18737449
7	0xbe4156d6	-0.18880782
8	0x3db6b2f0	0.08920848
9	0x3d59ebaf	0.05320328
10	0x3e402c20	0.18766832
11	0x3e7ee388	0.24891484
12	0x3da2a96e	0.079424724
13	0x3de637b8	0.11241096
14	0x3c27bb92	0.010237591
15	0x3d93eae7	0.072225384
16	0xbda2c8cc	-0.07948455
17	0x3e9e10b6	0.30872124
18	0xbd06bb96	-0.03289374
19	0x3e095692	0.1341193
20	0xbe803577	-0.2504079
21	0xbea06031	-0.31323388
22	0x3de48dab	0.111598335
23	0x3e1b72cb	0.15180509
24	0x3d198a77	0.037485566
25	0x3d1ffcef	0.039059576
26	0x3d2af7dd	0.041740287
27	0xbe201f28	-0.15636885
28	0xbcfc69a2	-0.030812088
29	0xbe201b62	-0.15635446
30	0x3e0c6591	0.1371062
31	0xbe3932f9	-0.18085851
32	0x3e9919ea	0.29902583
33	0xbde662de	-0.11249326
34	0xbe567f35	-0.20946963
35	0x3d00e7db	0.031471115
36	0xbc80290f	-0.015644578
37	0xbe5929f7	-0.21207415
38	0x3dd6e46e	0.10492788
39	0x3e4933f5	0.19648726
40	0x3dea0b8d	0.114279844
41	0x3e78618d	0.24255963
42	0xbea241ea	-0.31690913
43	0x3d9acea7	0.07558947
44	0xbd8241bd	-0.06360195
45	0x3ca06ae5	0.019582221
46	0xbd891364	-0.066931516
47	0xbd083d1f	-0.033261415
48	0xbe1d34a1	-0.15352108
49	0x3d27e2d5	0.04098781
50	0x3e2e3874	0.17013723
51	0xbd3a1d86	-0.045438312
52	0xbe76ea06	-0.2411271
53	0xbda9d53f	-0.082926266
54	0x3ebdd950	0.3707986
55	0x3dc5999e	0.09648441
56	0xbd67b65a	-0.05657039
57	0x3e231207	0.15924846
58	0x3de55ef8	0.111997545
59	0xbc95722f	-0.018242924
60	0xbe3bcbd2	-0.1833947
61	0x3e28e8f0	0.16495109
62	0xbd377ebe	-0.044798605
63	0xbcff21e8	-0.031144097
64	0xbe7a4bf8	-0.24443042
65	0x3dc38f7c	0.09548852
66	0xbc5307e9	-0.012880304
67	0xbeb5d5b3	-0.35514602
68	0xbdadeb3b	-0.08492132
69	0x3d16f4c0	0.036854506
70	0xbe7f3540	-0.24922657
71	0x3e76fcd0	0.24119878
72	0xbe4b68e8	-0.19864237
73	0x3e3e6e62	0.18596795
74	0x3d1b92b0	0.03798169
75	0x3df29e63	0.11846616
76	0xbdc9235b	-0.09821197
77	0xbe392e13	-0.18083982
78	0x3e09aaea	0.13444105
79	0x3e007ed0	0.12548375
80	0x3d299284	0.041399494
81	0xbe22c825	-0.15896662
82	0x3eb7e624	0.3591777
83	0xbe4abcc6	-0.19798574
84	0x3e3d391d	0.18478818
85	0xbdb48f9c	-0.08816454
86	0xbd468cb9	-0.048474047
87	0x3e0f1fbd	0.13976951
88	0xbe31d94e	-0.17368051
89	0xbe67e4af	-0.2264583
90	0xbe635720	-0.22201204
91	0xbd5c1ae8	-0.053736597
92	0xbe3f0e76	-0.1865786
93	0xbe1b8c73	-0.15190296
94	0x3ddb52df	0.10709166
95	0xbdc6a66c	-0.09699711
96	0x3df141e6	0.11780147
97	0x3dd5a322	0.10431506
98	0xbe20bf3d	-0.15697952
99	0x3e362425	0.17787226
100	0xbdf7f4b1	-0.12107218
101	0x3dede2a9	0.116154976
102	0xbd1ec60a	-0.038763084
103	0x3e76f35d	0.24116273
104	0x3db27aa4	0.08714798
105	0xbe451056	-0.19244513
106	0xbe436f2e	-0.1908538
107	0x3e9bf5bd	0.3046092
108	0xbe4dac65	-0.20085295
109	0xbd001e50	-0.03127891
110	0x3e3c0d43	0.18364434
111	0x3db81ddd	0.08990071
112	0x3d80c50e	0.06287585
113	0xbe8d5ecb	-0.27611384
114	0xbdc786b3	-0.09742489
115	0xbe5a277a	-0.21304122
116	0x3e05ecbf	0.13078593
117	0x3e0ac107	0.13550197
118	0xbe113311	-0.14179637
119	0xbdd7674b	-0.105177484
120	0x3e0790eb	0.13238876
121	0x3e7c1b16	0.24619707
122	0xbdfc302d	-0.12313876
123	0xbe23ae09	-0.15984358
124	0x3dd28262	0.10278775
125	0x3e09a832	0.13443068
126	0x3e61d38d	0.22053356
127	0xbe77d6f0	-0.24203086
128	0xbd94b424	-0.072609216
129	0xbcdd20eb	-0.026993236
130	0x3eaa37e5	0.3324577
131	0xbe62d457	-0.22151314
132	0x3e2979f8	0.16550434
133	0xbe000f03	-0.12505727
134	0x3d668b37	0.05628511
135	0xbd01dae3	-0.031702887
136	0x3ce9a252	0.028519783
137	0x3e703fcd	0.23461838
138	0xbd068eec	-0.032851145
139	0xbdf58984	-0.1198912
140	0xbdd87df2	-0.10570897
141	0xbdd046d1	-0.10169757
142	0x3cb8c860	0.022556484
143	0x3e7f311a	0.24921075
144	0xbdecb6ca	-0.11558302
145	0x3d8501b4	0.064944655
146	0xbe441c31	-0.19151379
147	0x3d88ad40	0.0667367
148	0xbe3f9bd1	-0.18711783
149	0x3e18af6a	0.14910665
150	0xbd3641ab	-0.04449622
151	0xbe0d09c6	-0.1377326
152	0xbdf46edc	-0.11935207
153	0xbdb41aba	-0.0879416
154	0xbdd8e737	-0.10590976
155	0xbe22e198	-0.1590637
156	0x3d55c58b	0.052190345
157	0x3e243fc6	0.16039953
158	0x3d8a1078	0.067414224
159	0xbd079b7c	-0.033107266
160	0x3ded147d	0.115761735
161	0x3db9d25e	0.090733275
162	0x3de0528d	0.10953245
163	0x3e99b9b5	0.30024496
164	0xbcfdfce7	-0.031004382
165	0xbde1b24f	-0.11020338
166	0xbce48505	-0.02789546
167	0xbd5a9c46	-0.05337169
168	0xbe6b6c88	-0.2299062
169	0xbe83d509	-0.2574847
170	0x3c6b2686	0.014352446
171	0xbb16ef50	-0.0023030825
172	0x3db17106	0.08664136
173	0x3e063ae5	0.13108404
174	0xbdc3e3fa	-0.095649675
175	0xbd75963c	-0.059957728
176	0xbdec4836	-0.11537211
177	0x3e2a9469	0.16658176
178	0xbe14b390	-0.14521623
179	0xbd2cbb47	-0.04217079
180	0x3dac84eb	0.084237896
181	0x3d7249f5	0.059152562
182	0xbe1bcbf1	-0.15214516
183	0x3e122baa	0.14274469
184	0x3d4cc78c	0.04999499
185	0xbbdafe91	-0.0066831787
186	0x3e3d789f	0.18503045
187	0x3e2a1094	0.16607887
188	0xbd8af6e0	-0.06785369
189	0x3cccf4bf	0.025019048
190	0x3a8c030e	0.0010682063
191	0x3daba9c1	0.08381987
192	0x3e508a28	0.20365202
193	0xbd7a8a86	-0.061167262
194	0x3e29a18b	0.1656553
195	0xbeb9510e	-0.36194652
196	0x3c4b7f0b	0.012420426
197	0xbead936e	-0.33901542
198	0xbe161228	-0.14655364
199	0xbe42a551	-0.19008376
200	0xbdb4666c	-0.08808598
201	0xbe405c9d	-0.18785329
202	0x3d69ab34	0.057048038
203	0x3e7298f7	0.23691164
204	0x3e0661cc	0.13123244
205	0x3e3da321	0.1851926
206	0xbdec5d4c	-0.115412325
207	0xbd61a8d0	-0.055092633
208	0xbe30cd23	-0.17265753
209	0x3e1fd2bc	0.15607733
210	0x3df01cf5	0.11724273
211	0x3e366559	0.17812099
212	0xbe1d2c58	-0.15348947
213	0x3dc92b17	0.09822672
214	0x3e09b107	0.13446437
215	0x3df69ca0	0.120415926
216	0x3dcd3990	0.10020745
217	0xbe35c5c7	-0.17751227
218	0xbd8a3004	-0.067474395
219	0xbe110c92	-0.14164951
220	0x3d4221f6	0.04739567
221	0xbe30616d	-0.17224665
222	0xbdcd765a	-0.100323394
223	0x3e4be735	0.19912417
224	0xbdfa3b6e	-0.122183666
225	0xbe08fa50	-0.13376737
226	0xbe38de9c	-0.18053669
227	0x3e9dca3e	0.3081836
228	0xbd394ef4	-0.04524131
229	0x3e5c84ac	0.21534985
230	0x3d9b7546	0.075907275
231	0x3db1f8fc	0.08690068
232	0xbc35c560	-0.011094421
233	0x3e8a8d12	0.27060753
234	0xbe84283a	-0.2581194
235	0x3cd11f17	0.02552752
236	0xbd87e6c9	-0.06635816
237	0xbd30716b	-0.043076914
238	0xbd099634	-0.03359051
239	0xbe17edb7	-0.14836775
240	0x3d696085	0.056976814
241	0x3e69f26f	0.22846387
242	0xbdf93506	-0.121683165
243	0x3e2cbbec	0.16868562
244	0x3e82a84f	0.25519034
245	0xbdbcd57b	-0.09220406
246	0x3e02246e	0.1270921
247	0xbc7eee50	-0.015559748
248	0xbc6591d3	-0.014011818
249	0xbe3ae847	-0.1825267
250	0xbe608771	-0.21926667
251	0xbd8d62d4	-0.069036156
252	0x3d5b02af	0.053469356
253	0xbdd49785	-0.103804626
254	0x3e27fe4f	0.16405605
255	0xbd54b830	-0.051933467

fc2.bias f4 [10]
0	0xbde000be	-0.109376416
1	0x3d4fdb73	0.050746392
2	0xbdfe9d30	-0.12432325
3	0xbd0589e9	-0.032602224
4	0xbd87cfb9	-0.06631417
5	0xbc5ba67e	-0.013406394
6	0x3dfffdc2	0.12499572
7	0x3de87f8d	0.113524534
8	0x3d6f0b77	0.058360543
9	0xbe457cba	-0.1928586
