Codes/mnist_cnn_mnist_8_True_14857_0.1_1.0_1.0_64_1.pt (torch, 106255 bytes, 8 tensors)

conv1.weight f4 [16, 1, 8, 8]
0	0xbc5ba1c3	-0.013405266
1	0x3dbc1544	0.091837436
2	0x3d83b0ef	0.06430232
3	0xbd041e1f	-0.03225529
4	0xbcb4b973	-0.022061085
5	0x3c49f9b2	0.012327598
6	0x3e103e7d	0.14086337
7	0xbe3ece7b	-0.18633454
8	0xbcdac99d	-0.026707465
9	0xbdc72cd8	-0.0972535
10	0x3dfd56c5	0.123700656
11	0x3c5557f4	0.013021458
12	0xbdb00caa	-0.085961655
13	0xbe091898	-0.13388288
14	0xbde32b5a	-0.11092253
15	0x3dc1bc01	0.09459687
16	0x3dd38aec	0.103292316
17	0xbd46a94f	-0.04850131
18	0xbd73b394	-0.05949743
19	0xbe1039ac	-0.140845
20	0xbd5d3f9e	-0.05401575
21	0xbbbae61a	-0.0057037
22	0xbd81e4fe	-0.06342505
23	0x3d533efd	0.051573742
24	0x3c1079d3	0.008818108
25	0xbd81b1b5	-0.06332723
26	0xbd121ef1	-0.03567404
27	0xbd4bfcd4	-0.049801663
28	0x3db86296	0.09003179
29	0xbd4ffcb6	-0.050778113
30	0xbe0ca876	-0.13736138
31	0xbc6095ac	-0.01370756
32	0xbda3d8a6	-0.08000307
33	0xbdc09a68	-0.09404451
34	0xbd960056	-0.07324283
35	0x3e580695	0.21096261
36	0x3bbb7905	0.0057212138
37	0x3db60e23	0.08889415
38	0xbe012641	-0.12612249
39	0x3cc69963	0.024243062
40	0x3e693b77	0.2277659
41	0x3e388501	0.18019487
42	0x3e3badcb	0.18328016
43	0xbbde6cf8	-0.0067878924
44	0x3d76a495	0.06021555
45	0x3dddd0da	0.10830851
46	0x3df380b9	0.11889786
47	0x3e3cddc1	0.18443967
48	0xbd76d706	-0.060263656
49	0x3d5cacfd	0.053875912
50	0x3c9a1520	0.018808901
51	0x3c3b8040	0.011444151
52	0x3d7220c7	0.05911329
53	0x3dd0a7fc	0.101882905
54	0x3d38cb01	0.045115475
55	0x3d1bd5fa	0.03804586
56	0xbd842512	-0.06452383
57	0x3d50c23e	0.050966494
58	0xbd9e2092	-0.07721056
59	0xbdb726f2	-0.08942975
60	0x3d6f408b	0.058411162
61	0xbd150676	-0.036383115
62	0xbe37bb5f	-0.1794257
63	0xbcf081bb	-0.029358735
64	0x3c87a401	0.016557695
65	0xbe0f1e0c	-0.13976306
66	0x3d78182d	0.06056993
67	0x3da81b95	0.08208386
68	0x3daf8475	0.08570186
69	0xbd5a50b8	-0.053299636
70	0x3e1c0296	0.15235361
71	0x3d21dfc9	0.03952006
72	0xbc64b1a5	-0.013958369
73	0xbdcf1e43	-0.10113194
74	0xbd368c5c	-0.04456745
75	0x3d3cb800	0.046073914
76	0xbd0be564	-0.03415431
77	0xba8329ce	-0.0010006966
78	0x3d2c8a2d	0.042123962
79	0x3da5a319	0.08087749
80	0xbc69b5ee	-0.014264567
81	0xbd8dc235	-0.06921808
82	0x3dc4d3b8	0.09610695
83	0xbce0b903	-0.02743197
84	0x3d23c9c7	0.03998735
85	0x3d99fde3	0.07519128
86	0xbd554a1c	-0.05207263
87	0xbd2a4dee	-0.041578226
88	0xbc6e471f	-0.014543324
89	0x3e2b18ce	0.16708681
90	0xbcc26f62	-0.023734752
91	0x3e161ec5	0.14660175
92	0xbe079c40	-0.13243198
93	0x3deedb1c	0.116628855
94	0xbc0d8e04	-0.008639816
95	0x3d84c199	0.06482238
96	0x3e2098cc	0.15683287
97	0xbcd14041	-0.025543334
98	0x3c27d3a8	0.010243334
99	0xbb4394ca	-0.0029843324
100	0x3daff3c5	0.08591417
101	0x3d51569c	0.051107988
102	0x3c2084ff	0.009797334
103	0xbe026d9f	-0.1273713
104	0xbdef844e	-0.11695157
105	0x3cbab04d	0.022789145
106	0x3d262b6f	0.040568765
107	0x3d932ae8	0.07185918
108	0xbc8030be	-0.015648242
109	0xbe075016	-0.13214144
110	0x3d0a27ba	0.033729292
111	0xbd90c2d6	-0.07068412
112	0xbda3f9c9	-0.08006627
113	0x3c5e0d4d	0.013552976
114	0x3de92be7	0.11385327
115	0x3d0520da	0.032502033
116	0x3d86f9dd	0.065906264
117	0x3e3edcce	0.18638918
118	0x3e4f03f6	0.20216355
119	0x3e7ee3e0	0.24891615
120	0xbadd0df4	-0.001686512
121	0x3de727d5	0.11286894
122	0xbaf90427	-0.001899843
123	0x3e45e8cc	0.19327086
124	0x3da76659	0.08173818
125	0xbc99dde7	-0.01878257
126	0x3daf8a90	0.085713506
127	0x3e40577a	0.1878337
128	0xbca76464	-0.020433612
129	0xbcd055a7	-0.025431467
130	0xbdcd87a4	-0.10035637
131	0x3d7166b9	0.058935855
132	0xbd896f55	-0.06710688
133	0xbbc7325b	-0.006079001
134	0x3cfb0018	0.030639693
135	0x3d4d0ecd	0.050062943
136	0x3ba96a69	0.005170156
137	0xbc6ca4bb	-0.014443572
138	0x3cdfa566	0.027300548
139	0xbe5f3a9a	-0.21799698
140	0xbd620e8e	-0.05518966
141	0x3d814be3	0.06313302
142	0xbd0b8354	-0.03406079
143	0xb908f82d	-0.00013062423
144	0x3c77c910	0.015123621
145	0xbde2843b	-0.11060377
146	0xbd672677	-0.056433167
147	0x3d15aa3c	0.0365393
148	0x3dc60389	0.09668643
149	0xbe691015	-0.22760041
150	0xbc9cbcee	-0.019133057
151	0x3bcc32e8	0.0062316544
152	0x3e40e4f9	0.18837346
153	0xbc907e3c	-0.017638318
154	0x3bdb33f0	0.006689541
155	0xbe158bf1	-0.14604165
156	0xbc2fb938	-0.010725312
157	0xbe12f014	-0.14349395
158	0xbce52557	-0.027971907
159	0xbe3e697f	-0.18594931
160	0x3d189eaf	0.037260707
161	0xbe500b6a	-0.20316854
162	0xbdedb8e5	-0.116075315
163	0xbc663fc3	-0.014053288
164	0xbd6324be	-0.055454962
165	0x3c7da6e0	0.015481681
166	0x3d74ac5f	0.0597347
167	0x3d3dc568	0.04633084
168	0x3bacd901	0.0052748923
169	0x3e0d6ac3	0.13810258
170	0x3dae96bd	0.08524845
171	0x3e17dff1	0.1483152
172	0x3df5a9f5	0.11995307
173	0xbd63f2fa	-0.055651642
174	0xbc13631e	-0.008995799
175	0x3de53df6	0.11193459
176	0x3b875ab2	0.004130685
177	0x3e688627	0.22707425
178	0xbc4db204	-0.012554649
179	0x3da9b178	0.082858026
180	0x3dbd2be5	0.09236888
181	0x3e5cd1d7	0.21564423
182	0x3d521466	0.051288985
183	0x3dcb6463	0.099312566
184	0x3e833094	0.25623
185	0x3d9114a2	0.070840135
186	0x3d31ac7d	0.04337739
187	0x3dcaf119	0.09909267
188	0x3dbd6abb	0.09248873
189	0x3c79ad1d	0.015239027
190	0xbb779d52	-0.003778298
191	0x3d8bcca6	0.06826143
192	0xbd434c7c	-0.047680363
193	0x3dcda457	0.10041111
194	0x3da52669	0.08063967
195	0x3dac97c8	0.084273875
196	0xbdc230d9	-0.09481973
197	0x3e54d985	0.20786102
198	0x3e149c4b	0.14512746
199	0xbd5f0948	-0.05445221
200	0x3cb05b23	0.021527832
201	0x3d00462f	0.031316932
202	0xbd52af8a	-0.05143694
203	0xbdc89867	-0.097946934
204	0x3e166c07	0.14689647
205	0xbda1cb53	-0.07900109
206	0xbdf82f62	-0.121184126
207	0xbc9fc9d2	-0.019505415
208	0x3d727466	0.059193037
209	0x3dd588ea	0.10426505
210	0xbde1178c	-0.10990819
211	0x3e1ca112	0.15295818
212	0x3cbc0723	0.022952622
213	0x3ca51ecd	0.020156289
214	0xbda1a33d	-0.07892463
215	0xbdeb9cf0	-0.11504543
216	0xbd3ffb70	-0.04687065
217	0x3dfaa1cd	0.12237892
218	0x3cdb7510	0.026789218
219	0x3e449e08	0.19200909
220	0x3d655c7d	0.055996407
221	0x3e231698	0.15926588
222	0xbd471286	-0.04860165
223	0x3d415d90	0.04720837
224	0xbc814d99	-0.015784072
225	0xbd17f698	-0.037100405
226	0x3d8e73be	0.0695567
227	0x3e41fdfe	0.18944547
228	0xbc692541	-0.014230073
229	0xbe312ff9	-0.17303456
230	0x3cf0956b	0.029368123
231	0xbd6308b4	-0.05542822
232	0x3d8f64d3	0.070016526
233	0x3d5c8998	0.053842157
234	0x3e4520cc	0.19250792
235	0x3e47a2e9	0.19495739
236	0x3e0f7357	0.14008842
237	0x3d58c278	0.052919835
238	0x3ddc5e57	0.107601814
239	0x3e29b2c8	0.16572106
240	0xbc3dc3ad	-0.011582297
241	0x3da93e51	0.08263839
242	0x3e1e2b69	0.15446247
243	0x3d3f4a64	0.046701804
244	0x3d82cc98	0.063866794
245	0x3dea36f1	0.114362605
246	0xbdc70451	-0.0971762
247	0x3da2bd88	0.079463065
248	0xbc0cb0f9	-0.008587115
249	0x3db5c434	0.088753134
250	0x3df5d9a9	0.12004406
251	0x3e24283b	0.16030972
252	0xbddbfefb	-0.10741993
253	0xbde9e728	-0.11421043
254	0xbc260a42	-0.010134282
255	0xbe6b2f64	-0.22967297

conv1.bias f4 [16]
0	0xbd169673	-0.036764573
1	0x3d997e96	0.074948475
2	0xbdb2b630	-0.08726156
3	0xbc44aa67	-0.012003518
4	0x3d065883	0.032799255
5	0x3d4addb9	0.049527857
6	0x3d6d1ba9	0.057887707
7	0xbd845fb5	-0.06463567
8	0x3db7aa07	0.08967977
9	0x3e22a60b	0.15883653
10	0x3d378c26	0.04481139
11	0x3dceeb93	0.10103526
12	0x3e1f22e7	0.15540658
13	0xbe1b780f	-0.15182517
14	0x3e4cf8c0	0.20016766
15	0xbdc7f60d	-0.09763727

conv2.weight f4 [32, 16, 4, 4]
0	0xbd02d79a	-0.031943895
1	0x3d8c7315	0.06857888
2	0xbdf93ae4	-0.121694356
3	0xbd900f51	-0.070341714
4	0x3d43da3e	0.047815554
5	0xbd7749f5	-0.060373265
6	0xbd0c1052	-0.03419525
7	0xbc294626	-0.010331666
8	0x3ddf2c89	0.10897166
9	0x3df6e388	0.12055117
10	0x3d4bede2	0.04978741
11	0xbc7a08b2	-0.015260862
12	0xbda138fb	-0.07872196
13	0xbd7bee41	-0.061506514
14	0xbcc43a93	-0.023953712
15	0xbda0e32a	-0.07855828
16	0xbd43172e	-0.047629528
17	0xbd41e70e	-0.04733949
18	0xbcb38bfa	-0.021917332
19	0x3d86476b	0.06556591
20	0x3de82376	0.11334889
21	0x3e1d3f90	0.15356278
22	0x3e09c21a	0.1345295
23	0x3d10aec8	0.035322934
24	0xbdbeb432	-0.09311713
25	0x3d589c39	0.05288336
26	0x3e080e0a	0.13286605
27	0x3d09adf9	0.03361318
28	0x3cf967ce	0.030445006
29	0xbd52be9e	-0.051451318
30	0xbdbf88fa	-0.09352298
31	0xbd63d5fe	-0.055624
32	0x3b5afffb	0.0033416736
33	0xbc0cabc6	-0.008585876
34	0x3d2189a4	0.039437905
35	0x3e162d9c	0.14665836
36	0xbdbd7e47	-0.09252601
37	0xbd50b32e	-0.05095213
38	0x3c10c4da	0.008835996
39	0x3e1dccbd	0.15410133
40	0xbd647b1d	-0.055781472
41	0x3c68fe0c	0.014220726
42	0xbd43086a	-0.047615446
43	0xbb29cdac	-0.0025909944
44	0xbde64ae0	-0.1124475
45	0x3d9d2748	0.07673508
46	0xbda70f4c	-0.081572145
47	0xbb112fe6	-0.0022153794
48	0x3c18b2e4	0.009319995
49	0xbd3bd7b0	-0.045859993
50	0xbda7b325	-0.08188466
51	0xbccd3bde	-0.025052961
52	0xbd502c30	-0.05082339
53	0xbcb2f93e	-0.021847364
54	0xbd6d5ea2	-0.057951577
55	0x3d6c3b73	0.057673883
56	0xbc6e913a	-0.014560992
57	0xbd0d1a9e	-0.034449212
58	0xbd636eb7	-0.055525508
59	0x3de5c70f	0.11219608
60	0xbd0029cf	-0.03128987
61	0x3d4be77c	0.049781308
62	0x3ccb3ce5	0.02480931
63	0xbbfe6b18	-0.0077642314
64	0xbd5ac8ef	-0.05341428
65	0xbdf4e764	-0.11958197
66	0x3d218e1e	0.039442174
67	0xbccda3e8	-0.02510257
68	0xbc3615de	-0.011113612
69	0xbab1e3fd	-0.0013571974
70	0x3dbda78f	0.09260475
71	0xbd472335	-0.04861756
72	0xbda033fb	-0.078224145
73	0xbc8d4a0c	-0.017247222
74	0x3d9f1cb3	0.07769146
75	0xbd3e6241	-0.04648042
76	0x3c50fec2	0.0127560515
77	0xbdfa62e3	-0.122258924
78	0x3d0e03d1	0.03467161
79	0xbc01bcb3	-0.007918525
80	0xbbdb572a	-0.0066937404
81	0xbd869b4d	-0.0657259
82	0xbdbe4e65	-0.09292296
83	0xbb7a33d9	-0.0038177876
84	0x3d906aa4	0.0705159
85	0x3da6f968	0.08153039
86	0x3cf69cf6	0.030104142
87	0xbdb48632	-0.08814658
88	0xbc88b1db	-0.01668637
89	0xbda16039	-0.07879681
90	0xbdc7345b	-0.09726783
91	0x3d6cec85	0.05784275
92	0x3b37bfa6	0.0028037815
93	0xbd8eb8cd	-0.06968842
94	0xbd3594ba	-0.04433129
95	0xbd24ffeb	-0.040283125
96	0x3e2a591c	0.16635555
97	0xbc714e9f	-0.014728217
98	0x3d4bbcc3	0.049740564
99	0x3dcbb483	0.09946539
100	0x3d9db0d2	0.076997414
101	0x3d8cbb25	0.068716325
102	0xbbe5b59e	-0.007010176
103	0x3d786054	0.06063874
104	0x3cc4a97a	0.024006594
105	0x3d73033b	0.059329253
106	0xbb94f880	-0.004546225
107	0x3def070e	0.116712674
108	0xbd8cabf2	-0.068687335
109	0xbdacc42b	-0.084358536
110	0xbe12abe0	-0.14323378
111	0x3d591991	0.053002898
112	0x3d2b3b04	0.04180433
113	0xbd1229b8	-0.035684317
114	0xbd9dcb76	-0.07704823
115	0x3a3cba93	0.00071994326
116	0x3d15a866	0.03653755
117	0xbce2d7b4	-0.027690746
118	0xbcc5731f	-0.024102746
119	0xbbbcda43	-0.0057633235
120	0xbbbbf3df	-0.005735859
121	0xbd2f9af7	-0.042872395
122	0xbc2469e3	-0.010035011
123	0x3dc703d4	0.09717527
124	0x3ce0a0c2	0.027420405
125	0xbd549d1b	-0.05190764
126	0x3b5904e8	0.0033114497
127	0x3dd58565	0.104258336
128	0x3d0e6484	0.034763828
129	0xbc6bf048	-0.014400549
130	0xbd3d4f50	-0.046218216
131	0x3e0d51ed	0.13800783
132	0x3c1b2bb1	0.009470866
133	0x3d1817a7	0.03713193
134	0x3c932e5b	0.01796644
135	0x3da531ce	0.0806614
136	0x3de90f22	0.113798395
137	0x3d16fa2b	0.036859673
138	0xbd045d37	-0.03231546
139	0xbda39f6b	-0.07989391
140	0x3d84a64d	0.06477032
141	0x3d7e0042	0.062011965
142	0x3e025ab3	0.12729912
143	0xbd43a8d6	-0.047768436
144	0xbe03553c	-0.12825483
145	0x3d25c5e1	0.040471915
146	0x3ceb7859	0.02874391
147	0x3d8ab7a4	0.06773308
148	0x3e029347	0.12751494
149	0x3d0a36d1	0.033743683
150	0x3d3c22d2	0.045931645
151	0xbc8864d3	-0.01664964
152	0x3d724053	0.059143376
153	0x3bc1b987	0.005912009
154	0xbce205a5	-0.027590582
155	0xbc04a3e1	-0.008095712
156	0xbc0dea3e	-0.008661805
157	0xbce70fd2	-0.028205786
158	0xbd8a1aae	-0.0674337
159	0x3d26ec96	0.04075297
160	0x3d07a987	0.03312066
161	0x3c5c7a62	0.013456913
162	0xbc428dbf	-0.011874615
163	0x3d7ca8c3	0.06168438
164	0xbd11de4c	-0.03561239
165	0xbdccbbc6	-0.099967524
166	0x3df6c211	0.12048734
167	0xbd5766f0	-0.052588403
168	0x3d078955	0.033089954
169	0x3d7177a4	0.05895199
170	0x3d526339	0.051364157
171	0x3d37e87a	0.04489944
172	0x3c55d0e8	0.013050295
173	0xbb1d00f1	-0.002395686
174	0x3d7e9a9b	0.062159162
175	0x3cf0d701	0.029399397
176	0x3dfde4de	0.123971686
177	0xbd82a42a	-0.06378968
178	0xbdb272cd	-0.08713303
179	0xbdd6729d	-0.104710795
180	0xbc9d1f04	-0.019179828
181	0xbc2c8905	-0.010530715
182	0xbd75024b	-0.05981664
183	0xbcec73ae	-0.028863754
184	0xbd58b4fb	-0.05290697
185	0x3cb6d5ee	0.022318806
186	0xb9e9caac	-0.00044592225
187	0x3db125d5	0.08649794
188	0x3d141e61	0.036161784
189	0x3cc9178b	0.024547359
190	0x3c8499fc	0.016186707
191	0xbdb2b22d	-0.087253906
192	0x3c820461	0.015871229
193	0x3d9a4e9b	0.07534524
194	0xbd33ff6b	-0.043944757
195	0x3c77c156	0.0151217785
196	0x3d23e4fc	0.0400133
197	0xbd989f0d	-0.074522115
198	0x3cb61c7f	0.022230385
199	0x3c1b9649	0.00949628
200	0x3deb06f7	0.11475938
201	0x3df68b68	0.120383084
202	0x3c0b0720	0.008485585
203	0x3d9b3673	0.07578745
204	0xbc49da84	-0.012320165
205	0xbbd489d5	-0.0064861574
206	0xbc470493	-0.012147087
207	0xbdae3f6a	-0.08508189
208	0xbe1c4db3	-0.15264015
209	0xbd73a8e1	-0.059487227
210	0x3d35ec42	0.044414766
211	0x3e1b28da	0.15152302
212	0x3d8ce0ce	0.068788156
213	0xbb9136e3	-0.004431592
214	0xbda084b5	-0.07837812
215	0x3d663b80	0.056209087
216	0x3d389940	0.045068026
217	0xbd4ccf82	-0.050002582
218	0x3d630ce7	0.055432227
219	0x3d58fded	0.052976537
220	0x3c350e13	0.011050719
221	0x3c2fdc6e	0.010733707
222	0x3c712b42	0.014719786
223	0xbdb34e02	-0.08755113
224	0xbded4f3e	-0.1158738
225	0xbd0ce43d	-0.034397352
226	0x3cd000a3	0.025390929
227	0xbc25da65	-0.01012287
228	0xbdb5afa9	-0.08871395
229	0xbd4232bc	-0.047411665
230	0x3a2be71a	0.0006557569
231	0x3da74575	0.08167545
232	0x3c822737	0.01588784
233	0xbcff363b	-0.031153789
234	0x3e359d86	0.17735872
235	0x3d9b497d	0.07582376
236	0x3cc818d6	0.024425905
237	0x3b991c77	0.0046725827
238	0xbd3ae9e6	-0.04563322
239	0x39529475	0.00020082465
240	0xbceebfc0	-0.029144168
241	0x3d9c2130	0.076235175
242	0x3d8881ba	0.066653684
243	0x3dae8681	0.08521748
244	0x3e217692	0.15767887
245	0x3e0a8c6e	0.13530132
246	0x3d72a59c	0.05923997
247	0x3de1c58d	0.11024008
248	0xbe00836f	-0.12550138
249	0x3db7d2d6	0.08975761
250	0x3be69ac4	0.0070374925
251	0x3d8e5716	0.06950204
252	0xbd935059	-0.071930595
253	0x3dad442d	0.08460269
254	0xbd651896	-0.05593165
255	0xbd090e73	-0.033461045

conv2.bias f4 [32]
0	0x3da6d089	0.08145244
1	0xbdba8335	-0.09107057
2	0x3c09f367	0.008419848
3	0x3dec0c30	0.11525762
4	0x3c336fe4	0.01095197
5	0x3ce81ac6	0.02833308
6	0x3cfb5eee	0.030684914
7	0xbdc7d1ac	-0.097567886
8	0xbc37a404	-0.011208538
9	0x3ce527b0	0.027973026
10	0x3dc782a0	0.097417116
11	0x3cc67650	0.024226338
12	0xbc513c36	-0.012770703
13	0xbdb0e47b	-0.08637329
14	0x3b80ae8b	0.003927057
15	0x3dd21013	0.10256972
16	0xbcfce525	-0.030870983
17	0x3dbe19b8	0.09282249
18	0x3c81fd4e	0.015867855
19	0x3dd20961	0.10255695
20	0x3b941a29	0.00451972
21	0xbc65c186	-0.01402319
22	0x3d681f50	0.056670487
23	0x3d21ab9c	0.0394703
24	0xbbd986c2	-0.006638379
25	0x3c30e609	0.010797032
26	0xbce7976f	-0.028270451
27	0xbc6e90f1	-0.014560924
28	0xbbbf445f	-0.005837008
29	0xbd6471cd	-0.05577259
30	0xbd48e831	-0.04904956
31	0xbcece17f	-0.028916119

fc1.weight f4 [32, 512]
0	0x3ba7030a	0.005096798
1	0xbde60c0d	-0.11232767
2	0xbdaf971b	-0.08573743
3	0x3d5c595f	0.05379617
4	0xbd998ba8	-0.074973404
5	0xbd57cf17	-0.05268773
6	0xbd550d1a	-0.052014448
7	0xbd10f800	-0.03539276
8	0xbddb0a30	-0.106953025
9	0x3d439638	0.04775068
10	0xbd82eb42	-0.06392528
11	0x3c9f2f08	0.019431606
12	0x3de29135	0.11062852
13	0xbd338162	-0.04382456
14	0xbc3dfc5c	-0.011595812
15	0xbbbc1a31	-0.005740427
16	0xbce88030	-0.028381437
17	0xbdbb5745	-0.09147505
18	0x3da3590a	0.07975967
19	0x3d4ddef0	0.050261438
20	0x3e008d66	0.12553939
21	0xbd7b315d	-0.061326373
22	0x3bdbc6ba	0.0067070397
23	0x3c103673	0.008802044
24	0x3d5d6b1f	0.054057237
25	0xbd5c88f0	-0.05384153
26	0x3d98dd66	0.074641034
27	0x3c32f58e	0.010922803
28	0x3d2b1b70	0.041774213
29	0x3d3f7bca	0.046748914
30	0xbd6a9611	-0.05727202
31	0x3d556c50	0.052105248
32	0xbd176945	-0.036965627
33	0x3c832a0c	0.01601126
34	0x3cf1fe23	0.029540127
35	0x3c8b34bb	0.016992917
36	0xbdc8d87d	-0.09806917
37	0x3c91aeeb	0.017783603
38	0xbd6bc1ac	-0.057557747
39	0x3c4ab9a1	0.012373359
40	0xbc82adb0	-0.015951961
41	0x3db298f3	0.08720579
42	0xbd7e28aa	-0.0620505
43	0xbd319b92	-0.043361254
44	0xbd267350	-0.040637314
45	0x3e0212a7	0.12702428
46	0x3de55000	0.111968994
47	0xbde784b4	-0.11304608
48	0xbd215d3b	-0.039395552
49	0x3df1f84c	0.11814937
50	0xbc5f8db4	-0.0136446245
51	0x3d43f6bf	0.047842737
52	0x3dbf9f0b	0.09356507
53	0xbd1b2e4f	-0.03788596
54	0xbb12d2fc	-0.0022403589
55	0xbd4bc77b	-0.049750786
56	0xbd13667f	-0.03598642
57	0xb9c0c7ea	-0.0003677004
58	0x3d144084	0.03619434
59	0x3d7e7a3d	0.062128294
60	0xbd3d8fee	-0.04627984
61	0xbd83c2af	-0.06433617
62	0xbd0f8208	-0.035036117
63	0x3d0fc114	0.035096243
64	0xbd6a3385	-0.05717804
65	0x3caf9c2a	0.02143677
66	0xbd26f0f4	-0.040757135
67	0xbca5180c	-0.020153068
68	0x3d7450c1	0.059647325
69	0x3d2ef264	0.04271163
70	0xbcf2d0ee	-0.029640641
71	0x3d30e5a3	0.04318775
72	0x3c52c250	0.0128637105
73	0xbd99044b	-0.07471522
74	0x3cd00913	0.025394952
75	0xbc89d70d	-0.016826177
76	0x3d039669	0.032125864
77	0xbced127b	-0.028939476
78	0x3cc51aec	0.024060689
79	0x3cd5ac64	0.026083179
80	0x3d2f4b35	0.042796332
81	0x3c08f36d	0.0083588185
82	0x3d279775	0.040915925
83	0x3e12b4ff	0.14326857
84	0xbc5a225a	-0.013313854
85	0xbdd17252	-0.10226883
86	0x3d29dc4b	0.041469853
87	0x3d29b196	0.041429125
88	0xbda488fa	-0.08033939
89	0xbd325e86	-0.043547176
90	0xbd0f8e41	-0.035047773
91	0xbd8e29c5	-0.06941561
92	0xbd8710be	-0.0659499
93	0x3bcfd513	0.006342539
94	0x3d912b92	0.070883885
95	0xbc9d5728	-0.019206598
96	0x3c822e5b	0.015891245
97	0x3e120c96	0.14262614
98	0x3df49079	0.119416185
99	0x3d389d15	0.04507168
100	0xbaca13e8	-0.001541731
101	0x3d167c15	0.036739428
102	0x3cb7665a	0.022387672
103	0xbd71486f	-0.05890697
104	0x3cf7c613	0.030245816
105	0xbd233c8c	-0.039852664
106	0xbc80b8f6	-0.015713196
107	0x3d7d59c6	0.061853193
108	0xbd94c1a5	-0.07263497
109	0x3da3f835	0.08006326
110	0x3d8e9cf6	0.06963532
111	0xbcdeb533	-0.027186012
112	0xbbc2744b	-0.0059342734
113	0x3d526e3e	0.051374666
114	0xbe0ca4ef	-0.13734792
115	0x3d5e108a	0.05421499
116	0xbca60e70	-0.020270556
117	0x3c873075	0.016502598
118	0x3d8c4881	0.068497665
119	0x3d9725de	0.073802695
120	0x3cffa26b	0.031205377
121	0x3da498f5	0.08036987
122	0x3d28b110	0.041184485
123	0xbce65bb8	-0.028119907
124	0xbc6543a4	-0.013993178
125	0x3cdef35a	0.027215648
126	0x3bb2fbb1	0.005462133
127	0x3d652d3d	0.055951346
128	0x3c37b8ba	0.011213476
129	0xbd7e8a3b	-0.062143546
130	0xbd946a6a	-0.07246859
131	0x3dd845c3	0.10560181
132	0x3d447235	0.04796048
133	0xbc771813	-0.015081423
134	0xbd79fbb0	-0.061031044
135	0xbd9d6e1f	-0.076870196
136	0xbc859697	-0.016307158
137	0xbc5aa073	-0.013343918
138	0x3d1a9788	0.037742168
139	0xbcfde5de	-0.030993398
140	0x3d3666a0	0.044531465
141	0x3d8baa1a	0.06819554
142	0xbd9f476f	-0.07777297
143	0x3e14c5cf	0.14528583
144	0x3db9301b	0.090423785
145	0x3d894f36	0.067045614
146	0x3d1279c2	0.03576065
147	0xbd98d6b1	-0.07462824
148	0x3ad7c39f	0.0016461498
149	0x3c5e7771	0.013578282
150	0x3d02b23c	0.03190826
151	0xbc963b4d	-0.018338824
152	0x3d24a5e8	0.040197283
153	0x3d536408	0.05160907
154	0x3c98ee5e	0.01866835
155	0xbd08c765	-0.033393282
156	0xbd88fee3	-0.06689241
157	0xbcc2308a	-0.023704786
158	0x3db1b63e	0.08677338
159	0xbd672f37	-0.056441512
160	0xbd167b5d	-0.036738742
161	0x3d665a63	0.056238543
162	0xbd8499af	-0.06474625
163	0x3cee2ea5	0.029074976
164	0xbd813170	-0.063082576
165	0xbcabefbe	-0.020988341
166	0x3cc42d5f	0.023947416
167	0xbcfce137	-0.03086911
168	0x3d12b4f7	0.035817113
169	0xbc8c4134	-0.017120935
170	0x3c27aef7	0.010234586
171	0x3d690d2d	0.05689733
172	0x3cfe800b	0.031066915
173	0xbd375747	-0.04476097
174	0x3c556a13	0.013025778
175	0x3d997362	0.07492711
176	0x3befea1a	0.0073216083
177	0x3d282554	0.041051224
178	0x3d84c67d	0.06483171
179	0x3c66d6be	0.014089284
180	0xbd2a2113	-0.04153545
181	0x3c4b98e3	0.012426588
182	0x3c659acd	0.014013958
183	0x3d42d5a7	0.047567036
184	0x3d14fcc8	0.036373883
185	0x3d636898	0.05551967
186	0xbd0c6525	-0.034276146
187	0xbd98deda	-0.074643806
188	0x3ccd6641	0.025073173
189	0x3d6b951c	0.05751525
190	0x3d02af85	0.03190567
191	0x3d85e1f0	0.06537235
192	0x3cb70aae	0.02234396
193	0x3d909aaf	0.070607536
194	0x3da4f018	0.08053607
195	0x3d0e2c72	0.034710355
196	0x3de147ff	0.1100006
197	0xbcf109c4	-0.029423602
198	0xbc0dcdee	-0.0086550545
199	0xbd90eef4	-0.07076827
200	0xbd1c0e61	-0.03809965
201	0x3b7db57a	0.0038712905
202	0x3d629ba0	0.055324197
203	0x3d53fa9b	0.051752668
204	0x3d7b5ab3	0.061365794
205	0xbc55572e	-0.013021274
206	0xbd17d1b5	-0.037065227
207	0xbd300a0a	-0.042978324
208	0xbce32ab3	-0.027730322
209	0x3df30cbf	0.118676655
210	0x3c83c9d6	0.016087454
211	0xbce3ef78	-0.027824149
212	0xbc9e1037	-0.019294841
213	0x3d1e36a7	0.03862634
214	0xbdb34bce	-0.08754693
215	0x3be5ef7c	0.007017074
216	0x3ddaa45a	0.10675879
217	0x3d7079f2	0.058710046
218	0xbc908adb	-0.017644336
219	0xbda9ea30	-0.08296621
220	0x3daea483	0.08527472
221	0xbd00de86	-0.031462215
222	0x3e02e1cc	0.12781447
223	0x3ce569f9	0.028004633
224	0x3d96a0e3	0.073549055
225	0x3c9ff53d	0.019526118
226	0x3c00b284	0.007855061
227	0xbd9c571d	-0.07633803
228	0xbdd3ab3c	-0.10335395
229	0xbdb1a6f5	-0.08674423
230	0xbcdc3e14	-0.02688507
231	0x3de7500d	0.11294565
232	0xbc937cac	-0.018003784
233	0x3c986098	0.018600747
234	0x3d45f5f2	0.048330255
235	0x3da7f246	0.08200507
236	0x3cb0f35c	0.021600418
237	0xb9e9a4a8	-0.00044563902
238	0x3d2cd8b3	0.042198848
239	0xbd9d6e8d	-0.076871015
240	0x3c143839	0.009046608
241	0x3a427a46	0.0007418733
242	0x3d90e254	0.07074419
243	0x3b72afc6	0.0037031039
244	0x3d6cfea6	0.05786004
245	0x3cdb3ca6	0.026762318
246	0x3d22941e	0.039692037
247	0xbd894082	-0.06701757
248	0xbd983b79	-0.074332185
249	0x3c8ac843	0.016941195
250	0x3d2f1fad	0.042754818
251	0x3d8f598c	0.069995016
252	0xbbef2408	-0.0072979964
253	0xbd548990	-0.051889002
254	0xbd6049f6	-0.054758035
255	0x3d52a0ce	0.051422887

fc1.bias f4 [32]
0	0xbe0e926a	-0.1392304
1	0xbddc3402	-0.10752107
2	0x3a59de43	0.00083110126
3	0x3d4afe3a	0.049558856
4	0xbcd185ed	-0.025576556
5	0x3ca37898	0.019954965
6	0xbd14e3a6	-0.036349915
7	0x3ccb18f2	0.024792168
8	0xbdc41ddf	-0.0957601
9	0x3c140d5c	0.009036388
10	0x3cc3ffcd	0.023925686
11	0xbcabff70	-0.020995826
12	0x3cee7b3b	0.029111495
13	0x3c252925	0.01008061
14	0x3da9c11f	0.08288788
15	0xbd123f31	-0.035704795
16	0x3d9deb73	0.07710924
17	0xbc25340a	-0.010083208
18	0x3cbd9b9e	0.023145493
19	0xbdd5fcea	-0.1044863
20	0x3d381fd5	0.044952232
21	0x3c9d05df	0.019167839
22	0xbc97625a	-0.018479515
23	0x3c85ad08	0.01631786
24	0xbb03ea0d	-0.0020128519
25	0xbda00d83	-0.07815077
26	0xbd4647c4	-0.048408285
27	0xbd8cb6f7	-0.06870835
28	0xbd81ba10	-0.06334317
29	0xbd53aff3	-0.05168147
30	0x3bc808de	0.0061045727
31	0xbbbb457a	-0.0057150694

fc2.weight f4 [10, 32]
0	0xbe8ee793	-0.27911052
1	0xbe4037a3	-0.18771224
2	0xbeb4a128	-0.35279202
3	0xbe4b3e9b	-0.19848101
4	0x3dd02d08	0.10164839
5	0x3c5abcb2	0.0133506525
6	0x3d2af13f	0.041733976
7	0xbd0151a7	-0.03157201
8	0x3e995d5f	0.2995405
9	0x3d80fad1	0.062978394
10	0xbcb01084	-0.02149225
11	0xbe31d6be	-0.17367074
12	0x3e15af7c	0.14617723
13	0x3e22983a	0.15878382
14	0xbe4fa03b	-0.20275967
15	0x3d5b56cd	0.053549577
16	0x3e0946f4	0.13405973
17	0xbc9e9234	-0.019356824
18	0xbe1cbbd8	-0.15306032
19	0x3e3b532a	0.18293443
20	0xbe0ab0d1	-0.13544013
21	0x3c74001b	0.014892603
22	0xbe4a6664	-0.19765621
23	0x3e814f57	0.25255844
24	0x3c54573b	0.0129602505
25	0xbde27cb1	-0.11058939
26	0x3e1f06e2	0.1552997
27	0x3d5a565a	0.053305008
28	0x3dc3c715	0.09559456
29	0xbe0d838c	-0.13819712
30	0x3dd2f1ff	0.10300063
31	0xbd483e1b	-0.048887353
32	0x3e882a57	0.26594803
33	0xbc2d1955	-0.010565122
34	0xbe166be8	-0.146896
35	0x3e7b5056	0.24542364
36	0x3dbe5f8b	0.09295567
37	0x3e83b71e	0.25725645
38	0x3e3c2ae4	0.18375736
39	0x3c5a5aa7	0.013327277
40	0x3d9f597c	0.0778074
41	0x3d09f803	0.033683788
42	0x3d0d8704	0.03455259
43	0x3ddea32c	0.10870966
44	0xbdc17578	-0.094462335
45	0x3e725971	0.23666932
46	0x3e6c341d	0.23066755
47	0xbdddc0d6	-0.10827796
48	0xbbff8aa3	-0.007798509
49	0x3e076010	0.13220239
50	0x3dc135f9	0.094341226
51	0x3e0e4778	0.1389445
52	0xbd73c902	-0.059517868
53	0xbdeeb7a7	-0.11656123
54	0x3db0340f	0.086036794
55	0xbeb75420	-0.3580637
56	0x3da78410	0.08179486
57	0x3db3bac7	0.08775859
58	0xbc3b72d4	-0.011440951
59	0xbeb61029	-0.35559204
60	0xbdaae573	-0.08344545
61	0x3e6bcf96	0.23028407
62	0xbbda33dd	-0.0066590146
63	0xbe1876f4	-0.14889127
64	0x3e178cd0	0.1479981
65	0x3d78ee60	0.060774207
66	0x3c4b3e0b	0.012404929
67	0x3d560bd6	0.05225738
68	0x3dc1148a	0.09427746
69	0xbde72f3e	-0.112883076
70	0x3e250d7d	0.16118427
71	0xbd02fb61	-0.031978015
72	0x3e1927bf	0.14956568
73	0x3d1ea999	0.03873596
74	0x3e437fef	0.19091772
75	0x3e0d5f2f	0.13805841
76	0x3ddfceee	0.109281406
77	0x3e3a9549	0.1822101
78	0xbe387fac	-0.18017453
79	0xbdacbc7f	-0.0843439
80	0xbe9cb572	-0.30607182
81	0x3e3c1517	0.1836742
82	0xbbe354c4	-0.006937595
83	0x3d8c2ba6	0.06844263
84	0x3da0ced1	0.07851947
85	0x3e449097	0.19195782
86	0xbeb99e29	-0.3625348
87	0xbd5acdc6	-0.053418897
88	0x3e53dca8	0.20689642
89	0xbdb146aa	-0.08656056
90	0x3e897ff0	0.2685542
91	0xbddc8337	-0.10767215
92	0xbdbf2962	-0.09334065
93	0xbe4f01a1	-0.20215465
94	0x3dc65a69	0.09685213
95	0x3da63dcd	0.08117256
96	0x3d679e2c	0.05654733
97	0xbd8f8a91	-0.07008851
98	0x3d157c0a	0.036495246
99	0xbe065fc6	-0.13122472
100	0xbe15a2dd	-0.14612909
101	0xbe3533d1	-0.17695548
102	0xbc872890	-0.016498834
103	0xbc6e426c	-0.014542203
104	0xbd738dd7	-0.05946144
105	0x3c18bcdf	0.009322374
106	0x3d8109e5	0.06300715
107	0xbe2c4986	-0.16824922
108	0x3e2e99d9	0.17050876
109	0xbe2436e3	-0.16036563
110	0x3e8a23c6	0.26980418
111	0xbe0ba758	-0.13638055
112	0xbe6fa599	-0.23403014
113	0x3dadd855	0.08488528
114	0x3eab898b	0.33503374
115	0xbc91c9e9	-0.017796474
116	0xbe631c4b	-0.22178762
117	0x3ea8e448	0.32986665
118	0xbdece5bf	-0.11567258
119	0x3e328c1c	0.1743626
120	0x3df7e2c0	0.12103796
121	0x3e0d0b25	0.13773783
122	0x3dd489b3	0.103778265
123	0xbe02c59d	-0.12770696
124	0xbd267554	-0.040639237
125	0x3db84a70	0.08998573
126	0x3d109015	0.035293657
127	0x3cf9a564	0.030474372
128	0xbe697943	-0.22800164
129	0x3e791913	0.24325971
130	0xbe0fa728	-0.14028609
131	0x3e3ad1d4	0.18244106
132	0xbbc88a17	-0.006119977
133	0x3e6139be	0.21994683
134	0xbd50a6f1	-0.050940458
135	0x3dfb98c4	0.12284997
136	0xbe86d3ea	-0.26333553
137	0x3dd88b43	0.10573437
138	0x3d8f8ee7	0.07009678
139	0x3e576e0a	0.2103807
140	0xbe28e779	-0.1649455
141	0x3d9c54f7	0.07633393
142	0x3c9325f5	0.017962435
143	0xbde2fa97	-0.110829525
144	0xbdff73ba	-0.12473245
145	0xbdba70b1	-0.091035254
146	0xbd5cab33	-0.053874206
147	0x3d89a6ab	0.067212425
148	0x3d937e7e	0.07201861
149	0xbe60f6f5	-0.21969207
150	0x3dba0d19	0.090845294
151	0x3d26bd8c	0.04070811
152	0x3d822d4b	0.06356295
153	0x3e35c68e	0.17751524
154	0xbd806077	-0.06268399
155	0x3e243f08	0.1603967
156	0x3e327d1c	0.17430538
157	0xbc316e02	-0.010829451
158	0xbd816025	-0.06317166
159	0x3df722ee	0.12067209
160	0x3d3ec808	0.046577483
161	0xbe5443a2	-0.20728925
162	0xbde9ce2d	-0.11416278
163	0xbd7e611a	-0.062104322
164	0xbdcbd372	-0.09952439
165	0xbe40d717	-0.1883205
166	0x3d9c664d	0.076367
167	0xbd96c9ea	-0.07362731
168	0x3e336cde	0.17521998
169	0xbcc80d71	-0.024420472
170	0x3c05002a	0.008117715
171	0xbe1b4062	-0.15161279
172	0x3d803343	0.062597774
173	0xbe21be46	-0.1579524
174	0x3e2b3e67	0.16723023
175	0xbe6deadf	-0.23234127
176	0x3e834c3f	0.2564411
177	0x3d670cab	0.056408565
178	0xbdba5a18	-0.09099215
179	0xbe26a4dd	-0.16273828
180	0xbcbc3a63	-0.02297706
181	0xbc8edb53	-0.017438566
182	0x3cc2eb7c	0.023793928
183	0x3e8ce757	0.27520248
184	0xbe51030c	-0.20411319
185	0x3e2cba5b	0.16867964
186	0x3cdf45c3	0.027254945
187	0xbd924905	-0.071428336
188	0xbe4c017b	-0.1992244
189	0x3ce11980	0.02747798
190	0xbd143a08	-0.036188155
191	0xbddacfc0	-0.106841564
192	0x3ddb8b02	0.10719873
193	0x3db058eb	0.0861071
194	0x3d8f954a	0.070108965
195	0x3cb1656b	0.021654805
196	0x3e669f7d	0.22521777
197	0xbdda45d5	-0.10657851
198	0x3e956668	0.29179692
199	0xbe268862	-0.16262963
200	0xbe514b6b	-0.20438926
201	0x3d12d94f	0.035851773
202	0xbde8cd32	-0.11367263
203	0x3d314cad	0.043286014
204	0x3d893793	0.06700053
205	0xbde0de75	-0.1097993
206	0x3dd0b2da	0.10190363
207	0x3e3f3dbb	0.18675892
208	0x3c86d623	0.01645953
209	0x3d4fd3e5	0.050739188
210	0x3c064778	0.00819575
211	0x3cb19899	0.02167921
212	0xbd76ddd5	-0.06027015
213	0xbe9060a7	-0.2819874
214	0xbdb4046a	-0.087899044
215	0x3e612e3f	0.21990298
216	0xbe23ac01	-0.15983583
217	0x3e00436b	0.12525718
218	0x3e682112	0.22668865
219	0xbe07b83b	-0.13253872
220	0x3d735842	0.05941034
221	0xbd83a886	-0.06428628
222	0x3d7b9b45	0.061427373
223	0x3cdba0ae	0.026810016
224	0xbd8a4897	-0.06752127
225	0xbe96dc7b	-0.29465088
226	0x3e523d98	0.20531309
227	0xbda23037	-0.079193525
228	0xbe83bfa7	-0.25732157
229	0x3e812e82	0.25230795
230	0xbd64723f	-0.055773016
231	0x3d068833	0.032844733
232	0xbe3f72f8	-0.18696201
233	0xbddb2f87	-0.107024245
234	0x3e716b78	0.23576152
235	0x3e515c02	0.20445254
236	0x3da0d248	0.07852608
237	0x3e6f7ebd	0.2338819
238	0xbe132ee5	-0.14373358
239	0x3dbc3400	0.09189606
240	0x3e0845aa	0.13307825
241	0xbcd514cf	-0.026010899
242	0x3e9cdd56	0.30637616
243	0xbdf0efc7	-0.11764484
244	0x3d3fbb65	0.046809573
245	0x3d98ad07	0.07454877
246	0x3cdbdb09	0.026837843
247	0xbe61532c	-0.22004384
248	0x3d653281	0.055956367
249	0x3da4291a	0.08015652
250	0xbe237218	-0.15961492
251	0x3e3528a7	0.17691289
252	0xbe0befe1	-0.13665725
253	0x3d90b9b5	0.07066671
254	0xbcc29ad9	-0.023755478
255	0x3e782f47	0.24236785

fc2.bias f4 [10]
0	0xbcde945f	-0.027170358
1	0x3db3a45d	0.08771584
2	0x3d7616ba	0.060080267
3	0x3e04620b	0.12928025
4	0x3e11e186	0.14246187
5	0xbd47f2fa	-0.048815705
6	0xbe03c774	-0.12869054
7	0xbd8bfb3e	-0.0683503
8	0xbc2778cc	-0.010221671
9	0x3e27627b	0.16346161
