Codes/mnist_cnn_mnist_15_True_13695_0.1_1.0_1.0_64_1.pt (torch, 106255 bytes, 8 tensors)

conv1.weight f4 [16, 1, 8, 8]
00000000: 9879 58bd 5de6 28bd 1b95 8f3d c8c9 4d3d
00000010: 1f9a 3e3e 1167 33bd 72f5 00bd dcd7 983b
00000020: 984d db3b 428f 4ebc 29ef c13d a0c9 393d
00000030: e76f 91bd 6f1e 863c 5a9c 323e dc16 59bd
00000040: 6c8e 923d 1179 583d 019c 653e dc1c 1c3d
00000050: 21e2 083d 974d e2bd 4913 1b3d 8b28 4a3d
00000060: ed8c a33d 505a fbbd e149 703d d19a a1bd
00000070: 1191 2f3d b1a7 c8bd 22be 303e 0afb 26bd
00000080: f2ab f33d 8843 c33d 69ab 0f3e 778f 8ebd
00000090: 5344 1fbe 3d1b 243d 7538 44bc 0c11 14be
000000a0: 9ed0 433e 3683 2c3e 2317 81bc e728 2bbc
000000b0: a07d 1b3d c42c 943c 7beb 2cbd ad7f 29bd
000000c0: 64cb 153e e3d4 cfbd 77ed 2c3e 8242 97bd
000000d0: 99a9 c8bd 8f88 ffbd bfc0 03be 9d4b 403c
000000e0: 0d83 2bbd d7d8 933d 6d83 123d 4537 0ebd
000000f0: 66ea 18bd 6b40 bcbc c665 813d 9846 7b3c
00000100: b1c6 c23d ce11 1cbd d0df 8cbd 99f6 c13c
00000110: d16f 6d3c 9c37 e63d 649a e43d 5f87 6c3d
00000120: f29f 0f3d c65b ea3d 26f4 d4bd ce99 cd3d
00000130: ce8e 183e 9380 153d b5da 653e 7fa6 2c3e
00000140: 3bde e93b 0844 713e 3f7d 4f3d 2b2d 2b3e
00000150: 5531 de3c a770 393e 0bd8 333d 7094 583e
00000160: f985 be3a 440c 823e 1dad c13d 665f d03d
00000170: 0674 4f3e bc70 7d3d f486 073e 2b53 283e
00000180: c224 823d 99c3 d63d d16b 25bd 0248 73bd
00000190: 8f36 09bd fa16 2ebe 17d4 e7bd c4f0 253e
000001a0: 1f16 2ebe 76d2 f9bd 710d 26be 903d 07bd
000001b0: 7994 a83d 3fbc 6abe c631 9d3d c996 823d
000001c0: 4a39 6ebd 6e29 d03d ea28 83bd d184 14bd
000001d0: 486a 603d f1e3 14be 74d0 7dbd 8600 c73d
000001e0: 8298 ecbd 4e1e b9bd e309 94be 81ab 05be
000001f0: b152 6fbd f2da c13d b74f d13c 1ed6 b5bb
00000200: 10b3 a2bb 403e 303e 88d4 893d 7a31 823e
00000210: dbc3 1b3e d5ea e93d b10a 853c f266 bebc
00000220: 5eb7 923d 4b50 713d 6418 063e 22c8 383e
00000230: 0dc1 463e 4af3 093e d19b 243d 0c03 243e
00000240: bd0b a7bd e022 033e ceaa f9bc 3d5e 003d
00000250: 38ef 563e b593 333e 94cb 463e 0ad6 cb3d
00000260: 887d 8abd de6a debd 0a26 7cbd a556 5d3d
00000270: be22 0c3d 64fe f13d 9de7 ddbc bf23 363e
00000280: 0eae 4b3d 968f c13d ee8a 1a3c acf3 aabd
00000290: 3792 2d3c d179 70bb f570 fe3c 121b e7bc
000002a0: a5ed abbd 2505 15be 0073 32be 4648 38bd
000002b0: ed1d 34bc 9e8d cc3d 3957 cabd b4e1 11be
000002c0: 3b50 a7bc 7f81 063b 52c5 55bd 72a6 ecbd
000002d0: d3a3 003b c183 cabb 1327 ae3c 4715 09bd
000002e0: d5e8 8dbc 16e3 3dbd e7e9 cf3c 4a2a d1bd
000002f0: 7d0c dc3d b8b2 24bc 38f0 7a3d 8c3d af3d
00000300: 3723 52bd 6752 edba 9e25 293e ffd0 063e
00000310: d562 463d 3472 0c3e 6311 27bd b47a b53d
00000320: a37b 493e 7e4e c23c 35fc 86bd fa2b 26bd
00000330: bbd0 713d eb32 3d3e 518f 9a3d 53ed 353d
00000340: c729 36be 0950 45bc c4c6 aebb c3eb d3bd
00000350: 1273 75bd b322 69bd a21d af3d 6e0d 993d
00000360: 8e7e 673d dd9c 3b3e bd45 1a3d 9027 e6bb
00000370: 9900 cb3c f47b 123e 8fba 61bd 475c 023e
00000380: 63fb 9fbd 67de 7bbd 7b8d 203d 7849 163e
00000390: 95a7 bb3c e48e fbbc d62e bbbc ee67 493d
000003a0: 054c 3c3e 064d d4bb cf10 8fbc 97db 613d
000003b0: e37b 973d 0f0e 233d 227a b8bb 6ba0 f7bd
000003c0: f510 00bc 91be acbd 6347 07be fa12 cdbb
000003d0: c005 b63b e886 983d f96f 7fbc 0eef 0b3e
000003e0: 149f 10bb 304b 423c b54b ab3c 60a4 01be
000003f0: cd76 a1bd dcd1 f73d 89bc cbbd d44d f4bc
-0.052850336 -0.041235317 0.070108615 0.05024126 0.1861348 -0.043799464 -0.031484075 0.0046644043
0.0066925995 -0.0126073975 0.09469444 0.0453583 -0.07101422 0.016371934 0.17442456 -0.053000316
0.07156071 0.052849833 0.22422792 0.03811346 0.03341878 -0.11049955 0.03786019 0.04935507
0.07985864 -0.12273085 0.058664206 -0.07890857 0.042862955 -0.097976096 0.1726003 -0.040766753
0.1189803 0.09534365 0.14030232 -0.069609575 -0.15553407 0.04006504 -0.011976351 -0.14459628
0.1912255 0.16846928 -0.015758103 -0.010446764 0.037961602 0.018087752 -0.04221676 -0.041381527
0.14628369 -0.10148027 0.1688746 -0.07385732 -0.09797973 -0.12477218 -0.12866496 0.011736778
-0.041873027 0.07219093 0.03576987 -0.034720678 -0.037332915 -0.022979936 0.0631824 0.015336655
0.09510554 -0.038102917 -0.06878626 0.023677157 0.014491991 0.112410754 0.1116226 0.057746287
0.035064645 0.11443286 -0.1039813 0.100391015 0.14898226 0.03649957 0.22446711 0.16860388
0.0071370876 0.23561108 0.050656553 0.16716449 0.027123133 0.1810938 0.043907207 0.21150374
0.0014535777 0.25399983 0.09456847 0.10174446 0.20259103 0.06187509 0.13235074 0.16437976
0.06354667 0.10486526 -0.040386025 -0.059394844 -0.033499297 -0.17000952 -0.1131975 0.16205126
-0.17000626 -0.12198345 -0.16216065 -0.033017695 0.08231444 -0.22923373 0.07675509 0.06376416
-0.058160104 0.10164152 -0.06404288 -0.036259476 0.054788858 -0.14540078 -0.061966375 0.09716897
-0.11552526 -0.09038983 -0.28913793 -0.13053705 -0.05842847 0.09465589 0.025550706 -0.0055492064
-0.0049651936 0.17211246 0.0672999 0.25428373 0.15211432 0.11421744 0.01624045 -0.023242448
0.07163881 0.058914464 0.13095242 0.18045095 0.1940958 0.13471714 0.04018766 0.16016787
-0.08156536 0.12806273 -0.030476954 0.031339873 0.20989692 0.17536815 0.19413596 0.09952934
-0.067622244 -0.10860227 -0.061559714 0.05403771 0.03421282 0.11816099 -0.02708798 0.17787074
0.04972654 0.09451215 0.0094325375 -0.08347258 0.010593942 -0.0036693702 0.031059721 -0.02821115
-0.083949365 -0.14552744 -0.17426682 -0.0449908 -0.010993463 0.09987949 -0.09879918 -0.14246255
-0.020423999 0.0020523963 -0.052190132 -0.115551844 0.0019628897 -0.006180257 0.021258866 -0.033467557
-0.017322937 -0.046359144 0.025380088 -0.10213144 0.107445695 -0.0100523755 0.061264247 0.08556661
-0.051303115 -0.0018106223 0.16518256 0.13165663 0.048434097 0.1371544 -0.040788066 0.088612944
0.1967607 0.023719069 -0.065910734 -0.040569283 0.05903695 0.18476455 0.07546867 0.044415783
-0.17789374 -0.012043008 -0.0053337533 -0.10347702 -0.059924193 -0.056917857 0.08550574 0.07473265
0.056517176 0.18321557 0.037664164 -0.007023759 0.024780558 0.14305097 -0.055109557 0.12730514
-0.0781162 -0.061491396 0.039197426 0.14676464 0.022907058 -0.030707784 -0.022849482 0.04917138
0.18388374 -0.0064789085 -0.01746407 0.055141058 0.073966764 0.03980833 -0.0056297937 -0.12091144
-0.007816543 -0.08434785 -0.13210826 -0.0062583657 0.0055548847 0.07447606 -0.015590661 0.13665411
-0.0022067474 0.011858746 0.020910123 -0.1266036 -0.078839876 0.121005744 -0.099480696 -0.029822268

conv1.bias f4 [16]
00000000: fdb0 513d 69c8 093e 6b9d f9b9 9543 e6bc
00000010: bac7 193d 5910 c9bd fd76 38bd 2d85 883d
00000020: f94c 6dbc 5a37 9dbc 7e27 e73d 6b2a 8b3b
00000030: fdf3 593d d5ba de3c 6025 0a3d 0605 113e
0.05119418 0.13455357 -0.00047610266 -0.028108397 0.03754399 -0.09817571 -0.04503535 0.06666026
-0.014483684 -0.019191433 0.112868294 0.004247 0.0532112 0.027188698 0.03372705 0.14162073

conv2.weight f4 [32, 16, 4, 4]
00000000: 75f9 c6bd 961d 033d b0d2 4fbd 6d78 fdbc
00000010: d8af f639 0f50 88bc f979 013c 89c9 90bd
00000020: 5881 bbbd 465c 473d 801e 293d d9a4 9cbd
00000030: 8c6c a1bd d5af b0bd 4dce ebbd 198a 8ebb
00000040: 7a5c ccbc 74ae 30bd 1126 513d d9c9 933d
00000050: 70af ac3d b200 523d c445 ffbc d790 98bc
00000060: f946 80bd 81e6 f83c aa50 ee3d c778 4abd
00000070: 78e1 1c3d c28b 043e 6a31 f0bc 5d00 1f3c
00000080: f59c 2b3c ecd2 863d c10e 8b3d 5fff 15bd
00000090: b6bf 863d 2e0e 6b3d 995f 6cbd 2f11 f4ba
000000a0: 845f aa3d 46fc 803b 83b9 28bc 5f48 733d
000000b0: a55f 9fbd 339a 903c a426 28bc 4773 913c
000000c0: 23e8 26be ac5c a93d b5f0 a93d d7a2 c33d
000000d0: 7380 063e 3881 15bc e295 43bd 852d 803c
000000e0: d37a 3b3d 91f5 213c f87e 9c3d acec 7e3c
000000f0: fbbe df3c 7e28 3fbd a914 6abd 047a 9dbc
00000100: 6379 39bd ce05 a2bd 018d c33c 5fb9 173d
00000110: 7098 6b3c acb6 2c3d 96de 293d 0cfc 2f3d
00000120: 703c 733d 430d 0a3d 8e51 263d 439b 113d
00000130: 26c3 0e3d 022c 343d 2321 7b3d 48e0 e2bb
00000140: 0203 02bc d784 f9bc 3620 c9bc fc25 33be
00000150: a45a 593e ce33 b33d ab0b af3d d49f bc3d
00000160: 5a76 973d 9e49 52bd 533f 663d d804 b5bc
00000170: e58a d63b e8bb c73a 6192 c0bd 383c 23bd
00000180: cc8c 043d 2762 2cbd 93ed b43c ab5b 283d
00000190: fa0f 113d 2ace 0f3c 2666 5e3d 9f67 30bc
000001a0: 9eed d43b b693 5bbd a2e0 043d 1ce6 14bd
000001b0: 64a3 173e 9959 06bc 48d7 943d bbff 043e
000001c0: ce9a 053d 9f4f 683d 5cb1 ac3d 0e84 d53d
000001d0: 9d54 403c 25f1 abbc 33bc 213d 4c6e 0d3d
000001e0: f122 54bc 2a24 bc3d 2e17 ffbc 446b 13bd
000001f0: 9b77 eabd 2338 21bd cf27 31bd 1e39 8dbd
00000200: dcca ddbc cfaa 043d f702 5f3d 3926 a23d
00000210: c440 e5bd d1e2 cd3c 6472 303d 9ba6 423d
00000220: e997 1cbd 835a 06bd ad7a ecbd de66 663d
00000230: 6a42 a83d a7e1 133d e0dd e73c baba 7fbd
00000240: 4719 6fbc 303e 603d 7ecf 12bc 592d 3cbd
00000250: d785 85bc 9019 dfbb 9af6 e83d a58a afbc
00000260: 8cb0 343c 0837 a53c 161b b93c d739 803d
00000270: fc84 24be 0307 ae3d 602d f43c ae5f 963d
00000280: d22b 0f3c 31c2 46bc 6d9a c1bc c286 aabd
00000290: 5b90 533c 438b 073d 2893 023e df0b 18bd
000002a0: 028e 833d 1cb7 95bc 3fe4 c13b fbc4 97bb
000002b0: 081a f6bb cefc 163d 98e3 233e 090e d3bc
000002c0: f54a 45bb da08 5fbc 0131 d9bd 48e5 f6bb
000002d0: fcb8 133d db44 8fbd 13c0 0b3d 03ba c8bc
000002e0: 88fe 98bd e06a d93c fadf 85bc 443b 213d
000002f0: 61bd 50bd 1394 7a3d 435f 033d b06d c8bd
00000300: 436a 67bc 0120 c73d b3af b03d d064 4e3d
00000310: eae6 293d 991c d5bb dbf9 dc3d 4822 acbc
00000320: 2fe5 c23d b51f a5bd ef29 063c f78b 82bb
00000330: f8d7 adbd 4c76 0e3c e2f0 0f3d 7496 a33c
00000340: 848a 61bd 7f42 533b 46bf 503c 8532 a63d
00000350: 8632 b9bb 06f6 d73d 59bd 833c 0920 97bc
00000360: 099e a83d 41e2 b73d c581 0b3d bc09 fe3c
00000370: 128a 7f3c 870e b3bc 780f 1d3d bbcb 35bd
00000380: 2b7a 18bd e695 913d 6201 0dba c9e9 b13d
00000390: 8c2f bbbd 5a6c 24bd 1104 713c a5c0 773d
000003a0: d52b 52bc 3e6d ec3d 8b4a 80bc 1682 2cbd
000003b0: ec27 0a3d 2b90 d03d 0bf9 03bd e47e 213d
000003c0: 6643 3eb8 8f09 c43d 1777 87bd 6e0f 153a
000003d0: 6d9e 72bd adeb be3d 704a b8bb 850c 173d
000003e0: 3011 743c 264e fe3d 3aa1 f23b eac3 b93c
000003f0: f09c 43bd 74dd f9bb 1024 b33c 82df 2a3c
-0.09715549 0.032010637 -0.050738037 -0.030941213 0.0004705179 -0.016639737 0.007902616 -0.0706969
-0.0915553 0.048671983 0.041288853 -0.0764863 -0.07882032 -0.08627287 -0.11513958 -0.0043499586
-0.02494644 -0.04313512 0.051061694 0.07216234 0.084318995 0.051270194 -0.031161197 -0.018623753
-0.06263537 0.03038335 0.11636479 -0.04943159 0.03830096 0.12943938 -0.029320437 0.009704676
0.010474433 0.06583199 0.067899235 -0.036620494 0.06579535 0.05738657 -0.057708357 -0.0018620844
0.083189994 0.0039363233 -0.010298136 0.05939519 -0.077819146 0.017651653 -0.010263119 0.017755164
-0.1629949 0.08269629 0.08297864 0.095525436 0.13134937 -0.009125046 -0.04775036 0.015646705
0.04577143 0.009885208 0.07641405 0.015559357 0.027312746 -0.046669476 -0.05714861 -0.01922322
-0.04528178 -0.079112634 0.023870947 0.037042018 0.014379606 0.042166397 0.04147204 0.04296498
0.05938381 0.033704054 0.04060512 0.03554846 0.034854077 0.04398728 0.0613109 -0.006923709
-0.007935287 -0.03045885 -0.024551492 -0.17494959 0.21225983 0.08750115 0.08547147 0.09210172
0.07395621 -0.051339738 0.056212734 -0.022097036 0.0065473192 0.0015238496 -0.094029196 -0.03985235
0.032360837 -0.042085793 0.02208594 0.041103046 0.035415627 0.008777181 0.054296635 -0.010766893
0.0064980527 -0.053607665 0.03244079 -0.036352262 0.14808422 -0.008200073 0.07267624 0.12988178
0.032618336 0.056716558 0.08432266 0.10425578 0.011738923 -0.02098901 0.03948612 0.034529015
-0.012947784 0.09186585 -0.031138983 -0.03599097 -0.11448594 -0.039360177 -0.043250855 -0.0689566
-0.02707427 0.03238946 0.054446187 0.07917447 -0.11193994 0.025132569 0.04307784 0.04752217
-0.03823081 -0.032801162 -0.11546836 0.056250446 0.082157925 0.03610387 0.02830404 -0.062433936
-0.014593429 0.054746807 -0.008960603 -0.045941684 -0.016299171 -0.006808467 0.113751605 -0.021428416
0.01102842 0.020167843 0.022595923 0.06261032 -0.16066355 0.08497431 0.029806793 0.07342468
0.008738475 -0.01213126 -0.023633206 -0.08326484 0.012912835 0.033091795 0.12751448 -0.037120696
0.0642357 -0.01827579 0.0059171016 -0.004631636 -0.0075104274 0.036862187 0.16004789 -0.025763528
-0.0030104492 -0.01361295 -0.1060505 -0.0075346567 0.036065087 -0.06995555 0.034118723 -0.02450276
-0.07470423 0.02654022 -0.016342152 0.03936316 -0.050961856 0.06117637 0.03207327 -0.09786546
-0.014124456 0.09722901 0.08627262 0.05038911 0.041479982 -0.0065036532 0.10789844 -0.02101244
0.095163696 -0.08062688 0.008188709 -0.0039839703 -0.084884584 0.008695196 0.035141833 0.019969203
-0.05506374 0.003223568 0.012740916 0.081151046 -0.005651775 0.10544972 0.016081499 -0.018447893
0.08233268 0.089787014 0.034059305 0.031010501 0.015596883 -0.021857513 0.03834483 -0.044383746
-0.037225883 0.07108669 -0.0005378929 0.08687169 -0.09139928 -0.040142395 0.014710442 0.060486455
-0.012827833 0.11544274 -0.015660545 -0.042116247 0.03372948 0.10183748 -0.032219928 0.039427653
-4.53623e-05 0.09572136 -0.066145115 0.0005686198 -0.059233118 0.09322295 -0.005624108 0.036877174
0.014896676 0.124172494 0.0074044736 0.022676427 -0.04775709 -0.007625276 0.021867782 0.010429265

conv2.bias f4 [32]
00000000: d0f8 f7bb 50f7 d2bd 299d b0ba 56f3 9a3d
00000010: 6e29 26bc 1b7c 5abc 46d5 e43c 6cd3 163d
00000020: 2d38 d8bd d3bd 4abd 9975 563c 32d7 35bc
00000030: 3952 72bb 833b 8d3d 4d80 483d e4cb 01bd
00000040: 1092 b8bd acbb 3e3d bd68 343d 9e24 67bd
00000050: 61cb 07be 369d f1bb 1570 dbbd 9417 d63d
00000060: 6827 fbbc 7216 bf3c 9fbb 0c3d 1790 f2bc
00000070: 71d9 80bd 1c51 a6bd b848 8e3a c147 febc
-0.0075675026 -0.10301077 -0.0013474572 0.07565944 -0.010141714 -0.013335253 0.027933728 0.03682272
-0.1055759 -0.049497437 0.013089561 -0.01109867 -0.0036975278 0.068961166 0.048950482 -0.031688586
-0.09012234 0.046565697 0.0440452 -0.056431405 -0.13261177 -0.0073734773 -0.10714737 0.10453716
-0.030658439 0.023326132 0.034358617 -0.029609723 -0.06291474 -0.08120939 0.0010855412 -0.031040074

fc1.weight f4 [32, 512]
00000000: 7d94 b3bb 2cee 993c d22b 8f3d 35c7 993d
00000010: 9489 7bbd c1b3 153c 509e ae3c 6779 f5bd
00000020: c657 643d 9aa9 45bd 56ad 293c d419 6abd
00000030: 8d56 ddbd 01a5 05bd a446 833d c410 903d
00000040: 47c1 883d 32e6 20bd 9aee 063c e6c1 24bd
00000050: da13 8bbd 3f66 4ebd b4fb d8bd bad9 0d3d
00000060: 2e8c c93d 68f7 abbd c5f4 8cbd 3bf0 653d
00000070: 6a0f 523c 3748 43bd 0390 8abd 6804 cebc
00000080: 5890 e8bc 4105 b53d 36c4 c13c 147d abbd
00000090: b4fc e73b 9710 5fbd 2257 25bd ed44 383c
000000a0: 86e6 7ebd 3b43 e8bd ca31 c03b 0592 093d
000000b0: f52f 33bc fea0 ac3c 695f 9cbd cdb9 e43c
000000c0: 8c0c 2bbd 2df8 46bd 6bc3 ffbc 5164 aebc
000000d0: 6d86 993c 76dc 903d 0b7a 69bd f3c7 95bd
000000e0: 630b 6dbd efc1 3dbd ad19 c0bd 2268 70bd
000000f0: abaa 103d d50e 9fbd e95e 2d3d 01a7 6f3d
00000100: 744d bf3d 2bf7 7eba d631 81bd 36b9 2e3d
00000110: 834e a8bd 050d 9b3d 4e7c e7bd 3bf6 ebbc
00000120: 1339 563d 27b3 223d f1e0 a1bd 67b3 b2bd
00000130: 806d 48bc 0999 373d f3b5 683d bc2c 4e3d
00000140: 3fd9 143c f490 0bbd 2a8e 943b a3a1 893c
00000150: cd17 213d 8bc9 5fbc aee0 873c 30ab c4bc
00000160: ff7b 493d 6dae 1dbd a23d 073e 7a72 fe3b
00000170: 7dab 3d3d b25a e4bc 04e7 bfbb a601 ad3c
00000180: 8ad9 04bd 9b51 b33c f006 473d 2d18 803d
00000190: adc8 8bba d9df 1eba df7a b63c 8aa6 1dbd
000001a0: df6a a53c 4b45 b5bd fa18 c03d 4717 683b
000001b0: c325 a0bd 27b0 003d 5e38 c9bc d4df 3fbd
000001c0: d742 d5bb da58 bbbb ead2 e2bd cf8e 3bbd
000001d0: f00d bebd 19a9 6a3d 5fa6 f4bc a16a b9bd
000001e0: 7a9c 23bd 69a3 aa3d 4814 f73c da9b ef3c
000001f0: 09c1 0f3c 8290 e93c cc34 46bd 480e 903b
00000200: 2928 d3bc 3f85 22bd 05d7 de3d fedb 7c3d
00000210: 057f 103d 7219 0c3c 3773 423c 1f70 203b
00000220: d067 88bd 7687 60bd 4b1a 06be d480 253c
00000230: 5bb5 753c 5d46 2cbc a1ce 683c 2575 15bc
00000240: 884a b6bc c76e 1f3d 35de c8bc fa51 59bc
00000250: 8cbb 9ebd d4f8 603d 7670 26bd 81d8 74bd
00000260: 4a02 563d 7e26 193d 40fc adbd 413b f63c
00000270: 0146 b03d e852 61bd 7645 37bc ca8a d93d
00000280: 3602 463d 29a4 233d 73a5 65bd d751 d5bd
00000290: d987 80bd 766e 56bc c242 d6bb 9b4f d4bd
000002a0: 3bd4 e93d c2f5 c33d 3520 f53b e984 11be
000002b0: a846 3ebd a71e 8cbc d3af 483d efab 9ebd
000002c0: 5c42 5cbd b7dc 9bbc 41e7 62bc c387 05be
000002d0: 8a5a 6d3d 41c3 68bc c5f4 a2bc 4fe6 8a3c
000002e0: 8e07 54bc 7e62 e6bc 60a4 22bd 03df d43d
000002f0: 2e8c a9bd ab7d 4bbd 0ba5 09bc cffb c4bc
00000300: d1bf dd3d 5c3c b23d bdd7 1ebd b6b3 96bd
00000310: f461 83bd 1d14 0e3d 6f81 11bd 70ee bc3c
00000320: 40b4 a6bd 7bbf 07bd ca5e 07be 2fef 4abd
00000330: f0f7 e5bc f50c 5f3d 32c6 9cbd d73f cf3c
00000340: 8575 b63b ff0b 11bc 13a6 24bc 90e2 d03c
00000350: 1724 d23c dde6 343c 99f6 a33b 6828 ca3c
00000360: 3209 8a3d d200 e0bc d166 a43c 02e9 59bd
00000370: 542a b7bc b126 1cbc 4c07 663d a699 a83d
00000380: a839 f7bc 5374 883d 009a d13c 4ab9 0abb
00000390: 8dd9 f93c 7eca ebba ed2f cc3c c502 143d
000003a0: f69f 293d 75d6 783d 2cf2 d73d d4ef 8f3d
000003b0: 9960 8bbd b583 023d 0ea9 823c d567 b7bd
000003c0: 9a2a 0dbd c33a b33c fda8 6fbc 6e05 d6bc
000003d0: 8cae debc 632e 5dbd 564c 6fbd 9a8f c03d
000003e0: 202e d53b fdcc 763c aaaf 823d 0177 003b
000003f0: a5fd 64ba e30a 013d 3bd2 a33b f35b 943d
-0.0054803477 0.018790327 0.0699078 0.07508699 -0.0614105 0.009137095 0.021315724 -0.11986046
0.05574777 -0.048257448 0.010356268 -0.057153538 -0.10807524 -0.032628063 0.06409958 0.07034448
0.0667749 -0.03928203 0.008235598 -0.04022398 -0.06790896 -0.05039048 -0.105948836 0.03463147
0.0984119 -0.08396798 -0.068826236 0.056137305 0.012821058 -0.04767629 -0.06765749 -0.025148585
-0.028389141 0.08838893 0.023653131 -0.08373466 0.007079685 -0.05445918 -0.0403663 0.011246902
-0.062231563 -0.11340948 0.0058653103 0.03358652 -0.010936727 0.02107286 -0.076353855 0.027920628
-0.041760013 -0.048576523 -0.031221112 -0.021288069 0.018740857 0.070732996 -0.057001155 -0.07313528
-0.057872187 -0.046327528 -0.09379897 -0.05869306 0.03531901 -0.07766501 0.04232684 0.058508877
0.09340945 -0.0009726162 -0.063083336 0.0426571 -0.082181 0.07570843 -0.11303006 -0.028803935
0.052300524 0.039721634 -0.07904232 -0.087256245 -0.012233138 0.04482368 0.056814145 0.05033563
0.009084999 -0.034073785 0.004533549 0.016800707 0.03932934 -0.013658891 0.016586628 -0.02400741
0.049190518 -0.038496424 0.13207105 0.0077651115 0.046306122 -0.027875278 -0.0058563966 0.02111895
-0.032434024 0.021889498 0.0485906 0.06254611 -0.0010664664 -0.00060605776 0.022275386 -0.038488902
0.020192562 -0.08851107 0.09379764 0.0035414265 -0.078197025 0.031417992 -0.02456301 -0.04684432
-0.006508212 -0.005717379 -0.11075385 -0.04579049 -0.09280002 0.05729017 -0.029864488 -0.09053541
-0.03994415 0.08331949 0.030161038 0.02924912 0.0087740505 0.02851129 -0.048390195 0.0043962337
-0.025775986 -0.039677855 0.108808555 0.06173324 0.035277385 0.0085509885 0.01186829 0.0024480892
-0.06660426 -0.054816686 -0.13095967 0.010101516 0.014996852 -0.010514823 0.01420942 -0.009122168
-0.022252336 0.038924005 -0.02452002 -0.013264174 -0.077506155 0.0549248 -0.040634595 -0.059776787
0.052248277 0.037390225 -0.084953785 0.030057551 0.08607102 -0.055010706 -0.011185994 0.10622175
0.048341952 0.039951477 -0.056065988 -0.10416 -0.06275911 -0.013087859 -0.00653872 -0.10366746
0.11417433 0.09568359 0.007480646 -0.14210857 -0.0464541 -0.01710446 0.048995804 -0.077476375
-0.053774223 -0.019026143 -0.013849081 -0.1304007 0.057947673 -0.014206708 -0.019892106 0.016955523
-0.012941254 -0.028123137 -0.03970754 0.103940986 -0.0827869 -0.049680393 -0.008401166 -0.024045853
0.10827602 0.08702919 -0.038779963 -0.07358496 -0.064151675 0.03468715 -0.035523828 0.023062915
-0.08139849 -0.033141594 -0.13219753 -0.04954451 -0.028072327 0.054455716 -0.0765499 0.025298996
0.0055682086 -0.008852958 -0.010049361 0.025498658 0.025651975 0.01104137 0.005003762 0.02467747
0.06740035 -0.027344141 0.020068558 -0.05320073 -0.02235905 -0.009530709 0.056159303 0.08232431
-0.03017886 0.06662812 0.025586128 -0.002116757 0.030499244 -0.0017989425 0.024925197 0.036135454
0.041412316 0.060751397 0.105442375 0.070281655 -0.06805534 0.031863887 0.015949752 -0.08955351
-0.034464456 0.021878606 -0.014627692 -0.026125636 -0.02718284 -0.053999316 -0.05842241 0.0940239
0.0065057427 0.015063521 0.063811615 0.0019602182 -0.0008735306 0.031504523 0.0049994267 0.072441004

fc1.bias f4 [32]
00000000: 9245 1f3d 86a2 0dbd 59e3 153d 58d5 1ebd
00000010: 37a2 12be dfeb 423c 4bb5 b33d 69d2 d4bc
00000020: 8dba 353d 6b10 d5bd 046e 49bd 1309 52bd
00000030: d29c 023e 2eb7 5abd b701 5c3d 3ca7 483d
00000040: cb8f 983c 1ada b03d d706 d03a f9d4 bdba
00000050: 5346 9ebc 1a3e a3bb e9d9 8236 d99a e0bd
00000060: 1e07 2c3b 3fc0 a83c 1c8e 9cbd 434c ddbd
00000070: 8fe2 55bd a580 80bd 3c1b afba 9a5c d83c
0.038884707 -0.034578823 0.03659377 -0.03877768 -0.14319693 0.011897056 0.08774813 -0.025979238
0.04436736 -0.10403522 -0.049177185 -0.051278185 0.12755135 -0.05339735 0.053712573 0.048987612
0.018623253 0.086353496 0.0015871179 -0.0014483026 -0.019320643 -0.0049817683 3.89967e-06 -0.10967035
0.002624936 0.020599483 -0.07644293 -0.108055614 -0.052218016 -0.06274537 -0.0013359557 0.026411343

fc2.weight f4 [10, 32]
00000000: de23 27bd a3fb 6b3e 66a9 9ebd b623 87bd
00000010: 9ba9 1f3e 56d8 bfbd 6016 c63d a64d 27be
00000020: 4ef3 033e cbbf fd3d 932c 45be 6d47 533e
00000030: 3fc5 a1be dcce 8bbc 50fd 1e3e b825 0f3e
00000040: cfcf 83be 99c8 4c3d a72c 54bd 8e71 c43c
00000050: 55d8 b5bd 7b26 99be 9cec 9e3e 5066 363e
00000060: f586 55be 71c4 513d 1f4c ec3d 05ed 983d
00000070: 8c38 57be cdca 873d 517d 853d b577 403e
00000080: 3b48 37be 4220 a23d 728e 2c3e a0ad 4fbe
00000090: 4518 b73d ea0c 8d3d 8f70 8b3e ce9e 23bc
000000a0: c3a0 d2be 7cca 08be 2fde 1abe b90f adbe
000000b0: 62d6 7b3e b821 853d 4f19 fe3d 500e 1ebe
000000c0: e6d2 ab3e feb2 ac3d 6023 af3d 070c 983d
000000d0: af3e 02be c63d 4f3e f82a d1bd 471d 683d
000000e0: cf4a d3bd 074a 613d 83db bdbd f8f3 cc3d
000000f0: 2ec4 33be 4335 d1bd abfb 37be 78f9 ecbd
00000100: 4e0f 253e 251a 353e 1e0f 01be 7962 40bd
00000110: f956 5f3e b6c4 c13c c2c6 973d 63fb 293d
00000120: 2728 07bd 37a4 0bbe 0be8 bb3d 861a 0a3d
00000130: a4e6 7abe 6a59 163e a40c 6e3d 4df4 3e3c
00000140: f961 3f3e 2821 3bbe e7e7 1cbe ebc6 083e
00000150: ea9d ffbd d846 593d 6efe efbd 3588 afbd
00000160: 262e c73d b91d 553e 0775 e9bd 6e1d ce3d
00000170: 59ba 533e bac3 0a3e 4f8e a7bd 73e9 2d3e
00000180: c51f 8fbd 7615 86be b61e 483e eea8 bb3d
00000190: 34c2 513e e899 9dbe fff5 f9bd 15d5 44bc
000001a0: bd10 91be a7aa ea3d f2e9 11be 79d0 023e
000001b0: b42e a33d a4b7 4e3d a40f 573e ecb8 50bd
000001c0: 9971 243e b761 b2bd 9765 5ebe 297e 52be
000001d0: 882b fa3d fb4e b03d 1029 3e3e 4f06 0b3e
000001e0: 08f6 543e dbec 56be 0604 263e 580a 47be
000001f0: ebcc 783e f3f5 223d 4026 08be c4e1 26be
00000200: bcb3 e5bd 0eab dfbd 63ba 73bd 26e4 713e
00000210: 257d 4abe 93b4 3fbe 53c4 44be 99e0 eabd
00000220: 1fc5 3ebd 3e3b 233e f10e 153e a5fe 28bc
00000230: 79db 6f3e f7bb 93bd f2a7 a1bd 736d 773d
00000240: 907b 2f3e a7b9 0bbe b132 5c3e b818 0ebe
00000250: 05f9 473c 1a5a aa3d 0fac d33d 7c89 073e
00000260: d054 2abe 9970 3e3e 20d1 6fbe 3954 49be
00000270: 47ff 413d 88a7 a7bb fe80 713e f962 38be
00000280: 7a50 db3c 58b5 54be 5fa4 273e a542 853c
00000290: 055e 82bc c5cc 4f3e bda1 27be c86d ad3c
000002a0: c20c 1c3e 847a 9c3d d740 6bbe 52bb ee3d
000002b0: 8e4e 073e c3a0 633d b91d acbc 5745 7b3c
000002c0: 2825 66be 676e 01bd 2909 7fbe 5730 52be
000002d0: 9623 7bbd b595 a83d 2b2a c6bd 55f0 903d
000002e0: 5d06 24be 6da5 1abe 4aab 7d3d fe7b b13c
000002f0: f69b c23c f0eb 173d f8f0 343e aaaf 8d3c
00000300: 1e18 e43d 97de eb3c c4a2 ad3d a6ee 203e
00000310: 4756 88bd 48de c73e 6a8c aa3b b165 203e
00000320: 0f81 fb3d d821 0e3e 3f9b 17be 2d32 7cbe
00000330: f41f 1cbd 5445 71bd cda5 8bbe aa6b 10be
00000340: 10c9 3a3e 3118 94be 2cfd 2d3e acd6 363e
00000350: 2974 20be 0a04 843d f3f7 4b3e b2b4 cb3d
00000360: 7194 7abe 53b5 13bd 7322 9bbd b8ae 59be
00000370: 1c5d 33bd 955c 92bc f777 06be 53ee 9a3d
00000380: 775e 143e 1dc4 a0bd eb13 183e f864 9c3d
00000390: 5e9a 343e b207 f3bd d52e 18be 1666 a23c
000003a0: ce4b 9d3b fb98 0ebc 4428 563e bbd5 71bb
000003b0: 1b8c fe3d 3acb c9bd 89b4 963e 2b54 083e
000003c0: bbcf 823b 2cb1 853e f4f0 35be 0716 5bbd
000003d0: 2343 e8bd d0c5 2dbe 989c 96be 45e6 51be
000003e0: 4e56 80bc 4896 4dbd 392a d23c 64f7 8d3e
000003f0: 6c2e c1bd 7499 dc3d 03de 38be 7eae bdbd
-0.04080569 0.2304521 -0.07747154 -0.06598608 0.15592043 -0.09367435 0.096722364 -0.16338214
0.12885782 0.12390097 -0.19255285 0.20632716 -0.315958 -0.017066412 0.15526319 0.13979232
-0.25744483 0.049995992 -0.051800396 0.023979928 -0.08879153 -0.2991217 0.31039894 0.17812467
-0.20852263 0.05121273 0.115379564 0.07467083 -0.21017665 0.06630478 0.06518043 0.18795665
-0.17898647 0.07916309 0.16851214 -0.20281076 0.08940176 0.06887229 0.27234313 -0.009986592
-0.41138276 -0.13358492 -0.15123819 -0.33801058 0.245935 0.06500572 0.12407171 -0.15435147
0.3355934 0.084325776 0.08551669 0.07424169 -0.12719224 0.20238408 -0.10213274 0.056668546
-0.10317003 0.05500224 -0.09270384 0.10007471 -0.17555305 -0.10215237 -0.17967097 -0.1157102
0.1611912 0.17685755 -0.12603423 -0.04696891 0.21810521 0.02365337 0.07410957 0.041499507
-0.032997277 -0.13636862 0.09175118 0.0337167 -0.24502045 0.14682546 0.058117524 0.0116549255
0.18689717 -0.18274367 -0.15322839 0.13357131 -0.124812916 0.053046077 -0.117184505 -0.08570901
0.09725599 0.2081212 -0.11399274 0.10064207 0.20676555 0.13551226 -0.0818144 0.16983585
-0.069884814 -0.26188248 0.19542965 0.0916308 0.20484239 -0.30781484 -0.12205123 -0.012013693
-0.28333083 0.114583306 -0.142494 0.12774839 0.07967892 0.050468102 0.2100206 -0.050957605
0.16058959 -0.08710044 -0.21718441 -0.20555939 0.12215334 0.08608814 0.18570352 0.13576625
0.20796978 -0.2098879 0.16212472 -0.1943754 0.2429692 0.039785337 -0.13295841 -0.1629706
-0.11215922 -0.10921298 -0.059503924 0.23622188 -0.19774301 -0.18721227 -0.19215517 -0.1146862
-0.046574708 0.15940568 0.14556481 -0.010314618 0.23423566 -0.07213586 -0.07893361 0.060407113
0.17136979 -0.1364504 0.21503712 -0.13876617 0.012205367 0.08317967 0.10335552 0.1323604
-0.16633916 0.1859764 -0.23419619 -0.19661035 0.047362592 -0.005116407 0.23584363 -0.18006505
0.026771773 -0.20772302 0.16371296 0.01626713 -0.015913973 0.20292957 -0.16370292 0.021170512
0.15239242 0.076405555 -0.22973953 0.11656822 0.1321356 0.055573236 -0.021010267 0.015336356
-0.22475111 -0.03159943 -0.24905838 -0.20526253 -0.061313234 0.08231679 -0.09676012 0.0707709
-0.16018052 -0.15102167 0.061930932 0.02166557 0.023756009 0.037090242 0.17670047 0.017295677
0.111374125 0.028792663 0.08478311 0.15716037 -0.06657081 0.39036775 0.005204727 0.15663792
0.12280475 0.13880098 -0.14805315 -0.24628516 -0.03811641 -0.058904007 -0.27274933 -0.1410357
0.18240762 -0.28924707 0.16991109 0.17855328 -0.15669312 0.06446083 0.19918804 0.09946574
-0.24470688 -0.036061596 -0.0757493 -0.21258056 -0.043789968 -0.017866412 -0.131317 0.07564988
0.1448916 -0.07849906 0.14851348 0.07636446 0.17637011 -0.11866702 -0.14861615 0.019824069
0.0048002964 -0.008703466 0.20913798 -0.0036901075 0.12429067 -0.098532155 0.29434612 0.13313358
0.0039920486 0.26111734 -0.17767698 -0.053487804 -0.1134093 -0.1696999 -0.29416347 -0.20497997
-0.015666153 -0.050192147 0.025654899 0.27727807 -0.094326824 0.10771456 -0.18053441 -0.09261797

fc2.bias f4 [10]
00000000: 6637 fd3d cd60 fd3d 22f6 793c efe1 5cbe
00000010: b826 793d 9c64 66bc d9e5 f83c 383d 953d
00000020: 5faa 96be 09ba 22bc
0.12364082 0.12371979 0.015256437 -0.21570562 0.06082794 -0.014062073 0.030383037 0.07287067
-0.29426858 -0.00993205
