Codes/mnist_cnn_mnist_19_False_0.1_1.0_1.0_64_1.pt (torch, 106255 bytes, 8 tensors)

conv1.weight f4 [16, 1, 8, 8]
0.13791883 -0.05637795 0.1680925 -0.0029181987 -0.06619087 -0.1448274 -0.024762616 -0.09052339
0.08075317 0.14642788 -0.0686225 0.052932948 -0.12927602 -0.0903543 -0.08570033 -0.09611184
0.10571871 -0.12769713 0.09886749 -0.09847077 -0.17484786 -0.07560369 0.037528355 -0.056161586
0.12290047 -0.048092604 0.09498243 -0.074006595 -0.12238448 -0.0071795513 0.08552504 0.13499781
0.18242502 0.09541108 0.013818345 -0.062135845 -0.2086029 -0.0041125203 -0.1149181 0.10014807
0.030219972 0.00783365 -0.090363264 -0.12637502 -0.12413435 -0.07802779 0.069765784 -0.12433236
0.025538657 0.043254346 0.061523523 -0.07255784 -0.062002074 -0.046489812 -0.015956433 -0.037007444
0.018111566 -0.0007380297 0.011574332 0.0011372203 0.018164577 0.11793656 0.024037374 0.10630187
-0.03072991 -0.08982723 0.09400006 0.12510526 0.034512557 0.14704993 -0.117280655 0.0071511376
0.023178896 0.111089095 -0.048956856 0.085874006 0.045283746 0.027712425 -0.060628735 -0.060710438
-0.18759581 -0.105164684 0.07618713 0.18995401 0.044431083 0.07192342 0.051613413 0.023420941
0.019277915 0.039599936 -0.119671054 0.062183414 -0.047175094 -0.02218143 -0.09186 0.016831327
0.018982274 0.01051652 0.024007805 0.13780336 0.08403525 0.19197178 -0.10493636 0.05056074
0.09103448 0.044980735 -0.00230781 0.023739351 0.007050913 0.13343343 -0.01724682 -0.15959987
0.01780311 -0.027463544 -0.081437245 0.030715864 0.17179245 0.04090504 -0.07825632 0.0758605
0.12857288 0.077663414 0.089345925 -0.048236545 0.034093387 0.24721998 0.09504425 -0.03908123
0.06728173 -0.1150037 0.049922425 0.08786337 -0.08482748 0.12624136 0.036314197 0.0091720335
-0.07506536 0.046860654 0.19695882 -0.02439436 -0.032884847 0.09930022 -0.002236855 -0.012046776
-0.07934515 0.104185775 0.08446583 -0.059865203 0.002353369 0.034668088 0.09847614 -0.022341993
-0.022127958 -0.019288331 0.13674332 0.0764606 -0.11627128 -0.02703905 -0.14083955 0.1614668
-0.071890794 0.11919298 0.18715231 -0.014337334 0.04478682 -0.050259195 0.04452473 0.06862363
0.15057059 0.09305378 0.113854244 0.078382514 0.13890392 -0.18316337 -0.08427713 0.12479248
0.1199629 0.04915905 0.026795203 0.071631 -0.058303844 -0.07459101 -0.054534152 -0.098668024
-0.07670421 -0.019443931 -0.08739524 -0.017498702 -0.06774759 -0.08536108 -0.007861349 -0.11854356
-0.05096459 0.012375803 0.0067611714 -0.14888343 0.11643683 0.027181474 -0.19279526 -0.08774969
-0.08205529 0.00654916 -0.1567329 -0.19474898 -0.123870134 0.08991702 0.1435598 0.10205491
0.15056303 -0.008830387 0.010385582 -0.04951736 0.033227872 0.09150939 -0.020437762 -0.13347985
0.12541871 0.19866136 0.0645529 0.11543438 -0.09281231 0.11681588 -0.054097943 0.052330732
-0.10453682 -0.09643786 0.057397462 0.06663023 -0.082003124 -0.014477026 -0.05150831 0.005958887
0.12872921 0.10183239 -0.07022402 -0.010386215 -0.10552955 -0.15102097 -0.034394007 -0.11270492
0.04104554 -0.016226845 0.06880241 0.12501131 -0.17776157 -0.17072584 0.007618514 -0.08068802
-0.048229054 -0.08962752 -0.10291723 -0.026462255 0.0151543785 -0.035067797 -0.03466658 -0.046455994
00000000: 983a 0d3e 91ec 66bd 7120 2c3e 403f 3fbb
00000010: 148f 87bd a24d 14be f8da cabc 5464 b9bd
00000020: eb61 a53d 31f1 153e f489 8cbd 38d0 583d
00000030: ef60 04be ad0b b9bd a883 afbd 49d6 c4bd
00000040: 0d83 d83d 09c3 02be 0a7b ca3d 0bab c9bd
00000050: 510b 33be 1cd6 9abd 55b7 193d b109 66bd
00000060: 3eb3 fb3d c0fc 44bd 2686 c23d c590 97bd
00000070: b7a4 fabd 7142 ebbb c127 af3d de3c 0a3e
00000080: a0cd 3a3e e266 c33d 5766 623c 2882 7ebd
00000090: 009c 55be 52c2 86bb 2e5a ebbd 6e1a cd3d
000000a0: e08f f73c b658 003c 6010 b9bd 7468 01be
000000b0: 263a febd 09cd 9fbd 5de1 8e3d f7a1 febd
000000c0: 7236 d13c 782b 313d 1700 7c3d 3499 94bd
000000d0: e3f5 7dbd 1a6c 3ebd 11b7 82bc 1e95 17bd
000000e0: b55e 943c 5678 41ba 44a2 3d3c c80e 953a
000000f0: e1cd 943c b988 f13d 07ea c43c cbb4 d93d
00000100: 4bbd fbbc 57f7 b7bd 1a83 c03d 981b 003e
00000110: 0a5d 0d3d 4294 163e d730 f0bd 1754 ea3b
00000120: abe1 bd3c ae82 e33d fc86 48bd b6de af3d
00000130: 737b 393d 2b05 e33c d655 78bd 82ab 78bd
00000140: 1e19 40be 9560 d7bd ff07 9c3d 4e83 423e
00000150: 5efd 353d 964c 933d 9668 533d 46dd bf3c
00000160: b8ec 9d3c 8b33 223d 1916 f5bd 09b4 7e3d
00000170: ac3a 41bd d5b5 b5bc 1821 bcbd dae1 893c
00000180: b780 9b3c 7b4d 2c3c 04ac c43c 531c 0d3e
00000190: ac1a ac3d 4094 443e e0e8 d6bd c718 4f3d
000001a0: 4970 ba3d b83d 383d a03e 17bb 0779 c23c
000001b0: 580b e73b c6a2 083e 3449 8dbc 266e 23be
000001c0: d4d7 913c 3afb e0bc 92c8 a6bd d69f fb3c
000001d0: 5cea 2f3e 0b8c 273d d944 a0bd c05c 9b3d
000001e0: 9ca8 033e ff0d 9f3d fffa b63d af93 45bd
000001f0: 82a5 0b3d 3c27 7d3e 8fa6 c23d a413 20bd
00000200: 01cb 893d 0f87 ebbd 757b 4c3d b6f1 b33d
00000210: 08ba adbd 6a45 013e 32be 143d 4c46 163c
00000220: debb 99bd f5f0 3f3d 93af 493e aed6 c7bc
00000230: 43b2 06bd ea5d cb3d 3398 12bb d75f 45bc
00000240: b67f a2bd 5a5f d53d 6cfc ac3d 3735 75bd
00000250: fb3a 1a3b 2000 0e3d dcad c93d 8e06 b7bc
00000260: b145 b5bc 9002 9ebc 7106 0c3e 6097 9c3d
00000270: a31f eebd ff80 ddbc 3e38 10be 8e57 253e
00000280: 7b3b 93bd 731b f43d dba4 3f3e 23e7 6abc
00000290: 6272 373d 96dc 4dbd 905f 363d 8c8a 8c3d
000002a0: 2d2f 1a3e fb92 be3d 6a2c e93d 0387 a03d
000002b0: d43c 0e3e 2e8f 3bbe 7d99 acbd 3393 ff3d
000002c0: 1caf f53d 005b 493d 9d81 db3c 46b3 923d
000002d0: 03d0 6ebd 2cc3 98bd 345f 5fbd 7612 cabd
000002e0: 1917 9dbd e148 9fbc 47fc b2bd 7059 8fbc
000002f0: 40bf 8abd cad1 aebd e3cc 00bc f7c6 f2bd
00000300: 3fc0 50bd e1c3 4a3c d18c dd3b e674 18be
00000310: 6f76 ee3d afab de3c 1f6c 45be 1cb6 b3bd
00000320: 9b0c a8bd 569a d63b 977e 20be 476c 47be
00000330: a0af fdbd 6a26 b83d 5701 133e 2a02 d13d
00000340: 322d 1a3e 54ad 10bc 4a28 2a3c b7d2 4abd
00000350: f319 083d 4669 bb3d 186d a7bc f1ae 08be
00000360: c36d 003e e26d 4b3e 5034 843d dc68 ec3d
00000370: 6114 bebd 2a3d ef3d ce95 5dbd c058 563d
00000380: 6617 d6bd 3681 c5bd 9a19 6b3d 6e75 883d
00000390: 41f1 a7bd 0c31 6dbc 61fa 52bd c442 c33b
000003a0: 97d1 033e 808d d03d 9cd1 8fbd f12a 2abc
000003b0: e01f d8bd 3ea5 1abe bbe0 0cbd d6d1 e6bd
000003c0: 5e1f 283d 29ee 84bc 47e8 8c3d f702 003e
000003d0: 2107 36be c1d2 2ebe baa4 f93b c33f a5bd
000003e0: d48b 45bd a28e b7bd 45c6 d2bd 5fc7 d8bc
000003f0: 124a 783c 40a3 0fbd 8bfe 0dbd a448 3ebd

conv1.bias f4 [16]
-0.027045209 -0.060078535 -0.1475867 -0.017898576 0.121344805 -0.06338447 -0.012145606 -0.10088482
-0.08181306 0.008194794 0.05472281 -0.10733177 0.17375992 0.114060216 -0.07830244 0.0952229
00000000: ea8d ddbc e914 76bd f820 17be 09a0 92bc
00000010: a083 f83d b8cf 81bd 5dfe 46bc b39c cebd
00000020: 9b8d a7bd 7543 063c 0625 603d c2d0 dbbd
00000030: 1fee 313e 6798 e93d 085d a0bd 3904 c33d

conv2.weight f4 [32, 16, 4, 4]
0.04689778 -0.07285575 0.028269257 -0.017596308 0.0009737296 0.019220127 0.124452226 0.038742278
0.049831472 0.016696466 0.085144736 0.08512692 0.055397972 -0.0382458 -0.034243457 -0.054876253
0.0019144259 0.031995278 0.09024004 0.08157343 -0.04776066 -0.013246533 -0.0033595478 -0.007308853
0.16874488 0.055515062 -0.0011057155 0.09739688 0.053956814 -0.10213902 0.09220669 0.03732197
0.04657035 0.064975314 -0.1478499 0.023004988 -0.05148951 -0.0649255 0.14493205 0.08265727
-0.03389186 0.00707235 0.024476642 0.09519324 0.009523347 -0.05386328 0.009052583 -0.08351414
-0.028155448 0.023675468 -0.009485366 0.0039372006 -0.02296606 -0.11064342 -0.051286377 -0.031084718
-0.031367846 0.0015692561 -0.030344062 -0.044860125 0.013682386 0.03837492 0.079037815 0.0015002603
0.03061017 0.068900585 0.028341105 0.04207492 -0.06459942 0.026983608 0.020253826 -0.12717497
0.023878234 0.076890975 0.056539427 0.032499306 0.115770966 0.009181256 0.013246087 -0.10359842
0.001241183 0.013426382 0.007879434 0.031410903 0.0033598572 -0.050699648 -0.02409274 -0.019487185
-0.06627017 -0.025182908 0.04227186 0.031557836 0.05368767 0.044809278 0.020151015 0.004379829
0.026579974 -0.01144065 0.07652014 -0.0794872 -0.069640435 -0.011849255 -0.07383266 -0.07409339
0.16048846 0.048524335 0.073294535 -0.008507282 0.14464438 0.033828445 0.0045450875 0.042099867
-0.066885985 0.053487603 0.14452735 0.12265604 -0.059008915 0.04497979 0.09865645 -0.06334035
-0.061091572 0.06443958 -0.03158888 -0.07426151 -0.008385974 0.010457195 0.06916321 0.014098278
0.015353683 0.107600585 0.10667081 -0.028048262 -0.02766493 0.06353256 -0.016515525 -0.04033399
0.07976527 -0.018620659 0.13454024 0.091542035 -0.0050463695 0.03988381 0.029951746 0.09341521
-0.032943204 0.030612173 0.029579017 -0.07077507 -0.039716985 -0.049059745 -0.078765705 0.01765698
0.06978282 -0.04752815 -0.07201863 -0.10811022 0.022364544 -0.024831643 0.021613285 0.12288007
-0.0007277884 -0.054670684 0.08003872 0.04212821 0.013423853 -0.14921367 0.040555373 -0.025864223
0.044012275 -0.0044378503 -0.09749615 -0.04457518 0.08457997 0.107901834 -0.045299225 0.053423267
-0.037365977 0.0050163455 -0.034745242 0.011133357 0.022728635 0.06520991 0.12161163 0.08397402
0.055674225 0.061979875 0.03333732 0.03464594 -0.029360984 -0.062125064 -0.0010147328 -0.02539854
-0.027208934 -0.012475825 0.16766408 -0.073702835 0.042166755 0.072961465 0.09341714 -0.11367123
0.17530082 0.1876049 -0.028888624 -0.03466278 0.07741803 0.03855872 -0.14882481 -0.046914443
-0.0043396614 0.04018948 -0.053910527 -0.026429968 0.121341035 0.048150282 0.00036134565 -0.034004364
0.12932628 0.13496111 0.14620262 0.07437607 0.063739225 -0.008518804 -0.07199583 0.07130058
-0.08057803 -0.10816942 0.03375308 0.09201867 -0.04433433 0.034386236 0.02837398 0.118102245
-0.012021971 -0.114928395 -0.020470334 0.05622402 0.019497758 -0.05603162 -0.05861465 0.103097
0.12539369 -0.053270124 -0.041960027 -0.10073724 0.01824744 -0.03694 -0.13025825 -0.026504302
-0.017284766 -0.012487999 -0.04017471 0.03412485 -0.014390818 -0.045342434 0.0041805645 0.012732323
00000000: e317 403d 6535 95bd ee94 e73c 2226 90bc
00000010: e341 7f3a 8773 9d3c cfe0 fe3d 39b0 1e3d
00000020: 161c 4c3d 07c7 883c 5d60 ae3d 0657 ae3d
00000030: fce8 623d a1a7 1cbd de42 0cbd ecc5 60bd
00000040: 79ed fa3a 7b0d 033d c5cf b83d f80f a73d
00000050: afa0 43bd fd07 59bc dc2b 5cbb 1a7f efbb
00000060: 75cb 2c3e c363 633d a8ed 90ba 0478 c73d
00000070: d201 5d3d 432e d1bd dcd6 bc3d ecde 183d
00000080: 8dc0 3e3d c711 853d f765 17be f574 bc3c
00000090: aae6 52bd a9f7 84bd 1169 143e 3748 a93d
000000a0: 31d2 0abd 2cbf e73b 3d83 c83c acf4 c23d
000000b0: d007 1c3c be9f 5cbd 4951 143c 7609 abbd
000000c0: 41a6 e6bc 0ef3 c13c 8268 1bbc a203 813b
000000d0: 5223 bcbc 0499 e2bd aa11 52bd 61a5 febc
000000e0: 927b 00bd 7faf cd3a 1c94 f8bc 40bf 37bd
000000f0: 162c 603c 052f 1d3d 94de a13d 62a4 c43a
00000100: 2ec2 fa3c c01b 8d3d 9b2b e83c c056 2c3d
00000110: b34c 84bd ba0c dd3c 5aeb a53c 283a 02be
00000120: 499c c33c 0479 9d3d e395 673d fe1d 053d
00000130: 5419 ed3d fb6c 163c 1e06 593c 692b d4bd
00000140: 31af a23a 54fa 5b3c be18 013c b8a8 003d
00000150: 0d31 5c3b 6faa 4fbd 235e c5bc 97a3 9fbc
00000160: a8b8 87bd 634c cebc 4225 2d3d ca42 013d
00000170: 9ae7 5b3d ef89 373d be13 a53c ab84 8f3b
00000180: 3fbe d93c 9071 3bbc 97b6 9c3d 2fca a2bd
00000190: a59f 8ebd 6123 42bc 9435 97bd 46be 97bd
000001a0: 1657 243e 74c1 463d 721b 963d 2062 0bbc
000001b0: a81d 143e b28f 0a3d f5ee 943b e970 2c3d
000001c0: 85fb 88bd d115 5b3d fafe 133e 1733 fb3d
000001d0: 55b3 71bd ba3c 383d 650c ca3d 96b8 81bd
000001e0: 283b 7abd e6f8 833d 5763 01bd 6b16 98bd
000001f0: 5365 09bc a854 2b3c 71a5 8d3d 77fc 663c
00000200: 048e 7b3c b25d dc3d 3a76 da3d 78c5 e5bc
00000210: 90a1 e2bc 5c1d 823d 914b 87bc 4135 25bd
00000220: f95b a33d 5a8a 98bc ebc4 093e 647a bb3d
00000230: 045c a5bb 355d 233d 5d5d f53c 7950 bf3d
00000240: 74ef 06bd 61c6 fa3c b24f f23c 85f2 90bd
00000250: 47ae 22bd dff2 48bd ea4f a1bd 5fa5 903c
00000260: 4cea 8e3d e1ac 42bd 817e 93bd e468 ddbd
00000270: d935 b73c bb6b cbbc 580e b13c 8ca8 fb3d
00000280: 0ec9 3eba 5eee 5fbd 57eb a33d a18e 2c3d
00000290: b8ef 5b3c 78cb 18be 641d 263d 35e1 d3bc
000002a0: 3746 343d 636b 91bb 10ac c7bd 7794 36bd
000002b0: 4338 ad3d a3fb dc3d ae8b 39bd 5bd2 5a3d
000002c0: 110d 19bd 2860 a43b 0751 0ebd af68 363c
000002d0: 6731 ba3c c68c 853d 850f f93d 92fa ab3d
000002e0: a80a 643d 9cde 7d3d b78c 083d e7e8 0d3d
000002f0: 7286 f0bc da76 7ebd c800 85ba 9910 d0bc
00000300: 45e5 debc 6767 4cbc 22b0 2b3e 83f1 96bd
00000310: 0cb7 2c3d d26c 953d 7c51 bf3d 76cc e8bd
00000320: 0f82 333e 801b 403e d6a7 ecbc 8ffa 0dbd
00000330: 588d 9e3d c0ef 1d3d 8865 18be 5c29 40bd
00000340: b833 8ebb b99d 243d 49d1 5cbd a983 d8bc
00000350: a681 f83d 3b39 453d fe72 bd39 2948 0bbd
00000360: 1c6e 043e 3f33 0a3e 24b6 153e 7b52 983d
00000370: b689 823d 7492 0bbc 8d72 93bd 0a06 923d
00000380: 1806 a5bd ee87 ddbd ab40 0a3d 4974 bc3d
00000390: ea97 35bd 95d8 0c3d 8d70 e83c 97df f13d
000003a0: cdf7 44bc 945f ebbd 67b1 a7bc 284b 663d
000003b0: c3b9 9f3c 6981 65bd ea15 70bd 8524 d33d
000003c0: 3467 003e c631 5abd 47de 2bbd 534f cebd
000003d0: a87b 953c 664e 17bd 6b62 05be 8d1f d9bc
000003e0: c898 8dbc 779a 4cbc 3d8e 24bd 80c6 0b3d
000003f0: 77c7 6bbc fdb8 39bd 1efd 883b 3c9b 503c

conv2.bias f4 [32]
0.10630615 0.013616608 -0.08293884 -0.063015394 0.0075936816 -0.00074305735 0.040277924 -0.020606933
0.05184324 0.010453681 0.002892051 -0.0054425527 0.020469988 0.038504448 0.1124198 0.03836956
-0.06587937 -0.0775205 0.0147992335 -0.08182697 0.096791156 0.023889853 -0.052609995 -0.029426804
-0.027140921 0.038518466 -0.15441209 0.061924122 -0.003580677 -0.055051867 0.027341487 -0.03076504
00000000: 0ab7 d93d 3218 5f3c d7db a9bd 370e 81bd
00000010: 6bd4 f83b bcc9 42ba 77fa 243d dfcf a8bc
00000020: 9459 543d eb45 2b3c 9088 3d3b 7157 b2bb
00000030: adb0 a73c d7b6 1d3d 5a3c e63d 6629 1d3d
00000040: c3eb 86bd 11c3 9ebd 7c78 723c e694 a7bd
00000050: 713a c63d a7b4 c33c 947d 57bd 7b10 f1bc
00000060: a356 debc 8ac5 1d3d 341e 1ebe 26a4 7d3d
00000070: cba9 6abb 117e 61bd 41fb df3c f706 fcbc

fc1.weight f4 [32, 512]
-0.1490211 0.009396889 0.055087414 0.03444364 0.08262289 0.066679746 -0.032230645 0.074888535
0.082255766 0.008710752 -0.102686234 0.14047328 0.01089393 0.019343983 0.08914116 0.027776193
0.063161775 -0.013420644 0.055417854 0.04402956 0.03435164 0.05523797 0.047156345 0.02722218
0.0062252637 0.07665282 -0.01451075 -0.018878065 -0.033447042 -0.014594153 0.062951095 0.004503962
0.0042390963 -0.0028427292 -0.14898205 0.032744855 0.04689463 0.15375504 -0.020324092 -0.002813651
-0.010367771 0.056060277 0.053466275 0.024673501 -0.04794499 -0.026808754 -0.053579014 0.016842235
0.035923015 -0.013869028 -0.015701734 -0.012064764 -0.030077798 0.05107434 0.04174187 -0.051257014
0.12808082 0.021832729 -0.0011875299 0.047854267 0.043112703 -0.03863491 0.006720774 -0.030755917
0.04032037 0.076092385 -0.054088518 -0.0046969308 -0.045328937 -0.006145883 -0.012313682 -0.039064646
-0.07902572 -0.016734375 0.033660367 -0.03670254 -0.09653672 -0.076244906 -0.041029967 -0.11322494
-0.058670394 -0.04393722 -0.030596504 0.109514646 -0.095877625 -0.043214705 -0.006196951 -0.033315234
0.02943049 -0.045390025 -0.09332678 -0.02760101 -0.058122408 0.0059838435 0.08907214 0.0071997014
0.07716582 -0.15514483 0.11698146 0.021473829 0.0026471568 -0.053301975 0.04800828 0.10737062
0.030335324 0.03541942 -0.038140096 -0.012483399 0.07183775 0.003419601 0.058586825 -0.03758807
-0.0038118172 -0.13703473 0.12867641 0.010590968 0.1286368 0.0034872051 0.043935012 0.055755652
0.025505861 0.042718865 0.054747254 0.08227789 -0.02097443 -0.111634076 0.039222427 -0.01758109
-0.0541195 -0.0046572043 -0.07848465 0.09264529 -0.076327145 -0.03148124 0.010588868 0.05992465
0.05776656 -0.023976685 0.063617274 -0.022539342 0.12085801 0.033964794 -0.008808601 -0.075393006
0.056121457 0.015086507 0.02956823 0.045740806 0.106902346 0.0097240135 0.031823743 -0.021531291
0.045115132 -0.01580739 0.023175912 0.004589532 -0.014785112 -0.08396952 0.036603816 0.051495884
-0.0424618 0.026131626 0.039123327 -0.035946097 0.00068862305 0.005837683 -0.0015108009 0.034118563
-0.0014580194 0.026034918 -0.076013796 -0.03312505 0.12308743 0.0061815595 0.015906526 -0.13586672
0.07518788 0.010380561 0.052850444 0.0919205 -0.005046577 -0.0761781 0.12705223 -0.033217557
-0.02069186 -0.07824215 -0.002031379 -0.017402913 0.021709353 -0.011087577 0.025887735 0.0030518644
0.012674013 -0.025776261 -0.014656738 -0.012783029 -3.6231635e-05 0.03151614 -0.13534282 0.0034364832
-0.014675931 -0.05212846 -0.043256424 -0.017849853 0.06144722 -0.011833398 0.024416238 0.07108682
0.03737492 -0.088301 0.042150326 0.040599037 -0.12220066 -2.4527822e-05 0.030325597 0.14168276
0.11953198 -0.016769292 0.017125035 0.08286081 0.058931507 0.06754905 -0.042369306 -0.0584585
0.050507933 -0.085683644 0.115174025 0.034474857 0.06298194 -0.0019507792 0.078647785 -0.0074897585
-0.11333126 0.041974712 0.050637443 0.06872124 0.019877104 -0.047305346 -0.0030712062 0.1348964
0.043365452 -0.079191014 -0.03306567 -0.05081309 -0.075734474 0.0048216227 -0.14948346 -0.057985913
0.051819924 -0.023883922 -0.0038847066 -0.12206534 0.017004471 -0.034681458 -0.047115423 0.047103103
00000000: fd98 18be 69f5 193c 57a3 613d c614 0d3d
00000010: 3136 a93d 648f 883d 4804 04bd 295f 993d
00000020: b675 a83d 8bb7 0e3c 294d d2bd 3ad8 0f3e
00000030: 747c 323c 4677 9e3c a48f b63d e68a e33c
00000040: f65a 813d 43e2 5bbc d5fd 623d 5758 343d
00000050: 4eb4 0c3d 3641 623d 0327 413d 0d01 df3c
00000060: 4cfd cb3b 27fc 9c3d 7fbe 6dbc 2ca6 9abc
00000070: c4ff 08bd 501c 6fbc 81ec 803d f995 933b
00000080: 1ee8 8a3b 154d 3abb c08e 18be 781f 063d
00000090: 9514 403d f671 1d3e b67e a6bc 3b65 38bb
000000a0: 95dd 29bc 769f 653d 74ff 5a3d 1520 ca3c
000000b0: f761 44bd 089e dbbc ab75 5bbd baf8 893c
000000c0: 0324 133d eb3a 63bc eca0 80bc 4aab 45bc
000000d0: b765 f6bc 5433 513d 86f9 2a3d e0f2 51bd
000000e0: 9e27 033e 8dda b23c e4a6 9bba d602 443d
000000f0: f296 303d a43f 1ebd f039 dc3b d5f3 fbbc
00000100: f926 253d 53d6 9b3d ec8b 5dbd b6e8 99bb
00000110: d6aa 39bd 6763 c9bb 53bf 49bc 4002 20bd
00000120: 3dd8 a1bd 8716 89bc 74df 093d 6755 16bd
00000130: 0bb5 c5bd 4a26 9cbd 0a0f 28bd 7ae2 e7bd
00000140: 5e50 70bd 84f7 33bd 85a5 fabc 3749 e03d
00000150: 7d5b c4bd e701 31bd cb0f cbbb 8e75 08bd
00000160: 3618 f13c e4ea 39bd 1c22 bfbd 831b e2bc
00000170: c311 6ebd 1e14 c43b 746b b63d 79eb eb3b
00000180: 1d09 9e3d 49de 1ebe fa93 ef3d e2e9 af3c
00000190: ec7b 2d3b 2c53 5abd 55a4 443d 21e5 db3d
000001a0: c981 f83c f413 113d ca38 1cbd 2c87 4cbc
000001b0: ac1f 933d 621b 603b bdf8 6f3d f3f5 19bd
000001c0: aecf 79bb d552 0cbe c0c3 033e bd85 2d3c
000001d0: 5eb9 033e 9889 643b 33f5 333d 0a60 643d
000001e0: abf1 d03c faf9 2e3d a83e 603d 4f81 a83d
000001f0: 91d2 abbc 68a0 e4bd b2a7 203d 3806 90bc
00000200: 69ac 5dbd 769b 98bb 8fbc a0bd d0bc bd3d
00000210: 6851 9cbd 79f2 00bd ee7c 2d3c 8d73 753d
00000220: a19c 6c3d c16a c4bc c649 823d 6da4 b8bc
00000230: 6884 f73d ab1e 0b3d f351 10bc a667 9abd
00000240: 9ddf 653d 662d 773c 1339 f23c b65a 3b3d
00000250: 9eef da3d 7851 1f3c 9d59 023d 6462 b0bc
00000260: a5ca 383d 807e 81bc 69db bd3c c963 963b
00000270: 413d 72bc 36f8 abbd e2ed 153d 59ed 523d
00000280: 6dec 2dbd fe11 d63c c83f 203d 373c 13bd
00000290: b684 343a 094a bf3b 1106 c6ba e8bf 0b3d
000002a0: 031b bfba 2e47 d53c 1fad 9bbd 22ae 07bd
000002b0: 4315 fc3d ae8e ca3b 674e 823c a520 0bbe
000002c0: 1afc 993d 3b13 2a3c b579 583d d140 bc3d
000002d0: c25d a5bb 4403 9cbd fb19 023e 220f 08bd
000002e0: fa81 a9bc 6c3d a0bd e220 05bb 8e90 8ebc
000002f0: d0d7 b13c aba8 35bc 8412 d43c ca01 483b
00000300: aaa6 4f3c bd28 d3bc d122 70bc e96f 51bc
00000310: 6cf7 17b8 1117 013d 4f97 0abe 9f36 613b
00000320: 5173 70bc a784 55bd a62d 31bd db39 92bc
00000330: 15b0 7b3d dee0 41bc 9004 c83c f795 913d
00000340: 7216 193d 28d7 b4bd d2a5 2c3d 2d4b 263d
00000350: 5744 fabd 19c1 cdb7 636d f83c 4915 113e
00000360: 2fcd f43d c15f 89bc cd49 8c3c eeb2 a93d
00000370: 2a62 713d 2857 8a3d 708b 2dbd 2e72 6fbd
00000380: 68e1 4e3d e87a afbd 5ce0 eb3d 8235 0d3d
00000390: adfc 803d 4ab1 ffba 1712 a13d a66c f5bb
000003a0: 381a e8bd aded 2b3d 3569 4f3d b9bd 8c3d
000003b0: 4fd5 a23c 40c3 41bd 4a46 49bb 4822 0a3e
000003c0: f99f 313d e62e a2bd de6f 07bd 6321 50bd
000003d0: ad1a 9bbd b4fe 9d3b 3112 19be a382 6dbd
000003e0: 2141 543d 37a8 c3bc 9096 7ebb 65fd f9bd
000003f0: f64c 8b3c 250e 0ebd 1afc 40bd 2fef 403d

fc1.bias f4 [32]
-0.022839135 0.051992074 0.09813638 0.02209473 -0.0019979957 0.118796706 -0.008758062 -0.055591103
-0.022307927 0.019203296 0.0032416605 -0.0013199184 0.0665806 -0.10654088 -0.01028611 0.065678075
0.00079555344 -0.0064700698 0.008450062 0.081772864 0.032610286 0.008837808 -0.06509973 -0.016427802
0.03794326 -0.008852645 0.044805456 -0.046654496 -0.115334235 -0.022479864 0.013047999 -0.016945658
00000000: 2319 bbbc a4f5 543d bafb c83d 0200 b53c
00000010: cef0 02bb b04b f33d f97d 0fbc 7fb3 63bd
00000020: 1dbf b6bc 3b50 9d3c 0a72 543b 1d01 adba
00000030: 695b 883d 1b32 dabd 1387 28bc 3a82 863d
00000040: b08c 503a e102 d4bb 2172 0a3c 8878 a73d
00000050: 5d92 053d 74cc 103c 0253 85bd 9993 86bc
00000060: 646a 1b3d af0a 11bc ed85 373d c918 3fbd
00000070: 5b34 ecbd b127 b8bc 46c7 553c 9fd1 8abc

fc2.weight f4 [10, 32]
0.1354304 -0.13355272 0.2669098 0.20635429 -0.05766179 -0.05958268 -0.18808393 -0.07956994
-0.07263303 0.027491685 -0.38957942 -0.12611085 0.112989254 0.034351762 0.049437325 -0.14091885
-0.014236935 -0.07688734 0.11524071 -0.15181077 0.10507378 0.18366766 -0.12970956 0.018810902
0.17164007 0.2211318 0.08660686 -0.1024584 -0.25653842 -0.1129585 -0.077067666 -0.19423239
0.016554762 -0.052304346 0.27716166 -0.096567795 0.04218918 0.22479182 0.006935641 0.14086361
0.14174803 -0.1681327 0.21561113 -0.058452345 0.04641201 0.028246814 -0.0938859 -0.20717657
0.053984985 0.11359264 -0.109544694 0.22130534 -0.35869843 -0.29211327 0.14564636 -0.06577117
-0.3421337 0.18279955 -0.015164161 0.041542362 0.032910053 -0.06520064 0.07180501 -0.19556378
-0.062381644 0.20080356 -0.15352347 0.050724886 -0.035507068 -0.27557594 -0.14013769 0.065328844
-0.118847564 -0.2046456 -0.124849185 -0.066312626 -0.1106282 0.03234689 0.0936983 -0.09343927
-0.028923128 -0.042035855 0.040240098 0.13700114 0.26474413 -0.24089481 0.28470218 -0.18121497
0.10477402 0.049222734 -0.043038692 0.0102591375 0.2704362 0.011078376 0.2067284 -0.3040421
-0.109960094 0.053208996 -0.11846599 -0.06359584 -0.1613773 -0.08344542 -0.19262983 -0.00324287
-0.12570675 0.14033835 -0.011624339 -0.09224372 0.031477604 0.06952518 -0.005200643 -0.08640521
0.04512643 0.25315726 0.07607878 0.37661928 0.24045108 -0.004018396 -0.12269151 -0.085561484
0.03069141 -0.21310006 -0.09114562 0.26485816 0.050113417 0.05927574 -0.15601021 -0.029589057
0.2997514 0.25026214 -0.023167841 0.06928189 0.17454098 -0.13062155 0.036256094 0.14185831
-0.045803905 0.09294107 -0.042435884 0.077029996 0.004598998 -0.27744308 0.08631661 0.023705212
-0.06543552 -0.14736356 0.021206003 0.16777034 -0.33215034 -0.14522393 -0.28471997 -0.21814707
-0.008893214 -0.14563924 -0.18959044 -0.11525971 -0.04420542 0.05584726 -0.033311233 0.15861781
-0.21486124 0.03775627 0.03638059 -0.18857288 0.17432034 -0.18973003 -0.0024917137 -0.058002487
-0.096716054 0.04470468 0.11736548 0.116291516 0.09801623 -0.07716982 -0.24999861 0.024260836
0.13136193 -0.09198484 0.107153215 0.016693931 0.11918093 0.16062781 -0.2889554 0.027495075
-0.054088324 0.09883121 -0.21368276 -0.018173836 0.018574258 -0.065493986 0.00033479743 0.0020986919
0.08235754 0.11188161 0.14031538 -0.08322136 -0.13218164 0.039642412 0.092665106 -0.23967065
0.016239798 -0.11791291 -0.35576177 0.2236813 -0.11056336 0.030301625 -0.045460843 -0.0020706279
0.08704134 -0.2653414 -0.06193488 0.059747595 -0.15694194 0.13550168 -0.02700662 0.1399892
0.085256405 0.041594993 -0.09182457 -0.25405756 0.3179713 0.04815283 -0.0038726928 0.068099536
0.16690223 -0.0058051175 -0.14509028 -0.051898465 -0.22878121 0.012948382 0.0646652 0.12616806
-0.08017778 0.04728134 0.42265177 -0.08362258 -0.15633483 -0.054171078 -0.08547314 -0.2234783
0.15178226 0.054706223 0.09831779 -0.006229971 0.081161745 -0.031457737 -0.05226122 -0.040061947
-0.0081789335 0.04036078 0.10688845 0.11319233 -0.27728692 -0.08939044 0.26175252 0.21416599
00000000: 44ae 0a3e 0bc2 08be 67a8 883e 8a4e 533e
00000010: c52e 6cbd f80c 74bd 1399 40be 91f5 a2bd
00000020: a0c0 94bd 3e36 e13c f476 c7be 3423 01be
00000030: e966 e73d 6fb4 0c3d cb7e 4a3d 084d 10be
00000040: 0942 69bc 1c77 9dbd 5203 ec3d 4874 1bbe
00000050: ec30 d73d 6013 3c3e 95d2 04be 5219 9a3c
00000060: 6ac2 2f3e 6070 623e f05e b13d b6d5 d1bd
00000070: 0159 83be c956 e7bd a7d5 9dbd dbe4 46be
00000080: da9d 873c 153d 56bd 22e8 8d3e 56c5 c5bd
00000090: 90ce 2c3d d42f 663e 6044 e33b 8d3e 103e
000000a0: 6526 113e fa2a 2cbe 2ac9 5c3e ba6b 6fbd
000000b0: 851a 3e3d dd65 e73c 4047 c0bd 1826 54be
000000c0: 5c1f 5d3d 42a3 e83d f858 e0bd de9d 623e
000000d0: 52a7 b7be df8f 95be 5224 153e 09b3 86bd
000000e0: 262c afbe ce2f 3b3e 1a73 78bc 5328 2a3d
000000f0: b1cc 063d ea87 85bd 810e 933d df41 48be
00000100: e583 7fbd 739f 4d3e 4235 1dbe e6c4 4f3d
00000110: dc6f 11bd 4a18 8dbe 4180 0fbe 21cb 853d
00000120: 5a66 f3bd 9e8e 51be eeb0 ffbd eace 87bd
00000130: 0a91 e2bd 2c7e 043d e5e4 bf3d 175d bfbd
00000140: 32f0 ecbc ca2d 2cbd cdd2 243d 074a 0c3e
00000150: 8b8c 873e 21ad 76be 7cc4 913e 6b90 39be
00000160: c393 d63d c79d 493d 5749 30bd f115 283c
00000170: 9d76 8a3e 1482 353c 9cb0 533e 68ab 9bbe
00000180: c232 e1bd adf1 593d 4c9e f2bd 893e 82bd
00000190: 1740 25be 6fe5 aabd c140 45be 5586 54bb
000001a0: 45b9 00be dbb4 0f3e 0374 3ebc 47ea bcbd
000001b0: a9ee 003d 3863 8e3d 286a aabb 37f5 b0bd
000001c0: 7ed6 383d d49d 813e 31cf 9b3d 3ed4 c03e
000001d0: cf38 763e c0ac 83bb b045 fbbd dc3a afbd
000001e0: 8d6c fb3c e736 5abe 8eaa babd 7d9b 873e
000001f0: ba43 4d3d 1ecb 723d 24c1 1fbe c064 f2bc
00000200: 0479 993e 5c22 803e 7cca bdbc aae3 8d3d
00000210: dfba 323e a8c1 05be 4581 143d 4e43 113e
00000220: e09c 3bbd e357 be3d 40d1 2dbd e7c1 9d3d
00000230: 31b3 963b 050d 8ebe c3c6 b03d 6f31 c23c
00000240: 0f03 86bd 79e6 16be 36b8 ad3c fdcb 2b3e
00000250: 9c0f aabe 95b5 14be d1c6 91be f261 5fbe
00000260: d8b4 11bc 7422 15be ff23 42be 480d ecbd
00000270: be10 35bd 19c0 643d 5c71 08bd b56c 223e
00000280: 9604 5cbe 52a6 1a3d d003 153d 4019 41be
00000290: 0881 323e 9748 42be 054c 23bb 0494 6dbd
000002a0: 1113 c6bd 411c 373d 505d f03d 3f2a ee3d
000002b0: bcbc c83d 360b 9ebd a3ff 7fbe a9be c63c
000002c0: be83 063e 8c62 bcbd 2573 db3d b6c1 883c
000002d0: 2215 f43d 9e7b 243e f6f1 93be 5a3d e13c
000002e0: b88b 5dbd 0468 ca3d a7cf 5abe 4ce1 94bc
000002f0: 0b29 983c b621 86bd c087 af39 358a 093b
00000300: 12ab a83d 2f22 e53d d6ae 0f3e f66f aabd
00000310: a05a 07be 1560 223d 34c7 bd3d 396c 75be
00000320: 5309 853c 537c f1bd 6826 b6be b60c 653e
00000330: 0b6f e2bd 1d3b f83c 2635 3abd 5fb3 07bb
00000340: bb42 b23d d4da 87be 6eaf 7dbd e5b9 743d
00000350: 63b5 20be f4c0 0a3e fd3c ddbc 5459 0f3e
00000360: e99a ae3d 835f 2a3d 850e bcbd d513 82be
00000370: 22cd a23e e73b 453d 01cd 7dbb c577 8b3d
00000380: 6be8 2a3e db38 bebb 8c92 14be 7c93 54bd
00000390: 9f45 6abe 7325 543c 306f 843d 3332 013e
000003a0: 3f34 a4bd 14aa 413d d065 d83e 5142 abbd
000003b0: 3d16 20be 7ee2 5dbd 8b0c afbd 7fd7 64be
000003c0: cf6c 1b3e a213 603d d65a c93d c924 ccbb
000003d0: 2138 a63d d4d9 00bd dc0f 56bd ff17 24bd
000003e0: ef00 06bc 5851 253d 55e8 da3d 61d1 e73d
000003f0: 8df8 8dbe 5612 b7bd 6d04 863e 544e 5b3e

fc2.bias f4 [10]
0.008132135 0.07123362 -0.11843025 0.14704503 0.14165941 0.08764509 -0.13679597 -0.0022429028
0.04504183 -0.143144
00000000: a53c 053c efe2 913d 8f8b f2bd f992 163e
00000010: 2a0f 113e 457f b33d 3e14 0cbe aafd 12bb
00000020: c87d 383d 5794 12be
