Codes/mnist_cnn_mnist_10_False_0.1_1.0_1.0_64_1.pt (torch, 106255 bytes, 8 tensors)

conv1.weight f4 [16, 1, 8, 8]
0.056328513 -0.06305753 -0.109715424 0.08849275 -0.08075168 -0.07620543 -0.015949238 0.22509806
-0.09167962 -0.07068865 0.0059781815 0.031883948 0.06975122 -0.07601973 0.07171001 0.21655554
-0.06779051 -0.10640135 -0.030540109 0.0049800402 0.05850349 -0.05047338 -0.10911141 -0.070113234
-0.18281548 -0.17128097 -0.13230664 -0.10273148 -0.11172211 0.16309233 0.111586735 0.14873102
0.04968869 0.053142697 0.096275195 -0.045607638 0.12772237 0.040956363 0.20211037 0.050287664
0.10484925 -0.0032661583 -0.016474446 -0.01747979 -0.057685196 0.037896995 0.0016684254 -0.03044886
-0.123981476 -0.033086434 -0.041111782 0.21302564 -0.02531035 -0.014990317 -0.026896495 0.09458324
-0.07187205 -0.04728622 0.023429332 0.16080315 -0.08345555 -0.15307818 0.09535111 0.1179648
0.10191436 0.12580325 0.05280281 -0.011407491 -0.0710912 0.08671174 0.17947142 -0.101755574
-0.027311407 0.003875264 -0.06069537 -0.025874974 -0.10853076 0.010333537 -0.14023705 -0.1486278
-0.19123659 -0.051615633 0.12203785 0.05446681 0.1628313 -0.08466712 -0.04846889 0.058068894
-0.09416062 0.014870588 -0.06936954 0.17864364 0.04276021 0.01500274 -0.09771252 0.08222809
-0.030418301 -0.02114431 -0.023432389 -0.06094295 0.048946887 0.17495443 0.13314284 0.0411799
-0.09547485 0.18441711 0.06837874 0.0039657475 0.10978538 0.08281484 0.14612038 0.058846574
0.105221316 0.03345264 0.08912997 -0.07953382 0.015698735 -0.077651024 -0.063488565 0.07784348
0.053598017 0.0839718 -0.08611713 -0.06283407 0.13643007 0.0448444 -0.10400876 -0.008872587
-0.22800438 0.010819621 -0.040971305 -0.0424658 -0.11436319 0.098992445 -0.089711174 -0.0836939
0.0048562116 0.17104934 -0.15788901 -0.1341214 -0.090621874 0.08990327 0.13829033 -0.14997272
-0.004769402 -0.017968968 0.06702924 -0.011453141 0.08210593 -0.008030716 -0.06951067 -0.0017900045
-0.041835014 -0.0060913954 -0.051476557 -0.06917685 0.14802185 0.15640192 0.10179535 -0.045060053
-0.19612423 -0.09315368 -0.0016315262 -0.0133594945 -0.10519034 0.12140113 -0.09996646 0.06264302
-0.10250099 0.032425053 0.034753945 0.14866503 0.1352563 0.014921198 0.10331288 -0.13063057
0.06405296 -0.119917616 0.14381579 0.0130361635 0.064647675 0.13223745 0.22852832 0.18272269
-0.054799207 0.035573855 0.046218432 0.1753259 0.27351254 0.22284794 0.095000975 0.035717547
-0.09731479 -0.15208879 0.05502352 -0.20326237 -0.004907353 0.1671065 -0.068379365 -0.08637243
-0.13644816 0.16056223 0.12912129 0.072306074 0.069892235 -0.004877537 0.057840925 -0.010535523
-0.011255409 0.16345844 0.1734114 0.029003218 -0.058115445 -0.082309335 0.030551113 0.025535962
0.11940178 0.02649699 0.040817793 0.056270067 0.15229806 -0.028829107 0.0006132998 0.008276983
-0.041497294 -0.03050217 0.11449729 0.12739877 0.23564664 0.20358355 0.056777965 -0.09665323
0.06792662 0.056290235 0.12901108 0.090551466 0.16246551 0.06445013 -0.044154555 0.17258815
-0.03077594 0.110928826 0.07090077 0.08411131 0.11132532 0.031476878 0.0037380063 -0.127512
-0.091023475 0.059697706 -0.04032231 0.01652823 0.09413623 0.0021325764 -0.08158103 0.04026062
00000000: bab8 663d 4e24 81bd 7bb2 e0bd b03b b53d
00000010: 2361 a5bd 9811 9cbd faa7 82bc 1b80 663e
00000020: 86c2 bbbd 36c5 90bd 9fe4 c33b be98 023d
00000030: bad9 8e3d 3bb0 9bbd b3dc 923d bcc0 5d3e
00000040: c0d5 8abd f3e8 d9bd 402f fabc 9b2f a33b
00000050: 5ba1 6f3d 2dbd 4ebd ce75 dfbd 8797 8fbd
00000060: fb33 3bbe 4764 2fbe 647b 07be e264 d2bd
00000070: 90ce e4bd ad01 273e 9687 e43d f24c 183e
00000080: 5e86 4b3d 28ac 593d ee2b c53d 13cf 3abd
00000090: a7c9 023e dcc1 273d 05f6 4e3e 70fa 4d3d
000000a0: 34bb d63d 0b0d 56bb 6bf5 86bc c731 8fbc
000000b0: 5047 6cbd e139 1b3d 11af da3a e36f f9bc
000000c0: 00ea fdbd a485 07bd d464 28bd 6523 5a3e
000000d0: a757 cfbc f299 75bc 0a56 dcbc dcb4 c13d
000000e0: a731 93bd 32af 41bd dfee bf3c 95a9 243e
000000f0: beea aabd 87c0 1cbe 7147 c33d 8797 f13d
00000100: 7ab8 d03d 91d2 003e c247 583d 7ce6 3abc
00000110: 4398 91bd ed95 b13d 5bc7 373e 3a65 d0bd
00000120: 2cbc dfbc 24f8 7d3b b59b 78bd c1f7 d3bc
00000130: 6045 debd ff4d 293c 4d9a 0fbe e331 18be
00000140: 86d3 43be ea6a 53bd fbee f93d 9718 5f3d
00000150: 40bd 263e f465 adbd 5187 46bd a6d9 6d3d
00000160: 48d7 c0bd c4a3 733c 9e11 8ebd 5cee 363e
00000170: 5425 2f3d 0dce 753c 801d c8bd 3367 a83d
00000180: cd2f f9bc d536 adbc 48f5 bfbc 519f 79bd
00000190: 887c 483d 4127 333e 9956 083e 41ac 283d
000001a0: 5188 c3bd d7d7 3c3e 270a 8c3d 1af3 813b
000001b0: 28d7 e03d d49a a93d 95a0 153e 1b09 713d
000001c0: 467e d73d a305 093d c689 b63d a1e2 a2bd
000001d0: a29a 803c 8007 9fbd 4b06 82bd 676c 9f3d
000001e0: 9889 5b3d 68f9 ab3d 2e5e b0bd 26af 80bd
000001f0: 53b4 0b3e c3ae 373d 8b02 d5bd 545e 11bc
00000200: fb79 69be c844 313c 87d1 27bd 9ef0 2dbd
00000210: 4037 eabd 8dbc ca3d 7eba b7bd b567 abbd
00000220: db20 9f3b 8f27 2f3e a8ad 21be 1f57 09be
00000230: f697 b9bd 351f b83d fb9b 0d3e 7392 19be
00000240: a548 9cbb a833 93bc a046 893d f5a5 3bbc
00000250: 2727 a83d 4493 03bc 9c5b 8ebd 969e eaba
00000260: 315b 2bbd 549a c7bb 15d9 52bd 98ac 8dbd
00000270: 0a93 173e d327 203e 157a d03d e490 38bd
00000280: cad4 48be 5bc7 bebd efd8 d5ba c8e1 5abc
00000290: 086e d7bd 28a1 f83d 37bb ccbd fc4a 803d
000002a0: 0aec d1bd 22d0 043d 275a 0e3d a53b 183e
000002b0: a180 0a3e 0a78 743c b495 d33d 05c4 05be
000002c0: 332e 833d 5e97 f5bd 7244 133e a295 553c
000002d0: 0066 843d 4169 073e 5403 6a3e a81b 3b3e
000002e0: 2275 60bd e4b5 113d 8a4f 3d3d a288 333e
000002f0: d609 8c3e 4032 643e df8f c23d 904c 123d
00000300: fa4c c7bd 2abd 1bbe 5860 613d 0324 50be
00000310: dccd a0bb f71d 2b3e 7b0a 8cbd 07e4 b0bd
00000320: 11b9 0bbe 6d6a 243e 5f38 043e 3515 943d
00000330: a923 8f3d bfd3 9fbb 9bea 6c3d 309d 2cbc
00000340: 9b68 38bc a661 273e c292 313e 2898 ed3c
00000350: 760a 6ebd cc91 a8bd 5446 fa3c cb30 d13c
00000360: ec88 f43d 3710 d93c 8f30 273d 717b 663d
00000370: 06f4 1b3e 052b ecbc dac5 203a 2f9c 073c
00000380: 11f9 29bd b0df f9bc 8e7d ea3d d374 023e
00000390: 5a4d 713e 3578 503e 0390 683d 21f2 c5bd
000003a0: 1d1d 8b3d 9790 663d 7b1b 043e 0c73 b93d
000003b0: 5c5d 263e 6efe 833d 68db 34bd f3ba 303e
000003c0: d31d fcbc a72e e33d 6c34 913d 8d42 ac3d
000003d0: 88fe e33d e6ed 003d 57f9 743b 8192 02be
000003e0: 846a babd 9585 743d 0229 25bd 3666 873c
000003f0: 7fca c03d b2c2 0b3b f413 a7bd 52e8 243d

conv1.bias f4 [16]
-0.079923175 0.11016819 0.06880349 0.077280834 -0.10841996 -0.019282762 0.038411714 0.08770111
-0.043259535 -0.007235666 0.061544307 -0.06790903 0.1317678 0.062431175 0.13876353 -0.068154246
00000000: c3ae a3bd dc9f e13d d8e8 8c3d 6a45 9e3d
00000010: 490b debd e2f6 9dbc 9a55 1d3d a49c b33d
00000020: e930 31bd 2a19 edbb e215 7c3d e413 8bbd
00000030: 23ee 063e d5b7 7f3d 0718 0e3e 7494 8bbd

conv2.weight f4 [32, 16, 4, 4]
-0.013688024 0.02018829 -0.13353658 0.030536544 -0.06789442 0.055540495 -0.061892968 -0.045375697
-0.058422145 -0.12918755 -0.0115312645 0.054671954 0.053096995 0.023594359 -0.0730946 -0.07064334
7.6642646e-05 0.04969062 0.026386222 -0.03868607 0.03704255 0.038463168 0.04008247 -0.010721223
0.13729163 0.026468998 0.002622088 -0.014587814 -0.1217815 0.089646414 0.00063638296 0.04495671
-0.028647719 0.046976224 0.11241939 -0.012928927 -0.023567343 0.046811685 0.08357723 -0.013214773
0.14949813 0.079089686 0.09405179 0.095167294 0.08689143 0.1205964 0.11024614 -0.08033989
0.038078383 -0.057170212 -0.085867964 -0.026629506 -0.022126062 -0.00021193457 -0.031100323 0.024848213
-0.15467316 -0.02051301 0.014761787 0.017046869 0.0050564203 -0.0078123356 -0.069151215 -0.03719743
-0.005635514 -0.012572835 -0.009741178 -0.08308247 0.046524584 0.08957924 0.022786869 0.034179658
0.058822397 -0.037120096 -0.0035882583 0.12938139 -0.015635168 0.09904975 0.022724805 0.004842925
0.11399553 0.068066016 0.025017632 -0.11500138 -0.08198874 0.046914622 -0.0071188505 0.054453194
0.13764228 0.074120976 -0.06988696 0.061363038 0.032767545 -0.12817661 -0.03233726 -0.087975524
-0.07215204 0.049145263 -0.08200217 -0.076156475 0.010432592 0.060879555 0.016415099 -0.10955665
0.15737666 -0.0774786 -0.029265624 0.07214738 -0.030493552 0.03522894 0.091725945 -0.05264955
-0.05935847 0.0055583525 0.08275439 0.107805714 -0.12460832 0.021327656 0.061014894 0.030781105
0.024786167 0.03458645 -0.0892322 0.007456329 -0.058441274 0.018486029 -0.028747994 -0.083719775
0.015114719 -0.011107882 -0.1152262 -0.057619646 -0.024686063 -0.03597728 -0.098753124 0.042855594
0.08205856 -0.11029085 0.059041787 0.031689174 0.069292314 -0.008351551 -0.08975434 -0.06605285
0.06782869 0.032654513 -0.025183538 -0.07781195 -0.03760671 0.019992935 -0.07497132 -0.080132
0.08634727 -0.03314181 0.007913033 -0.056695975 -0.049610276 0.036163375 -0.051593512 -0.049969405
0.017653726 -0.053588115 -0.01437928 0.03719699 0.104064606 0.054777965 0.04985645 0.06468057
-0.056222614 -0.14653984 0.020645645 0.10180916 -0.06339517 -0.028764702 -0.06337808 0.034331188
-0.06364723 0.04041175 -0.007605146 -0.021676134 -0.10778201 0.03954187 -0.050163403 0.07916334
0.093336694 -0.0116856145 0.037310056 -0.011075621 0.0026149047 0.03264379 0.0030387596 -0.0004903865
-0.08890942 0.05441203 -0.045724034 0.008493677 0.051887747 0.044332433 0.044562258 0.116590075
0.06348842 0.07082914 0.07178313 -0.032884266 0.046792604 -0.00630892 0.0655502 0.12074493
0.01700635 -0.06846486 0.06852477 0.10561531 -0.049626704 -0.08930403 -0.019982774 -0.06557937
-0.080980316 0.058647264 0.047892723 -0.029607773 -0.104129694 -0.04571165 0.03443546 -0.07394295
0.030670034 0.071681865 -0.03329197 0.038738858 0.009537454 0.07615156 -0.062174242 -0.0936025
-0.048961148 0.072482295 0.033676047 -0.0045932964 -0.027636388 -0.13904732 0.050680365 -0.11687855
0.074128285 -0.11753244 -0.024371015 0.021573592 -0.04736082 0.00583134 -0.0058742426 -0.060964398
0.019286796 0.010592435 0.040060267 -0.05920299 0.03795598 0.056787714 0.070776194 -0.07728087
00000000: bc43 60bc ea61 a53c d0bd 08be c627 fa3c
00000010: 3b0c 8bbd 6e7e 633d 7b83 7dbd dedb 39bd
00000020: 0f4c 6fbd be49 04be a1ed 3cbc b3ef 5f3d
00000030: 3c7c 593d f548 c13c 9fb2 95bd 75ad 90bd
00000040: 35bb a038 6488 4b3d eb27 d83c 4975 1ebd
00000050: eeb9 173d 8e8b 1d3d 842d 243d 12a8 2fbc
00000060: 2d96 0c3e 83d5 d83c 56d7 2b3b ba01 6fbc
00000070: 9468 f9bd 8a98 b73d f0d2 263a 8724 383d
00000080: 9fae eabc 246a 403d 233c e63d dad3 53bc
00000090: 4d10 c1bc 9cbd 3f3d 8a2a ab3d c682 58bc
000000a0: 0a16 193e c6f9 a13d 3a9e c03d 12e7 c23d
000000b0: 22f4 b13d 3ffb f63d bac8 e13d 3e89 a4bd
000000c0: 14f8 1b3d 502b 6abd 8bdb afbd 1f26 dabc
000000d0: b741 b5bc c13a 5eb9 1bc6 febc 7b8e cb3c
000000e0: a462 1ebe e60a a8bc 6cdb 713c e0a5 8b3c
000000f0: 54b0 a53b 9ffe ffbb 279f 8dbd 555c 18bd
00000100: 1eaa b8bb 4bfe 4dbc 7699 1fbc 2427 aabd
00000110: 9090 3e3d 5275 b73d 87ab ba3c f8ff 0b3d
00000120: c1ef 703d 3e0b 18bd fc28 6bbb 8e7c 043e
00000130: 5315 80bc 98da ca3d 5f29 ba3c 66b1 9e3b
00000140: 7d76 e93d 3266 8b3d c7f1 cc3c d885 ebbd
00000150: b6e9 a7bd 8c29 403d 3f45 e9bb 500a 5f3d
00000160: 19f2 0c3e bdcc 973d e520 8fbd cf57 7b3d
00000170: 4337 063d bb40 03be 1374 04bd 832c b4bd
00000180: 73c4 93bd 8b4c 493d c1f0 a7bd edf7 9bbd
00000190: 76ed 2a3c d75c 793d f578 863c 3d5f e0bd
000001a0: 5927 213e 1aad 9ebd 76be efbc 01c2 933d
000001b0: 9dcd f9bc 394c 103d d0da bb3d 0ea7 57bd
000001c0: de21 73bd d722 b63b 227b a93d 3ec9 dc3d
000001d0: a632 ffbd 56b7 ae3c c1ea 793d a828 fc3c
000001e0: 5c0c cb3c 85aa 0d3d 5fbf b6bd 3954 f43b
000001f0: 1e60 6fbd 0370 973c ea80 ebbc 4675 abbd
00000200: baa3 773c d5fd 35bc b7fb ebbd 9402 6cbd
00000210: 6d3a cabc ea5c 13bd 143f cabd 5989 2f3d
00000220: 510e a83d 2be0 e1bd cdd5 713d 82cc 013d
00000230: 21e9 8d3d f2d4 08bc 20d1 b7bd b746 87bd
00000240: c5e9 8a3d bdc0 053d b54d cebc df5b 9fbd
00000250: 7e09 1abd 39c8 a33c 908a 99bd 3f1c a4bd
00000260: d6d6 b03d b5bf 07bd aaa5 013c 0a3a 68bd
00000270: 2534 4bbd 0c20 143d b853 53bd b8ac 4cbd
00000280: 8c9e 903c 367f 5bbd 1297 6bbc df5b 183d
00000290: d31f d53d dc5e 603d 4736 4c3d 3f77 843d
000002a0: af49 66bd 8a0e 16be 0e21 a93c 5281 d03d
000002b0: 54d5 81bd f4a3 ebbc 5ecc 81bd dc9e 0c3d
000002c0: 7b59 82bd cb86 253d 9734 f9bb 2692 b1bc
000002d0: d1bc dcbd a8f6 213d 2478 4dbd 6420 a23d
000002e0: 4f27 bf3d 0575 3fbc 6ed2 183d 8576 35bc
000002f0: d25e 2b3b 7fb5 053d ed25 473b 488d 00ba
00000300: 2416 b6bd 26df 5e3d 2049 3bbd 1029 0b3c
00000310: 3f88 543d ed95 353d ea86 363d c7c6 ee3d
00000320: 3706 823d de0e 913d 0903 933d a7b1 06bd
00000330: 9aa9 3f3d 0fbb cebb 2f3f 863d 1e49 f73d
00000340: e750 8b3c 4e37 8cbd b756 8c3d d74c d83d
00000350: 5f45 4bbd 08e5 b6bd eab2 a3bc 7a4e 86bd
00000360: 02d9 a5bd 1d38 703d 292b 443d 008c f2bc
00000370: f341 d5bd 243c 3bbd 320c 0d3d 676f 97bd
00000380: b93f fb3c f1cd 923d 295d 08bd a3ac 1e3d
00000390: fb42 1c3c 59f5 9b3d 6baa 7ebd abb2 bfbd
000003a0: 7c8b 48bd 9971 943d e5ef 093d 5d83 96bb
000003b0: b565 e2bc 6c62 0ebe 3796 4f3d 055e efbd
000003c0: 92d0 973d d9b4 f0bd b9a5 c7bc 1abb b03c
000003d0: 6bfd 41bd d314 bf3b b87c c0bb ceb5 79bd
000003e0: 58ff 9d3c e48b 2d3c 3c16 243d d67e 72bd
000003f0: bb77 1b3d 3c9a 683d 1cf3 903d 6f45 9ebd

conv2.bias f4 [32]
-0.05236498 0.005328717 0.0140236225 -0.07413214 -0.009078696 -0.047954075 0.017883586 0.102065474
-0.037792653 0.01678723 0.023993684 0.026455311 -0.014606515 -0.05010101 0.036376175 0.07877273
0.107750475 0.01799781 0.011502912 -0.039845634 0.00713288 -0.0919757 0.03898392 -0.03767149
-0.088644214 -0.030209355 0.034601178 0.04785755 0.032201257 0.010038841 0.07401117 0.049067125
00000000: a97c 56bd 859c ae3b 56c3 653c 97d2 97bd
00000010: d0be 14bc 7e6b 44bd 9980 923c b407 d13d
00000020: 78cc 1abd 5f85 893c 678e c43c cfb8 d83c
00000030: 2a50 6fbc b736 4dbd 2fff 143d 9953 a13d
00000040: 48ac dc3d 2570 933c b676 3c3c 2d35 23bd
00000050: efba e93b c15d bcbd 9aad 1f3d 6c4d 1abd
00000060: 198b b5bd 9c79 f7bc f7b9 0d3d 4706 443d
00000070: 77e5 033d f379 243c 2b93 973d 9cfa 483d

fc1.weight f4 [32, 512]
-0.044206854 0.050375998 0.03392944 0.0028826299 0.031094065 -0.073871434 -0.02075289 0.05384784
0.061940894 0.008637436 -0.024741132 0.124999925 0.008971725 -0.03498619 0.03089328 0.092552274
0.048500825 0.040156767 -0.010644851 0.048512645 -0.034320917 -0.08180774 0.06854631 0.00066599756
-0.07214367 0.01569745 0.090758346 0.004505948 -0.014698734 -0.024341634 0.07437332 -0.03706971
-0.022835998 -0.003302972 0.018571986 -0.0045892717 0.06522949 0.02881805 0.005334408 -0.104830876
-0.06441083 -0.043962374 -0.094453104 -0.012085109 -0.0003182626 0.013537596 0.013897517 -0.07217514
-0.026972987 0.017067209 0.01819567 -0.011685247 -0.061445143 0.05475245 0.06789465 -0.019974515
0.06813247 0.07979595 -0.024740992 0.06349446 0.003646951 -0.01148166 -0.08989016 0.00093781826
0.054779682 -0.01396167 0.06996393 0.015401155 -0.012880047 0.031230172 0.015972683 0.020036973
-0.117694825 0.00624311 -0.051658284 -0.008151006 -0.05248529 -0.088889636 0.08050907 -0.035268765
0.1049871 -0.029334404 0.0058311415 -0.00069599674 -0.11371603 0.00994073 -0.05487018 0.031995155
0.085888 -0.039104294 -0.039961882 -0.010137764 -0.07262766 0.06745614 -0.08574545 0.031668562
0.07627937 -0.025419956 0.07705552 -0.123476036 0.07788667 0.038086925 0.013905565 -0.1109629
0.0084759975 -0.026101882 0.08468668 -0.02657745 -0.01161823 -0.04648002 0.039981775 -0.021879712
0.024944443 0.056007504 0.00738731 -0.10013485 -0.02219191 0.023902958 -0.010727395 0.13946965
0.08355072 0.08898478 0.0077144383 0.020143917 -0.068429604 0.091886684 0.01941307 -0.040623024
0.07019579 -0.0074199373 -0.015246228 -0.027800426 -0.029332785 0.07649373 -0.1165299 0.053513627
-0.077920705 0.050927103 -0.051477104 0.05820783 0.0031539071 0.06731209 0.07712934 0.033734012
-0.020318238 0.03542 0.030577224 -0.09062196 -0.025875587 -0.019266227 0.008413512 -0.04045141
0.020271799 0.12552208 0.062405508 -0.02899434 0.060786165 -0.021263149 0.029368669 0.028028375
0.054182224 0.042356905 0.070217386 -0.011043818 -0.022584217 0.061413992 0.04514717 0.028426668
0.0044483943 -0.04214414 -0.07228176 -0.013165232 0.028976122 0.018611478 -0.09629498 0.0050384896
-0.032581177 -0.023334192 0.011188948 -0.017601019 0.12635659 0.023439897 0.0057095834 -0.011287982
0.0094548045 0.04217279 -0.11742717 0.0358663 -0.12869398 -0.03314162 0.10473672 0.041842043
-0.0148784 -0.024474956 -0.023399541 0.078128844 0.033971313 0.0048326673 0.008194411 0.022590186
-0.015611408 -0.027405152 -0.015954593 0.036878686 -0.08420412 0.024194539 0.013264111 -0.026790109
-0.123495616 -0.116712935 -0.0939791 -0.07563885 -0.04336156 0.06236104 0.045010943 0.027119704
0.086454205 0.008162846 0.005456528 0.032008637 -0.051192846 -0.019953636 0.04733257 -0.025458874
0.0018912242 0.046843655 0.008620033 -0.015265383 0.096619345 0.04087809 -0.029908424 -0.01761617
-0.05091416 0.113485694 -0.024991468 0.037289184 0.067656554 -0.009814868 0.02016179 -0.008381386
-0.045977905 0.05300345 -0.07046138 -0.051905908 -0.0156573 -0.09707542 -0.051979087 0.014725427
-0.030425565 0.030032238 -0.0038332539 0.022133807 0.014226475 -0.04335607 -0.012838845 -0.027761841
00000000: 3f12 35bd 1057 4e3d 99f9 0a3d 81ea 3c3b
00000010: fbb8 fe3c e849 97bd f701 aabc 8d8f 5c3d
00000020: bcb5 7d3d 0884 0d3c eaad cabc f6ff ff3d
00000030: 24fe 123c ae4d 0fbd e713 fd3c 0c8c bd3d
00000040: cda8 463d 6c7b 243d be67 2ebc 32b5 463d
00000050: 1794 0cbd d18a a7bd 0262 8c3d 5796 2e3a
00000060: 0fc0 93bd f097 803c 83df b93d a2a6 933b
00000070: f5d2 70bc 1b68 c7bc 0a51 983d 69d6 17bd
00000080: 8f12 bbbc ad76 58bb 4724 983c 9a61 96bb
00000090: 0a97 853d d513 ec3c 42cc ae3b 92b1 d6bd
000000a0: d3e9 83bd e411 34bd a170 c1bd 9f00 46bc
000000b0: 7cdc a6b9 cbcc 5d3c 69b2 633c 8fd0 93bd
000000c0: 74f6 dcbc 88d0 8b3c 160f 953c 7a73 3fbc
000000d0: e7ad 7bbd 1b44 603d 5a0c 8b3d 98a1 a3bc
000000e0: 0989 8b3d 0f6c a33d 9fad cabc 6209 823d
000000f0: af01 6f3b 931d 3cbc 5518 b8bd ebd7 753a
00000100: a960 603d 7dbf 64bc 4049 8f3d 2055 7c3c
00000110: d506 53bc 6bd6 ff3c 25d9 823c 9424 a43c
00000120: fc09 f1bd 0193 cc3b a397 53bd cc8b 05bc
00000130: d1fa 56bd c50b b6bd f0e1 a43d fb75 10bd
00000140: 7a03 d73d b44e f0bc 2913 bf3b 8d73 36ba
00000150: f3e3 e8bd 72de 223c 8ebf 60bd 5a0d 033d
00000160: 0ce6 af3d d32b 20bd 12af 23bd dd18 26bc
00000170: d0bd 94bd 7226 8a3d 4f9b afbd e5b6 013d
00000180: 5c38 9c3d 833d d0bc 49cf 9d3d 01e1 fcbd
00000190: 0c83 9f3d 0901 1c3d 2bd4 633c 8440 e3bd
000001a0: e9de 0a3c 9dd3 d5bc 3670 ad3d f4b8 d9bc
000001b0: 635a 3ebc d561 3ebd eec3 233d 153d b3bc
000001c0: 4a58 cc3c 2068 653d 3f11 f23b 8013 cdbd
000001d0: cfcb b5bc 23d0 c33c f5c1 2fbc 22d1 0e3e
000001e0: a41c ab3d a73d b63d 66c9 fc3b db04 a53c
000001f0: d224 8cbd 162f bc3d 2908 9f3c 5464 26bd
00000200: cfc2 8f3d f222 f3bb 51cb 79bc b8bd e3bc
00000210: 4f4b f0bc bfa8 9c3d 3aa7 eebd 1b31 5b3d
00000220: e494 9fbd f098 503d a8d9 52bd 556b 6e3d
00000230: c8b1 4e3b ecda 893d fdf5 9d3d ad2c 0a3d
00000240: 6f72 a6bc 9014 113d 167d fa3c 0298 b9bd
00000250: 0af9 d3bc 35d4 9dbc d4d8 093c 61b0 25bd
00000260: 0b11 a63c dc88 003e eb9c 7f3d 8a85 edbc
00000270: eafa 783d 0e30 aebc 9096 f03c c39b e53c
00000280: 2eee 5d3d 6f7e 2d3d 22ce 8f3d 21f1 34bc
00000290: 8902 b9bc 3d8d 7b3d 3dec 383d 0bdf e83c
000002a0: d6c3 913b 559f 2cbd 7608 94bd fcb2 57bc
000002b0: 555f ed3c 1977 983c 4d36 c5bd ea19 a53b
000002c0: d773 05bd 5927 bfbc d951 373c 0330 90bc
000002d0: 9f63 013e 0705 c03c 7517 bb3b 3af1 38bc
000002e0: 53e8 1a3c 60bd 2c3d a87d f0bd 8be8 123d
000002f0: 5bc8 03be 82bf 07bd 3580 d63d 9062 2b3d
00000300: 88c4 73bc b47f c8bc 65b0 bfbc 0402 a03d
00000310: 8125 0b3d 5a5b 9e3b da41 063c 0e0f b93c
00000320: fec6 7fbc c580 e0bc 35b3 82bc 1b0e 173d
00000330: 3673 acbd a033 c63c b751 593c ee76 dbbc
00000340: 45eb fcbd 3107 efbd 1d78 c0bd 8be8 9abd
00000350: e49b 31bd 4a6e 7f3d 655d 383d 242a de3c
00000360: e70e b13d 75bd 053c adcc b23b 7d1b 033d
00000370: 97af 51bd cf75 a3bc ccdf 413d 218f d0bc
00000380: f4e2 f73a 22df 3f3d 0a3b 0d3c a81b 7abc
00000390: 5de0 c53d c96f 273d 8302 f5bc c94f 90bc
000003a0: 5e8b 50bd 306b e83d e8ba ccbc 8bbc 183d
000003b0: 858f 8a3d 8ace 20bc 572a a53c 1552 09bc
000003c0: 5453 3cbd 251a 593d 0e4e 90bd 4a9b 54bd
000003d0: bd43 80bc 7acf c6bd 06e8 54bd eb42 713c
000003e0: 093f f9bc 2b06 f63c 5437 7bbb f551 b53c
000003f0: 2916 693c 2296 31bd 055a 52bc cd6c e3bc

fc1.bias f4 [32]
-0.094418876 -0.020629324 -0.073479295 0.05187212 0.05066707 0.115416154 0.0012594623 -0.0721591
0.020906895 0.048504945 -0.038614802 0.08272556 0.016268453 -0.110968724 -0.031390443 0.025661051
0.037727922 0.003627322 0.11295374 -0.018289458 -0.047640692 0.01150209 -0.040019367 -0.050119422
0.048240677 -0.1145744 -0.1316703 -0.06925361 -0.048308495 -0.03277686 -0.021057678 0.08274497
00000000: af5e c1bd d4fe a8bc 507c 96bd dc77 543d
00000010: 4688 4f3d 4e5f ec3d 8b14 a53a 26c8 93bd
00000020: f044 ab3c 1fad 463d 8e2a 1ebd 056c a93d
00000030: 6b45 853c 9243 e3bd 4493 00bd 2037 d23c
00000040: 9888 1a3d 5db8 6d3b 4a54 e73d c6d3 95bc
00000050: e322 43bd 4373 3c3c 59eb 23bd 064a 4dbd
00000060: 0498 453d fca5 eabd 94d4 06be d6d4 8dbd
00000070: 21df 45bd 0741 06bd 2781 acbc 3276 a93d

fc2.weight f4 [10, 32]
-0.13808098 0.11769116 -0.070145585 -0.046018716 -0.24777035 0.06121252 0.08850919 -0.14846727
-0.24907386 -0.13806437 -0.052902117 0.09349517 -0.17845161 0.081328355 -0.19584535 -0.07544229
0.12344092 0.2077749 -0.17210104 0.09234061 -0.124138616 0.076648384 0.07607629 -0.2022187
0.1248322 -0.19909003 0.1474157 0.12279187 -0.18410465 0.26440358 -0.12280264 -0.27638704
0.043307334 -0.243597 -0.02965126 -0.1704052 -0.03189961 -0.017083317 -0.022358313 0.10778092
0.0660125 -0.046325896 -0.04251109 -0.021286517 -0.0007046209 -0.10745368 -0.2456328 0.040187355
-0.19777656 0.08708366 0.13981579 -0.3316517 -0.07927085 0.23121396 0.061367184 0.30851674
-0.27665386 0.21472976 -0.17951551 0.065776974 -0.058495786 -0.10090403 0.01837155 0.34417886
0.099831305 -0.18210784 0.07005349 -0.054270677 -0.12583728 0.06805695 0.092127465 -0.33735922
-0.05103287 -0.15178001 0.0026490323 0.21041362 -0.10020508 -0.05428088 0.014782217 -0.00014521013
-0.16513185 -0.13533762 0.18727618 0.21135542 0.057660352 0.00022659557 -0.14977573 0.2583803
0.029921805 0.14078766 -0.014559904 -0.097682625 -0.08811263 0.31884828 -0.03463028 0.10855891
0.2134901 -0.07186062 0.19035622 -0.10785076 0.030515935 0.087697566 0.0653567 0.155296
-0.20763904 0.054507077 -0.07504361 0.20052774 0.34625688 -0.14492705 0.2022847 0.15791357
0.17497115 -0.058741897 -0.21234763 -0.08346053 -0.09773459 0.20194553 0.035680026 0.018655078
0.15951109 -0.12967266 -0.24895152 0.03676909 -0.020858632 0.2728849 0.06739287 -0.029732909
0.13962904 0.04503341 -0.16103235 0.15569903 -0.16676629 -0.08161295 -0.018207842 0.22663993
0.17037366 0.17694162 -0.18780094 0.053745404 0.039350867 -0.24391334 -0.10364085 0.04139384
-0.35198745 0.15223883 -0.13310285 0.098444656 0.106216304 -0.02534048 -0.16054751 0.06763609
-0.1648567 -0.17211354 -0.20992689 0.12916787 0.077400304 -0.23101225 0.059065957 -0.23351951
-0.15020874 -0.16338243 -0.024135636 0.03165095 -0.06234374 0.02943465 0.08037935 -0.1769879
-0.019720143 -0.16601457 0.1423238 -0.13558038 -0.06907656 -0.19420761 0.051548902 0.26292658
0.21363594 0.22164916 -0.07637443 0.0027666334 -0.007790362 -0.062374674 0.052978396 -0.14619687
-0.061809655 0.109242335 -0.1331897 -0.044540755 -0.010612265 0.075528584 0.045280248 0.011551466
0.04067501 -0.3310893 0.0694675 -0.3376402 -0.11095126 0.089719735 0.25537437 0.08630376
0.16355248 0.19514714 -0.0036343157 0.037313525 -0.08274427 0.14219078 -0.07490754 0.013365582
0.099882215 0.052597657 0.18293582 0.23476323 0.014888882 -0.002601655 -0.102412246 -0.3106241
-0.08530447 -0.2548929 -0.016679436 0.18781626 -0.006085889 -0.25652015 -0.06836227 -0.097392485
-0.22281659 0.22700605 0.04894008 0.27210534 -0.12494287 0.16283855 -0.2809485 -0.2400191
0.02760665 -0.19584501 0.06584214 -0.23567809 -0.10832453 -0.16641413 -0.15733294 -0.026219709
0.032897204 0.054947533 0.019302329 -0.13258815 0.10971707 0.28228864 0.08144344 -0.061427746
-0.118606046 0.18062772 0.12829116 0.17808565 0.012808018 -0.085506886 0.12702529 0.08060555
00000000: 1a65 0dbe 1008 f13d 7da8 8fbd 1f7e 3cbd
00000010: 83b7 7dbe fbb9 7a3d 4e44 b53d ce07 18be
00000020: 380d 7fbe bf60 0dbe e4af 58bd 657a bf3d
00000030: 05bc 36be 7b8f a63d af8b 48be 7d81 9abd
00000040: 98ce fc3d f2c2 543e 413b 30be 131d bd3d
00000050: 633c febd d4f9 9c3d e3cd 9b3d 6b12 4fbe
00000060: 06a8 ff3d 42de 4bbe 24f4 163e 4e7a fb3d
00000070: ee85 3cbe e85f 873e f37f fbbd 9a82 8dbe
00000080: 0863 313d 7e71 79be 33e7 f2bc b37e 2ebe
00000090: 2aa9 02bd 50f2 8bbc c828 b7bc 3ebc dc3d
000000a0: 9031 873d 39c0 3dbd 1c20 2ebd 1061 aebc
000000b0: 4fb6 38ba ad10 dcbd 2a87 7bbe 7f9b 243d
000000c0: f085 4abe eb58 b23d df2b 0f3e 40ce a9be
000000d0: c158 a2bd 5ac3 6c3e 285c 7b3d e8f5 9d3e
000000e0: 93a5 8dbe 1ee2 5b3e ead2 37be 14b6 863d
000000f0: 4799 6fbd c6a6 cebd ef7f 963c 3638 b03e
00000100: 5b74 cc3d 7a7a 3abe 3478 8f3d ee4a 5ebd
00000110: 7ddb 00be 7161 8b3d 53ad bc3d 59ba acbe
00000120: d807 51bd 386c 1bbe 639b 2d3b ab76 573e
00000130: 5238 cdbd a155 5ebd 1d31 723c 8c43 18b9
00000140: 5318 29be f295 0abe 54c5 3f3e 8e6d 583e
00000150: 432d 6c3d 499a 6d39 cf5e 19be 6c4a 843e
00000160: 931e f53c a42a 103e aa8c 6ebc d40d c8bd
00000170: 6574 b4bd 1540 a33e 7bd8 0dbd 2254 de3d
00000180: 269d 5a3e a92b 93bd beec 423e dce0 dcbd
00000190: 8efc f93c c89a b33d bcd9 853d ea05 1f3e
000001a0: 549f 54be d042 5f3d 77b0 99bd 2557 4d3e
000001b0: 9548 b13e c267 14be b823 4f3e 18b4 213e
000001c0: a32b 333e 589b 70bd a871 59be 5bed aabd
000001d0: 1329 c8bd cfca 4e3e 3825 123d 89d2 983c
000001e0: e056 233e e9c8 04be 26ed 7ebe 2f9b 163d
000001f0: b9df aabc 92b7 8b3e 4605 8a3d 6e92 f3bc
00000200: eafa 0e3e f474 383d aae5 24be 916f 1f3e
00000210: c8c4 2abe b124 a7bd 9d28 95bc 4c14 683e
00000220: 6f76 2e3e 2f30 353e e44e 40be 2424 5c3d
00000230: 602e 213d 6bc4 79be a741 d4bd 968c 293d
00000240: b337 b4be 7fe4 1b3e 1d4c 08be 5a9d c93d
00000250: ef87 d93d d796 cfbc 9166 24be ca84 8a3d
00000260: 32d0 28be 883e 30be 13f7 56be 9544 043e
00000270: 0d84 9e3d 7a8e 6cbe 25ef 713d bd1f 6fbe
00000280: 52d0 19be b94d 27be 19b8 c5bc 6da4 013d
00000290: 265c 7fbd ef20 f13c ee9d a43d 513c 35be
000002a0: 238c a1bc b9ff 29be 55bd 113e 95d5 0abe
000002b0: 0378 8dbd 5cde 46be f124 533d 509e 863e
000002c0: 61c3 5a3e fff7 623e 326a 9cbd 6850 353b
000002d0: 4b46 ffbb 967c 7fbd e0ff 583d a2b4 15be
000002e0: 1f2c 7dbd 72ba df3d e162 08be 5e70 36bd
000002f0: 11df 2dbc bbae 9a3d c877 393d 5c42 3d3c
00000300: d79a 263d 8984 a9be fa44 8e3d 2ddf acbe
00000310: 6a3a e3bd fbbe b73d 6ec0 823e 07c0 b03d
00000320: 4d7a 273e a7d4 473e b32d 6ebb 11d6 183d
00000330: d475 a9bd 769a 113e 2069 99bd 50fb 5a3c
00000340: 0c8f cc3d a470 573d 8753 3b3e c665 703e
00000350: 7ff0 733c 8780 2abb 83bd d1bd 1f0a 9fbe
00000360: 1cb4 aebd 5281 82be 50a3 88bc e852 403e
00000370: 236c c7bb 9c56 83be 8501 8cbd b675 c7bd
00000380: 082a 64be 4674 683e 6575 483d 6451 8b3e
00000390: 0ce2 ffbd 26bf 263e 7bd8 8fbe 91c7 75be
000003a0: 5727 e23c 988b 48be 3ed8 863d 9955 71be
000003b0: 40d9 ddbd 7768 2abe e31b 21be b7ca d6bc
000003c0: 38bf 063d aa10 613d eb1f 9e3c 30c5 07be
000003d0: 58b3 e03d 2388 903e d1cb a63d a99b 7bbd
000003e0: bae7 f2bd 79f6 383e c25e 033e 165c 363e
000003f0: b9d8 513c 3c1e afbd eb12 023e 8614 a53d

fc2.bias f4 [10]
0.067385845 0.19958913 -0.09074452 -0.010624801 -0.08699945 0.16590554 0.003835051 -0.103343844
-0.13441025 0.13250005
00000000: 9701 8a3d 1861 4c3e 43d8 b9bd a513 2ebc
00000010: c52c b2bd 24e3 293e 7b55 7b3b f0a5 d3bd
00000020: d7a2 09be 18ae 073e
