Codes/mnist_cnn_mnist_14_True_7001_0.1_1.0_1.0_64_1.pt (torch, 106255 bytes, 8 tensors)

conv1.weight f4 [16, 1, 8, 8]
000000 19 32 7c bd dc dd 18 be 12 fe e4 3d 4c d0 4b 3e
       -0.061571214 -0.14928383 0.111812726 0.19903678
000010 73 46 12 3e 42 fe 93 3d 10 02 a7 bd 00 b6 41 be
       0.14284687 0.0722623 -0.0815469 -0.18917084
000020 4c 90 86 bc 0b a5 4f 3c 5a fd 58 3d 80 1f 41 3e
       -0.016426228 0.012673627 0.05297599 0.18859673
000030 85 38 ca 3c e2 e3 5c 3d cc b7 9d bd b4 a7 3b bd
       0.024685154 0.053928263 -0.07701072 -0.04581423
000040 d4 7d c8 bd 9b 9f 30 3e 0b 09 1c 3e a7 f5 c9 3c
       -0.09789625 0.17248385 0.15237825 0.024653269
000050 90 4d 0c 3d db ca 12 3e 0a c0 6e bc 1c 02 91 3c
       0.034253657 0.14335196 -0.014572153 0.017701201
000060 d2 2b 3d 3d 53 01 98 3d e6 68 06 3e 2d e0 75 3e
       0.04618437 0.074221276 0.13125953 0.24011298
000070 bf ba 05 bd 5b 89 cb bd 0e bf 46 3d 41 29 96 3a
       -0.032648798 -0.09938308 0.048522048 0.0011456386
000080 ea d0 af 3d 15 c9 aa 3d 9a 78 39 3e 57 57 b7 3d
       0.08584769 0.083391346 0.18112412 0.08952206
000090 6f cd 3a 3d 72 77 26 be a2 e6 b0 bb 68 40 d9 3d
       0.045606073 -0.16256502 -0.0053985873 0.10607988
0000a0 56 8f 07 3e 4a df 8d 3d 60 2e c4 bc e6 51 71 bd
       0.13238272 0.06927355 -0.023947895 -0.058915995
0000b0 29 f4 24 3e 4c 99 64 3d 33 af e7 b9 16 50 a2 3c
       0.16108765 0.055810258 -0.00044190287 0.019813579
0000c0 cf 40 11 3d bd a8 5b 3e ac 73 1f 3e 83 49 93 3d
       0.035462197 0.21451087 0.15571469 0.071917556
0000d0 4e d0 65 bd 18 fb 0e be 80 07 eb bd 4b f5 2f 3e
       -0.056106858 -0.13962972 -0.1147604 0.17183416
0000e0 7d c9 01 3e 89 1f 2f 3e 0c 66 02 3e d0 74 fb 3d
       0.12674518 0.17101873 0.1273424 0.122781396
0000f0 1a 39 a3 bd 42 6a 55 bc f6 ee 0e 3b 79 34 8a 3d
       -0.07969876 -0.013025822 0.0021809912 0.067482896
000100 8a ff 81 bc 26 0d 08 3e 6b b5 36 3e 71 31 87 3d
       -0.01586892 0.13286266 0.17842643 0.06601227
000110 65 b3 00 3c 34 73 92 bd 81 7f d9 bd da 1a 8c 3d
       0.007855271 -0.071508795 -0.106200226 0.06841059
000120 15 98 bf bd 85 4c 32 3d 9a 8f 25 3e 85 82 0f 3e
       -0.09355179 0.043530006 0.16168061 0.14014633
000130 86 20 a9 3d 67 93 8c 3c 7f 37 16 3d ea 87 29 bd
       0.082581565 0.01716013 0.03667402 -0.041389383
000140 7e 44 30 be 72 df bd 3d f8 a7 0f 3e b7 cc ee 3d
       -0.17213628 0.092711344 0.14028919 0.1166014
000150 a6 e2 b7 bc 63 25 ca 3b 6e 1a 4d bd d7 dd 5d bd
       -0.022446942 0.0061690076 -0.050074033 -0.05416664
000160 8d e1 2f 3d c7 83 d5 bc ab 4a 00 3e bb be 94 bc
       0.04293971 -0.026063813 0.12528484 -0.018157354
000170 94 27 74 3d 28 ea d2 bd e0 67 dc bd 0f ca 9e bd
       0.059608057 -0.10298568 -0.10762 -0.07753383
000180 2f ce f3 bd a6 9f b0 3d ce c0 40 3d f7 49 22 3e
       -0.11904561 0.086242005 0.047058873 0.15848528
000190 0a 2c 3e 3d 21 91 b4 bd 91 ad a2 bd f7 da bb 3c
       0.046428718 -0.08816744 -0.079432614 0.022931559
0001a0 b1 e4 2f 3e d2 ec 2e bd 94 b5 76 3d c6 ef 2d 3e
       0.17177083 -0.04270632 0.06023176 0.16985998
0001b0 86 a8 2d 3e 74 a1 90 3d d6 51 a4 3c 30 2e 7a bd
       0.16958818 0.07062045 0.020058554 -0.061079204
0001c0 2f 10 dd bd af e2 01 3d 18 6b 21 3d 86 a1 82 3d
       -0.107941024 0.031710323 0.039408773 0.063784644
0001d0 c1 e6 47 3e 5d c6 10 be d5 a9 10 be d3 09 d4 bd
       0.1952162 -0.1413817 -0.14127286 -0.10353436
0001e0 22 9e a5 3d 8f a2 eb bd f0 a9 24 3e 1e 59 75 bd
       0.08086802 -0.11505615 0.16080451 -0.059899442
0001f0 66 1e 81 3c dd b8 99 bd aa 97 d0 3c cf 67 bf bd
       0.015761565 -0.07505963 0.025462944 -0.09345972
000200 36 8b 1c bb 54 a3 72 bd df 3b 03 be 60 37 d5 bc
       -0.0023886687 -0.059237793 -0.12815808 -0.026027381
000210 5b 28 f4 3a 07 eb 01 be af 92 28 3d d7 ab ec 3d
       0.001862775 -0.12687312 0.041155513 0.11556213
000220 f0 ee 1e 3d b3 87 a7 bd 9b 1b 6b 3d e3 e0 8c bd
       0.038802087 -0.081801794 0.057399374 -0.06878831
000230 06 31 07 be fc 4f 1f bc 13 64 66 bd 75 37 92 3a
       -0.13202295 -0.00972366 -0.056247782 0.0011155443
000240 8d f4 ad bd 3c 0d 33 bd 4f 9e 9a bd b0 6d fd bd
       -0.0849391 -0.043713793 -0.07549726 -0.12374437
000250 af 28 26 bd 43 f5 93 3d 94 12 0a bd 26 26 ec bd
       -0.040566143 0.07224514 -0.033709124 -0.11530714
000260 ff ae f5 3a b4 f3 92 bc 87 62 dc bd d2 1d f0 3d
       0.001874417 -0.017938472 -0.1076098 0.11724438
000270 96 03 95 bd 12 2a 5a be 94 e8 0c 3e 12 9d 27 3e
       -0.072760746 -0.21305111 0.13760597 0.16368511
000280 38 c7 a9 3c fa b5 cc 3d cf 82 a8 bd 5d 9c 99 bd
       0.020724878 0.09995647 -0.08228075 -0.07500527
000290 67 67 8e 3d d7 4f f7 3d 00 29 05 be 08 9a 05 bd
       0.06953316 0.12075775 -0.13003922 -0.0326176
0002a0 09 a2 ca bd 92 d9 7a bc a5 15 71 3d 88 cf 86 bd
       -0.09894187 -0.015310662 0.058858532 -0.06582552
0002b0 f6 3e d2 3c 97 a6 a3 39 ee 5e 98 bc 5d 2e 35 3e
       0.025664788 0.00031213902 -0.018599954 0.17693467
0002c0 f2 83 81 bd c9 91 8b bd 92 1b 2b be b4 f7 d3 3d
       -0.06323995 -0.06814916 -0.16709736 0.1034998
0002d0 ab 1a 0b 3b 6b 9e b9 bd a1 7f 88 3d 43 d1 83 3c
       0.0021225612 -0.09063419 0.06664968 0.016090995
0002e0 ec 56 91 3c a0 36 bc 3d b9 66 95 3d 63 f6 77 3d
       0.017741643 0.091901064 0.072949834 0.060537707
0002f0 86 74 6d bd 5b 6f 82 3d 33 b7 bb 3d 83 02 ed 3d
       -0.057972454 0.063688956 0.09165802 0.11572745
000300 34 d2 8c 3d e9 fe 1f bd 3b 37 3b bd 69 35 7f be
       0.068760306 -0.03906146 -0.04570697 -0.24922718
000310 e3 9e b9 3d 02 38 7d 3d a7 c8 d6 3d bc 38 de bd
       0.09063508 0.06182099 0.1048749 -0.10850665
000320 eb 4d c0 3d 42 38 bb bd 76 04 8e bc 09 97 ac bc
       0.09389862 -0.0914159 -0.017336112 -0.021068113
000330 73 4e 7c bd 2a fb 2b bd 51 ec fe 3d 4e 39 dd 3c
       -0.061598253 -0.041987576 0.124474175 0.027004864
000340 5e c8 dd bd 09 28 7e 3d 5e 76 39 3e 39 8e 3e 3d
       -0.10829233 0.0620499 0.1811156 0.046522353
000350 7a c1 cb 3d 13 a6 16 3e 5b 01 0c be 6d ea 40 3d
       0.09949012 0.1471179 -0.13672392 0.047098566
000360 0f 22 a0 3d 30 fe 24 3e 8a 72 04 bc 71 a4 cb bc
       0.07818996 0.1611259 -0.008083949 -0.024858685
000370 b3 c2 cc 3d cd ea 41 3d c4 6e fe 3d 4c 21 83 bd
       0.099980734 0.047343064 0.124234706 -0.06402835
000380 e9 ac ea bd c5 35 0f 3e a7 c6 0a bd aa 8b 38 3e
       -0.11458761 0.13985355 -0.033880856 0.18022028
000390 30 3d 66 3d 23 f3 de 3c 6a 31 8b 3d 40 2d 6c bd
       0.056210697 0.027215546 0.06796534 -0.05766034
0003a0 d7 d9 8a bc e4 bc 1b be f3 97 31 3e b4 a0 48 3e
       -0.016949577 -0.15208775 0.1734312 0.19592553
0003b0 0e f1 c5 3d d0 dc 2d bd e2 b0 fb bd fa a3 e2 bd
       0.09665118 -0.04244691 -0.12289597 -0.11066432
0003c0 9e 1f 8b 3c 54 b7 1e 3e 06 5c 67 3e 61 85 93 3c
       0.01698285 0.15499622 0.22593698 0.018007936
0003d0 a4 4e a1 3d a5 50 e8 bd ef 01 e2 b9 48 88 f7 3c
       0.07876328 -0.11343507 -0.0004310752 0.030216351
0003e0 af 82 72 3b a8 a5 07 be f7 6a 3f 3e 53 e8 ab 3d
       0.0037004163 -0.13246787 0.18693148 0.08393922
0003f0 69 a2 59 3c 79 f9 f0 3d 3d a6 b6 3c 26 75 9a bd
       0.0132833505 0.11766333 0.022296065 -0.075418755

conv1.bias f4 [16]
000000 1a 60 b5 bd 6e b4 42 bd 1a 63 c1 bd 2c 47 f5 3d
       -0.088562205 -0.047535352 -0.0944273 0.119764656
000010 e2 8b 38 3d b2 bc 9a 3d b8 56 87 3d 39 f5 f8 bd
       0.045055278 0.07555522 0.06608337 -0.121561475
000020 26 f5 3e 3d 08 4d bb bd b7 f6 d6 bd c4 4e ca 3d
       0.04662051 -0.09145552 -0.10496276 0.098783046
000030 0a 51 0c bd ed cc 82 bd d5 db 80 3c 07 b3 5e 3b
       -0.034256972 -0.06386743 0.015729824 0.003398122

conv2.weight f4 [32, 16, 4, 4]
000000 29 52 4c bd 53 71 6a bd 34 ef 6f bd 30 7b 37 3c
       -0.04988304 -0.05723698 -0.05857773 0.011198804
000010 85 5f 87 3d 04 3d ab bd 7e ec b3 bd 77 70 2a bd
       0.06610016 -0.08361247 -0.08785342 -0.04161116
000020 59 6d c2 3d 2a 91 8a 3c 8f 38 c5 3d ea 59 9f 3c
       0.09493513 0.016914923 0.09629928 0.019452054
000030 dd d0 55 3c 77 16 c2 3d 9b 1d ec 3d 38 6c a1 3b
       0.013050285 0.09476941 0.11529084 0.0049262308
000040 ce 96 25 bc 2d 74 e0 bc 0e 60 b6 bc 46 10 9e bd
       -0.010106755 -0.027399147 -0.0222626 -0.07717948
000050 18 eb 47 3d e8 46 b3 bc d9 e0 c4 bd fb a7 8a bb
       0.048808187 -0.021884397 -0.09613199 -0.0042314506
000060 96 9b c0 bd ed ba f1 bd 98 11 b8 3c d1 02 38 bd
       -0.09404676 -0.118032314 0.022469327 -0.04492456
000070 42 2c 20 bd e6 eb 81 3c d6 03 b2 bd 3e da 99 3d
       -0.039104708 0.015859555 -0.08692138 0.075123295
000080 ed a3 82 bc a2 24 17 bc e0 13 e1 3c 97 4d b0 3c
       -0.015947307 -0.009225043 0.027475297 0.021521373
000090 7c 27 0b bd 51 3c 46 3d db 23 1e 3d 95 9a f1 bd
       -0.033973202 0.048397366 0.038608413 -0.11797062
0000a0 9b 16 83 3c 9e a8 9e 3c d0 4e a3 3c 35 3a d0 3c
       0.01600199 0.019367512 0.019935042 0.02541838
0000b0 d1 25 0b bd 70 13 b5 3c 45 a2 a3 3d bb 28 5e 3d
       -0.03397161 0.022103995 0.07989935 0.054238062
0000c0 47 66 6d bd 50 36 9f 3c 8a b5 2e bb 0e f1 bb bd
       -0.057958867 0.019435078 -0.0026658499 -0.09176837
0000d0 0c 3b 4c bc 86 b4 02 3e 6e a3 35 bb 54 04 85 bd
       -0.01246525 0.12764177 -0.002771582 -0.06494966
0000e0 de fb 2b 3c ae 2d ef 3d 8f d1 83 bc a9 76 4a bc
       0.010497062 0.116786346 -0.016091136 -0.012357392
0000f0 8b 7a 5a bd 11 76 da 3d c5 f8 5e 3d 4a c5 fd bc
       -0.053339522 0.10667051 0.054436464 -0.030977864
000100 1a cb 8b 3c a3 0c 09 3e 2a 11 62 bc 95 08 77 3d
       0.01706462 0.13383727 -0.013798038 0.06031092
000110 7c 41 33 3d 54 24 b0 bd 47 22 ce 3d 5b 4c cc 3c
       0.043763623 -0.08600679 0.10065132 0.024938753
000120 40 56 4c bd 3d ee dc 3d 95 3a 05 bd d6 3b 6e bd
       -0.049886942 0.10787628 -0.03252657 -0.058162533
000130 c1 7a 5d 3d fe 0d ba bc 0a 09 d7 3d 17 ed 0f 3e
       0.054072145 -0.02271175 0.10499771 0.14055286
000140 eb 8d f6 3c a8 a0 86 bc 5f f5 3f bd d3 20 09 bd
       0.030096969 -0.016434029 -0.046864863 -0.03347857
000150 0f 24 2f bd d9 0b 03 bd 7e 2a 5a 3d c5 01 81 bc
       -0.042758998 -0.03199372 0.05326318 -0.015747914
000160 0e 14 43 3d 83 92 8d 3c 18 00 fe 3d 0e c9 8c 3c
       0.047626548 0.017281776 0.12402362 0.017185714
000170 e8 7d 86 3d 31 cb 33 3e bb b8 41 3d 7d b2 f2 3d
       0.065669835 0.1755798 0.047295313 0.1185045
000180 59 e3 71 bc 77 88 a5 bd 14 2d ef 3c 30 3e a1 3c
       -0.014763677 -0.08082669 0.0291963 0.019682974
000190 6b 26 46 3d 85 53 b5 bd 46 e5 cf ba b8 7b a0 bc
       0.048376482 -0.08853821 -0.0015861175 -0.019590244
0001a0 f7 ce 10 3d 0d ae 24 bd fb e7 88 3d 7a f3 04 3d
       0.035353627 -0.04020505 0.06684872 0.03245876
0001b0 2a fd 11 bc 8c 14 ad 3c 6f d2 12 bd 5a a7 cd bc
       -0.008910457 0.021127962 -0.035845216 -0.025104214
0001c0 f6 0e a2 bd b8 9e 12 3d c6 59 92 bc 4d a1 27 bc
       -0.0791301 0.035795897 -0.017865073 -0.010231328
0001d0 f9 21 f4 bd 82 60 ca 3c 1b db 9f bd 1c 2f 42 3b
       -0.11920542 0.024704222 -0.07805463 0.002963013
0001e0 73 bf e1 bd 12 b4 8d bd 46 6d aa bd d5 08 d1 bd
       -0.11022844 -0.06919111 -0.083216235 -0.10206763
0001f0 b7 ff 3f 3d 34 b4 e4 3d 2b f2 86 bb d6 00 09 bc
       0.046874728 0.111671835 -0.004118224 -0.008362016
000200 d4 38 a8 3c 69 37 2f 3d 84 13 21 3c ce 12 64 bc
       0.02053491 0.042777453 0.009831313 -0.013920499
000210 9a ed 5e 3d 45 b5 f0 3c 54 c5 a1 3b 5d 1e 61 bd
       0.054425813 0.029383311 0.0049368534 -0.054960597
000220 44 c4 8a bd 9d 73 2f 3d ee df aa 3c 26 02 41 bd
       -0.06775716 0.042834867 0.020858731 -0.04712119
000230 61 2e a7 3c db 91 80 3d 21 29 b5 bd fd b7 ff 3c
       0.020407857 0.0627782 -0.08845735 0.031215662
000240 77 d1 98 3d cb 1b 95 bd 48 69 b7 bc b9 15 53 bc
       0.07461827 -0.07280692 -0.02238907 -0.012883597
000250 b4 ec 47 bd b8 c7 ad bd 9d 60 ae bd 0f 35 1d bd
       -0.048809722 -0.08485359 -0.08514521 -0.03838068
000260 a3 f1 e2 bd f8 c2 08 bd f8 5d cc 3d f8 49 43 3c
       -0.11081245 -0.03338906 0.099788606 0.011919491
000270 6a cb c1 ba e2 64 2a bc ba e6 34 3d 77 0b 02 3d
       -0.0014785354 -0.010400029 0.04416535 0.031749215
000280 f0 dd f1 bc a5 61 64 3d 20 38 7b 3d 84 e4 a2 3d
       -0.029524773 0.055757184 0.06133282 0.07953742
000290 15 49 13 bc 82 dc 9a 3d 76 15 b5 3c af 43 2c 3c
       -0.008989592 0.0756159 0.02210496 0.010514184
0002a0 95 e3 14 bc 54 c6 b8 39 64 0c 23 bc d1 cb 0e 3d
       -0.009087463 0.0003524298 -0.009951685 0.034862343
0002b0 b9 a7 f1 bc 1a fc 98 3d d1 0f 54 3c 17 4f 9c 3d
       -0.029498922 0.074699596 0.012943224 0.07632273
0002c0 ea 20 19 bd 16 96 c4 3c 39 a8 1c bc 0b b8 06 be
       -0.037384905 0.023997348 -0.009561592 -0.13156144
0002d0 7e b7 48 bd dd 4e b6 bd 70 b2 dd 3d 1d 3a 46 3d
       -0.049003117 -0.08901761 0.1082505 0.048395265
0002e0 ea 79 95 bd c9 4d 3d bd 25 68 b4 3d a9 93 4a bc
       -0.07298644 -0.04621676 0.088089265 -0.0123643065
0002f0 98 7a ec bb 7b 18 84 3d 90 80 a9 bc da 96 5b 3d
       -0.0072167628 0.06449982 -0.020691186 0.05361066
000300 0d 48 bb bd c4 97 56 3b 96 08 72 3c d4 3c 05 3d
       -0.09144602 0.0032744268 0.014772555 0.032528713
000310 89 eb 3c 3c 70 93 5a bc 34 b4 bc bd dd a7 76 3d
       0.011530765 -0.013340816 -0.092140585 0.06021868
000320 69 c4 80 3d 6d 3b 87 3d 8b 81 8d 3d 25 85 57 3d
       0.06287462 0.066031314 0.06909474 0.05261721
000330 83 51 32 3e a1 e8 83 3d e2 47 8f 3d 63 eb 03 bc
       0.17413907 0.06440855 0.069961324 -0.008051726
000340 d1 de 8c bd 2c 7d 70 3d 0d 36 01 3e a7 6f 6a 3d
       -0.06878436 0.058713123 0.12618275 0.057235386
000350 49 f4 93 3a d9 cf 6d bc 7f 14 50 bb cf 59 c1 bb
       0.0011288013 -0.014514887 -0.0031750498 -0.0059005986
000360 75 d9 ac bd 22 ac dc bd f7 ad 00 3d 76 9c b1 3b
       -0.08439914 -0.10775019 0.031415906 0.005420263
000370 9c 07 3e 3e 79 ed bb b9 46 c7 b3 3d ee eb 64 bc
       0.1855759 -0.0003584435 0.08778243 -0.013972266
000380 02 64 b5 3c da a3 47 3d 80 20 0a 3c 2f e4 83 3d
       0.022142414 0.048740245 0.0084306 0.06440007
000390 7c 9f 20 bd a7 af 39 3d b9 61 80 bd ab 8e 16 bd
       -0.039214596 0.04533353 -0.06268639 -0.036757153
0003a0 df 0f 15 3d 17 00 97 bd 5c e6 40 3c 29 4a b4 3d
       0.03639209 -0.07373064 0.011773672 0.088032074
0003b0 78 48 96 3b f0 31 ee bc c0 1f a4 bd b2 64 73 bd
       0.0045862757 -0.029076546 -0.08013868 -0.059422202
0003c0 7d 7a ed 3c d9 2a df ba 7d 97 d7 3c 39 20 a3 3c
       0.028989071 -0.0017026319 0.026317352 0.019912826
0003d0 ed 4b aa 3d bd 56 16 bd ee e7 87 bd 3f d8 2d 3d
       0.08315263 -0.036703814 -0.06636034 0.042442556
0003e0 3e f5 5f bd e8 c1 a0 bd 85 31 79 3d df bd ac bc
       -0.05467724 -0.07849485 0.06083824 -0.021086631
0003f0 35 96 0d bd 48 7c f5 3c ff f4 68 bd ab b7 aa 3d
       -0.034567077 0.029966488 -0.05687427 0.08335813

conv2.bias f4 [32]
000000 1a 27 02 3d 56 61 04 bc 5d c0 89 3d 5d c0 58 bd
       0.03177557 -0.008079847 0.067261435 -0.052917827
000010 74 02 c6 3d e0 61 75 3d 46 ac 32 3e d2 42 7b bd
       0.09668437 0.059907794 0.1744853 -0.06134302
000020 bc 87 0e be fd cd 58 bd b1 2f cc bc e4 e3 4e bd
       -0.13918966 -0.05293082 -0.024925085 -0.050510302
000030 05 3a c6 bd 02 1a 42 3d 7d 4a 59 b7 21 07 a2 3d
       -0.09679035 0.047388084 -1.2951551e-05 0.07911516
000040 d4 46 a3 3d 5b 9c 88 3c ec 56 2d 3d b2 2e 4a 3c
       0.07972494 0.016676119 0.042319223 0.012340235
000050 52 3e 04 3d 19 95 98 bc e9 d1 d5 bc 72 d6 be ba
       0.032285996 -0.018625783 -0.02610107 -0.0014559759
000060 66 96 6e bd 52 6b d0 bc 19 b2 6d bd 3d a0 95 bd
       -0.0582489 -0.0254418 -0.058031175 -0.07305954
000070 a4 c7 4a 3d 97 0c 7b bd b8 82 32 bd 92 32 cc 3b
       0.0495068 -0.061291303 -0.043581694 0.0062316144

fc1.weight f4 [32, 512]
000000 9c eb a4 bd 22 36 7a bd 64 0c 49 bd 43 ac fb bc
       -0.080527514 -0.06108678 -0.049084082 -0.03072179
000010 10 25 23 3d cd 98 7f 3d 08 76 2d bc e1 a0 7b bc
       0.039830267 0.06240158 -0.010587223 -0.015358181
000020 e2 d4 be 3c 1a 5b ef bc 72 44 96 bd 84 90 06 3c
       0.02329487 -0.029218245 -0.07337274 0.008213166
000030 9c f9 7b bd 14 a8 db 3d 79 f3 c3 3b 38 3e 14 3d
       -0.061517343 0.10725418 0.005979952 0.03619215
000040 30 cd f3 bc a0 37 de bc 56 a9 c8 bb 36 38 a9 3b
       -0.029760927 -0.027126133 -0.006123702 0.0051641716
000050 20 18 78 bd d3 54 1b 3d 7d c6 52 bd 4a 8a 3f bb
       -0.060569882 0.03792269 -0.051458824 -0.0029226714
000060 59 9b 7d ba b4 ac 43 bc 38 0b 9d 3b 15 a7 95 bb
       -0.00096743327 -0.011943031 0.004792597 -0.004567037
000070 d2 27 12 bd 0b b4 dd 3d 68 57 bd bc 25 64 28 bd
       -0.035682507 0.10825356 -0.023112968 -0.04111113
000080 a3 7e 95 bc 79 c6 c2 3d 61 21 6f 3c 1b 55 c8 bd
       -0.018248862 0.09510512 0.0145953605 -0.097818576
000090 09 c8 10 bd 4b fc b5 3d 2e 68 dd bc 93 f1 f6 3d
       -0.03534702 0.08886012 -0.027027216 0.120577954
0000a0 44 1a 7e bc 67 c1 d1 3c 9a 30 98 3d ce 32 4e 3c
       -0.015509192 0.025604917 0.07431145 0.012585355
0000b0 df 66 af 3c 3a 25 3f bc eb bd a1 3c 38 84 45 3b
       0.021411357 -0.01166659 0.01974388 0.0030138623
0000c0 4b d9 be bd 2f 82 ba bd c1 6c 75 bd 04 40 bb bb
       -0.09318789 -0.09106862 -0.05991817 -0.0057144184
0000d0 09 55 77 bd 0e 29 8b bd 27 97 eb bb 0f f8 1b bd
       -0.06038383 -0.0679494 -0.0071896496 -0.038078364
0000e0 79 ff 4a 3d 40 36 6b 3c 91 62 ab 3b 8f 37 1a 3d
       0.049560044 0.014356196 0.005230256 0.03765064
0000f0 d8 6c 78 3d 82 e8 78 bd e0 c4 fa 3d 8e ec aa bd
       0.060650676 -0.06076861 0.12244582 -0.083459005
000100 5c c4 ff 3d 01 17 d1 3d ae 42 9f bc ca 70 85 3c
       0.124886245 0.10209466 -0.019440975 0.016289134
000110 d8 80 0a bc 84 32 a3 bc 81 6f ed 3c 2c c4 d7 bd
       -0.00845357 -0.019921549 0.028983833 -0.10535464
000120 d3 fd e2 bc 86 33 88 bd 97 8e b4 3c b2 a3 1a bd
       -0.027708923 -0.06650452 0.022040648 -0.03775377
000130 0a bd 8e bd 3a b5 f1 3d 96 05 2c bd 71 ea 9b bc
       -0.0696965 0.11802144 -0.041997515 -0.019032689
000140 15 e3 cb bb 81 65 0d 3d 90 4d ab 3d 91 c8 a0 3d
       -0.0062221386 0.03452063 0.08364403 0.07850755
000150 bd ae b7 bc b3 9c 8f bd ee bb 06 3e e0 e0 47 3c
       -0.022422189 -0.0701231 0.13157627 0.0121996105
000160 64 e3 80 bd 20 46 79 bd af 8c fd 3c ac 4d 98 3c
       -0.06293371 -0.060857892 0.030950872 0.018591724
000170 0c 4c 38 3d 30 f7 b1 bd 42 26 9e 3b 8a b0 d7 3d
       0.0449944 -0.086897254 0.004826338 0.10531719
000180 5c 8e 12 bd b1 68 ad 3d 28 b1 a2 bd 35 e6 89 3c
       -0.035780296 0.08467234 -0.07943946 0.016833404
000190 fe 6c dc bd bb ab ec 3d a2 11 99 bd a5 6a be 3a
       -0.10762976 0.115561925 -0.07474066 0.0014527632
0001a0 11 46 ea bc 0a 95 80 3c 19 1f 47 bd 39 67 13 bd
       -0.028597863 0.015696067 -0.04861364 -0.035987113
0001b0 ce 27 26 3a a7 4e 5d bd 6e b0 67 bd 70 70 2e bd
       0.0006338329 -0.054030087 -0.05656474 -0.042587698
0001c0 32 f8 23 bc 1e 95 25 bd 60 11 62 3c 2c a3 4f 3b
       -0.010007905 -0.040425412 0.013798088 0.0031682951
0001d0 87 9f 98 3c 29 9b 19 3c d5 1f aa 3d a1 38 ee 3a
       0.018630756 0.009375372 0.08306853 0.0018174836
0001e0 26 e0 ca 3d 21 30 92 3d 03 e0 d9 3c 8f a0 14 bd
       0.09906034 0.07138086 0.026596075 -0.036285933
0001f0 ed 90 f7 3c 80 ab 5e bd 0e 62 5f 3a 05 d4 24 bd
       0.030220473 -0.054362774 0.0008521386 -0.04024126
000200 51 f9 0a bd 8a 12 eb 3c f5 45 82 bc 71 d9 f1 bc
       -0.033929173 0.028695364 -0.015902499 -0.02952263
000210 84 72 b4 bc 87 b9 ab 3d 10 9a 1d be 6a fa 23 bb
       -0.022027262 0.08384996 -0.15390801 -0.0025021085
000220 cb 47 49 bc f7 44 36 bd 5d e9 10 bd 98 f2 d6 3c
       -0.012285183 -0.044499364 -0.035378803 0.026238725
000230 a2 f6 1f 3d 6d 31 ae bc c8 80 06 3d 2a eb 40 bd
       0.039053567 -0.021263802 0.03283766 -0.04709927
000240 de c6 d1 3c 5f b0 f3 3c 02 f1 04 3c 6c d1 90 3d
       0.025607523 0.029747186 0.008114101 0.07071194
000250 2b 20 bd 3c a3 44 79 b9 cc 8a 62 3b ef 76 71 bd
       0.023086628 -0.0002377206 0.0034567593 -0.058951315
000260 01 af 35 bd cd 2a bf bd df 37 c3 3c 0e fa c6 bd
       -0.04435635 -0.093343355 0.023830352 -0.09715663
000270 c6 93 12 3b ae 81 42 3d 0a 62 a1 3d 5a 0b 1b 3b
       0.0022365912 0.047486953 0.078800276 0.002365789
000280 96 e2 e3 3d 25 d2 82 bd 1c 96 3f bd 3a a5 cf bd
       0.11127202 -0.06387738 -0.046774015 -0.10138936
000290 67 a6 43 bc 25 80 31 bd d3 83 5e 3d a0 6f 6a 3d
       -0.011941529 -0.0433351 0.054324936 0.05723536
0002a0 8b 28 20 b8 0e a4 1b 3d b3 1f 04 ba a7 09 09 bd
       -3.818473e-05 0.03799825 -0.0005040124 -0.03345647
0002b0 d2 33 5d 3d b8 20 d7 3d 10 1f bd 3c b4 bc ec bc
       0.054004498 0.105042875 0.0230861 -0.028898574
0002c0 51 7f b1 3d c3 96 ca bc 70 db 73 bc 86 ed da 3d
       0.08666862 -0.024730092 -0.014883861 0.10689835
0002d0 26 cb b7 3c 29 e7 ef bc 82 d3 7b 3d da b7 65 3d
       0.022435736 -0.02928503 0.061481006 0.056083538
0002e0 7c 6f e4 3d fa 5b c0 3d 83 b5 b6 3c 90 8b 10 3e
       0.111540765 0.09392543 0.022303348 0.14115739
0002f0 87 0a 2a bc 40 6b 26 3d 4b 2f 9c bb ae 4c 4e 3c
       -0.0103784865 0.040629625 -0.00476638 0.012591524
000300 b2 cf 95 bc 68 fd 6d 3d fe 91 21 3c 53 ba 76 bd
       -0.018287513 0.058102995 0.009861467 -0.060236286
000310 63 be 0e bd 01 ca a4 3a 2f 48 e8 bc d9 42 a6 3d
       -0.034849536 0.0012572409 -0.028354732 0.08118219
000320 16 b2 c5 bd b6 84 a3 3d 4f 9f c2 3d d9 85 0f 3d
       -0.09653108 0.07984297 0.09503042 0.035039756
000330 5a 8c 13 3d 07 d0 1b bd 2b 3d 88 bd 50 0a 3d bd
       0.03602252 -0.038040187 -0.06652292 -0.046152413
000340 37 f9 28 3c 97 6f d8 bd 63 d5 bd bd c1 33 1d be
       0.010313324 -0.10568159 -0.09269216 -0.15351774
000350 d9 13 8c bd 60 bc 99 3c e2 81 33 3d ac 4c 57 3d
       -0.06839723 0.018766582 0.043825038 0.052563354
000360 9a 0b 1c 3d d1 3f 07 bd 48 02 5a bd 1a 96 91 3d
       0.038097 -0.033019844 -0.05322483 0.07108708
000370 36 a7 83 3c b7 7a ee bc 80 05 a0 b9 b5 59 ef bc
       0.016070943 -0.02911125 -0.00030521676 -0.02921758
000380 34 a6 1d bd 84 1c cf 3b 88 77 d5 3d ad 08 d7 3d
       -0.03848858 0.006320538 0.104231894 0.10499702
000390 67 d8 0d 3d 29 6b 85 3d ba 21 2f 3d b1 9d bc bc
       0.034630205 0.0651458 0.042756774 -0.023024412
0003a0 da 3e 80 bd 21 9e 8f 3d 3a ca 26 ba 68 2b df bb
       -0.06261988 0.070125826 -0.00063625316 -0.0068105944
0003b0 68 7f 85 ba 2c 97 d0 3d 76 b7 55 bc 26 9a 5d bd
       -0.0010185065 0.10185084 -0.013044229 -0.054102086
0003c0 25 36 f4 bc 42 59 30 bd 72 c8 20 3d 26 77 40 3d
       -0.029810974 -0.043053873 0.03925366 0.04698863
0003d0 ee 24 f1 bd 6c c1 89 3d 07 ff 76 3d a6 b4 3b 3d
       -0.11774622 0.067263454 0.060301807 0.045826577
0003e0 8e 44 07 bd 7e 22 0c bd 92 b1 ed 3d 2b ef bf bd
       -0.033024363 -0.03421258 0.116061345 -0.093717895
0003f0 22 07 a2 3d 45 85 51 3c fe 0f b7 3b a1 4e df bd
       0.07911517 0.012788122 0.005586623 -0.10903669

fc1.bias f4 [32]
000000 1f 40 15 bd 7e 3f 11 3d 09 0a aa bd 5b e5 bb 3d
       -0.036438104 0.03546094 -0.08302695 0.091746055
000010 7c 61 79 bd c9 10 20 3c 90 67 f1 3d 44 82 44 bb
       -0.060883984 0.009769627 0.11787331 -0.002998487
000020 49 1c 17 3a 89 b1 9e bc ab 5b 32 bd 7b ad d6 bc
       0.00057644077 -0.019371765 -0.043544453 -0.026205769
000030 2a 10 1d 3d 94 c0 4d bc 87 5a 27 bc 95 8d a7 3d
       0.038345493 -0.012558121 -0.0102144545 0.081813015
000040 3f 2b bd bd 3a 0e 03 3b 7e 39 4c 3d 74 b2 70 bd
       -0.09236764 0.0019997493 0.049859516 -0.058763936
000050 9f 1d d6 3c 7b 64 8c 3d dc 24 fc 3c e0 eb 61 bd
       0.026137171 0.06855103 0.030779295 -0.05515659
000060 50 99 05 3d 5f b9 d9 bc aa 90 ea 3c 2d 1e b2 3d
       0.032616913 -0.02657765 0.028633434 0.08697162
000070 82 e2 81 bc 91 01 d2 bd 9e 33 73 3d b9 19 2f 3c
       -0.015855078 -0.10254205 0.059375398 0.010687285

fc2.weight f4 [10, 32]
000000 b3 9f 4a bd e7 60 96 3d 7d 41 ab 3d 67 c2 06 3c
       -0.049468707 0.073427014 0.083621 0.00822506
000010 dc 34 94 3d 60 36 2d be 0f df 34 bd e4 03 38 be
       0.072366446 -0.16915274 -0.044158038 -0.17970234
000020 36 d8 82 bd ef 29 24 3e 05 9a a8 3e 0f ed 09 be
       -0.06388895 0.16031621 0.32930008 -0.13469337
000030 1b 27 12 be a8 4a 03 be 1a fb c7 bd 41 e3 26 be
       -0.1427273 -0.12821448 -0.09764691 -0.16297628
000040 8e 75 33 be f0 96 be 3d a0 a6 d7 bc 59 cf 0f be
       -0.17525312 0.09306133 -0.02632457 -0.1404394
000050 14 a2 e0 3d 58 c2 8f bd e1 de 5c 3e 73 99 3d be
       0.10968414 -0.0701949 0.21569397 -0.18515567
000060 a9 da 31 bd e9 03 8f bc 41 ec 8a be 83 20 a0 3e
       -0.04342142 -0.01745792 -0.27133372 0.31274804
000070 5e 43 69 be 51 75 44 3e 12 1f 0e bd e5 b3 77 3e
       -0.22779605 0.19185378 -0.0346976 0.24189718
000080 e7 a1 f0 3c bb 04 ad be 8d 69 8b be 4e bc 2c be
       0.029374076 -0.33792672 -0.27228966 -0.16868708
000090 5d 7e a3 bc c3 e9 c4 bb 67 42 c5 3d f3 8d 30 3d
       -0.019957716 -0.006009312 0.09631806 0.043104123
0000a0 e4 09 2f 3e 5d 86 5a be e1 f6 59 be d9 5f 5a 3e
       0.17093617 -0.21340318 -0.21285583 0.21325625
0000b0 c1 55 65 3e f6 d4 bf bd 97 c0 6d bc 79 d4 98 3e
       0.22395994 -0.09366791 -0.014511249 0.29849604
0000c0 f8 61 f6 3d f0 3c eb 3d 5e ba bf bd f5 fe 5e be
       0.12030405 0.11486232 -0.093617186 -0.21776946
0000d0 8a 97 a9 bd 26 8e 89 be c4 4b a2 3d 49 5b 39 bd
       -0.08280857 -0.26866263 0.079246074 -0.045253072
0000e0 fe 31 3f 3e 3d 0b ab bd 24 55 31 be 8e 53 7f be
       0.18671414 -0.08351753 -0.17317635 -0.24934217
0000f0 14 40 5e be 97 d2 91 3c 7a 8d ca 3d 44 43 4c be
       -0.21704131 0.017800612 0.09890266 -0.19947535
000100 16 fc 97 3c 3e 1d 9c 3d 32 1b 10 3e ce 30 2e be
       0.018552821 0.07622765 0.14072874 -0.17010805
000110 7a af 75 bd 44 37 5b 3e 78 c9 19 be 5f 45 26 be
       -0.0599818 0.21407801 -0.1501826 -0.162374
000120 14 47 e8 3c e2 9f 35 3e 07 44 5f be fb f3 b6 bd
       0.028354205 0.17736772 -0.21803294 -0.08933254
000130 13 75 f2 bd c9 29 25 3e 75 15 2d be 29 48 b3 3c
       -0.118387364 0.16129221 -0.16902716 0.021884995
000140 f7 3a a9 3d b8 a5 55 3d 76 74 55 bd ba 12 93 3e
       0.082632 0.052159995 -0.05211302 0.28725225
000150 0a a2 94 3d 74 93 80 be 7a d4 1d 3e d0 96 76 be
       0.07257469 -0.25112498 0.15413085 -0.24080968
000160 10 1e b6 bd 43 a7 7b be 5a 8d 33 3e 2d a8 19 be
       -0.08892453 -0.24575524 0.1753439 -0.1500556
000170 92 90 f3 bd 66 3d ae 3c 6b 8a d9 bc 0e 32 b7 3e
       -0.11892809 0.021269511 -0.02655526 0.35780376
000180 6d 85 05 be dc 4b b7 3d 92 17 ab bd 6b fe 1e 3d
       -0.13039179 0.08950016 -0.08354105 0.03881685
000190 1c 5d 8f bd 5a 27 39 be 3c e1 b0 3c 69 0e 9d be
       -0.07000181 -0.18081418 0.021591775 -0.30675057
0001a0 e4 d6 c8 3d 2e ad 12 3e da 22 c4 bd 62 3f 3e 3d
       0.09806612 0.14323875 -0.0957696 0.046447165
0001b0 bc eb f7 bd 1f a7 15 be ff f2 83 bd fe ef 3b 3d
       -0.1210551 -0.14614533 -0.06442832 0.04588317
0001c0 07 c9 e8 bc 22 1a ee bd 3f 11 93 3c 99 e9 a6 3e
       -0.02841617 -0.11626078 0.01795256 0.32600096
0001d0 7f c2 37 3d 7b f2 29 3d 48 f0 4b 3e 09 3b 25 be
       0.04486322 0.041491013 0.19915879 -0.16135801
0001e0 81 06 0a 3e 5c 7e d3 3d ef fa 6e bd a2 33 a8 be
       0.13479044 0.103268355 -0.058344778 -0.32851893
0001f0 f5 a8 23 3e 15 2b 0d be 5b 25 55 3e 88 d8 53 be
       0.1598242 -0.13785966 0.20815031 -0.20688069
000200 e3 c1 09 3d 8e c6 32 3e 75 1d ff bd 11 73 0f 3e
       0.03363217 0.17458555 -0.1245679 0.14008738
000210 86 8f 60 3e 16 fe 4e 3e 14 2f cc 3d 9f 23 7b 3e
       0.2192975 0.20214114 0.09969917 0.24525307
000220 3e 1a 84 3e 89 27 08 3e 58 82 06 be a0 27 ab bd
       0.2580127 0.13296331 -0.1313566 -0.08357167
000230 b1 39 9c bc 45 a5 25 3e 16 06 0a bd ab 55 a3 be
       -0.019070478 0.16176327 -0.03369721 -0.31901297
000240 df 60 cb bd 4b 6f f5 bc 8c 7a 74 3d fa 1e 0b be
       -0.09930586 -0.029960295 0.059687182 -0.13586035
000250 f6 49 da 3c d6 db f6 bd 82 21 1c be 5a 46 9e 3e
       0.026646595 -0.12053649 -0.15247157 0.3091305
000260 76 df b1 bd 25 c3 7f bc ca 78 a6 bd 04 89 2d 3e
       -0.086852 -0.015610491 -0.081285074 0.16946799
000270 3e 55 54 bd 25 fd b7 bd 60 e7 1d bb 07 7e 2e bd
       -0.051839106 -0.0898383 -0.002409421 -0.042600658
000280 03 e3 f8 bd ce 36 14 3e 39 9f 0b 3e 41 a6 11 3e
       -0.12152674 0.14474031 0.13634957 0.14223577
000290 16 a5 6f 3d 18 c6 5b 3d bc c5 86 bc bb 50 ed bd
       0.058507048 0.053655714 -0.016451709 -0.11587664
0002a0 4b 0b 1f be 67 b5 80 be 2d db 10 3d 02 b9 8a bd
       -0.15531652 -0.251384 0.035365272 -0.06773569
0002b0 90 6a 32 3e 6f 26 d7 bc ce a8 1c 3d df 5d 1d be
       0.17423463 -0.026263444 0.038246922 -0.1536784
0002c0 7d 07 07 be 8d 4e 5b 3c 19 d5 2e bd 95 8b 0a be
       -0.1318645 0.013385427 -0.042683695 -0.13529809
0002d0 e7 cd 61 bc 6d b0 51 bd 3e 82 74 bd 65 97 ba bd
       -0.013782001 -0.051193643 -0.05969452 -0.091109075
0002e0 ab 36 a0 3e 4a 8f 23 3c 22 d6 e8 bd 24 25 74 3e
       0.31291708 0.009982893 -0.113689676 0.23842293
0002f0 c0 23 39 3e d5 0e e6 bd 55 1f e6 3d a8 26 0c be
       0.18080044 -0.11233298 0.11236445 -0.13686621
000300 5a 05 ba bd e8 a4 d1 bd b1 25 81 3d 85 9f e7 3d
       -0.09083052 -0.102365315 0.06306017 0.11309723
000310 e8 68 da bd 0b 35 4c 3d cc 6a a4 bd d3 43 46 3d
       -0.106645405 0.049855273 -0.080281824 0.048404526
000320 28 58 8d bd f9 01 85 3d 89 a3 37 be 10 1f 03 be
       -0.0690158 0.06494517 -0.17933477 -0.12804818
000330 78 2f 39 3e 7d ca 94 3d b5 27 3f 3c 63 67 8b be
       0.18084514 0.07265184 0.011667182 -0.27227315
000340 94 3a 56 3e a5 75 3e 3e 3f 05 4d 3d b2 a3 77 3e
       0.20920783 0.18599565 0.05005383 0.24183539
000350 78 20 b7 bd 50 03 bc bd c6 5a 01 bc 52 1a 22 3e
       -0.0894174 -0.09180319 -0.007895177 0.15830353
000360 e7 e0 26 3e 40 7f 9e bd 5c fc 93 3c ef 73 b8 3e
       0.16296731 -0.07739115 0.01806467 0.3602595
000370 1f 10 8c be a5 ef df bd b5 bd 6a be 0e ac f5 3d
       -0.2735605 -0.109343804 -0.2292393 0.119957075
000380 ad d2 16 39 c5 13 71 3e d1 ad 97 bd 42 63 ed bd
       0.00014383598 0.23542698 -0.074062 -0.115911976
000390 ae 13 4b 3d 48 da ba 3d 14 68 b9 bd 90 ab 8b 3e
       0.049579315 0.09123665 -0.090530545 0.2727933
0003a0 b3 92 a4 bd 73 f9 61 3d 91 dd 16 3d cd f8 96 3d
       -0.08035793 0.055169534 0.036832396 0.07371674
0003b0 1f 62 2d bb c7 5c eb bd b6 c2 3a be e2 02 8f bd
       -0.002645619 -0.11492305 -0.18238339 -0.06982972
0003c0 1c 8d e8 3c ed d8 aa be 28 7e 81 be a8 7c 94 be
       0.028387599 -0.33368626 -0.25291562 -0.29001355
0003d0 ed 95 46 bc bb d2 68 bd 56 54 1d 3e 1a 5d 6c bd
       -0.012120706 -0.056841593 0.15364203 -0.057705976
0003e0 40 27 58 be 1a ba 24 bd 95 03 a6 3e 7b a4 ae be
       -0.21108723 -0.040216543 0.32424608 -0.34109864
0003f0 30 a9 9e 3d 95 cc c7 bd f7 fc 62 3d c5 6d ad bc
       0.07747114 -0.09755818 0.055417027 -0.021170506

fc2.bias f4 [10]
000000 28 bf ee 3d 8c 29 2d 3e e4 e3 07 3e 97 24 02 be
       0.11657554 0.1691038 0.13270527 -0.1270927
000010 1d 08 5e bd 8e c5 cf 3d 8e 5c 28 3d a8 3e 3f 3e
       -0.054206956 0.101451024 0.041103892 0.18676245
000020 38 da 64 3d 19 0f c3 bd
       0.055872172 -0.09524364
