Codes/mnist_cnn_mnist_4_True_15469_0.1_1.0_1.0_64_1.pt (torch, 106255 bytes, 8 tensors)

conv1.weight f4 [16, 1, 8, 8]
00000000: 04a0 80bb f872 e4bb 650b d0bc b37a 35bd
00000010: c0d4 45be a739 0bbe 89dd 6d3d 0688 a53d
00000020: fbe1 ba3d 0c2a 323e 6e50 99bc 3da0 f2bd
00000030: 9d10 993d 34fe 2e3d 80a7 ab3c be20 29bd
00000040: b2a7 c53d abe9 8cbd 1ec2 a6bc f4ba 4dbe
00000050: 0f4d 81bc 3ed7 183c 056c 8c3d 1248 9c3d
00000060: 95c7 fa3d 4231 8cbc 29b0 623d 8493 083e
00000070: 3985 2d3e c423 8bbd fcb2 b23d d5a5 e73d
00000080: 80d0 4fbd 5bd8 de3d 4ba5 f33d c200 853d
00000090: 9588 49bd 99a1 183e 8b3c 513e ad73 073e
000000a0: bff3 ee3d 7ae5 8b3d 2966 2e3e a5b2 d2bd
000000b0: 3377 9abd a79a 133e 2a90 0e3e e237 65bd
000000c0: d7cb 893a b2fc 6f3e 3052 c43c 2a55 f83d
000000d0: d2b4 003e 3018 0ebe f35a 28bd 199c e23d
000000e0: 04ee 413b f42f 343e 73dc 653d 40a2 f13d
000000f0: bf53 0cbe 88ce 9f3d 6f45 3cbe 0ae7 1f3d
00000100: 4c04 7d3d e04b f83d 9c75 f53d d2f4 1d3d
00000110: 7563 403d 1c2b 893d 4784 5f3d 9628 d7bd
00000120: 6f86 8bbd ef97 92bd 2f33 cbbd f832 fc3d
00000130: 82c3 003e 2225 b23c 0d8e 953d 3231 a0bd
00000140: 585e c63d 9b89 b63d a23f 853d 0613 8fbd
00000150: b4af 463d ce59 a53c 2889 b53d f9bf 743d
00000160: e4ba ecbd 9a69 45be 865d 18bd 3b33 6e3d
00000170: a1cd a03c b021 4b3e 7d8a 9b3e 3114 81bd
00000180: a295 e7bd 3de6 173e b09a ea3d b1e2 0abe
00000190: 7345 03bd 67e1 3b3e 9af8 b33d 3b64 793d
000001a0: c6fc e4bd 8aa1 2f3c f313 36be 6edd a0bd
000001b0: 65ee df3c 705a c23d 2635 f13d 8fdd 813c
000001c0: 04a3 e8bd 41fa 56bc 7c97 e33c 5731 673d
000001d0: 8357 db3d 8ea3 34bd 2be0 1a3e 6390 f13c
000001e0: 4488 48bd 2a83 e2bd bd3a 0a3e f47f c8bc
000001f0: 56ef 093e a232 523d 8ec7 523b 5d54 06bd
00000200: 1971 8abd 8251 de3d 8e4b d43d b11b 623e
00000210: 2a9b 833d cf42 8fbd 52a4 d43d 908b 4a3d
00000220: a2be b53d 6e51 923d e69e da3d 8b3d 133c
00000230: 75fd be3d 34d7 403d c894 0ebe 9dd7 b0bc
00000240: fc52 243e 4d37 223e ed48 eb3d c536 49bd
00000250: 93b0 793d 1acf f53d e3da 9fbc 0387 d03d
00000260: a3bd 37be f933 04bc a77f adbc 8c79 3dbd
00000270: 3770 a4bd f3dd 5b3d c1bb 503d a938 6e3c
00000280: a881 72bd f5bb abbc 2b06 1bbe 5605 1f3d
00000290: c4ab 20be 50ad d7bb 012e e73d cb81 123e
000002a0: b819 09bd 577e 97bd 6917 b23d 4300 993d
000002b0: 2935 ce3d 2231 093c b614 07bd 4bdf 533c
000002c0: 6cd6 39bd 12c8 3cbd 5cc3 c5bd 89d6 ff3d
000002d0: 8cae 953c 864d 33bd baee c0bd dee8 973b
000002e0: ca2b bdbd 5ada a1bb e699 413b 8c88 12bd
000002f0: 4742 813d 12d3 b3bd 762e 333d 25df 7d3d
00000300: 050e 413e ccd8 0dbe 4f48 3f3c cc85 9f3d
00000310: 3b21 cfbc d061 503d 654a 013e ac8b c2bd
00000320: 358b 863d 2ab8 c4bd 27a2 543c 9252 793d
00000330: 58db d3bd f4f7 573c bec9 edbd ae8f a13b
00000340: b081 123e 230b b83d 0a7c ae3d 0b81 303e
00000350: 21ee 81bc 0270 ca3d 8817 79bd cf72 293d
00000360: 7a03 193d b40f 2f3d 367c b43b 267b f13d
00000370: 11a0 033e 1a6a 23be 541e 11be b2c3 da3c
00000380: e6a5 c9bb 3a31 8ebd d545 be3d 1699 4cbd
00000390: a5eb 2f3d 7628 c03d 96a6 33bd f81b d8bb
000003a0: e1dd 4f3d 0fb8 223e a3b7 eb3b f20a a0bd
000003b0: cbe4 3d3c 9242 10be b295 b6bd 9e28 e73d
000003c0: 7d79 a4bd 3851 ac3d 98f6 01bd 17dd 01bc
000003d0: 9ae5 45bb 6d56 7e3d 2dc4 5cbd 9cfc d73c
000003e0: fef1 cfbd a4e0 48bd 94e2 81bc 7fcb 5f3d
000003f0: f2d5 98bd 518b 79bd e7f5 adbd 4e7b 0abe
-0.0039253253 -0.006971713 -0.025396058 -0.04430647 -0.19319439 -0.13596211 0.0580726 0.08082585
0.091251336 0.17398852 -0.01871511 -0.11846969 0.07473872 0.042722896 0.020953894 -0.04129099
0.09651126 -0.06880506 -0.020356234 -0.20090848 -0.015783815 0.0093286615 0.068565406 0.07630934
0.122450985 -0.017113332 0.05534378 0.13337523 0.16945352 -0.06793931 0.08725545 0.11310927
-0.05073595 0.1088111 0.118967615 0.06494285 -0.04920252 0.14905395 0.20433252 0.1322772
0.11667585 0.068308786 0.17031159 -0.1028798 -0.07542267 0.14414464 0.13922182 -0.055961497
0.001051302 0.2343624 0.023964971 0.12125619 0.12568977 -0.13876414 -0.04110236 0.110649295
0.0029591331 0.17596418 0.05611844 0.11798525 -0.13703822 0.078030646 -0.18385862 0.039038695
0.061771676 0.12123847 0.11985323 0.038563557 0.04696985 0.066976756 0.05456951 -0.10505788
-0.068127505 -0.07157885 -0.09921872 0.12314409 0.1257458 0.021746222 0.07302485 -0.07821883
0.096859634 0.08912965 0.065062776 -0.0698605 0.048507407 0.020184424 0.08864051 0.059753392
-0.11559084 -0.19278565 -0.037198566 0.058154326 0.019629302 0.1983707 0.30379096 -0.06302679
-0.11307837 0.14833923 0.114552855 -0.13563038 -0.032048654 0.18347703 0.08787651 0.060886603
-0.11181025 0.010719666 -0.17781048 -0.07854734 0.027335355 0.09489906 0.117777154 0.015852718
-0.11359218 -0.013121189 0.027782194 0.05644354 0.10710051 -0.04410129 0.15124576 0.029487794
-0.048958078 -0.11060174 0.1349897 -0.024475075 0.13470206 0.05131782 0.00321624 -0.0327953
-0.06759853 0.1085539 0.103659734 0.22080876 0.064260796 -0.069951646 0.10382904 0.049449503
0.08874251 0.07144438 0.10674839 0.008986841 0.09325687 0.047080234 -0.13923943 -0.021587187
0.16047281 0.15841408 0.11488519 -0.049124498 0.06095941 0.12002392 -0.019513553 0.101820014
-0.17943434 -0.008069032 -0.021179033 -0.046258494 -0.08029216 0.053678464 0.050960306 0.014539876
-0.05920568 -0.020963648 -0.15139072 0.038823448 -0.15690523 -0.0065819398 0.112880714 0.14307325
-0.033471793 -0.07397144 0.086958714 0.07470753 0.10068733 0.008373531 -0.032978736 0.012931655
-0.045370504 -0.04608924 -0.096564025 0.12492091 0.018271707 -0.043775104 -0.094205335 0.004635914
-0.09236868 -0.0049393596 0.0029541194 -0.035774752 0.063114695 -0.08780493 0.04374548 0.061980385
0.18853004 -0.13852233 0.011674955 0.077891916 -0.0252844 0.05087453 0.12626036 -0.094992965
0.065695204 -0.09605439 0.012978113 0.06086976 -0.10344571 0.013181675 -0.11610745 0.004930458
0.14307284 0.08986499 0.08519752 0.17236726 -0.015860619 0.09884645 -0.060813457 0.041369256
0.03735683 0.042739585 0.005507971 0.11791067 0.12854029 -0.15958443 -0.14171726 0.026704643
-0.00615381 -0.06942983 0.09290663 -0.04995068 0.042949338 0.09382717 -0.04386004 -0.006595131
0.05074871 0.15890525 0.007193522 -0.07814588 0.011590193 -0.14087895 -0.08915271 0.11287044
-0.080309846 0.08413929 -0.03172931 -0.007926247 -0.0030196668 0.06209414 -0.053898025 0.02636557
-0.10153578 -0.04904236 -0.015855111 0.05463743 -0.07462682 -0.060923878 -0.08494168 -0.135236

conv1.bias f4 [16]
00000000: ec9d f13d 0d5d 783c 973a c6bd 24e7 a1bd
00000010: 252c dfbd ab42 61bc 6700 ac3c e829 1d3d
00000020: d0d3 fd3d 0738 793c c955 40bd d616 123d
00000030: f795 fabc effa 49bd cc96 9abd d5b0 c1bc
0.11797699 0.015158904 -0.09679144 -0.07905415 -0.10897092 -0.013748805 0.020996286 0.038370043
0.12393916 0.015211112 -0.04695681 0.03566631 -0.030589087 -0.049311575 -0.075482935 -0.02364389

conv2.weight f4 [32, 16, 4, 4]
00000000: 533b 743d 3c48 a53d 54ba 8a3d 32ec 59bd
00000010: 1ac2 453d 4eb8 c6bd 2fba e43d bde9 cc3d
00000020: c98c 013e ca12 9f3c a91a 22bd bff9 39bd
00000030: 97e4 723d 1d4d 80bd ea5b 33bc c7b2 ad3d
00000040: c2a4 c3bc 3746 7cbd a9b2 9fbd 9416 c4bd
00000050: e962 be3c 1f05 e73b 0e0f cabc 11e5 cebd
00000060: c914 c53c 970f c33c d69f 99bd 082f 113e
00000070: da73 fabd d9d3 673d d8e2 0b3d f22d 483d
00000080: a615 a0bd b49b 77bc 42e8 323b a751 a6bc
00000090: e633 32bd ca72 37bc be12 0a3c c60b a3bc
000000a0: ef85 d0bc ea29 f13d 7bd1 c7bc 2577 353d
000000b0: 6511 90bb 9e70 c6bb 32e4 213c 4d18 9c3c
000000c0: 28df 90bd f060 fcbc 244a 963c e728 ab3b
000000d0: f799 9a3d 3304 32bd ddfb 86bd 2bec 01bd
000000e0: e779 be3d d371 33bd d6e1 9a3d 902c bbbb
000000f0: 8507 36bc 9be9 843d 9195 963b 8d3c 043c
00000100: 30d8 633d 32c6 a1bd 0841 82bd 870e 85bc
00000110: d708 aabd 1a27 e33c b794 893d e8fc 19bd
00000120: 576a 643d d5f8 083e a973 fb3d 3c9a 303d
00000130: b0ff 093c 458d 003d 3940 7a3d 57be 09bd
00000140: 023c 25be c392 5b3d 4653 1cbe e596 afbd
00000150: bb4d 87bc ffdb debb 461a 8f3d 3c0f 80bd
00000160: e70c 393c 9cda a33c 5391 41bd 3556 7fbb
00000170: 6ace 93bc 443d 8ebd 5023 3ebd 0c20 3f3c
00000180: 954b e5bd e508 b83d 3380 ec3c 6c99 133d
00000190: 6c6f 2d3d 3de6 00be 436a 1b3d 8f5c babc
000001a0: b010 9cbd 8ba6 03bd 46c4 28bd 3e78 c13c
000001b0: 4a9d a3bc 02f3 aebc af4f c739 1584 63bd
000001c0: f65c 3f3d ac79 6cbd ea11 6b3d 3727 8bbd
000001d0: 384b af3d 4cc4 ab3c 295a aebd 40aa 16bd
000001e0: f41b 193d 4297 ba3d 78d7 693c febe 8fbb
000001f0: c660 6e3c 67c8 d33c 45b4 fa3c 978d d63d
00000200: e49d d5bd 9b1f 833d bb28 0c3d 52b3 b0bd
00000210: 14a7 1bbd fbfa 29bd fb73 803d 919f 5e3d
00000220: 6989 13bd f184 cb3c cc2a cd3d 81c8 0f3e
00000230: 32a6 bdbd 8475 a3bd d06f 09bd 5516 a9bc
00000240: 0973 8e3c 0e50 b2bc 8e66 a83d 6c87 d43c
00000250: 3d01 6fbc fa37 4c3d fa89 1cbe 9fca 9a3d
00000260: 9386 d7bc 27ba a8bc acdc b5bb 9dcd c5bc
00000270: 36f5 d3bc 63ac d03c 3cb8 95bc 5d5e ad3c
00000280: 2468 25bd f4f9 363d c27f ff3c cdc7 943d
00000290: 1426 c63c fe47 00bd 113c 923d 1395 6fbc
000002a0: d3c7 2b3d 3dff 863d 85f4 0c3e d096 da3a
000002b0: bdf1 953d b7c7 a43c 6e76 ce3c a71f 113d
000002c0: 9b5c 763c 00e9 95bd 8e8c e83d 1f77 13bd
000002d0: 23f0 0cbd 89e0 46bd 6dc3 623c 7f9f 8fbc
000002e0: c5c8 83bd ce59 9f3d f627 77bc eee3 f13c
000002f0: 76aa 55bd a838 693c 1cea 733d 8788 9cbd
00000300: cc81 cdbc d92e a5bd 8a0f 233d 2006 76bd
00000310: 50c5 203e d9e1 333d 822f 70bd 55de 803c
00000320: fd28 de3d 68b9 d33c e0ec e03d 330c f8bb
00000330: 959e 4939 0d4c 8e3c 195f 393e de09 f9bc
00000340: 2a5a eebc c16d db3d 25b3 683d d4d4 1d3c
00000350: dc91 673d 65f6 4f3e 5caa e2bc ba2e 833c
00000360: b369 c93c 3aae 093d ea0d 483d e47b ecbc
00000370: 686a 3dbd 5701 033e bfa1 9dbd e55d 2e3d
00000380: 3dc0 5dbc 7f0c 933c a2a2 9fbd ba47 c0bc
00000390: a413 bebb bf2b 7ebd 7ebf cdbd 9f27 863d
000003a0: 9e00 9fbd c02c 03be ca7e 97bd 47dd 1d3d
000003b0: 3e2f 53bb 15a6 1fbd a7ab 2a3b 1d94 05bd
000003c0: fb04 2a3d fab6 1abd da30 73bc 7c1e 1abd
000003d0: 71ec f43d 9178 f93d 1302 8c3d e64e 4fbc
000003e0: 6379 553e 837d 123e 263e 7abb dafc 183e
000003f0: 7248 6c3d 003a 59bd 71c9 91bc 080e 36bc
0.05962689 0.08070418 0.067738205 -0.05320377 0.048280813 -0.09703122 0.11168324 0.100055195
0.12651362 0.019418139 -0.039576206 -0.045404192 0.05930003 -0.06264708 -0.010947207 0.08481365
-0.023882274 -0.0615904 -0.077977486 -0.09574619 0.023240523 0.007050171 -0.024665382 -0.10102285
0.024057763 0.023811145 -0.075011894 0.14178097 -0.12229128 0.056598518 0.034151882 0.048871942
-0.07816629 -0.015112806 0.002729908 -0.020302607 -0.043506525 -0.011196801 0.00842732 -0.019903075
-0.02545449 0.117755726 -0.02439188 0.04430308 -0.004396605 -0.0060559055 0.009881066 0.019054556
-0.07073814 -0.030807942 0.0183459 0.005223382 0.07548898 -0.043461036 -0.06591008 -0.031719368
0.09300595 -0.043809723 0.07562606 -0.0057120994 -0.011110191 0.06489869 0.0045954664 0.008071077
0.055626094 -0.07899131 -0.0636006 -0.016242279 -0.08302467 0.027728606 0.06717818 -0.037594706
0.055765476 0.13376172 0.1227792 0.04311584 0.008422777 0.031384725 0.061096404 -0.033628788
-0.16136172 0.05360676 -0.15266141 -0.08573703 -0.016516557 -0.006801128 0.06987433 -0.06252906
0.01129458 0.020001702 -0.047257733 -0.0038961296 -0.018042762 -0.06945279 -0.046420395 0.011665355
-0.11196057 0.089860715 0.028869724 0.036034986 0.04234259 -0.12587829 0.037943136 -0.022749214
-0.076203704 -0.03214125 -0.041202806 0.023616906 -0.019972462 -0.02135611 0.00038015607 -0.055545885
0.046719514 -0.057733223 0.05739013 -0.06794589 0.08559269 0.020967625 -0.085132904 -0.036783457
0.037380174 0.091108814 0.014272563 -0.0043867817 0.01454944 0.025852395 0.030603537 0.10476225
-0.10430506 0.06402513 0.03421853 -0.08627953 -0.038001135 -0.04149912 0.062721215 0.054351393
-0.036019716 0.024843665 0.100179285 0.1404133 -0.09260215 -0.07981399 -0.0335539 -0.020640532
0.017388837 -0.021766689 0.08222686 0.02594348 -0.014587698 0.04985807 -0.15287009 0.07558178
-0.026309287 -0.020596577 -0.005549988 -0.024145896 -0.025873762 0.025472825 -0.018276326 0.02116316
-0.04038252 0.044671968 0.03118885 0.072646715 0.024188079 -0.031318657 0.07140363 -0.014622944
0.041938614 0.065916516 0.13765152 0.0016677026 0.073214985 0.020114763 0.025202956 0.035430577
0.015036727 -0.07319832 0.11354934 -0.036002275 -0.0344087 -0.048553977 0.013840538 -0.017532108
-0.06434778 0.07780801 -0.015085211 0.02952763 -0.052164517 0.014234699 0.059549436 -0.07643228
-0.025086306 -0.08065576 0.03980974 -0.060064435 0.15700269 0.043916557 -0.058639057 0.015731016
0.10847662 0.025845245 0.1098268 -0.0075698136 0.0001922793 0.017370248 0.18102683 -0.030400213
-0.029095728 0.10714293 0.05681147 0.009633262 0.056535587 0.20308836 -0.027669124 0.016013492
0.024586534 0.03361342 0.048841394 -0.02886767 -0.046244055 0.1279348 -0.07696866 0.042570014
-0.013534603 0.017950295 -0.077946916 -0.023471702 -0.005800681 -0.06205344 -0.1004629 0.06550526
-0.077637896 -0.1281004 -0.0739723 0.038541105 -0.0032224203 -0.038976748 0.0026042254 -0.032611955
0.041508656 -0.037772156 -0.01484319 -0.03762673 0.1195916 0.12181199 0.06836333 -0.012653088
0.20847087 0.14305691 -0.0038184016 0.14940205 0.057686277 -0.05303383 -0.01779625 -0.011111744

conv2.bias f4 [32]
00000000: e56e 073d 8caa 633d 8032 10bc 183a f33d
00000010: 0857 cfbd b8f9 ca3a c68b a4bd bca2 6cbd
00000020: 6120 af3c 913a e03c 2e4a 793d a521 0c3e
00000030: bd7f 7b3a 6f54 f63c 0be5 ecbd 1a57 7abd
00000040: 4bb3 cfbb f29a 8abc 8627 64bd 6a49 ac3b
00000050: 1cdc 603d 7141 9bbc 2baa b83d ad97 313d
00000060: 3ffc 70bc 5286 48bd af82 ccbd 36a4 ecbc
00000070: fa49 36bc 1e8d 6e3d e956 1a3c 69fa c33c
0.03306474 0.055582568 -0.008801103 0.11876315 -0.10124022 0.0015485799 -0.08034472 -0.057772383
0.021377744 0.027371677 0.06086176 0.1368471 0.00095939246 0.030069558 -0.11567124 -0.061118223
-0.006338512 -0.016919587 -0.055701755 0.005257775 0.054897413 -0.018952103 0.09016832 0.04335754
-0.014708578 -0.048956223 -0.099858634 -0.028886896 -0.011126036 0.05824005 0.009420135 0.023923116

fc1.weight f4 [32, 512]
00000000: 9e7a 503c c8a3 8a3d 136d 46bd b944 613c
00000010: b0bf 143e f46f a5bd 653b 9ebb 22a1 1a3d
00000020: 13b5 2dbc 3987 073d cb6c 22bd 5bce 103e
00000030: 4958 eb3c 00b9 8ebc 26b3 183c 341a 57bd
00000040: 607e 063d a36d aebb 9ef8 ad3d d69d 82bc
00000050: 9adb 363d f0f4 2fbc 9704 883c eb1a afbb
00000060: 91bc 79bd 648e 8fbc 56bc 85bd 5131 49bd
00000070: f526 85bd 112c b4bc 1388 e4bc 5f3b 213d
00000080: 4399 b43c 8867 e8bc 9d3a 5fbd 4aab 3b3d
00000090: 7acd 9bbc da35 e03d bd7b 51bd 2579 773d
000000a0: 4110 da3c 6dfb 903d 334f 8d3d 7e39 c6bc
000000b0: 6af2 f8bc a35d fb3c 8c14 6ebd 7177 bc3d
000000c0: 51c1 0a3d 7e97 713c 3ea0 3d3d 8bcc 0fbd
000000d0: e1c5 c3bd 9fd2 67bc 76da 98bd d24a 0b3d
000000e0: cfb7 34bd 536c 7cbd 4c47 2ebd c9e1 6a3d
000000f0: 4760 5e3d e25f c33d 146e 9a3d c397 81bd
00000100: 898f 0a3c d8c3 8bbd 5874 37bd be09 a5bd
00000110: d2d7 c73c c46f 9e3d c6c5 0cbc c5b7 eb3c
00000120: dd77 0dbd 987f e2bc d989 7fbd c75b 90bc
00000130: 4d2d 05be 22ac 38bd 66a2 11bc 80ba af3c
00000140: 72c6 96bc 951e ae3d 4a6d 71bc 686c a03d
00000150: 6be2 3ebc bad9 b13d 0322 243d f7c7 09bd
00000160: 9e6d 753d 3f9a 53b9 1cc9 eaba fdb5 06bc
00000170: 7b09 fc3c 7108 4a3d 61ec f33c 83f9 46bd
00000180: 9e52 183d 291f cebc f322 0a3e 514c 063e
00000190: 3187 aa3d 9b49 e33d 10f9 6ebd 69fc 85bd
000001a0: 8996 58bd d3fb f73c d480 6b3c d72f b03d
000001b0: a85e 9c3d 37fa 1ebd 29b6 b5bc e141 963c
000001c0: e736 a1bd c696 26bd 4a43 96bc 4ae5 39bd
000001d0: d9da df3d e4a0 163d 28a0 d43d f0a3 6b3d
000001e0: de2c 153d 18c7 10be e5b0 4c3d ecea 173d
000001f0: a1d7 9e3c 62a7 263c 72c9 7dbc c994 7b3c
00000200: 0de6 47bc dd54 90bd 3841 233d abd8 a4bd
00000210: 2dbe e73c cd92 8b3d fac5 83bc 8166 3f3c
00000220: bf86 32bd 7d9b 0f3e 6471 8dbc bedc 1a3d
00000230: f2ea 1d3d 96e7 2ebe ff2a 2f3d d289 f2bc
00000240: f6cd a2bc c960 b8bd 47e1 8dbd 1ca5 ecbd
00000250: 726b e5bc b170 6cbd 96fe 09bd 94fa bbbc
00000260: 5ffe c9bc 05d2 f73b 262e bfbd 4bbd 9b3c
00000270: c556 573d 9f14 b5bc c6a7 4b3d 61bc db3d
00000280: 8405 22bc cb2a 983d 5b34 143d e7f9 0b3d
00000290: 8bd7 96bc ff7f 753d 5ab7 003b 012b 863d
000002a0: 8d5a 42bd b412 6fbc 1365 3a3d 79b1 1a3d
000002b0: 91fe 393d 8676 d53c 3232 edba 08cd d2bd
000002c0: fa23 96b9 4f93 95bc e644 ebbc 0d2c f13d
000002d0: 2fc6 cb3d 020a 0fbd 7a2f 9dbd 1f0c 1a3e
000002e0: 3ae8 15bd 3b61 3abd 7c65 afbd 4386 6eba
000002f0: 16aa 983d d501 653d 1d29 8f3c 9e36 323d
00000300: e0bc 2bbd 5fe1 5c3d 0aa5 f5bc ddb5 e2bb
00000310: 2b8d 03bd aee6 58bc cc15 6b3c 3a8f d33b
00000320: 0507 473d c993 80bd 5ad0 1e3e c7c6 8dbc
00000330: b753 7dbc b15f 02bd d1b6 4bbd 93d3 8abd
00000340: dd96 20bd c620 453d 91a8 913a 3b50 11bd
00000350: 65fa 9ebd fc99 a5bc ccfa f7bc 45be fabc
00000360: 1245 92bd bad8 9a3c d486 693d c9bb 8a3d
00000370: cd21 6b3c cb7d 25bc f52f bc3d 3dad fb3b
00000380: 2939 fb3c d3df 17bd 0961 c4bd e267 a23b
00000390: 1b01 0f3e daf7 dcbb 830c 1dbc 6774 963d
000003a0: 6a6f 6dbd 7d58 bfbc 0049 52bd bd09 323d
000003b0: e3cc 8b3d dbfc fa3a aef0 e23d f1d9 943d
000003c0: e75c 4dbd 9dda 833c 2f8d b4bb 288f 433d
000003d0: ceae 71bd b27b bfbc 1df0 db3c 13ad 2a3d
000003e0: 2694 b33b ffe5 513d bd47 843d 6e45 00bc
000003f0: 0dc5 46bd e0a5 91bc 1599 213d 5d69 6fbc
0.012724547 0.0676952 -0.048443865 0.013749295 0.14526248 -0.08077994 -0.0048288577 0.037751324
-0.0106022535 0.033087943 -0.039654534 0.14141218 0.028728621 -0.0174222 0.009320056 -0.052515224
0.032835364 -0.0053231283 0.084946856 -0.015944403 0.044643022 -0.01073955 0.016603751 -0.005343785
-0.060970847 -0.017523952 -0.06530063 -0.049119297 -0.06501571 -0.021993669 -0.027896916 0.03936326
0.022045737 -0.02836968 -0.054499257 0.04581765 -0.019018877 0.10947771 -0.051143397 0.060418267
0.026619079 0.07079206 0.06899872 -0.024197336 -0.03038903 0.030684298 -0.058125064 0.09202469
0.033875767 0.014745591 0.046295397 -0.035107177 -0.09559227 -0.014149337 -0.07463543 0.0340069
-0.044120606 -0.061626744 -0.042548463 0.05734423 0.054291036 0.095397726 0.07540527 -0.063277744
0.008457073 -0.068244636 -0.04478869 -0.08058499 0.024394903 0.07736161 -0.008592075 0.028774152
-0.03453814 -0.027648732 -0.06238732 -0.017621888 -0.13005562 -0.045086034 -0.008888816 0.021451235
-0.018405173 0.08501927 -0.014735529 0.07833177 -0.011650662 0.08684106 0.0400715 -0.033637967
0.059918992 -0.00020179989 -0.0017912718 -0.0082221 0.03076624 0.049324457 0.0297758 -0.048577797
0.037188165 -0.025161343 0.13489895 0.1311505 0.08326567 0.110980235 -0.058342993 -0.06542284
-0.052877937 0.030271446 0.014373977 0.08602875 0.07635242 -0.038812842 -0.022181587 0.01834196
-0.078718 -0.040671133 -0.018342633 -0.045384683 0.10930414 0.03677453 0.1038211 0.05752939
0.03641974 -0.14138448 0.049973387 0.037089273 0.01938993 0.010171743 -0.015489923 0.015355297
-0.0122008445 -0.070474364 0.03985712 -0.08049139 0.028288925 0.068151094 -0.016085614 0.011682154
-0.043585535 0.14024158 -0.017265983 0.037808172 0.03855414 -0.1708053 0.042765614 -0.029606733
-0.0198736 -0.09002835 -0.06927734 -0.115549296 -0.028005335 -0.05772466 -0.033690058 -0.022946633
-0.024657426 0.007562878 -0.09334974 0.01901116 0.052572984 -0.02210456 0.049720548 0.1072929
-0.00988901 0.07430037 0.036182743 0.034173872 -0.018413326 0.05993652 0.0019640536 0.06551171
-0.047449637 -0.0145918615 0.045506548 0.037766907 0.04540879 0.026057493 -0.0018096624 -0.10293013
-0.00028637034 -0.018258719 -0.028719377 0.1177598 0.0994991 -0.034921654 -0.07675071 0.15043686
-0.03659842 -0.045502882 -0.085642785 -0.0009098986 0.07454316 0.05590995 0.017475659 0.04350912
-0.041928172 0.053925868 -0.029985923 -0.0069186524 -0.03211705 -0.013238592 0.0143484585 0.006456283
0.04859068 -0.06278188 0.15509167 -0.017306698 -0.015461854 -0.03182954 -0.049734894 -0.06778636
-0.039206374 0.04812696 0.0011112859 -0.035476904 -0.07762603 -0.020215027 -0.030270956 -0.030608306
-0.0714208 0.018902171 0.057013348 0.067740984 0.01435132 -0.010100792 0.091888346 0.0076805637
0.030666905 -0.03707869 -0.095888205 0.0049562315 0.13965265 -0.0067434134 -0.009585503 0.07346421
-0.05796758 -0.023357624 -0.05133915 0.04346632 0.068261884 0.0019148843 0.11081062 0.072681315
-0.050137427 0.016095454 -0.0055099945 0.047743946 -0.059004597 -0.023374412 0.026847893 0.041668963
0.005480307 0.051244732 0.064589955 -0.007829053 -0.048527766 -0.01777929 0.03945263 -0.014612523

fc1.bias f4 [32]
00000000: 4c15 4bbd ac72 a13d 041a 00be ecdc 12bd
00000010: 4cff 113e 1f10 3bbc b67c 6abc 6c6a bcbd
00000020: 2c6b d9bc 6524 70bd c70d 873a 26ae 803d
00000030: 1b84 e63b f019 9c3d e74c 91bd bcaa 353d
00000040: 7304 153d 774b d73c e91d 5c3d 40a5 02bc
00000050: 6587 ba3d 6e3a 58bd 71ae 1e3d 0446 7c3d
00000060: bcdc dfbd e066 4f3d 55a5 32bc 164c 6abc
00000070: 6e2d c3bb 48c3 c5bc 0244 9c3d 9bbe 49bd
-0.049580857 0.078832 -0.12509924 -0.03585522 0.14257544 -0.011417418 -0.01431196 -0.09199986
-0.026540361 -0.05862846 0.0010303789 0.06283216 0.007034791 0.07622135 -0.07094746 0.044352278
0.036381196 0.026281102 0.053739462 -0.007973969 0.09107856 -0.052790098 0.03874058 0.06159021
-0.109307736 0.05063522 -0.010903676 -0.014300367 -0.0059563434 -0.024140969 0.07630159 -0.04925404

fc2.weight f4 [10, 32]
00000000: 7271 9cbe 9b4c 313c de82 37be cc28 133e
00000010: 7afc 0dbd 7903 4abd f882 133e ef6a 82be
00000020: 4527 ec3d 9772 7f3e b8fd b33a 3672 23bd
00000030: ca28 40be 3c1d 4cbe e04d 94be 21d1 183e
00000040: 9ed8 2d3d 5afd ce3c 8042 ccbc e065 f2bd
00000050: 9378 043e 11b8 3c3e d8ad b5bd 5d67 313e
00000060: 5866 02be 5143 313e c7a5 0cbe ed57 af3d
00000070: 005f c73d 046a 7cbe 1a57 683e afff 48bd
00000080: 947a 19be 723c 8ebd 1902 1dbd 52f5 523e
00000090: 0bf0 e7bc 5ed1 00be 4711 5bbe 9087 3dbc
000000a0: d87e 04be 5d17 9dbe f5c9 13be aa51 c0bd
000000b0: 6611 3a3e 9e82 43be 28f6 ff3d a1a1 ab3b
000000c0: 99a1 533d 1ede 22be 2a4f bebb 2901 cc3d
000000d0: 75ab 8a3e fc2f 97be c107 a63e 9832 c8bd
000000e0: c7a3 13be e1ba 603e dd5e 1ebe d47e 913e
000000f0: 1be9 603e 66d1 153e bbba 24bd ee91 d8bc
00000100: 5779 2d3e 2816 08be 3598 50bd 2000 fdbd
00000110: 3f51 33be 9c3e c3bc e1d2 c73b 2c67 9dbd
00000120: 422c 90bc b368 84be c24c 833e 2524 8bbd
00000130: ab07 9f3b 20eb bbbc b4c9 053e 1668 1f3e
00000140: 47a5 69be a406 393e 3e09 bd3d 27b2 063e
00000150: f6f9 aa3c be82 43bd a403 6ebe fbd8 243e
00000160: abe1 023e a6e6 3a3d dec1 383e b038 1c3e
00000170: dcf3 ab3c 9583 563c c051 6ebe f29b 64be
00000180: 8c59 313c c8c2 c2bd 0510 4d3d c684 0abc
00000190: d6f9 4c3e f6f0 f1bc 5ecd 28be 372f ad3d
000001a0: 2e19 c8bd 796a 843e 7a8a 45bd 50f9 033e
000001b0: 4a29 34be 794d fcbd 44bd 1d3e b8bc e1bc
000001c0: 950b 73be 0582 9b3b 9cd4 213e e256 66be
000001d0: bdb1 fc3d 17c1 7f3d 0fb9 1bbe d3f7 39be
000001e0: ef5a 883d 92cb a3be 27a3 55be dc8f a83e
000001f0: 5d4e 88be 3894 5fbd 2688 b9bc 558c eb3d
00000200: 3f8f 67bd 1387 5d3e d2bd e1bd 3324 523e
00000210: dc3f 383e 9d23 fabc 4c7d 743d 6f35 293e
00000220: ab4f d53d b718 26be 882b 1ebe 3b49 da3d
00000230: 6780 a5bc df9b 563e dad3 393e ae46 0ebe
00000240: 4476 4cbd 148d 8b3d 3399 1b3e 0448 463d
00000250: 573c 89be edc6 7e3e 1026 913e 951c 183e
00000260: abc9 633e 2f50 2a3e 85fa 8ebd 1b8a 0bbe
00000270: a7ac 173e 9c18 273d 6260 7dbe 503f 8fbe
00000280: 4a93 b9bd 8268 34bd 8a69 2f3d c4a3 e6bc
00000290: 5f10 f03d 7324 b8bd eb81 e0bd 3ef7 9ebd
000002a0: da17 c3bd 4fb7 4b3e 1b87 77bd 341d 343d
000002b0: 387d 48bd b00c 8ebe 2266 033e 74f7 ac3d
000002c0: 4596 b9bd da1d 80bd 5afa c23d 901b 1dbe
000002d0: 65b6 06be e579 ad3e b565 0f3d 1a93 92be
000002e0: f6ad 8fbd 47b6 913d 72bb ecbd d56d f5bb
000002f0: 8e9e 823e 4b30 b63d 09df 2a3e 97aa 163d
00000300: 9371 37bd b611 743d 607f 5c3e 3d88 d6bc
00000310: 6bd0 363c 1c2e 1abd 7c41 19bd 0a3c 60bd
00000320: d3eb 4b3e 658a 84be 052f 8c3e d11f 0dbd
00000330: 2a30 8abc 2a9f 793e 3e0b 1ebd 09b6 213e
00000340: 1a78 d43d f68d 96bd acdb 6bbc 5ab1 f03c
00000350: eb39 4f3d 03f7 813d ff34 bcbd 8ae6 6dbe
00000360: 263a 32be 9b56 0a3e da87 103d bdc1 98be
00000370: 5136 ab3c cec9 433e 06ab ba3d 23e4 efbd
00000380: 6aa5 dbbd 36a7 953d f033 1bbe 1746 00be
00000390: 7a20 97bd e9d1 11be a06a 2c3d f21e 633e
000003a0: f6ae 5a3d c3f1 ae3e e50a 56bd b7fd 0a3d
000003b0: 9ab2 3d3e efd6 bebd d725 c5bd 3d04 ca3d
000003c0: 8edb d93d e5e3 003e 59d8 573e 5910 a63d
000003d0: e450 d63c d5c8 b8bd 64a0 9a3e 15db 71be
000003e0: f242 04be 319e d23d dd3a 203e 9281 223e
000003f0: bfd3 b33d 4b86 a2be 9dc4 81bd 510a 323e
-0.30555302 0.010821487 -0.17921016 0.14371032 -0.03466461 -0.049319718 0.1440543 -0.2547221
0.115309276 0.24946056 0.001373223 -0.039903842 -0.1876556 -0.19933027 -0.28965664 0.14923526
0.04244291 0.025267292 -0.024934053 -0.11835837 0.1293662 0.18429591 -0.08871049 0.17324586
-0.12734354 0.17310835 -0.13735114 0.085616924 0.09734917 -0.24649817 0.22689477 -0.049071964
-0.14988166 -0.06945123 -0.03833208 0.20601395 -0.028312704 -0.12579867 -0.2139331 -0.011567965
-0.12939012 -0.30681887 -0.14432509 -0.09390576 0.181707 -0.19092795 0.124981225 0.0052377735
0.051667783 -0.15905043 -0.005807777 0.09961159 0.27083936 -0.29528797 0.3242779 -0.09775275
-0.14417945 0.21946289 -0.15465875 0.28417075 0.21963923 0.1463066 -0.040217143 -0.026436772
0.16940819 -0.13289702 -0.050926406 -0.123535395 -0.17511462 -0.023833565 0.006098137 -0.07685694
-0.017599229 -0.2586113 0.256445 -0.067940034 0.004853209 -0.022939265 0.13065225 0.1556705
-0.22816955 0.1806894 0.092302784 0.13153897 0.020871144 -0.047732107 -0.23243576 0.16098396
0.12781398 0.04563012 0.18042704 0.15256 0.020990305 0.013092895 -0.23273373 -0.22325113
0.010824572 -0.09509808 0.050064106 -0.008454507 0.2001718 -0.029533844 -0.16484591 0.08456271
-0.09770428 0.25862482 -0.048227765 0.12888074 -0.17593876 -0.12319464 0.1540423 -0.027555808
-0.23734887 0.004745724 0.1580376 -0.2249408 0.123385884 0.062440004 -0.15207313 -0.18160944
0.06657969 -0.3199125 -0.20863019 0.32922256 -0.26622286 -0.05458471 -0.022647928 0.115013756
-0.056533094 0.21633558 -0.110225335 0.20521621 0.1799311 -0.03053456 0.059689805 0.1652429
0.10415586 -0.16220365 -0.15446293 0.10658499 -0.020202829 0.20957898 0.18147221 -0.1389415
-0.049917474 0.06814018 0.1519516 0.048408523 -0.26803848 0.24880572 0.28349352 0.14854653
0.22244899 0.1663215 -0.069813766 -0.13626902 0.14811955 0.040794954 -0.24743798 -0.2797799
-0.09061296 -0.04404498 0.04282526 -0.028154261 0.117218725 -0.08991327 -0.1096228 -0.077620015
-0.09526034 0.19894145 -0.06043158 0.043973163 -0.048947543 -0.27744055 0.1283193 0.084456354
-0.09061865 -0.06255694 0.09520407 -0.15342546 -0.13155515 0.3388206 0.035009105 -0.28627855
-0.07015602 0.07114845 -0.1155919 -0.0074898996 0.25511593 0.0889593 0.16686644 0.03678378
-0.044786047 0.059587203 0.21532965 -0.02618801 0.011158089 -0.03764163 -0.037415966 -0.054744758
0.19914179 -0.25886837 0.27379623 -0.03445417 -0.01686867 0.24377123 -0.03858494 0.15792097
0.1037447 -0.07351296 -0.014395636 0.029381443 0.050592344 0.06345942 -0.09189796 -0.23232475
-0.17404994 0.135096 0.03528581 -0.2983531 0.020899924 0.19119951 0.091146514 -0.117134355
-0.107249096 0.073072836 -0.15156531 -0.12526737 -0.07379241 -0.1424023 0.042093873 0.22179773
0.053389512 0.34168825 -0.052256484 0.033933368 0.18525162 -0.09318339 -0.09626358 0.0986409
0.1063758 0.12586935 0.21078624 0.08108587 0.026161619 -0.09022681 0.30200493 -0.2361873
-0.12916163 0.10284079 0.15647455 0.1586974 0.08780622 -0.31743082 -0.06336329 0.17386748

fc2.bias f4 [10]
00000000: 2d5a 263d aeb6 353e 1e9a b23d d926 2cbd
00000010: 764e 7e3d 59ea 3fbd afc2 d93d bb37 623b
00000020: 2a82 c7bc ee05 c9bc
0.040613342 0.17745468 0.08720802 -0.042029236 0.062086545 -0.04685435 0.10632836 0.0034518081
-0.02435406 -0.02453896
