Codes/mnist_cnn_mnist_16_True_23692_0.1_1.0_1.0_64_1.pt (torch, 106255 bytes, 8 tensors)

conv1.weight f4 [16, 1, 8, 8]
-0.057324953 0.005936775 0.057057843 -0.11677756 0.15656008 -0.05263692 0.08559704 0.048072867
-0.017577035 -0.023431178 -0.032529697 -0.069430955 -0.08036045 0.015776847 0.07051737 0.13518406
-0.104139216 -0.080606155 0.0992626 0.0022566922 -0.0635653 0.093527235 0.12499633 -0.029376566
0.24189606 -0.053014465 0.04939557 -0.16623871 -0.09106232 -0.100125924 -0.1054966 -0.1330748
-0.05087808 -0.013942062 0.10833934 0.037789173 -0.16982828 0.013806808 -0.062946744 -0.20432591
0.13190334 -0.08586785 0.107581116 0.06643202 -0.08538113 -0.03326939 0.0702316 0.0973863
0.031903822 -0.09300842 -0.12422223 -0.042261556 -0.06970766 -0.16440165 -0.008087349 0.14307983
-0.08653552 0.11591384 0.015173493 -0.06577785 -0.029951235 0.086442724 0.08717349 -0.036728907
-0.015748963 0.044158354 -0.041988432 -0.09160548 0.013667925 0.13585566 0.15944922 -0.057852827
-0.026297549 0.005385989 -0.05980009 0.03108319 0.058548328 -0.031428754 0.18852994 0.032200538
0.009557475 -0.037338603 0.122484036 -0.08358098 0.09521796 -0.1399865 0.23550615 0.2507929
-0.037200347 -0.20570882 -0.057515975 -0.16479698 0.07332749 0.1163986 0.12337104 0.119416304
-0.075897336 0.005240625 -0.053181913 0.01488963 -0.06285902 0.12664929 0.12003276 -0.027039574
0.08258832 -0.14062503 0.078101546 -0.012894239 -0.06971022 0.021346128 0.12681508 0.18657602
-0.016798653 -0.025579574 -0.03585739 0.048085958 0.025442844 0.04061559 0.0070329807 -0.0033622207
-0.052596033 0.12641563 -0.24297331 -0.19058521 0.03218876 0.1201055 0.080963686 0.050802033
0.21493867 0.091562 0.16822459 0.17520587 -0.052806176 -0.0017875574 -0.05584921 0.018942498
0.105985284 0.121336855 0.12222579 0.26407823 0.19330917 0.17379515 0.20520304 -0.13042463
0.10999563 0.12588575 0.18391694 -0.010163616 0.16779904 0.062988445 0.05159386 -0.020846443
0.059482444 0.2051675 -0.028184213 0.040701326 -0.022666685 0.12757899 0.11643407 -0.08868235
-0.004313981 -0.03609221 -0.052164603 -0.016063096 0.023249649 0.06856733 0.01672047 0.06542482
-0.03397504 0.047603272 -0.1175757 -0.00455737 0.026829941 -0.108220726 -0.07849376 0.06190187
-0.096738026 -0.041163377 -0.1725093 -0.10230185 -0.100798495 -0.08886996 -0.030662818 0.01936371
-0.12710707 -0.16102582 -0.08104036 -0.09809811 -0.050434627 0.044602454 -0.035850868 -0.072775215
-0.12353846 -0.104962915 0.21264619 0.106624655 0.1393934 -0.12797718 0.03175104 0.0584455
0.14604394 0.11906302 0.16611752 0.029377617 0.13658603 -0.029663304 -0.07839306 0.07990843
-0.10716416 -0.0757862 0.13761358 -0.016606968 -0.0075699715 -0.20556931 -0.17350167 -0.08734112
-0.06423984 0.18470912 0.101856895 -0.004275471 -0.05845935 -0.0052458537 -0.011186723 -0.09575503
0.06685576 0.09001197 0.24561594 -0.0047177766 0.01335973 0.043751005 0.007359502 0.060771756
0.01849555 0.20637351 -0.09350662 -0.025057979 -0.047069423 0.042787 0.1258614 0.11432353
0.02543366 -0.019855367 0.08955829 0.21076591 0.1438409 0.15308382 0.010775755 0.08675831
0.051969092 0.116964325 0.05558038 0.084934086 0.06687843 -0.00018514918 0.059791826 0.07320861
00000000: 92cd 6abd 4789 c23b 7cb5 693d 1329 efbd
00000010: 4951 203e d099 57bd 804d af3d 0ee8 443d
00000020: b7fd 8fbc bef2 bfbc dc3d 05bd d131 8ebd
00000030: 0594 a4bd 723e 813c 696b 903d b16d 0a3e
00000040: f146 d5bd d714 a5bd 314a cb3d 03e5 133b
00000050: 862e 82bd 358b bf3d 13fe ff3d 20a7 f0bc
00000060: 9ab3 773e b225 59bd 0253 4a3d 7b3a 2abe
00000070: e27e babd d20e cdbd 9a0e d8bd c344 08be
00000080: 8965 50bd 3f6d 64bc 04e1 dd3d d2c8 1a3d
00000090: 77e7 2dbe f335 623c 39ea 80bd d03a 51be
000000a0: ab11 073e 7cdb afbd 7d53 dc3d 830d 883d
000000b0: 4ddc aebd 7c45 08bd 96d5 8f3d 7872 c73d
000000c0: 95ad 023d 337b bebd 3968 febd 741a 2dbd
000000d0: e4c2 8ebd e858 28be cd80 04bc 8583 123e
000000e0: 8939 b1bd 3c64 ed3d 3e9a 783c 8ab6 86bd
000000f0: 4b5c f5bc e208 b13d 0488 b23d 0d71 16bd
00000100: f803 81bc 64df 343d 10fc 2bbd a79b bbbd
00000110: 6fef 5f3c bf1d 0b3e a846 233e 16f7 6cbd
00000120: f56d d7bc f37c b03b f0f0 74bd 2da2 fe3c
00000130: 5fd0 6f3d 70bb 00bd fe0d 413e b6e4 033d
00000140: f596 1c3c 5df0 18bd e9d8 fa3d 812c abbd
00000150: a201 c33d 9f58 0fbe 8628 713e ed67 803e
00000160: 645f 18bd 55a5 52be df95 6bbd 8ac0 28be
00000170: b92c 963d 6462 ee3d f5a9 fc3d 8990 f43d
00000180: 1070 9bbd 8cb9 ab3b 47d5 59bd a2f3 733c
00000190: 3bbc 80bd 5ab0 013e bcd3 f53d 1982 ddbc
000001a0: 1124 a93d 0200 10be b4f3 9f3d 5c42 53bc
000001b0: 3bc4 8ebd 13de ae3c d0db 013e c90d 3f3e
000001c0: 549d 89bc 418c d1bc 33df 12bd c8f5 443d
000001d0: 836d d03c 885c 263d eb74 e63b b458 5cbb
000001e0: f06e 57bd 1973 013e ffcd 78be c528 43be
000001f0: 5cd8 033d dff9 f53d 4ad0 a53d cb15 503d
00000200: e218 5c3e dc84 bb3d 1143 2c3e 2b69 333e
00000210: 4a4b 58bd 794c eaba 24c2 64bd 4c2d 9b3c
00000220: d00e d93d 757f f83d 8451 fa3d 4335 873e
00000230: d7f2 453e 5bf7 313e bf20 523e 098e 05be
00000240: 6445 e13d 32e8 003e b954 3c3e 4c85 26bc
00000250: 83d3 2b3e 1600 813d 1554 533d 29c6 aabc
00000260: dda3 733d 6e17 523e 94e2 e6bc 6fb6 263d
00000270: 7caf b9bc 11a4 023e fc74 ee3d 189f b5bd
00000280: 4c5c 8dbb 6dd5 13bd 8daa 55bd c196 83bc
00000290: 0c76 be3c 076d 8c3d 5ef9 883c 73fd 853d
000002a0: 6929 0bbd a6fb 423d 87cb f0bd fe55 95bb
000002b0: 77ca db3c d4a2 ddbd 56c1 a0bd d18c 7d3d
000002c0: 961e c6bd ee9a 28bd 47a6 30be a283 d1bd
000002d0: 716f cebd 7401 b6bd 9730 fbbc a5a0 9e3c
000002e0: 5b28 02be f4e3 24be 7df8 a5bd a9e7 c8bd
000002f0: 8a94 4ebd 10b1 363d 5cd8 12bd 2c0b 95bd
00000300: bb01 fdbd ccf6 d6bd ecbf 593e 075e da3d
00000310: 25bd 0e3e 730c 03be 610d 023d 8c64 6f3d
00000320: 8b8c 153e 50d7 f33d b61a 2a3e 54a9 f03c
00000330: 35dd 0b3e 7500 f3bc 8a8c a0bd 08a7 a33d
00000340: e278 dbbd cc35 9bbd 93ea 0c3e 560b 88bc
00000350: 860d f8bb c380 52be 6caa 31be e7df b2bd
00000360: 2d90 83bd 6324 3d3e 599a d03d 4019 8cbb
00000370: 1273 6fbd 69e5 abbb 8448 37bc 371b c4bd
00000380: aceb 883d 3258 b83d bf82 7b3e 9497 9abb
00000390: c5e2 5a3c 4134 333d fa27 f13b ceeb 783d
000003a0: fb83 973c 9453 533e 6680 bfbd 6446 cdbc
000003b0: decb 40bd 6c41 2f3d d0e1 003e 7422 ea3d
000003c0: 405a d03c b9a7 a2bc 566a b73d 05d3 573e
000003d0: 074b 133e 01c2 1c3e cb8c 303c 57ae b13d
000003e0: 8bdd 543d fe8a ef3d 41a8 633d ecf1 ad3d
000003f0: 8ff7 883d 9b24 42b9 46e8 743d 65ee 953d

conv1.bias f4 [16]
-0.1960274 -0.061875407 -0.03412669 0.023481667 0.019746829 0.12917185 -0.0012989471 -0.0061207786
0.14413606 0.03567975 -0.2062145 -0.07562971 0.117201276 0.08453089 -0.05307556 -0.13700067
00000000: 68bb 48be 1171 7dbd 6ec8 0bbd a05c c03c
00000010: 1ac4 a13c a045 043e 6f41 aaba d090 c8bb
00000020: 6798 133e ee24 123d e529 53be c0e3 9abd
00000030: 3907 f03d 881e ad3d c265 59bd e749 0cbe

conv2.weight f4 [32, 16, 4, 4]
-0.003640164 -0.015633576 -0.023812683 0.027983207 -0.01679066 -0.035879806 -0.050128117 -0.031181917
-0.060748618 -0.08893914 0.04248074 0.05963102 -0.02215348 -0.053032346 0.033997227 0.016283607
0.07284384 -0.048230045 -0.039616667 -0.098500125 0.09416247 -0.023436042 0.016378568 0.010500545
-0.008714802 0.0055646165 -0.088536985 0.0473612 0.06927473 -0.0010157482 -0.004792489 -0.10276082
0.06618235 0.0014470443 -0.05043293 0.02403173 0.021522203 -0.08469246 -0.022045735 0.06939376
0.102865055 -0.00240204 -0.02899202 0.116682075 0.0019277149 0.17459612 0.03744359 -0.016201403
0.031149434 0.06511602 -0.07906401 0.08313801 0.008775543 0.023548163 -0.0046339296 -0.085930906
-0.033640455 0.17569141 0.02096885 -0.012472794 -0.05687829 -0.110392734 -0.01062589 0.028304528
-0.064359315 -0.017898707 -0.020559164 -0.031816743 0.10399118 -0.02393173 -0.046665393 0.07259058
-0.024902362 -0.056622185 -0.06345393 0.07982671 0.06102336 -0.021162303 0.0025132338 -0.03210431
-0.061717693 0.06602145 0.049306028 -0.13262132 0.013353856 0.17928272 0.01122872 -0.050856747
0.13593563 0.0010819718 0.00033533567 0.06562657 0.017744796 0.022436414 -0.10609976 0.063677475
0.042051554 0.03489941 0.045435715 -0.0044380454 -0.09156628 0.057414133 0.013957412 0.14063418
-0.023476198 -0.00037796097 0.05072695 0.14672884 0.0071132947 -0.056421574 0.063988425 0.0014761646
0.05288499 0.017291155 -0.06357601 0.007937375 -0.010954638 0.022124628 0.051594075 -0.08153044
0.015722625 0.024637584 0.03400808 0.08289892 0.011315256 0.026971381 0.030978607 0.020227883
-0.019563325 -0.048058026 0.03997601 0.052487284 -0.03441752 -0.04370133 -0.0058573764 0.14264293
-0.055315506 0.03185201 -0.03929912 -0.010911909 0.034364928 -0.086361475 -0.030700784 0.052401762
0.016507499 -0.025635049 0.105605006 -0.051394418 0.10285548 0.12016676 0.024842413 -0.1063844
0.09720866 -0.055345297 0.06915628 -0.00023733372 0.15497114 0.056504842 0.02741475 0.07439907
0.046243858 0.050696183 -0.06378351 -0.025023447 0.05457898 -0.017391615 -0.047004532 0.04289187
0.03815975 0.017634727 -0.09859972 -0.013718605 0.058484863 0.052884676 -0.014205976 -0.063751794
-0.015187868 0.050103396 0.11171618 -0.0140375225 0.03316108 -0.03020428 -0.02779699 0.12580325
0.020715995 0.0410619 -0.015145167 0.050408818 0.031074904 0.100401826 -0.11076565 0.07770232
-0.021744998 -0.0064089284 0.04975588 0.041177202 0.038973585 0.04791402 -0.049805682 0.060524724
0.028251056 -0.00067035103 -0.04362491 -0.08919299 -0.014926882 0.06823682 0.064667515 -0.043309506
0.014760171 0.04113745 0.082851425 0.08639312 -0.06206197 -0.016396761 0.060125254 0.20801154
0.02749152 -0.004376812 -0.00678385 -0.08871941 -0.038336676 -0.06246426 0.024680277 -0.00048748625
-0.08703705 0.06913427 0.04127186 0.015972454 -0.07875179 0.08585349 0.063730955 -0.10517263
0.03734405 0.014510352 0.008748319 0.083662614 0.18525186 0.07563321 0.0429602 0.030463086
-0.018787978 -0.036122262 0.041218076 0.047879636 0.05495563 -0.0334546 0.0474267 0.007841747
0.07881956 -0.022966309 -0.06293802 -0.07075624 -0.067917794 0.033292048 0.08237341 -0.05547934
00000000: d18f 6ebb fc11 80bc d112 c3bc 0a3d e53c
00000010: 918c 89bc b4f6 12bd 2453 4dbd 3871 ffbc
00000020: 8bd3 78bd b925 b6bd 4900 2e3d a83f 743d
00000030: 377b b5bc 7238 59bd ad40 0b3d 3365 853c
00000040: 272f 953d de8c 45bd 1645 22bd 6fba c9bd
00000050: 41d8 c03d f1fc bfbc 592c 863c 7a0a 2c3c
00000060: 87c8 0ebc 6357 b63b e152 b5bd d1fd 413d
00000070: e9df 8d3d db22 85ba 500a 9dbb 4474 d2bd
00000080: 9d8a 873d c0aa bd3a c392 4ebd 31de c43c
00000090: 554f b03c 3e73 adbd 4299 b4bc 511e 8e3d
000000a0: eaaa d23d 8b6b 1dbb ac80 edbc 03f7 ee3d
000000b0: 61ab fc3a 53c9 323e 735e 193d ceb8 84bc
000000c0: 192d ff3c 8c5b 853d 50ec a1bd 4344 aa3d
000000d0: 4cc7 0f3c 14e8 c03c 38d8 97bb 8bfc afbd
000000e0: 93ca 09bd 73e8 333e dec6 ab3c b15a 4cbc
000000f0: 36f9 68bd 9615 e2bd 3718 2ebc e6de e73c
00000100: d1ce 83bd 4fa0 92bc b16b a8bc 4652 02bd
00000110: 54f9 d43d 7a0c c4bc 3624 3fbd 5faa 943d
00000120: 0a00 ccbc aaec 67bd 22f4 81bd 307c a33d
00000130: a1f3 793d 915c adbc 11b5 243b cf7f 03bd
00000140: b1cb 7cbd 4136 873d 1ef5 493d e2cd 07be
00000150: 22ca 5a3c e495 373e aaf8 373c 2a4f 50bd
00000160: b632 0b3e f3d0 8d3a fecf af39 3967 863d
00000170: 895d 913c 92cc b73c d54a d9bd 5669 823d
00000180: 403e 2c3d aff2 0e3d cd1a 3a3d 066d 91bb
00000190: 1a87 bbbd 152b 6b3d a1ad 643c 6802 103e
000001a0: 2851 c0bc 1029 c6b9 10c7 4f3d 1640 163e
000001b0: a416 e93b 4f1a 67bd 5d0c 833d dd7b c13a
000001c0: ee9d 583d 2ea6 8d3c 2434 82bd c40b 023c
000001d0: 157b 33bc b53e b53c 4f54 533d 6ef9 a6bd
000001e0: bccc 803c c2d4 c93c 0e4c 0b3d e9c6 a93d
000001f0: a063 393c 16f3 dc3c d9c6 fd3c f2b4 a53c
00000200: 4443 a0bc 7ed8 44bd e2bd 233d e8fc 563d
00000210: 63f9 0cbd 2a00 33bd 3cef bfbb fd10 123e
00000220: 8392 62bd 4177 023d 1df8 20bd ddc7 32bc
00000230: 3dc2 0c3d 49de b0bd 3680 fbbc 3ba3 563d
00000240: bc3a 873c 9800 d2bc 7047 d83d f482 52bd
00000250: e5a5 d23d fe19 f63d 5182 cb3c 10e0 d9bd
00000260: 5515 c73d c0b1 62bd cfa1 8d3d c9dc 78b9
00000270: c1b0 1e3e 9f71 673d e694 e03c 8a5e 983d
00000280: 336a 3d3d cda6 4f3d eea0 82bd f9fd ccbc
00000290: 358e 5f3d dc78 8ebc d387 40bd 63af 2f3d
000002a0: 664d 1c3d b476 903c a6ee c9bd 00c4 60bc
000002b0: d38d 6f3d 9a9d 583d 2fc0 68bc 4d90 82bd
000002c0: 89d6 78bc 3839 4d3d 74cb e43d a3fd 65bc
000002d0: ead3 073d f76e f7bc 83b6 e3bc 91d2 003e
000002e0: 97b4 a93c 8630 283d 6f23 78bc 7a79 4e3d
000002f0: cc90 fe3c 799f cd3d 1ad9 e2bd 6522 9f3d
00000300: 9122 b2bc fd01 d2bb d2cc 4b3d 6da9 283d
00000310: c4a2 1f3d 7e41 443d 0b01 4cbd c6e8 773d
00000320: c26e e73c 7fba 2fba 09b0 32bd d0aa b6bd
00000330: e28f 74bc bfbf 8b3d 6770 843d 4f65 31bd
00000340: a5d4 713c be7f 283d 02ae a93d e0ee b03d
00000350: b134 7ebd 8052 86bc e645 763d fa00 553e
00000360: e535 e13c 5c6b 8fbb 0f4b debb 86b2 b5bd
00000370: eb06 1dbd 86da 7fbd 4b2e ca3c 4c95 ffb9
00000380: 7b40 b2bd 4596 8d3d af0c 293d aad8 823c
00000390: 9e48 a1bd f4d3 af3d 6085 823d bf64 d7bd
000003a0: 13f6 183d d4bc 6d3c 1c55 0f3c 4e57 ab3d
000003b0: aab2 3d3e 96e5 9a3d 09f7 2f3d b98d f93c
000003c0: 3fe9 99bc f0f4 13bd 49d4 283d 701d 443d
000003d0: 2819 613d b107 09bd 8042 423d ac7a 003c
000003e0: 266c a13d d723 bcbc a6e5 80bd a6e8 90bd
000003f0: 7c18 8bbd 3e5d 083d 64b3 a83d 4e3e 63bd

conv2.bias f4 [32]
0.08537703 0.05416071 -0.08383783 0.033501443 -0.011065379 0.082770586 -0.08898788 -0.062360954
0.06529752 -0.07912174 -0.087315954 -0.09676817 -0.0073072086 0.07716121 0.09083815 -0.010844809
0.028671976 -0.15816905 -0.053438444 0.10039369 0.008735913 -0.020499991 -0.012612874 -0.097504355
-0.031995587 -0.08793037 0.066591136 -0.089449435 -0.13140787 -0.02023686 -0.058337286 0.09430742
00000000: 27da ae3d 9fd7 5d3d 2bb3 abbd cf38 093d
00000010: 904b 35bc a083 a93d 473f b6bd 336e 7fbd
00000020: b5ba 853d 940a a2bd b5d2 b2bd 642e c6bd
00000030: 4f71 efbb b206 9e3d 5a09 ba3d 6dae 31bc
00000040: 7ee1 ea3c 11f7 21be 45e2 5abd 359b cd3d
00000050: 1321 0f3c 99ef a7bc 3aa6 4ebc 5db0 c7bd
00000060: ce0d 03bd d614 b4bd ef60 883d 4431 b7bd
00000070: c98f 06be c5c7 a5bc 14f3 6ebd 4024 c13d

fc1.weight f4 [32, 512]
-0.026472803 0.0024583335 0.069622114 0.051884957 -0.012098605 -0.11257258 0.029054927 0.08561024
0.050318554 -0.094875105 0.027588101 0.051805556 -0.036388233 -0.046647232 0.04097355 0.040319722
-0.027573371 0.099295564 -0.034766562 -0.0026314275 0.0237163 0.026662277 -0.06486347 0.0030636804
-0.0016879875 -0.055460703 -0.06849134 -0.13097493 0.0016750381 0.019818792 -0.028422307 -0.0097567495
0.06531532 0.046687443 -0.089390695 0.07647464 -0.05073952 0.0066979732 0.013683943 -0.045625553
-0.031323485 -0.043645207 -0.034553744 0.06435316 -0.03310924 0.02426412 0.032860413 0.029287117
0.08593319 -0.023687147 -0.032961242 0.08212296 0.01802151 -0.036984425 0.068657234 0.08747436
0.0036462096 0.07732893 -0.020576138 0.021059038 0.12238534 0.047341593 -0.04289599 0.0003462043
-0.01047985 0.029712616 -0.033945728 0.039579842 0.04270953 0.04695296 0.09547026 0.023978593
0.08090613 0.0033024498 0.01849081 0.10813893 0.12533477 0.052191578 0.1250296 0.016515933
-0.063104026 0.038753178 0.0043274406 0.07756795 0.01909902 -0.06568484 -0.018873364 0.0022670347
-0.031824358 -0.041103885 0.0326769 -0.14365356 0.12532194 -0.09499459 -0.072811514 0.024065321
0.061389532 0.057541553 0.013056885 -0.051085226 -0.009882258 0.03520474 -0.037765965 0.14585245
-0.0010244991 -0.041445453 0.11981881 -0.0338998 -0.022614678 -0.0022253178 -0.0724051 -0.06055178
-0.027798055 -0.036883153 -0.08925246 0.03903794 0.04712746 -0.00097533467 -0.063586585 -0.080517575
-0.014288244 0.023921132 0.0047855517 -0.024034288 0.04525355 0.10120004 0.022498176 -0.07796796
-0.030683244 0.0056542763 0.089857 0.044954784 0.09652386 0.021129623 -0.035412006 0.0012504403
-0.0041786884 0.06932695 -0.056830924 0.11184338 -0.029136345 0.08371374 0.07281598 0.12747279
0.00770682 0.02431134 0.104534 0.017559374 -0.031021686 0.061338868 -0.05950668 0.081644714
-0.008601895 0.040879115 0.030911917 0.12550864 -0.009415955 -0.014625322 -0.07936497 0.029617086
0.0312311 -0.029857738 -0.10325542 -0.06553146 0.078838445 -0.09366554 -0.087528385 -0.09305192
-0.037024353 0.00012579883 -0.032167617 -0.027933005 -0.059180647 0.018692309 -0.009330454 -0.037618842
-0.00039623323 0.0064735077 -0.0813501 0.048485056 -0.0023672162 0.025803428 0.0816096 0.1294622
0.026018852 0.08249323 0.08311983 -0.017590297 0.008279308 0.035708368 0.15831834 0.016353693
0.021922894 0.019480431 -0.0068146675 -0.0446882 -0.023540989 -0.08327871 -0.03696521 0.032686576
0.10309707 -0.059192456 0.054538265 -0.033481173 0.0015468228 0.033308048 0.025144089 -0.067251034
0.010305642 0.12641104 -0.026822047 -0.01602761 0.026285158 0.015595637 -0.04276884 0.072493374
-0.03902544 0.046497546 0.027947849 -0.040700514 -0.13624462 0.06300661 0.015793081 0.036911152
-0.01271558 -0.0011982038 0.032149658 0.052452754 -0.025928335 0.012154162 -0.08542228 0.13887396
-0.08287028 0.09806399 -0.013394271 0.023594908 -0.06184403 0.045759853 -0.0660462 0.022989884
-0.041891497 0.056245927 0.0016871537 -0.118314505 0.034586087 0.02561826 -0.0052290102 0.056775156
-0.015086978 -0.006898796 -0.017549586 0.023909908 -0.06564143 0.0048573734 -0.0024888245 0.093017265
00000000: 7edd d8bc fe1b 213b 0a96 8e3d 5285 543d
00000010: 3a39 46bc 748c e6bd 9904 ee3c 6c54 af3d
00000020: d41a 4e3d e14d c2bd 7100 e23c 1032 543d
00000030: d40b 15bd 2b11 3fbd e2d3 273d 4b26 253d
00000040: 8de1 e1bc 795b cb3d 6267 0ebd 0774 2cbb
00000050: b048 c23c d96a da3c 24d7 84bd 07c8 483b
00000060: 763f ddba c32a 63bd 3045 8cbd 4b1e 06be
00000070: f48c db3a 055b a23c e6d5 e8bc c6da 1fbc
00000080: 0ac4 853d 553b 3f3d 7812 b7bd bc9e 9c3d
00000090: 3ed4 4fbd ac7a db3b 9e32 603c dce1 3abd
000000a0: 0e4d 00bd 51c5 32bd 3a88 0dbd 97cb 833d
000000b0: 8e9d 07bd 8cc5 c63c a498 063d 89eb ef3c
000000c0: befd af3d 8c0b c2bc 5e02 07bd 1530 a83d
000000d0: d9a1 933c fb7c 17bd 2a9c 8c3d c225 b33d
000000e0: 3ff5 6e3b a15e 9e3d 4a8f a8bc 0184 ac3c
000000f0: 2aa5 fa3d 42e9 413d b5b3 2fbd c182 b539
00000100: adb3 2bbc df67 f33c ad0a 0bbd 791e 223d
00000110: 30f0 2e3d bf51 403d e985 c33d c16e c43c
00000120: 1db2 a53d ea6d 583b 0a7a 973c f177 dd3d
00000130: c257 003e d6c6 553d c207 003e 6c4c 873c
00000140: af3c 81bd a7bb 1e3d 34cd 8d3b f2db 9e3d
00000150: 8c75 9c3c c685 86bd 509c 9abc 8892 143b
00000160: 425a 02bd 8c5c 28bd 37d8 053d eb19 13be
00000170: 6554 003e 868c c2bd 341e 95bd a324 c53c
00000180: 9773 7b3d b1b0 6b3d 8cec 553c be3e 51bd
00000190: 32e9 21bc d832 103d 7cb0 1abd 585a 153e
000001a0: 7c48 86ba b5c2 29bd 9063 f53d 84da 0abd
000001b0: 6b42 b9bc a3d6 11bb 2049 94bd 2505 78bd
000001c0: bfb8 e3bc ca12 17bd fec9 b6bd 3fe6 1f3d
000001d0: b908 413d 9aad 7fba af39 82bd 66e6 a4bd
000001e0: 3d19 6abc 40f6 c33c 1ed0 9c3b 8ee3 c4bc
000001f0: c95b 393d f741 cf3d 184e b83c aaad 9fbd
00000200: 6d5b fbbc 8247 b93b f206 b83d 8222 383d
00000210: 4dae c53d 0818 ad3c 2e0c 11bd d0e5 a33a
00000220: 61ed 88bb 4afb 8d3d 8bc7 68bd 240e e53d
00000230: 58af eebc 1c72 ab3d 8b20 953d 3a88 023e
00000240: 7e89 fc3b 9328 c73c ec15 d63d add8 8f3c
00000250: 3121 febc 773e 7b3d 47bd 73bd 5835 a73d
00000260: f6ee 0cbc dc70 273d fd3a fd3c 5685 003e
00000270: 6145 1abc 0c9f 6fbc 1a8a a2bd 889f f23c
00000280: 5dd8 ff3c 3798 f4bc 9477 d3bd 5c35 86bd
00000290: 0d76 a13d b8d3 bfbd 1542 b3bd 0192 bebd
000002a0: d9a6 17bd dee8 0339 31c2 03bd c2d3 e4bc
000002b0: 6867 72bd 9d20 993c c3de 18bc 3716 1abd
000002c0: 86bd cfb9 b81f d43b e29a a6bd 4498 463d
000002d0: 4c23 1bbb b661 d33c ef22 a73d bd91 043e
000002e0: 7d25 d53c 36f2 a83d bb3a aa3d 8719 90bc
000002f0: efa5 073c f042 123d 341e 223e 2ef8 853c
00000300: a497 b33c 6d95 9f3c 934d dfbb f90a 37bd
00000310: 08d9 c0bc 078e aabd d568 17bd 5ce2 053d
00000320: 8e24 d33d ca73 72bd 8463 5f3d 8e23 09bd
00000330: c3be ca3a 056e 083d fafa cd3c e9ba 89bd
00000340: ffd8 283c e571 013e e9b9 dbbc 564c 83bc
00000350: f953 d73c d884 7f3c 612e 2fbd 6877 943d
00000360: 24d9 1fbd 3674 3e3d e3f2 e43c 95b5 26bd
00000370: b683 0bbe 9c09 813d 7e60 813c 2630 173d
00000380: 0255 50bc 0c0d 9dba 5caf 033d b3d8 563d
00000390: a967 d4bc 4022 473c e0f1 aebd fa34 0e3e
000003a0: e5b7 a9bd c6d5 c83d a573 5bbc 1c4a c13c
000003b0: 2a50 7dbd af6e 3b3d 3b43 87bd 4855 bc3c
000003c0: 6b96 2bbd 2162 663d 7c23 dd3a e04e f2bd
000003d0: 24aa 0d3d 63dd d13c 1e58 abbb 118d 683d
000003e0: 5f2f 77bc 4c0f e2bb 26c4 8fbc b6de c33c
000003f0: 046f 86bd 9a2a 9f3b 8c1b 23bb d67f be3d

fc1.bias f4 [32]
-0.043067276 -0.05918879 0.121803746 -0.042542454 0.03329202 -0.03858943 -0.042123813 0.06440038
-0.010175217 -0.03604463 -0.036180604 0.0409912 -0.0204256 -0.017621035 0.027057365 0.027642276
-0.075587444 0.021290194 -0.08580049 -0.04423204 0.031732485 -0.04003446 7.787473e-05 -0.01946489
0.0494362 -0.07588176 -0.11480547 -0.037026502 -0.022878831 0.043063086 0.012221201 0.0404514
00000000: 5067 30bd f26f 72bd 3e74 f93d ff40 2ebd
00000010: 375d 083d f30f 1ebd 058a 2cbd 59e4 833d
00000020: f4b5 26bc 89a3 13bd 1d32 14bd 63e6 273d
00000030: 9753 a7bc fd59 90bc 68a7 dd3c 0e72 e23c
00000040: 97cd 9abd c668 ae3c 2bb8 afbd a82c 35bd
00000050: ecf9 013d 2dfb 23bd ad50 a338 d574 9fbc
00000060: 9d7d 4a3d e567 9bbd 211f ebbd 1aa9 17bd
00000070: 636c bbbc eb62 303d 6f3b 483c 5eb0 253d

fc2.weight f4 [10, 32]
-0.06269059 0.049756415 0.12129967 -0.041891634 -0.15505835 -0.1101766 -0.076417215 0.02892271
-0.1870069 -0.17269579 -0.042288497 0.23785713 -0.05146016 0.005707959 0.20766516 -0.25672743
0.087239295 -0.1778582 0.260084 0.14011073 0.0339869 0.009229917 0.22443868 0.03379292
0.14605057 -0.26978803 -0.08040631 -0.007103318 0.07125636 -0.05884163 0.078521274 -0.32173216
0.22571972 0.1136592 -0.067481644 -0.024428006 0.039394215 0.30851987 -0.11814115 0.1216131
0.22701824 -0.16581455 -0.06108519 -0.1268941 -0.18766168 -0.0016442881 0.076921575 -0.018048102
0.07553295 0.32155004 -0.16385564 -0.06799741 -0.21392953 -0.26149246 -0.09340279 0.10583043
-0.10543837 -0.24641116 0.041679926 -0.17985973 0.21296404 -0.08497454 -0.008430133 0.08445939
-0.18346514 0.21230288 0.1891379 -0.16947775 0.16128401 0.06953591 0.06410831 -0.1440082
0.10198941 -0.045639545 0.22027229 0.027269505 -0.33252338 -0.08321617 -0.24829271 0.101776384
-0.22447562 0.27245325 0.14675729 0.013483059 -0.084102646 0.09813504 0.123961955 -0.1374068
-0.061987825 -0.20209248 0.21587709 0.035329796 -0.12324173 -0.11432152 0.16925333 -0.17958504
-0.1829966 0.07763623 0.12382602 0.034103777 0.19481282 0.06710083 0.16382942 0.010042255
-0.24238965 -0.21846431 -0.006921542 0.15689376 -0.26580966 0.008717136 0.07730585 0.1590628
0.046083994 0.23984393 -0.20660703 -0.31182006 0.030331599 -0.19741547 0.15114084 0.17585546
0.14092867 0.22725736 -0.14514434 0.06064953 0.04601897 0.064555444 -0.20690829 -0.10527458
0.1381743 0.19911064 0.1298363 0.09505494 0.14846227 0.03621444 0.038316887 0.14698574
0.07148617 -0.16869661 0.14294845 -0.1675922 0.14396057 0.05426982 0.28277028 0.16243973
-0.11349843 -0.20649838 0.16966222 0.20227358 -0.07028109 -0.069485255 0.1004181 -0.20051184
-0.25474465 -0.22807479 0.043566387 0.14732252 -0.007139483 -0.088374384 0.0371713 0.13116972
-0.3018902 -0.15139492 -0.105190895 -0.027689105 0.09780066 -0.10677335 -0.04602598 0.06034109
0.07224513 -0.010525878 0.0008717099 -0.027824368 0.23140725 -0.11099464 -0.27204692 -0.0026890591
0.1394796 -0.10620987 0.15499261 -0.30744508 0.20779073 0.14350408 0.14419554 0.008418364
0.23854454 -0.12274756 -0.09667839 -0.053512964 -0.1422363 0.1466852 -0.08561812 0.01668055
-0.19347344 -0.20552634 0.18053734 0.06975388 -0.07883949 0.18683414 0.15542626 0.028938934
0.3027136 -0.12029621 -0.12926297 0.11964383 -0.15572043 -0.115452275 -0.07247046 -0.059044603
-0.07864736 -0.34731513 0.2627701 -0.123624854 0.020475019 -0.20893961 0.15977806 -0.2687134
0.046497583 -0.28897792 0.059190143 0.044543155 -0.13291398 -0.19210623 0.2679733 0.19786584
0.14761981 0.036872085 -0.2081815 0.12726595 0.18887082 0.020820543 0.034137055 0.1030661
-0.10129465 0.01699861 -0.08523436 -0.07582904 0.025404483 0.175194 0.031590246 -0.19697505
-0.15082557 0.29705065 -0.054175746 0.23555833 -0.073337734 0.2999298 0.096164964 -0.24417387
-0.17354605 0.12825833 0.1664652 -0.0054263603 0.06394296 0.16037506 -0.20261636 -0.0064680795
00000000: ed63 80bd 62cd 4b3d f66b f83d 9096 2bbd
00000010: 9ec7 1ebe 45a4 e1bd a180 9cbd 52ef ec3c
00000020: bd7e 3fbe 2ad7 30be b436 2dbd d290 733e
00000030: e4c7 52bd d509 bb3b 2da6 543e c771 83be
00000040: 84aa b23d 7620 36be bb29 853e 3079 0f3e
00000050: d935 0b3d 1439 173c 41d3 653e 726a 0a3d
00000060: 488e 153e a821 8abe 10ac a4bd f3c2 e8bb
00000070: dbee 913d ec03 71bd c3cf a03d 14ba a4be
00000080: 1223 673e 28c6 e83d d133 8abd 3e1d c8bc
00000090: d45b 213d 51f6 9d3e fdf3 f1bd 4a10 f93d
000000a0: 7877 683e 4acb 29be 7734 7abd 87f0 01be
000000b0: 622a 40be 2785 d7ba 0f89 9d3d 9dd9 93bc
000000c0: 05b1 9a3d 35a2 a43e c6c9 27be 3a42 8bbd
000000d0: 5810 5bbe 57e2 85be f649 bfbd a0bd d83d
000000e0: 12f0 d7bd 3553 7cbe 92b8 2a3d 262d 38be
000000f0: 3f13 5a3e 2207 aebd 8a1e 0abc 0bf9 ac3d
00000100: 49de 3bbe ed65 593e 5ead 413e 938b 2dbe
00000110: a327 253e d868 8e3d 384b 833d e376 13be
00000120: d3df d03d 88f0 3abd 0f8f 613e 4c64 df3c
00000130: 8140 aabe 3d6d aabd 7240 7ebe 2370 d03d
00000140: f0dc 65be fe7e 8b3e 8b47 163e 0ce8 5c3c
00000150: 023e acbd 06fb c83d c4df fd3d 5eb4 0cbe
00000160: f2e6 7dbd 55f1 4ebe e20e 5d3e fab5 103d
00000170: 2966 fcbd 6721 eabd bf50 2d3e 24e5 37be
00000180: 7663 3bbe beff 9e3d 7f98 fd3d 67b0 0b3d
00000190: 037d 473e 296c 893d e6c2 273e 4588 243c
000001a0: fe34 78be 1cb5 5fbe 1ace e2bb c2a8 203e
000001b0: 3418 88be 52d2 0e3c 8852 9e3d 5ce1 223e
000001c0: 92c2 3c3d a699 753e cb90 53be e1a6 9fbe
000001d0: f979 f83c 4827 4abe aac4 1a3e 7413 343e
000001e0: 9b4f 103e 27b6 683e b8a0 14be a46b 783d
000001f0: 637e 3c3d a535 843d c4df 53be 339a d7bd
00000200: 907d 0d3e a9e3 4b3e cff3 043e 2aac c23d
00000210: 7e06 183e 9855 143d 2bf2 1c3d 6e83 163e
00000220: 5767 923d cebe 2cbe 1461 123e 4a9d 2bbe
00000230: 666a 133e 084a 5e3d 44c7 903e 9a56 263e
00000240: dd71 e8bd 5074 53be efbb 2d3e ce20 4f3e
00000250: 88ef 8fbd 494e 8ebd 01a8 cd3d fa52 4dbe
00000260: e46d 82be 708c 69be ab72 323d b7db 163e
00000270: 53f2 e9bb a1fd b4bd ef40 183d 5b51 063e
00000280: 5a91 9abe 4507 1bbe 536e d7bd 43d4 e2bc
00000290: b64b c83d fcab dabd bd85 3cbd 3828 773d
000002a0: 41f5 933d bb74 2cbc 7683 643a eeef e3bc
000002b0: 06f6 6c3e 2851 e3bd bc49 8bbe ed3a 30bb
000002c0: bed3 0e3e 8f84 d9bd 62b6 1e3e 7169 9dbe
000002d0: 18c7 543e bcf2 123e ffa7 133e 2eed 093c
000002e0: 0545 743e 1363 fbbd 52ff c5bd 6930 5bbd
000002f0: 65a6 11be a534 163e 8e58 afbd a6a5 883c
00000300: e71d 46be 7f75 52be c8de 383e 1fdb 8e3d
00000310: 9976 a1bd 7351 3f3e 1028 1f3e 5811 ed3c
00000320: 47fd 9a3e dc5d f6bd 835d 04be d307 f53d
00000330: 2d75 1fbe 3e72 ecbd 646b 94bd c1d8 71bd
00000340: de11 a1bd 4ad3 b1be cd89 863e 072f fdbd
00000350: 3abb a73c 44f4 55be dc9c 233e ce94 89be
00000360: 4074 3e3d eaf4 93be 5d71 723d e272 363d
00000370: 9a1a 08be 7fb7 44be cc33 893e 589d 4a3e
00000380: a629 173e 2f07 173d 882d 55be 0152 023e
00000390: 5a67 413e d88f aa3c 4cd3 0b3d 5214 d33d
000003a0: 9273 cfbd ab40 8b3c 5a8f aebd 414c 9bbd
000003b0: 101d d03c 0e66 333e c664 013d d4b3 49be
000003c0: 0572 1abe 0617 983e 63e7 5dbd 3436 713e
000003d0: 1832 96bd 6690 993e 23f2 c43d b708 7abe
000003e0: 0eb6 31be 2756 033e da75 2a3e 9ccf b1bb
000003f0: 87f4 823d 5c39 243e aa7a 4fbe 2ff2 d3bb

fc2.bias f4 [10]
-0.027883528 0.059634086 0.07693503 -0.12735496 -0.010064008 0.1325892 0.17958176 0.16372646
-0.08431074 0.102052495
00000000: ff6b e4bc df42 743d 1d90 9d3d 5769 02be
00000010: 82e3 24bc 77c5 073e 48e4 373e e9a7 273e
00000020: 1cab acbd e600 d13d
