Codes/mnist_cnn_mnist_3_True_15595_0.1_1.0_1.0_64_1.pt (torch, 106255 bytes, 8 tensors)

conv1.weight f4 [16, 1, 8, 8]
0	0xbe02c177	-0.12769113
1	0xbe0cd979	-0.13754834
2	0xbe105be5	-0.14097555
3	0xbd841506	-0.064493224
4	0xbd6a08a9	-0.057137165
5	0xbdc57a53	-0.09642472
6	0x3dff5b38	0.124685705
7	0x3de95c10	0.11394513
8	0x3d5e175a	0.05422149
9	0x3df9a32c	0.12189326
10	0x3e09823d	0.13428588
11	0x3d875644	0.06608251
12	0xbe2cff7b	-0.16894333
13	0xbd33937a	-0.043841816
14	0xbe14f09c	-0.1454491
15	0xbd27307f	-0.040817734
16	0xbd9e6cc3	-0.077355884
17	0x3e517600	0.2045517
18	0x3e0ee48a	0.13954368
19	0x3cf4eecc	0.029899023
20	0x3d8282f7	0.06372636
21	0xbe02b550	-0.12764478
22	0x3e0d62eb	0.13807265
23	0xbdd682d7	-0.104741745
24	0xbd0c5a72	-0.034265943
25	0xbe1a150e	-0.15047094
26	0xbc4ffd9d	-0.012694743
27	0x3dc6b357	0.09702175
28	0xbd908914	-0.070573956
29	0xbd5e620c	-0.054292724
30	0xbd888992	-0.066668645
31	0x3da06d9f	0.078334086
32	0xbd3d298e	-0.046182208
33	0xbdb92990	-0.090411305
34	0xbddabc81	-0.106804855
35	0x3bd2a284	0.006428065
36	0x3d83301c	0.064056605
37	0xbe153fef	-0.1457517
38	0xbd9190f5	-0.071077265
39	0xbd5eb30b	-0.054369967
40	0xbd3e66c1	-0.046484713
41	0xbc5b893e	-0.01339942
42	0xbd3d72d3	-0.046252083
43	0xbe160767	-0.14651261
44	0x3e1cad6e	0.15300533
45	0x3d02c19d	0.031922925
46	0xbdb9f59e	-0.09080051
47	0x3c92672a	0.017871458
48	0xbbe3db80	-0.0069536567
49	0x3e5aea99	0.21378554
50	0x3de343af	0.11096894
51	0xbbe837d1	-0.007086732
52	0x3d19a257	0.037508335
53	0x3d95e8fe	0.0731983
54	0x3e365612	0.1780627
55	0x3d2e0c86	0.042492412
56	0xbd662a6e	-0.056192808
57	0x3e124087	0.14282428
58	0x3da4d305	0.08048061
59	0xbcfe631f	-0.031053124
60	0x3df72186	0.12066941
61	0x3d1e6487	0.03867009
62	0xbd0da023	-0.034576546
63	0xbc8f6544	-0.017504342
64	0xbe0a47e3	-0.13503985
65	0xbe0b0e45	-0.13579662
66	0xbd18e4f7	-0.037327733
67	0xbe322e7f	-0.1740055
68	0x3d11c796	0.03559073
69	0x3d06462f	0.032781776
70	0x3d9c65ec	0.076366276
71	0x3e3cd81e	0.18441817
72	0xbdd9b120	-0.10629487
73	0xbc30cb97	-0.010790727
74	0x3d1b007e	0.037842266
75	0xbc8c948c	-0.017160676
76	0x3da4ce53	0.08047166
77	0x3e4c4bcf	0.19950794
78	0x3e3554d1	0.17708136
79	0x3e823801	0.25433353
80	0xbd4982c9	-0.049196992
81	0xbdc4014b	-0.09570559
82	0xbdc607e4	-0.09669474
83	0xbd9bb11a	-0.07602139
84	0x3df6e79b	0.12055894
85	0xbd17fa69	-0.037104044
86	0x3e81a5af	0.2532172
87	0xbc75758d	-0.01498164
88	0xbe446777	-0.19180094
89	0xbca64990	-0.02029875
90	0xbdced3a2	-0.100989595
91	0x3d6c3927	0.057671692
92	0xbd9407ee	-0.07228075
93	0x3e8b548e	0.27212948
94	0x3e82ec08	0.25570703
95	0x3e0287ef	0.12747167
96	0xbe04d77d	-0.12972827
97	0x3d05a6ea	0.032629885
98	0xbdf7ff4c	-0.12109241
99	0xbdc66b70	-0.09688461
100	0x3dad8014	0.084716946
101	0x3e648440	0.22316074
102	0x3e5c92dc	0.21540397
103	0xbab2ed42	-0.0013651031
104	0xbd3416d2	-0.043967076
105	0xbe3db1ac	-0.18524808
106	0xbb27b271	-0.0025588537
107	0xbccab3c6	-0.024743926
108	0x3df134a1	0.11777616
109	0x3c486500	0.0122311115
110	0x3e4bd3f3	0.19905071
111	0x3e2e40dd	0.17016931
112	0xbe271912	-0.16318157
113	0xbe1ca610	-0.15297723
114	0xbe1ae7fd	-0.15127559
115	0xbc763e36	-0.015029481
116	0x3e53cc8c	0.20683497
117	0x3e91ef00	0.28502655
118	0x3d8afc62	0.067864195
119	0x3e08bcad	0.13353224
120	0x3c97870e	0.018497016
121	0xbe1818b3	-0.14853172
122	0xbdcf842d	-0.101326324
123	0x3ca1407e	0.019684073
124	0xba8c07e4	-0.0010683504
125	0x3da67967	0.081286244
126	0x3e2d585c	0.16928238
127	0x3c340469	0.01098738
128	0x3c7b7d27	0.015349663
129	0x3b4de7e1	0.0031418728
130	0x3d50b63c	0.050955042
131	0xbd6c04c6	-0.05762174
132	0x3dc15912	0.09440817
133	0xbd6264c3	-0.055271875
134	0xbe0235e4	-0.1271587
135	0x3dad20ca	0.0845352
136	0x3d99d608	0.07511526
137	0x3dcd02a3	0.100102685
138	0xbe4601ad	-0.19336577
139	0x3c2233c5	0.009900038
140	0xbe25a5c2	-0.16176513
141	0xbd4afbdf	-0.04955661
142	0xbd7193f0	-0.058978975
143	0x3de7cf8d	0.11318884
144	0x3d798ae4	0.060923472
145	0xbc538843	-0.012910905
146	0x3bb58831	0.005539917
147	0xbdcc48cd	-0.09974823
148	0x3d828ac8	0.06374127
149	0x3dff60d1	0.12469638
150	0xbd770d9e	-0.06031572
151	0x3e1ab96c	0.15109795
152	0xbbb47083	-0.0055065765
153	0x3dbf3c04	0.09337619
154	0x3e09c794	0.1345504
155	0xbda2c137	-0.07947009
156	0x3e4138a3	0.18869261
157	0xbc1f5c8d	-0.009726656
158	0x3e02be5c	0.12767929
159	0x3c45283e	0.01203352
160	0xbe06e58f	-0.13173507
161	0xbd49949e	-0.049213998
162	0x3c2c725e	0.010525314
163	0x3d79b8c4	0.06096722
164	0xbe4b8efa	-0.1987876
165	0xbdb7796c	-0.08958706
166	0x3e33e678	0.17568386
167	0x3cedfa6d	0.029050076
168	0xba317ffe	-0.00067710865
169	0x3d645a15	0.05574997
170	0x3d218cf6	0.03944107
171	0x3e121c88	0.14268696
172	0xbd9b19ee	-0.07573305
173	0x3e02ffbb	0.12792866
174	0x3dc4e2f1	0.09613598
175	0x3db246d9	0.08704919
176	0xbc999d2e	-0.018751707
177	0x3d7245f6	0.05914875
178	0x3e14bbb9	0.14524736
179	0x3cadbd38	0.02120839
180	0x3e1a882f	0.15091012
181	0x3dad3052	0.08456482
182	0x3e251d26	0.161244
183	0x3e23c1e7	0.15991937
184	0xbcbe3e60	-0.023223102
185	0x3cf818af	0.030285208
186	0x3d90dffb	0.07073971
187	0x3daac4cd	0.08338318
188	0xbdbed292	-0.09317507
189	0xbc36d03c	-0.011158045
190	0x3e20ce68	0.15703738
191	0xbcb6d7d6	-0.022319715
192	0xbe008f6e	-0.12554714
193	0xbcbff86a	-0.023433883
194	0x3e160663	0.14650874
195	0x3e04ccb8	0.12968719
196	0x3bcd211e	0.0062600514
197	0x3e016880	0.1263752
198	0xbc5810d1	-0.013187603
199	0x3e176175	0.1478327
200	0xbd8cb924	-0.0687125
201	0xbd06c8fb	-0.032906514
202	0x3da37981	0.079821594
203	0x3e05579e	0.13021705
204	0x3e53cc5f	0.2068343
205	0x3cba9551	0.022776278
206	0x3ce48b29	0.027898388
207	0xbe4b25fd	-0.1983871
208	0x3c76b859	0.0150586
209	0xbe179e5d	-0.14806505
210	0xbbca08ca	-0.0061655985
211	0xbd12938f	-0.035785254
212	0x3e161883	0.14657788
213	0x3dbd8615	0.0925409
214	0xbe1c4f3e	-0.15264603
215	0xbe524866	-0.2053543
216	0x3da1eff6	0.07907097
217	0xbcda03d0	-0.026613146
218	0x3e82a25b	0.25514492
219	0x3e16190e	0.14657995
220	0xbd4c7d65	-0.049924273
221	0xbddabe55	-0.10680834
222	0xbca551d0	-0.020180613
223	0x3e023521	0.1271558
224	0x3e0cf696	0.1376594
225	0xbd0c2b4e	-0.034220986
226	0xbc8c5a7c	-0.01713299
227	0x3e26e2d6	0.16297469
228	0x3de52bbf	0.111899845
229	0xbddd6151	-0.10809577
230	0x3dc25fc6	0.094909236
231	0x3dd2b779	0.10288901
232	0x3e3f98a5	0.18710573
233	0x3e315266	0.17316589
234	0x3e0d8074	0.13818532
235	0x3e89e48f	0.2693219
236	0xbc9e948c	-0.019357942
237	0x3dd9e757	0.10639828
238	0x3de504ba	0.11182542
239	0x3e7006fe	0.23440167
240	0x3daa9395	0.0832893
241	0x3e08c1af	0.13355134
242	0x3d157609	0.03648952
243	0x3e67df30	0.22643733
244	0x3e4c4cd7	0.19951187
245	0x3e880012	0.26562554
246	0x3d127906	0.03575995
247	0x3d49cce9	0.049267683
248	0x3c189b5d	0.009314385
249	0x3db58092	0.088624135
250	0x3e6188cb	0.22024839
251	0x3e703c54	0.23460513
252	0x3e4a8497	0.19777142
253	0xbd79c3a9	-0.06097761
254	0x3c035f59	0.008018338
255	0xbdd2d352	-0.102942124

conv1.bias f4 [16]
0	0xbc062eba	-0.008189851
1	0x3d7785ba	0.060430266
2	0xbd6f2006	-0.05838015
3	0x3dd5adf1	0.10433567
4	0xbcf9aa20	-0.03047663
5	0xbd8d1902	-0.068895355
6	0xbd9d0b51	-0.07668174
7	0x3dc11840	0.094284534
8	0x3dd0ef3c	0.1020188
9	0xbbddae2a	-0.0067651467
10	0x3db5967e	0.08866595
11	0xb9587d61	-0.00020646073
12	0xbe009736	-0.12557682
13	0xbb502101	-0.0031757953
14	0xbcb65519	-0.022257375
15	0xbd4288f3	-0.047493886

conv2.weight f4 [32, 16, 4, 4]
0	0xbd365143	-0.04451109
1	0xbd1499bc	-0.036279425
2	0xbd385efd	-0.045012463
3	0xbd1b1f93	-0.03787191
4	0xbc1a9732	-0.009435462
5	0x3cdd0614	0.026980437
6	0xbc83961a	-0.016062785
7	0x3ddd6525	0.108103074
8	0xbd4086cd	-0.047003556
9	0xbcb8d225	-0.022561142
10	0x3dcd5c97	0.10027426
11	0xbd1e4668	-0.038641363
12	0xbd4849f4	-0.048898652
13	0xbde14c90	-0.11000931
14	0xbdbc566d	-0.09196172
15	0xbcf24eb3	-0.029578542
16	0xbbec0412	-0.0072026337
17	0xbd651143	-0.055924665
18	0x3b908870	0.004410796
19	0x3e08b98b	0.13352029
20	0x3c1436c2	0.009046258
21	0xbdf58ec0	-0.11990118
22	0x3e1288cd	0.14309998
23	0x3df0261e	0.1172602
24	0xbce6a8f7	-0.02815674
25	0xbced1c8f	-0.028944282
26	0x3e168328	0.1469847
27	0x3d8c6ec6	0.06857066
28	0xbda94087	-0.08264261
29	0x3d27f12d	0.041001488
30	0x3e0395e9	0.12850155
31	0x3df8c633	0.121471785
32	0x3d12b6d6	0.035818897
33	0xbd8ceb47	-0.06880813
34	0x3c9a6fdb	0.018852165
35	0x3c47f336	0.012203982
36	0x3c4389be	0.011934696
37	0xbde48b36	-0.11159365
38	0x3d8cdc30	0.06877935
39	0xbcd3fb45	-0.02587665
40	0xbd5e2c19	-0.054241274
41	0xbc44748b	-0.011990677
42	0xbd4cedb3	-0.050031375
43	0x3e2275d6	0.15865263
44	0xbbb1f2af	-0.0054305415
45	0x3c9fefab	0.019523462
46	0x3d412c18	0.04716119
47	0xbd5f5b81	-0.054530624
48	0x3d94b89a	0.072617725
49	0x3d016839	0.031593535
50	0xbd893a5b	-0.067005835
51	0xbd6393b2	-0.055560775
52	0x3d6da2ac	0.058016464
53	0xbd5a44a2	-0.05328811
54	0x3d001224	0.0312673
55	0x3c281e92	0.010261195
56	0xbcdbb6a9	-0.026820498
57	0xbdf2f402	-0.11862947
58	0xbdbe4487	-0.09290414
59	0xbd880042	-0.06640674
60	0xbbea4165	-0.007148909
61	0xbd13f081	-0.036118034
62	0xbd9001a0	-0.0703156
63	0x3c6b3e14	0.014358062
64	0x3cb23e55	0.021758238
65	0xbc280f8a	-0.010257611
66	0xbcb208ba	-0.021732677
67	0x3db5205e	0.08844064
68	0x3d9546f7	0.07288926
69	0x3ce07dc1	0.027403714
70	0x3dd16b22	0.10225512
71	0x3c1d730f	0.009609952
72	0x3e2ae528	0.16688979
73	0x3c2de6bb	0.010614092
74	0x3df91acd	0.12163315
75	0x3be8f1cb	0.007108902
76	0x3e1a3e38	0.15062797
77	0x3db508cf	0.08839571
78	0x3cece4f6	0.02891777
79	0x3dacb7a7	0.084334664
80	0xbdb678a5	-0.0890973
81	0xbc2bc8f5	-0.010484924
82	0x3dfad757	0.12248104
83	0x3d4913f2	0.049091287
84	0x3c50dc5e	0.012747852
85	0xbde174c2	-0.11008598
86	0x3d986059	0.07440252
87	0x3daa63dd	0.08319829
88	0xbdab093a	-0.08351369
89	0xbd0d847f	-0.034550186
90	0xbdbfc22b	-0.093632065
91	0xbc9e7b7b	-0.01934599
92	0xbdde957e	-0.10868357
93	0xbc9f6e2e	-0.019461717
94	0x3d8fec67	0.07027512
95	0xbd259518	-0.04042539
96	0x3acfba0b	0.0015848292
97	0xbdc28a2b	-0.0949901
98	0x3b8d5ccb	0.0043140403
99	0x3d81d4c0	0.06339407
100	0xbce23389	-0.027612465
101	0x3b2be13e	0.0026226784
102	0x3d812f16	0.06307809
103	0x3db0b67b	0.086285554
104	0xbd412794	-0.047156885
105	0x3c39a765	0.011331414
106	0x3e1ba372	0.15199068
107	0x3c924c2e	0.01785859
108	0xbda3d91d	-0.080003954
109	0x3d9fd3bc	0.07804057
110	0x3d64a8ec	0.05582516
111	0x3e082009	0.1329347
112	0xbd505816	-0.050865255
113	0xbcb5ebe6	-0.022207212
114	0xbddb7ae7	-0.10716801
115	0x3daf268c	0.08552274
116	0x3ca59f61	0.0202176
117	0xbd876fec	-0.06613144
118	0x3da93b10	0.082632184
119	0x3d9df281	0.077122696
120	0x3d75da45	0.06002261
121	0xbd9ee22b	-0.07757982
122	0xbe0a401c	-0.13501018
123	0x3d3b8352	0.045779534
124	0xbd40ec01	-0.04710007
125	0xbd68f1b4	-0.05687113
126	0xbd928cfa	-0.071557954
127	0xbd00f09f	-0.031479474
128	0x3d6d5582	0.057942875
129	0xbd546dc8	-0.051862508
130	0x3da6638a	0.08124454
131	0x3d55aa10	0.052164137
132	0x3db8c218	0.090213954
133	0xbcb20ad1	-0.021733673
134	0x3e2379f3	0.15964489
135	0x3dac1d71	0.08404053
136	0x3d80c83a	0.0628819
137	0xbddd75dc	-0.108134955
138	0x3daa37ca	0.08311422
139	0xbc94c518	-0.018160388
140	0xbda38d42	-0.07985927
141	0xbc1e10ff	-0.009647607
142	0x3e1e11f6	0.15436539
143	0xbd19a903	-0.037514698
144	0xbd7c694b	-0.061623853
145	0x3e090518	0.1338085
146	0x3d9d3a7e	0.07677172
147	0x3d8c2151	0.06842292
148	0xbddfd89d	-0.109299876
149	0x3c1d2ec0	0.009593666
150	0x3d8d7859	0.0690772
151	0x3cae4b45	0.021276126
152	0x3d83599a	0.064135745
153	0x3d5c12fd	0.053729046
154	0x3c58842c	0.013215106
155	0xbb854edf	-0.00406824
156	0x3bb29b4e	0.0054506427
157	0xbde2dc04	-0.11077121
158	0xbdedb947	-0.116076045
159	0xbbf2ac64	-0.0074058045
160	0xbd8ff57b	-0.070292436
161	0xbd3c0230	-0.045900524
162	0xbbd27ab1	-0.0064233174
163	0xbd5f9a39	-0.054590438
164	0xbd33f784	-0.04393722
165	0xbd2e888d	-0.042610694
166	0xbc804710	-0.015658885
167	0x3e2c05b7	0.16799055
168	0xbbaef71f	-0.0053395177
169	0x3d6f305d	0.058395732
170	0x3d308b00	0.04310131
171	0x3de301c8	0.11084324
172	0x3d1d7f04	0.03845121
173	0x3d85d0dd	0.06533978
174	0x3d49bffe	0.049255364
175	0x3d117eb7	0.035521235
176	0x3d816bcc	0.06319389
177	0xbd4bba31	-0.049738113
178	0xbd5559f0	-0.052087724
179	0x3c819c04	0.015821464
180	0xbd2cb17a	-0.042161442
181	0xbc1c7adf	-0.009550779
182	0xbbec627a	-0.0072138878
183	0x3d284201	0.04107857
184	0x3d3d7aa0	0.046259522
185	0x3d3921cf	0.045198258
186	0xbcdefe5c	-0.027220897
187	0x3c8317f7	0.016002638
188	0x3d1f1d2c	0.03884618
189	0xbcb5a799	-0.022174643
190	0xbb866199	-0.00410099
191	0x3db9659c	0.090525836
192	0xbd6cd682	-0.057821758
193	0x3dc52ef2	0.09628095
194	0xbcf3246d	-0.029680455
195	0x3d1866b9	0.03720734
196	0xbca1f2c7	-0.019769086
197	0xbc401b53	-0.011725265
198	0xbd03a9e4	-0.032144442
199	0xbd590291	-0.052980963
200	0x3d90d18f	0.0707122
201	0x3c79b5fe	0.015241144
202	0xbcd3c372	-0.025850032
203	0x3c90d26b	0.01767846
204	0xbdb7fc86	-0.08983712
205	0xbde97139	-0.11398549
206	0x3d7b4e77	0.061354127
207	0x3cf5419f	0.029938517
208	0x3d943b32	0.07237853
209	0xbd30bfa7	-0.043151524
210	0xbcea8024	-0.028625555
211	0x3dcc51b4	0.09976521
212	0xbd99057d	-0.0747175
213	0xbcfe2de9	-0.031027751
214	0x3ac13a34	0.0014742077
215	0x3b1fd9b4	0.0024391236
216	0xbd3d0566	-0.046147726
217	0x3d756f84	0.059920803
218	0x3d5d319d	0.054002393
219	0x3d2ca4b5	0.042149264
220	0xbdbcd308	-0.092199385
221	0xbda15224	-0.07876995
222	0x3d95710f	0.07296955
223	0xbd9cc2e6	-0.076543614
224	0x3dbd6fca	0.09249838
225	0xbb782dbd	-0.003786906
226	0x3d14f50b	0.036366504
227	0xbc90f381	-0.017694237
228	0x3bbcd939	0.0057631996
229	0x3b5c18f8	0.0033584218
230	0x3ca2fa2e	0.019894686
231	0x3d3c52bd	0.045977343
232	0x3d32a404	0.04361345
233	0xbd1d1b37	-0.038356032
234	0x3d4695e1	0.04848278
235	0x3d663d61	0.05621088
236	0x3d3b2077	0.045685258
237	0xbbc5abd8	-0.0060324483
238	0xbd496017	-0.049163904
239	0xbc4c27cf	-0.012460663
240	0x3e021812	0.12704495
241	0x3b96eddc	0.0046059918
242	0xbdc6454b	-0.09681185
243	0x3d0b95a8	0.03407827
244	0x3d114344	0.03546454
245	0x3d87333e	0.066015705
246	0xbd2ebfb8	-0.042663306
247	0x3ddea3ad	0.108710624
248	0xbde08137	-0.10962146
249	0x3db0bc1f	0.08629631
250	0x3d5c626a	0.053804792
251	0xbd92c7a9	-0.071669884
252	0x3d93616f	0.07196318
253	0xbd16b130	-0.036790073
254	0x3ded8bd5	0.115989365
255	0xbd0d1bb6	-0.034450255

conv2.bias f4 [32]
0	0x3d0274d7	0.03184971
1	0x3d88d15a	0.06680556
2	0x3c12bfc4	0.008956853
3	0xbd7caf32	-0.061690517
4	0x3a2e6154	0.0006652076
5	0x3cec5609	0.028849619
6	0x3d529f24	0.0514213
7	0xbd910ef9	-0.07082934
8	0x3cad5219	0.021157311
9	0xbdd012b5	-0.10159818
10	0xbd99f9e1	-0.07518364
11	0xbde30aca	-0.11086042
12	0xbd030810	-0.03199011
13	0x3e039aab	0.1285197
14	0xbd8afc11	-0.06786359
15	0x3e1d508b	0.15362756
16	0xbd59064d	-0.052984525
17	0xbcab5886	-0.020916235
18	0x3daa3d98	0.08312529
19	0xbd0c9158	-0.034318298
20	0x3da15f28	0.07879478
21	0xbc6011fd	-0.013676164
22	0xbd22b84b	-0.039726537
23	0x3d6446e2	0.05573166
24	0x3d5770f5	0.05259796
25	0x3e084420	0.13307238
26	0xbd6185a3	-0.055059087
27	0xbdf73ee2	-0.12072541
28	0xbd23d86e	-0.040001325
29	0xbccc59b6	-0.024945121
30	0x3d2329af	0.039834674
31	0x3dffd972	0.12492646

fc1.weight f4 [32, 512]
0	0xbe10e947	-0.14151488
1	0x3d0f6c35	0.035015304
2	0xbaf56c1d	-0.0018724237
3	0xbb61d878	-0.00344613
4	0x3cb01572	0.0214946
5	0xbcb8307a	-0.022484053
6	0xbc2cefd6	-0.010555228
7	0xbdd01f64	-0.10162237
8	0xbdbf5552	-0.093424454
9	0xbd3ed065	-0.04658546
10	0xbd8d2239	-0.06891293
11	0x3d09f700	0.033682823
12	0xbd9eac0b	-0.07747658
13	0x3d84550d	0.06461535
14	0x3b89f201	0.0042097573
15	0x3c6a1613	0.0142874895
16	0x3cbff907	0.023434175
17	0x3d91af68	0.07113534
18	0x3d9e9603	0.07743456
19	0xbd8b1085	-0.0679026
20	0x3cac01fb	0.020997038
21	0xbdb962bc	-0.09052035
22	0x3c7b5efe	0.015342472
23	0x3cae5331	0.021279903
24	0xbcab1bd9	-0.020887302
25	0xbe05efdb	-0.13079779
26	0xbca41c69	-0.020033078
27	0xbd14a546	-0.03629043
28	0xbdaaf880	-0.08348179
29	0x3cfbee48	0.03075327
30	0x3c9f832a	0.019471724
31	0x3d256cea	0.04038707
32	0x3e3b63e8	0.1829983
33	0xbca1f63c	-0.019770734
34	0x3b527701	0.003211439
35	0xbd9dfde3	-0.07714441
36	0xbd5dff59	-0.054198597
37	0xbd93fc39	-0.07225842
38	0x3d13e978	0.036111325
39	0xbc899aa7	-0.016797377
40	0x3d1859c4	0.037194982
41	0x3d55a978	0.05216357
42	0xbad68502	-0.0016366544
43	0x3d54b8c1	0.051934008
44	0x3e062f0c	0.13103884
45	0x3b2a9b1c	0.0026032394
46	0xbd639831	-0.055565063
47	0xbb496e64	-0.0030735964
48	0x3c45a565	0.012063359
49	0x3da2cbce	0.07949029
50	0xbd88e2e0	-0.06683898
51	0x3df97c18	0.12181872
52	0xbcd78a9c	-0.026311211
53	0x3be31431	0.0069298972
54	0xbd9972aa	-0.074925736
55	0x3e264e5d	0.1624083
56	0xbd72ed96	-0.05930861
57	0x3c8da5fc	0.017291062
58	0xbc16f81c	-0.009214427
59	0xbc93953b	-0.018015495
60	0x3c5ea44b	0.013588975
61	0xbd52c9d0	-0.051461995
62	0xbd25da60	-0.04049146
63	0xbc563bc8	-0.013075776
64	0x3d1fefb0	0.039046943
65	0x3d068014	0.03283699
66	0xbd3ee7c9	-0.046607766
67	0x3bfaf11c	0.007658137
68	0xbc913701	-0.017726423
69	0xbc0be5ef	-0.008538707
70	0xbda52408	-0.08063513
71	0xbc27cb5a	-0.010241354
72	0x3d1a2f01	0.037642483
73	0xbc0d7375	-0.008633484
74	0xbdc67279	-0.09689803
75	0x3cbe9fe3	0.0232696
76	0x3d33d448	0.04390362
77	0x3d8b8f4c	0.06814441
78	0x3d96912d	0.07351909
79	0xbcb1271e	-0.021625098
80	0xbda2a278	-0.07941145
81	0x3bfcd439	0.0077157286
82	0x3d7286ab	0.05921046
83	0xbc2a7d1a	-0.010405803
84	0x3be2a277	0.00691634
85	0x3d8446f9	0.064588495
86	0xbd324c56	-0.04352983
87	0x3b8477af	0.0040425877
88	0xbd97cf2c	-0.07412562
89	0x3dabf118	0.08395594
90	0x3d404c23	0.04694761
91	0xbd5e8e44	-0.054334894
92	0x3c75b09f	0.014995723
93	0x3b03397f	0.0020023284
94	0xbd662303	-0.056185734
95	0x3c9029e7	0.017598106
96	0xbd560bc0	-0.0522573
97	0xbd0a96c7	-0.0338352
98	0x3bf0da68	0.007350255
99	0x3c28f1b7	0.010311536
100	0xbced88cf	-0.0289959
101	0xbd5cd0a5	-0.053909916
102	0x3cb7b9e1	0.022427501
103	0xbc108d9e	-0.008822827
104	0xbd87701c	-0.0661318
105	0xbd17b746	-0.037040018
106	0x3d66042e	0.05615633
107	0x3c4733f8	0.012158386
108	0xbd13e857	-0.03611025
109	0x3dcb6bb9	0.09932656
110	0x3dc9d818	0.0985567
111	0xbc569a04	-0.013098244
112	0xbe046717	-0.1292995
113	0xbbd22749	-0.0064133746
114	0x3d58376d	0.052787233
115	0x3d4239f2	0.047418542
116	0xbd39ebda	-0.04539094
117	0x3c6da522	0.014504703
118	0x3c74bbef	0.014937385
119	0x3ded673b	0.11591955
120	0x3c63d15a	0.013904894
121	0xbd2a37c1	-0.041557077
122	0x3d6ba32b	0.057528656
123	0xbd063536	-0.03276559
124	0x3dd8e160	0.10589862
125	0xbd85679c	-0.065139025
126	0xbd85ff8b	-0.065428816
127	0x3cba1624	0.022715636
128	0x3c409ea6	0.011756575
129	0x3d08c69c	0.033392534
130	0x3d440323	0.047854554
131	0xbd0b8e19	-0.03407106
132	0xbd0a087c	-0.033699498
133	0xbdfec2cb	-0.124394976
134	0xbe032c5b	-0.12809889
135	0xbdc0b374	-0.09409228
136	0xbcbfc6dd	-0.023410255
137	0x3ccba0f4	0.024857022
138	0xbc250f46	-0.010074442
139	0x3dd13079	0.102143236
140	0xbba2fc75	-0.004973943
141	0x3d68f6e6	0.056876086
142	0x3cdcd5e2	0.026957456
143	0xbd6bd076	-0.05757185
144	0x3d11d8c9	0.035607133
145	0xbd0a59cd	-0.033777047
146	0x3ca9e91d	0.02074104
147	0x3d254f6f	0.040358957
148	0x3d968cfb	0.07351109
149	0x3c20da3d	0.009817657
150	0x3c839e2d	0.016066635
151	0x3c1481b9	0.009064131
152	0x3cc4d3de	0.024026807
153	0xbd3c94df	-0.046040412
154	0x3d5e3260	0.05424726
155	0xbc9fb640	-0.019496083
156	0xbddd60ff	-0.10809516
157	0xbd4356cc	-0.047690198
158	0x3da137ed	0.07871995
159	0xbdc72037	-0.09722941
160	0x3d7535ba	0.05986569
161	0xbd420f91	-0.047378127
162	0xbcfe074a	-0.031009335
163	0x3d6f3337	0.05839845
164	0xbda80361	-0.082037695
165	0xbd88df83	-0.066832565
166	0x3d787294	0.060656145
167	0x3d988205	0.07446674
168	0xbdde4b3f	-0.10854196
169	0x3da3fd40	0.08007288
170	0x3b5e6b78	0.0033938568
171	0x3c4687a1	0.012117297
172	0x3d8bd55b	0.06827804
173	0x3cfca154	0.030838646
174	0xbc3caf17	-0.011516354
175	0x3e262d4d	0.16228218
176	0x3c91612b	0.017746529
177	0x3dbc7ebd	0.09203861
178	0x3cd82128	0.026382998
179	0x3ce74017	0.028228803
180	0xbc2b3292	-0.010449069
181	0x3e1f565f	0.15560292
182	0x3bf1db9d	0.0073809163
183	0x3cf1060c	0.029421829
184	0xbc704be8	-0.014666535
185	0x3cef6fa9	0.029228048
186	0xbc66e51f	-0.014092713
187	0xbd075e2a	-0.033048786
188	0x3d29e473	0.04147763
189	0xbd05fb78	-0.032710522
190	0xbd6668e2	-0.056252368
191	0x3d3fb42f	0.046802696
192	0x3d30abed	0.04313271
193	0x3c86f87c	0.016475908
194	0x3cd95f80	0.026534796
195	0xbe10bf65	-0.14135511
196	0xbdd813cc	-0.10550651
197	0x3d04e071	0.032440607
198	0x3d37f6e0	0.044913173
199	0x3cc33c37	0.023832424
200	0xbd4efa20	-0.050531507
201	0x3d3a967a	0.045553662
202	0x3c652e2a	0.013988057
203	0x3c835efe	0.016036507
204	0x3c08dcd8	0.0083534345
205	0x3d8af091	0.06784166
206	0x3d529229	0.05140892
207	0x3c8dfe46	0.017333161
208	0x3b99a993	0.0046894043
209	0x3d30dabf	0.043177363
210	0xbdd14d18	-0.102197826
211	0xbddd848d	-0.10816298
212	0x3c015714	0.007894296
213	0x3d57bcd1	0.052670304
214	0x3ba4c160	0.005027935
215	0x3e0561f0	0.13025641
216	0x3ba80275	0.005127246
217	0xbd19a10e	-0.03750711
218	0xbd72c3e8	-0.059268862
219	0xbcb84a44	-0.02249635
220	0x3a58f6b3	0.0008276507
221	0x3bb7599d	0.0055953995
222	0x3c16f2a5	0.009213124
223	0xbc159ce7	-0.009131647
224	0x3c786200	0.015160084
225	0x3d74ab70	0.059733808
226	0xbd6ff863	-0.05858649
227	0x3cb3d245	0.02195085
228	0x3c0a0c59	0.0084257955
229	0x3d659813	0.056053232
230	0xbd13b92c	-0.036065266
231	0xbdbff809	-0.09373481
232	0x3d2653bf	0.04060721
233	0xbd2a9326	-0.041644238
234	0xbdba92e8	-0.091100514
235	0x3d7270b2	0.059189506
236	0x3d93d91f	0.07219147
237	0x3d2c9962	0.042138465
238	0xbca1204a	-0.019668717
239	0xbc821a7e	-0.015881773
240	0x3cf13ed7	0.02944891
241	0x3db71eac	0.08941397
242	0xbcf9ff9f	-0.030517397
243	0xbcff2bc2	-0.031148795
244	0xbdb1e6c4	-0.08686593
245	0x3d6fbed5	0.0585316
246	0xbd2f1d78	-0.042752713
247	0x3d67fa16	0.056634985
248	0x37765ccd	1.46843495e-05
249	0x3d193040	0.03739953
250	0xbb92476d	-0.004464081
251	0xbc34a70f	-0.011026158
252	0x3b053909	0.0020328185
253	0xbdb02811	-0.08601392
254	0xbdb41f08	-0.08794981
255	0x3d943c59	0.07238073

fc1.bias f4 [32]
0	0xbd12bcbb	-0.03582452
1	0x3c8c372b	0.01711615
2	0xbbf4b920	-0.0074683577
3	0x3d701af3	0.05861945
4	0x3d61b5e6	0.055105112
5	0xbd4cd416	-0.05000695
6	0x3b6a0010	0.0035705604
7	0xbdba1410	-0.09085858
8	0xbd311464	-0.043232337
9	0x3d0fd678	0.035116643
10	0xbcedde36	-0.029036622
11	0x3a6d3224	0.0009048304
12	0x3d1809d5	0.03711875
13	0x3d9f9826	0.07792692
14	0x3d1970ea	0.0374612
15	0x3dbf1cf2	0.09331693
16	0xbcc16a8f	-0.023610381
17	0x3da8e272	0.08246316
18	0x3d77e57f	0.0605216
19	0xbbe812e2	-0.007082329
20	0x3d466208	0.048433334
21	0x3ca2f12d	0.019890392
22	0x3c45664f	0.012048318
23	0x3a9a1465	0.0011755346
24	0x3d826d07	0.063684516
25	0xbdbca5ce	-0.09211312
26	0x3cc870fc	0.024467938
27	0xbd2d6bc2	-0.042339094
28	0xbb613aea	-0.003436739
29	0xbdc85bc1	-0.09783126
30	0x3da3f971	0.080065615
31	0x3cdf69da	0.027272154

fc2.weight f4 [10, 32]
0	0x3d3ef872	0.046623655
1	0x3e3b59dc	0.18295997
2	0xbdd32dac	-0.103114456
3	0xbe8734a7	-0.26407358
4	0x3e9a8b0f	0.30184218
5	0x3e15ed60	0.14641333
6	0xbe7624c7	-0.24037467
7	0x3e2e3f5e	0.1701636
8	0xbe5f70fa	-0.21820441
9	0x3e3017d7	0.17196594
10	0xbdaba7d5	-0.08381621
11	0xbe650f74	-0.22369176
12	0xbe594321	-0.21217014
13	0xbdbc2cff	-0.0918827
14	0xbe48c632	-0.19606856
15	0x3dd63c62	0.10460736
16	0x3e17b0e6	0.14813575
17	0xbe47aa42	-0.19498542
18	0xbd5bde81	-0.053678993
19	0x3e228b42	0.15873435
20	0x3c02b77c	0.007978316
21	0x3ebbb160	0.36658764
22	0xbda92f8c	-0.08261022
23	0xbe3a7300	-0.18207932
24	0x3e56fd7d	0.20995136
25	0xbcab2ab8	-0.020894393
26	0x3c997a9e	0.018735226
27	0xbd42d1f7	-0.04756352
28	0x3e478374	0.19483739
29	0xbe0e9476	-0.13923821
30	0x3e0f67f3	0.14004497
31	0xbdeb9f20	-0.1150496
32	0x3d1d70ca	0.038437642
33	0x3e04a43b	0.12953274
34	0xbc855a02	-0.01627827
35	0x3e522c79	0.20524777
36	0x3e17a494	0.14808875
37	0x3e21a20d	0.15784474
38	0x3c743e54	0.014907438
39	0xbea78732	-0.32720333
40	0x3dc12166	0.09430198
41	0xbc6fab1d	-0.014628199
42	0x3e529ccf	0.2056763
43	0xbb879b10	-0.004138358
44	0x3eb8813e	0.36036104
45	0xbdbb812c	-0.09155497
46	0xbd677d69	-0.056516085
47	0x3cc481e8	0.023987725
48	0x3d8151bb	0.06314417
49	0xbd9074fc	-0.07053563
50	0x3d4973ba	0.04918263
51	0x3d8725cc	0.06599006
52	0xbe49bb9b	-0.19700472
53	0xbdc9a54d	-0.09845982
54	0xbdc79547	-0.09745269
55	0xbe2c0121	-0.16797306
56	0x3c8b8403	0.017030722
57	0xbe5fa96f	-0.21841978
58	0xbda3c60c	-0.07996759
59	0x3d4ed528	0.05049625
60	0x3d920bb3	0.07131138
61	0xbd39193b	-0.045190077
62	0x3e0aa525	0.1353956
63	0x3eb1bd73	0.3471485
64	0x3e3976ed	0.18111773
65	0x3d658af7	0.05604073
66	0x3e4aa1ed	0.19788332
67	0xbe5f3515	-0.21797593
68	0x3df73cb9	0.12072129
69	0xbce9132a	-0.028451521
70	0x3e28c73b	0.1648225
71	0x3dff6cea	0.124719456
72	0xbe26f25b	-0.16303389
73	0x3df873b8	0.121314466
74	0x3e84d0f3	0.25940666
75	0x3db3b770	0.08775222
76	0xbe00d9e7	-0.12583123
77	0xbd60176e	-0.054709844
78	0x3dda91bc	0.10672328
79	0x3e2bff03	0.16796498
80	0x3e5c859b	0.21535341
81	0x3cfc0570	0.030764312
82	0xbd8edac3	-0.06975319
83	0xbdaa7164	-0.08322409
84	0x3bc99c82	0.0061526904
85	0xbeb15966	-0.34638518
86	0xbdef45ca	-0.11683233
87	0xbdec9b9e	-0.11553119
88	0x3e5c204e	0.21496698
89	0x3e35b746	0.17745695
90	0xba8907d9	-0.0010454609
91	0xbe4f4f28	-0.2024504
92	0xbb6a3063	-0.0035734407
93	0x3e5e0145	0.21680172
94	0xbc84d2dd	-0.016213829
95	0x3e863d39	0.26218584
96	0x3c45da2e	0.012075944
97	0x3ddcc2cc	0.10779342
98	0xbd9bd084	-0.076081306
99	0xbe702f15	-0.2345546
100	0xbdf32a04	-0.11873248
101	0x3d8bf7a0	0.0683434
102	0x3e5c5c4c	0.21519583
103	0x3e6f9568	0.23396838
104	0x3e4e1743	0.20126061
105	0x3d9407c7	0.07228046
106	0x3e06c7c9	0.1316215
107	0x3e113dff	0.14183806
108	0xbe6ad89e	-0.22934195
109	0x3d8980ae	0.06713997
110	0x3c1839be	0.009291111
111	0xbe5a1254	-0.21296054
112	0xbcbb2390	-0.022844106
113	0xbc1fc321	-0.009751112
114	0x3dceac3b	0.10091444
115	0xbe09cb06	-0.13456354
116	0xbe860367	-0.2617447
117	0x3e08b70e	0.1335108
118	0x3dfbe7fa	0.123001054
119	0xbd971bd2	-0.07378353
120	0x3e08a0bb	0.13342564
121	0x3dec0ae7	0.11525517
122	0xbbcdd97b	-0.006282029
123	0x3e05f0df	0.13080166
124	0x3cad6523	0.02116639
125	0x3bfcc61f	0.0077140476
126	0xbe676315	-0.2259639
127	0xbe054a3c	-0.130166
128	0x3e5defbd	0.21673484
129	0xbdb0b92e	-0.0862907
130	0x3dbd86a7	0.092541985
131	0xbd3fe669	-0.046850596
132	0xbd82ddd4	-0.063899666
133	0xbbddb1ff	-0.0067656036
134	0x3e8d143a	0.27554494
135	0xbe6246d9	-0.22097339
136	0xbd21e9bb	-0.039529543
137	0xbd795888	-0.060875446
138	0xbc1df3ea	-0.009640673
139	0x3d00b0b3	0.031418514
140	0x3d2aebe3	0.041728865
141	0xbbf16336	-0.007366563
142	0x3b85462e	0.004067204
143	0xbb3682af	-0.002784889
144	0xbd526430	-0.051365077
145	0xbe0b47df	-0.13601635
146	0xbe121fe5	-0.1426998
147	0xbcf8657a	-0.030321825
148	0x3ea254a4	0.317052
149	0x3e473c2e	0.1945655
150	0x3d99315d	0.074801184
151	0xbe025ab2	-0.1272991
152	0xbe87c30e	-0.26516002
153	0xbd12f09e	-0.035874
154	0xbc99de66	-0.018782806
155	0x3d8d5aba	0.0690207
156	0xbd63e44a	-0.055637635
157	0xbd75a2b1	-0.059969608
158	0x3e434bd3	0.19071893
159	0xbcac3dc0	-0.021025538
160	0x3db908dd	0.09034894
161	0x3d0227b1	0.031776134
162	0xbe8d853d	-0.27640715
163	0xbdf9aa2e	-0.12190662
164	0xbe4efcb8	-0.20213592
165	0xbdfd5795	-0.123702206
166	0xbe0d626d	-0.13807078
167	0x3e8a2abb	0.26985726
168	0xbe5a0907	-0.21292506
169	0xbe23c1f4	-0.15991956
170	0xbd629a7a	-0.0553231
171	0x3e9b02d7	0.30275604
172	0xbdae37ce	-0.08506738
173	0xbe2ed1ff	-0.17072295
174	0xbe13d4dc	-0.14436668
175	0x3b47d72a	0.0030493238
176	0x3d3dfad6	0.046381794
177	0xbdd9980d	-0.106247045
178	0x3d286ac2	0.041117437
179	0x3e5225c1	0.20522214
180	0x3e003f22	0.12524083
181	0xbb16499e	-0.0022932063
182	0xbe2444ee	-0.1604192
183	0xbd2d6a38	-0.042337626
184	0xbd4bed3a	-0.049786784
185	0x3b64476f	0.0034832617
186	0xbd6de68f	-0.058081206
187	0xbe35b243	-0.17743783
188	0x3e8b9ae8	0.27266622
189	0xbd2f80b2	-0.042847343
190	0xbc97c062	-0.018524352
191	0xbde03094	-0.109467655
192	0x3e614807	0.22000133
193	0xbe5ec86f	-0.21756147
194	0x3e944e32	0.28965908
195	0x3dd5a2ae	0.10431419
196	0xbdb8fa69	-0.09032137
197	0xbe529d45	-0.20567806
198	0xbe274fee	-0.16339085
199	0x3e0a5f30	0.13512874
200	0xbdd2e189	-0.10296924
201	0x3df4ce29	0.119533844
202	0xbd021469	-0.031757746
203	0x3d50cef3	0.050978612
204	0xbdbe2b0b	-0.092855535
205	0xbe055ce2	-0.13023713
206	0xbea613df	-0.32437035
207	0x3e73c9cd	0.2380745
208	0x3e5c8fa9	0.21539177
209	0xbcb738d7	-0.02236597
210	0xbe6831c2	-0.22675231
211	0xbdfbdb76	-0.12297718
212	0x3e727ea4	0.23681122
213	0xbe3edeac	-0.1863963
214	0x3db31880	0.087449074
215	0x3d3343a0	0.043765664
216	0xbe37e36d	-0.1795785
217	0xbdc33054	-0.09530702
218	0x3d90593d	0.07048271
219	0xbe3c19cd	-0.18369217
220	0x3dda4b19	0.10658855
221	0x3e461e1b	0.19347422
222	0x3e7bb403	0.24580388
223	0x3e1c22ff	0.15247725
224	0x3dab5eeb	0.083677135
225	0x3dcfc13b	0.10144278
226	0xbe9966bc	-0.29961193
227	0x3dbdc787	0.092665724
228	0x3d9d00e9	0.07666189
229	0xbd87e044	-0.06634572
230	0xbdf6b68c	-0.12046537
231	0xbe7f3003	-0.24920659
232	0x3eaf03e6	0.34182662
233	0xbdb05f9c	-0.08611986
234	0x3e57b634	0.21065599
235	0xbe480432	-0.1953285
236	0xbe002e15	-0.12517579
237	0xbcafaf94	-0.021446027
238	0x3e719195	0.23590691
239	0x3b88919c	0.0041677486
240	0x3e217258	0.15766275
241	0xbe0355e1	-0.12825729
242	0xbcc11067	-0.023567392
243	0x3e28747c	0.16450685
244	0x3e2be308	0.16785824
245	0xbd3fd3fd	-0.046833027
246	0xbcf4497d	-0.029820198
247	0xbe44a79b	-0.19204561
248	0xbd271e3b	-0.040800314
249	0x3db34b14	0.087545544
250	0x3d980de5	0.07424525
251	0x3ea4c448	0.32181
252	0xbe2000c8	-0.15625298
253	0x3de0a9e0	0.10969901
254	0xbda4f656	-0.08054797
255	0x3c86a414	0.01643566

fc2.bias f4 [10]
0	0x3df05b20	0.11736131
1	0x3d9201c4	0.07129243
2	0xbcdcd24b	-0.026955744
3	0xbdcfd649	-0.101482935
4	0xbe0969e2	-0.13419297
5	0xbe14b632	-0.14522627
6	0xbddbc43f	-0.1073079
7	0xbb84df15	-0.0040549138
8	0xbe0eeb49	-0.13956942
9	0xbcbfeba0	-0.023427784
