Codes/mnist_cnn_mnist_19_True_44376_0.1_1.0_1.0_64_1.pt (torch, 106255 bytes, 8 tensors)

conv1.weight f4 [16, 1, 8, 8]
0.14079069 -0.05157354 0.1722435 -0.0017343777 -0.066150926 -0.14467385 -0.024102667 -0.09168224
0.084978834 0.15233715 -0.06454347 0.054737054 -0.12801741 -0.08969049 -0.086808406 -0.09804225
0.11007207 -0.12181095 0.10294272 -0.09672785 -0.17488578 -0.075805314 0.035223536 -0.057616316
0.12666775 -0.044591058 0.09455449 -0.076743 -0.1254977 -0.009534769 0.08308933 0.13519946
0.18497305 0.09700351 0.012633556 -0.063440114 -0.20958206 -0.005500545 -0.115931064 0.10176931
0.03216072 0.011214227 -0.08885191 -0.12567405 -0.12431343 -0.07958107 0.06907969 -0.12391587
0.02831571 0.047512133 0.062944956 -0.07183984 -0.062308855 -0.046876136 -0.017235775 -0.037780598
0.022546384 0.0035495 0.013454181 0.0024908145 0.017311424 0.11711456 0.020308727 0.10485854
-0.029382244 -0.088992625 0.092822805 0.12470828 0.035434254 0.14855239 -0.11702698 0.0057521053
0.022421902 0.109068125 -0.051015496 0.08736468 0.04836956 0.029533498 -0.06172281 -0.06349771
-0.18925115 -0.10740091 0.07633259 0.19246656 0.047374465 0.07161136 0.04873127 0.02061174
0.017890554 0.038580894 -0.11927794 0.06401129 -0.04608558 -0.023438368 -0.094402544 0.014394639
0.01730892 0.009414899 0.024583178 0.14103168 0.08448171 0.19007699 -0.10661302 0.04970164
0.08936302 0.046037126 -0.0006038002 0.02805565 0.008369997 0.1337964 -0.017283069 -0.1581302
0.018236782 -0.02655541 -0.07912298 0.035419755 0.17298238 0.043136187 -0.07622417 0.077665836
0.12726705 0.07724384 0.09275628 -0.045260184 0.033518314 0.24854162 0.097394615 -0.038519315
0.065259255 -0.118034065 0.051571794 0.08986485 -0.08369225 0.12453186 0.033330277 0.005365461
-0.08077048 0.043368746 0.20075828 -0.022946272 -0.035153378 0.09571599 -0.006551386 -0.015746178
-0.08600522 0.10423241 0.088818595 -0.061648138 -0.000492783 0.030452095 0.09369196 -0.026721137
-0.027759178 -0.016790217 0.138982 0.074358456 -0.11927112 -0.03171176 -0.1466341 0.15596229
-0.07623453 0.124694824 0.18749988 -0.019495778 0.040335104 -0.054586787 0.04058175 0.06797599
0.15062466 0.09897723 0.115053535 0.074292056 0.13561347 -0.18372224 -0.08269385 0.1266391
0.122969195 0.052386355 0.027725538 0.07264404 -0.05671806 -0.07317251 -0.053807702 -0.100536995
-0.07424454 -0.017761227 -0.089600585 -0.018850857 -0.069339424 -0.08856865 -0.010640325 -0.12204188
-0.050962105 0.012654279 0.0082348315 -0.14764024 0.118109934 0.028907727 -0.19244887 -0.08756171
-0.0820133 0.0075579537 -0.15484102 -0.19406551 -0.12457008 0.09054166 0.1423808 0.1008867
0.15053111 -0.007797462 0.0113413865 -0.050406676 0.031686403 0.09034128 -0.021666508 -0.13339213
0.12421111 0.1980772 0.06462471 0.11471672 -0.093746625 0.11565477 -0.055384282 0.052429616
-0.10510614 -0.09681161 0.05852606 0.06602549 -0.08375078 -0.015593202 -0.053231712 0.0052814498
0.13079935 0.10379801 -0.067153 -0.011503706 -0.10704317 -0.15206961 -0.035609774 -0.11338702
0.04332501 -0.013822002 0.07105992 0.122913696 -0.17960224 -0.17237464 0.006121378 -0.082538016
-0.046379972 -0.087685905 -0.10271044 -0.029079204 0.011816413 -0.037597198 -0.03668933 -0.049013235
00000000: 6f2b 103e c73e 53bd 9a60 303e 0f54 e3ba
00000010: 237a 87bd 6225 14be f572 c5bc e6c3 bbbd
00000020: 6209 ae3d 45fe 1b3e 5e2f 84bd f633 603d
00000030: ff16 03be a6af b7bd 9bc8 b1bd 60ca c8bd
00000040: 776d e13d 0578 f9bd a2d3 d23d 4019 c6bd
00000050: 4215 33be d13f 9bbd 8e46 103d 16ff 6bbd
00000060: 31b5 013e 1da5 36bd c9a5 c13d 6f2b 9dbd
00000070: 7882 00be b837 1cbc bd2a aa3d ba71 0a3e
00000080: 9369 3d3e c7a9 c63d f9fc 4e3c e4ec 81bd
00000090: ae9c 56be ea3d b4bb 446d edbd 6e6c d03d
000000a0: f6ba 033d e1bb 373c fdf7 b5bd b3b0 00be
000000b0: 0a98 febd 66fb a2bd a779 8d3d 9bc7 fdbd
000000c0: 59f6 e73c 159c 423d 49e9 803d c420 93bd
000000d0: 9237 7fbd 3101 40bd 0a32 8dbc d4bf 1abd
000000e0: 32b3 b83c ba9e 683b ed6e 5c3c ef3c 233b
000000f0: b0d0 8d3c c2d9 ef3d 7d5e a63c 13c0 d63d
00000100: 08b3 f0bc c441 b6bd e219 be3d 0e67 ff3d
00000110: 8223 113d 1e1e 183e d7ab efbd 287c bc3b
00000120: 23ae b73c 1c5f df3d a0f5 50bd 41ec b23d
00000130: 291f 463d 3cf0 f13c 0fd1 7cbd 160b 82bd
00000140: 0ecb 41be 02f5 dbbd 4354 9c3d f415 453e
00000150: ba0b 423d faa8 923d 719a 473d f4d9 a83c
00000160: 368f 923c 0007 1e3d fe47 f4bd 5a18 833d
00000170: 3cc4 3cbd d201 c0bc 1f56 c1bd 7ed7 6b3c
00000180: 70cb 8d3c f340 1a3c a962 c93c 9c6a 103e
00000190: bf04 ad3d 8ba3 423e ed57 dabd f293 4b3d
000001a0: f603 b73d 6d91 3c3d 5848 1eba f6d4 e53c
000001b0: 5022 093c ec01 093e 3995 8dbc e2ec 21be
000001c0: 4e65 953c bb8a d9bc 3b0b a2bd 4e14 113d
000001d0: 4b22 313e 92af 303d 6b1b 9cbd 440f 9f3d
000001e0: 4b52 023e 0532 9e3d 01f7 bd3d be62 39bd
000001f0: 804a 093d b281 7e3e d476 c73d 6ec6 1dbd
00000200: a5a6 853d d8bb f1bd f23c 533d 100b b83d
00000210: d866 abbd 8f0a ff3d 5485 083d c0d0 af3b
00000220: fe6a a5bd 6da3 313d 9493 4d3e d2f9 bbbc
00000230: fdfc 0fbd bf06 c43d 02ad d6bb 21fe 80bc
00000240: 8123 b0bd cd77 d53d 86e6 b53d c282 7cbd
00000250: 1b2e 01ba ac76 f93c 92e1 bf3d 49e6 dabc
00000260: 3767 e3bc a38b 89bc 4c51 0e3e 3f49 983d
00000270: 6b44 f4bd 31e4 01bd 4027 16be 94b4 1f3e
00000280: d920 9cbd 0060 ff3d f8ff 3f3e 9cb5 9fbc
00000290: 6c36 253d 6596 5fbd 0d39 263d ff36 8b3d
000002a0: 5a3d 1a3e 93b4 ca3d 30a1 eb3d 6f26 983d
000002b0: 42de 0a3e af21 3cbe 655b a9bd aead 013e
000002c0: 46d7 fb3d 1393 563d ab20 e33c 66c6 943d
000002d0: 3251 68bd 78db 95bd 7765 5cbd 57e6 cdbd
000002e0: 850d 98bd fe7f 91bc 8380 b7bd 1d6d 9abc
000002f0: d401 8ebd 7b63 b5bd c254 2ebc 18f1 f9bd
00000300: a4bd 50bd e553 4f3c 63eb 063c 012f 17be
00000310: 9fe3 f13d e6cf ec3c 5111 45be 8e53 b3bd
00000320: 97f6 a7bd b6a8 f73b a58e 1ebe 1cb9 46be
00000330: 991e ffbd e86d b93d 46cc 113e b09d ce3d
00000340: d424 1a3e da81 ffbb 39d1 393c 3b77 4ebd
00000350: 9ac9 013d d904 b93d f67d b1bc f297 08be
00000360: 6562 fe3d c0d4 4a3e f659 843d 9af0 ea3d
00000370: 3bfe bfbd 68dc ec3d a1da 62bd 70c0 563d
00000380: e341 d7bd 2a45 c6bd 06b9 6f3d 5f38 873d
00000390: 8785 abbd a17a 7fbc 7f09 5abd 0310 ad3b
000003a0: 44f0 053e 0d94 d43d 8387 89bd 0a7a 3cbc
000003b0: 7339 dbbd 23b8 1bbe 8edb 11bd 7437 e8bd
000003c0: 9175 313d ae75 62bc dd87 913d 2dba fb3d
000003d0: a6e9 37be fa82 30be d795 c83b b109 a9bd
000003e0: edf8 3dbd ab94 b3bd da59 d2bd 8337 eebc
000003f0: a199 413c 85ff 19bd 8d47 16bd 1ac2 48bd

conv1.bias f4 [16]
-0.026942426 -0.05996687 -0.14601944 -0.017616557 0.12014676 -0.06270317 -0.008629057 -0.10066018
-0.08205084 0.008188581 0.054689772 -0.10640084 0.1743598 0.11744078 -0.07730283 0.093767405
00000000: 5db6 dcbc d29f 75bd 1f86 15be 9950 90bc
00000010: 810f f63d 856a 80bd e360 0dbc ed26 cebd
00000020: 450a a8bd 6629 063c 6202 603d afe8 d9bd
00000030: 608b 323e cb84 f03d f250 9ebd 2009 c03d

conv2.weight f4 [32, 16, 4, 4]
0.046753917 -0.074419595 0.026428897 -0.01734966 0.00067645014 0.018313093 0.12391235 0.041433677
0.04983792 0.01518055 0.08375989 0.0866069 0.054446086 -0.04065051 -0.037341524 -0.05596104
0.0034090462 0.032780286 0.09157431 0.08284771 -0.046763197 -0.012329618 -0.0018559142 -0.0059765144
0.16875432 0.05767281 0.0022783224 0.09957729 0.05318818 -0.10006092 0.095421284 0.0392821
0.045733493 0.0639478 -0.14981553 0.022101441 -0.050999135 -0.06832597 0.14462505 0.08333883
-0.033732228 0.004995932 0.024610272 0.09724528 0.008486375 -0.055484153 0.007848872 -0.08385289
-0.02792872 0.024288815 -0.007318845 0.006276165 -0.02322422 -0.11121251 -0.05069863 -0.030188914
-0.031982545 -0.0003450477 -0.031926375 -0.045330387 0.013763433 0.0380142 0.078456774 0.002051135
0.031827718 0.06954805 0.028461866 0.043205403 -0.06254627 0.029408408 0.02034944 -0.12758723
0.022021087 0.0769472 0.057691727 0.03160269 0.11377868 0.007541275 0.015126096 -0.102206014
-0.00080340053 0.01107932 0.005866601 0.030782565 0.0027469408 -0.048112962 -0.019735679 -0.016899485
-0.067239635 -0.021946901 0.04623761 0.032565415 0.051758554 0.04260197 0.018188283 0.0045422064
0.025389038 -0.0116754165 0.07768022 -0.07892564 -0.07105736 -0.010306416 -0.069158755 -0.070853695
0.16123867 0.05206921 0.07777769 -0.006420224 0.14617874 0.036846165 0.00949247 0.041721255
-0.06350599 0.05539866 0.14712544 0.12622632 -0.05479858 0.04647346 0.09949415 -0.0625382
-0.060096588 0.06537956 -0.032442197 -0.07166923 -0.009618117 0.010488833 0.07026588 0.01872318
0.018082011 0.10615846 0.10691909 -0.027759995 -0.028849076 0.06336831 -0.01398609 -0.03646816
0.07917507 -0.015945835 0.1393051 0.09740825 -0.0068856254 0.042601135 0.035347674 0.09745371
-0.03425589 0.03015692 0.028537814 -0.06992811 -0.038646482 -0.048374146 -0.080531165 0.016352426
0.07290921 -0.04475024 -0.07410679 -0.11415601 0.024973243 -0.023894431 0.02175579 0.12155351
-0.00073192094 -0.0532527 0.08033685 0.043392032 0.015418044 -0.14585425 0.040998735 -0.025403883
0.04649038 -0.0036300772 -0.098594226 -0.046246395 0.088770315 0.10910984 -0.044504352 0.053946275
-0.03465732 0.0069749863 -0.035373364 0.010269014 0.02289271 0.0675288 0.12557468 0.08848678
0.055733982 0.065682374 0.038786005 0.03924733 -0.027682612 -0.060831524 0.0004680788 -0.025741518
-0.03266901 -0.011666356 0.16930187 -0.07568052 0.04112838 0.075311475 0.09513492 -0.11639551
0.17547111 0.19078593 -0.029013721 -0.037472483 0.07626816 0.042483356 -0.1478462 -0.04710831
-0.0066005867 0.04115325 -0.0527185 -0.027528469 0.124756224 0.0526031 0.0031521777 -0.034788996
0.13344367 0.14091633 0.14949416 0.07530583 0.06304381 -0.0030473026 -0.06745131 0.07637145
-0.080872156 -0.110399835 0.034926075 0.09414048 -0.041451283 0.036516134 0.03149465 0.12162514
-0.009697432 -0.11152108 -0.017606711 0.058313906 0.017736258 -0.055556227 -0.057874225 0.104844734
0.12360077 -0.05324976 -0.0420906 -0.10048566 0.017459286 -0.036348034 -0.13022672 -0.026977837
-0.018303016 -0.013381285 -0.04053399 0.03354552 -0.014658303 -0.04686849 0.0026611541 0.011375366
00000000: 0981 3f3d 4d69 98bd 6a81 d83c e020 8ebc
00000010: cd53 313a 5705 963c c2c5 fd3d 5cb6 293d
00000020: d922 4c3d d7b7 783c 4e8a ab3d f55e b13d
00000030: dc02 5f3d 2681 26bd 6df3 18bd 6737 65bd
00000040: 4e6a 5f3b 9f44 063d 508b bb3d 0fac a93d
00000050: c48a 3fbd 2b02 4abc 2642 f3ba a3d6 c3bb
00000060: efcd 2c3e 533a 6c3d e84f 153b 2eef cb3d
00000070: d9db 593d bdec ccbd 3c6c c33d 44e6 203d
00000080: 0b53 3b3d 10f7 823d 3e69 19be 150e b53c
00000090: 78e4 50bd 7cee 8bbd 9718 143e 8cad aa3d
000000a0: ce2a 0abd eab4 a33b 7b9b c93c 8928 c73d
000000b0: 700a 0b3c 5a43 63bd 8e98 003c 10bb abbd
000000c0: c5ca e4bc 56f9 c63c ecd2 efbb 4aa8 cd3b
000000d0: b840 bebc 62c3 e3bd 5ea9 4fbd be4e f7bc
000000e0: 2100 03bd 85e7 b4b9 3bc5 02bd 5bac 39bd
000000f0: 0680 613c c7b4 1b3d f2ad a03d 566c 063b
00000100: c85d 023d 356f 8e3d dc28 e93c 26f8 303d
00000110: 4218 80bd e7e9 f03c deb3 a63c 3aa6 02be
00000120: 9165 b43c 7e96 9d3d 294e 6c3d d371 013d
00000130: cc04 e93d cd1c f73b 72d3 773c 6351 d1bd
00000140: 4c9b 52ba 0986 353c 9e3c c03b b82b fc3c
00000150: 0506 343b 1912 45bd b8ac a1bc ca70 8abc
00000160: efb4 89bd fdc9 b3bc a663 3d3d 5063 053d
00000170: c700 543d 677f 2e3d 98ff 943c cad6 943b
00000180: acfc cf3c 3f4a 3fbc cf16 9f3d c4a3 a1bd
00000190: 8586 91bd 3edc 28bc 1ba3 8dbd be1b 91bd
000001a0: c01b 253e 8646 553d e949 9f3d be60 d2bb
000001b0: e1af 153e 01ec 163d 4e86 1b3c e8e3 2a3d
000001c0: 6e0f 82bd b5e9 623d 0da8 163e 7941 013e
000001d0: 7a74 60bd f45a 3e3d 97c3 cb3d 0714 80bd
000001e0: d727 76bd b8e5 853d 1ce2 04bd 51c7 92bd
000001f0: 4e95 1dbc 5bd9 2b3c 8fe7 8f3d 5b61 993c
00000200: ba20 943c 9b69 d93d 65f8 da3d ee68 e3bc
00000210: e654 ecbc 3fc7 813d ea25 65bc a35f 15bd
00000220: 8a26 a23d d7a0 82bc ffa5 0e3e fa7d c73d
00000230: d0a0 e1bb 877e 2e3d b9c8 103d d095 c73d
00000240: e74f 0cbd a50b f73c 22c8 e93c 7836 8fbd
00000250: c64b 1ebd f823 46bd 86ed a4bd 86f5 853c
00000260: 6d51 953d 074c 37bd 4dc5 97bd a0ca e9bd
00000270: b094 cc3c 41be c3bc 3339 b23c 0cf1 f83d
00000280: 62de 3fba 811f 5abd a587 a43d d8bb 313d
00000290: f79b 7c3c d15a 15be 4aee 273d ce1b d0bc
000002a0: b26c 3e3d 97e6 6dbb c5eb c9bd dc6c 3dbd
000002b0: 36cd b53d fb74 df3d 324a 36bd c5f6 5c3d
000002c0: d5f4 0dbd 6d8e e43b a9e3 10bd 5e3f 283c
000002d0: 7e89 bb3c 8a4c 8a3d a696 003e 8f38 b53d
000002e0: 5149 643d 7b84 863d 13de 1e3d cfc1 203d
000002f0: a5c6 e2bc 7a2a 79bd 7968 f539 e0df d2bc
00000300: f1cf 05bd 3e24 3fbc 785d 2d3e 63fe 9abd
00000310: 3b76 283d e73c 9a3d 19d6 c23d c560 eebd
00000320: b3ae 333e 635d 433e 2fae edbc bf7c 19bd
00000330: 7b32 9c3d 0703 2e3d ff64 17be a5f4 40bd
00000340: bc49 d8bb 4f90 283d 5bef 57bd 6283 e1bc
00000350: 3180 ff3d 5976 573d c494 4e3b e87e 0ebd
00000360: 75a5 083e 5f4c 103e ff14 193e f139 9a3d
00000370: 1d1d 813d 41b5 47bb ea23 8abd a368 9c3d
00000380: 4da0 a5bd 4f19 e2bd a50e 0f3d b9cc c03d
00000390: d2c8 29bd f191 153d 8900 013d 9a16 f93d
000003a0: fae1 1ebc 2a65 e4bd f33b 90bc 90da 6e3d
000003b0: a14b 913c ed8e 63bd 860d 6dbd d6b8 d63d
000003c0: 6722 fd3d 6c1c 5abd 3167 2cbd 6dcb cdbd
000003d0: c706 8f3c ade1 14bd 275a 05be a000 ddbc
000003e0: 35f0 95bc 2d3d 5bbc f806 26bd 0767 093d
000003f0: 6129 70bc 2cf9 3fbd c266 2e3b be5f 3a3c

conv2.bias f4 [32]
0.1057645 0.0155862225 -0.0849821 -0.063791476 0.007824794 -0.0010660888 0.04042692 -0.020307457
0.05171985 0.009593384 0.0018384968 -0.004466462 0.020426579 0.03889216 0.11080321 0.038647693
-0.06634241 -0.0779953 0.012992043 -0.08250552 0.09699805 0.024201604 -0.051662143 -0.029801892
-0.026536647 0.036936898 -0.15503035 0.06303226 -0.0037641865 -0.054390583 0.02695098 -0.029216893
00000000: 0f9b d83d 5b5d 7f3c 180b aebd 1ba5 82bd
00000010: 9133 003c 01bc 8bba b396 253d d35b a6bc
00000020: 32d8 533d 922d 1d3c b7f9 f03a 665b 92bb
00000030: a455 a73c 634d 1f3d cbec e23d 0b4d 1e3d
00000040: 88de 87bd 00bc 9fbd 94dc 543c a7f8 a8bd
00000050: eaa6 c63d 7142 c63c af9b 53bd 1923 f4bc
00000060: 6263 d9bc 254b 173d 47c0 1ebe 0f17 813d
00000070: 92b0 76bb a9c8 5ebd 4dc8 dc3c 4458 efbc

fc1.weight f4 [32, 512]
-0.1488721 0.009635065 0.053720377 0.032057688 0.081862025 0.06778262 -0.031968094 0.0744673
0.081268236 0.010221533 -0.103306144 0.13995554 0.009827349 0.021356665 0.08856412 0.026583038
0.0631671 -0.013315873 0.055760954 0.04417773 0.034213386 0.05563533 0.047739778 0.02709225
0.0060969177 0.076859936 -0.014183634 -0.019148864 -0.033486497 -0.014717417 0.06325467 0.00476527
0.0039193355 -0.0019281 -0.14724629 0.034549233 0.046687208 0.15269205 -0.02097873 -0.0030566778
-0.00958165 0.05615149 0.053040225 0.02464648 -0.045948077 -0.025332268 -0.053005524 0.016940378
0.036251254 -0.01314571 -0.014822927 -0.0112708295 -0.029402694 0.05232432 0.04297455 -0.05047786
0.1280783 0.02253975 -0.0007105591 0.047379736 0.043008696 -0.038111366 0.006867157 -0.03126787
0.040407673 0.0765273 -0.053595815 -0.004692445 -0.045526832 -0.0055359583 -0.012158563 -0.039039787
-0.07925645 -0.015777716 0.034536567 -0.03595562 -0.09614858 -0.07524055 -0.04040906 -0.11242419
-0.060441192 -0.045949783 -0.03133067 0.10865495 -0.09772906 -0.043477148 -0.0067333076 -0.035052266
0.028564865 -0.04533275 -0.09571164 -0.03043817 -0.058026314 0.005884362 0.08842756 0.0062554525
0.07724596 -0.15531678 0.116804406 0.02136799 0.0035426281 -0.05223292 0.049025282 0.10763248
0.030781146 0.036998607 -0.035144042 -0.010868583 0.07264761 0.0042860853 0.060852185 -0.034839142
-0.0025843845 -0.13575646 0.1290196 0.011814293 0.1294093 0.004046514 0.04359745 0.05562564
0.0250539 0.04324334 0.054962404 0.08201697 -0.021098621 -0.11202154 0.038663562 -0.01674214
-0.05382208 -0.0045681424 -0.07861324 0.09343774 -0.07636307 -0.03202823 0.009127096 0.060388412
0.05789051 -0.024523675 0.062396638 -0.022255952 0.12058284 0.03436182 -0.009049583 -0.07557719
0.056725513 0.015710235 0.029688898 0.045893442 0.107011236 0.0100591555 0.032639313 -0.02049737
0.044876773 -0.015805075 0.023776706 0.004445922 -0.015660688 -0.08429877 0.03774813 0.051221382
-0.04185963 0.02708065 0.040437758 -0.03489746 0.00057568634 0.0059895166 -0.0017297918 0.034812517
-0.0018721212 0.025354035 -0.077590235 -0.03320401 0.12349134 0.0068178196 0.015997116 -0.13571544
0.075175725 0.010185799 0.05252906 0.09168269 -0.005000029 -0.076122 0.12707068 -0.03317893
-0.020700684 -0.07824301 -0.0020355298 -0.017510561 0.021629347 -0.011106893 0.025884185 0.0027563192
0.01275116 -0.025730954 -0.015105856 -0.013147114 -0.00012162008 0.031507358 -0.1357724 0.0030869844
-0.014477232 -0.052242547 -0.043430533 -0.017882619 0.0615953 -0.012108196 0.024081964 0.071275085
0.037977833 -0.08792184 0.04223599 0.0408162 -0.12082167 0.001069893 0.030201098 0.14171648
0.122308865 -0.014587267 0.01854988 0.08298175 0.059830002 0.07020507 -0.040236827 -0.05915359
0.051716022 -0.08477744 0.11539351 0.034322232 0.06392996 -0.0013165352 0.076830186 -0.008036939
-0.112766095 0.04266986 0.048815656 0.068365864 0.01992675 -0.0480887 -0.0037277138 0.13451442
0.04332064 -0.0798976 -0.03274329 -0.05061114 -0.07692529 0.0048946925 -0.14881706 -0.056721777
0.050133966 -0.023914896 -0.0038071882 -0.12172225 0.01757589 -0.033819593 -0.046947174 0.045731537
00000000: ee71 18be 64dc 1d3c e609 5c3d ec4e 033d
00000010: 47a7 a73d 9dd1 8a3d faf0 02bd 5082 983d
00000020: f66f a63d 3778 273c 2c92 d3bd 8150 0f3e
00000030: e402 213c 2cf4 ae3c 1b61 b53d acc4 d93c
00000040: c15d 813d d22a 5abc 9965 643d b5f3 343d
00000050: 5623 0c3d dfe1 633d c98a 433d 91f0 dd3c
00000060: a7c8 c73b be68 9d3d 7962 68bc 14de 9cbc
00000070: 2329 09bd 5221 71bc aa8b 813d fb25 9c3b
00000080: c56d 803b 4db8 fcba bbc7 16be 7f83 0d3d
00000090: 163b 3f3d 4e5b 1c3e 96db abbc 8b52 48bb
000000a0: 5afc 1cbc 1bff 653d b540 593d 6ae7 c93c
000000b0: 0d34 3cbd 9e85 cfbc 521c 59bd 8cc6 8a3c
000000c0: 327c 143d 1b61 57bc dddb 72bc 49a9 38bc
000000d0: ebdd f0bc 0752 563d 1506 303d dfc1 4ebd
000000e0: f526 033e 48a5 b83c d044 3aba 4111 423d
000000f0: e329 303d aa1a 1cbd e305 e13b bd12 00bd
00000100: 8482 253d 58ba 9c3d 4987 5bbd 15c3 99bb
00000110: 587a 3abd fc66 b5bb b634 47bc 2fe8 1fbd
00000120: 3551 a2bd 4540 81bc 3776 0d3d 3346 13bd
00000130: 8ce9 c4bd b817 9abd f883 25bd a73e e6bd
00000140: 2f91 77bd d735 3cbd 9754 00bd 7d86 de3d
00000150: 2c26 c8bd 1815 32bd 14a3 dcbb f792 0fbd
00000160: dd00 ea3c d5ae 39bd 7704 c4bd 7859 f9bc
00000170: 00ad 6dbd 9bd1 c03b 8219 b53d 8afa cc3b
00000180: 2133 9e3d 5d0b 1fbe 2637 ef3d ec0b af3c
00000190: 702b 683b 30f2 55bd bcce 483d 6b6e dc3d
000001a0: be28 fc3c da8b 173d 33f3 0fbd 2412 32bc
000001b0: 45c8 943d 4a72 8c3b 2440 793d 7db3 0ebd
000001c0: c75e 29bb be03 0bbe b71d 043e bd90 413c
000001d0: df83 043e 9f98 843b 3d93 323d b6d7 633d
000001e0: d63d cd3c ee1f 313d 4220 613d 83f8 a73d
000001f0: 04d7 acbc 8d6b e5bd af5d 1e3d d026 89bc
00000200: 8b74 5cbd 5bb0 95bb faff a0bd 495c bf3d
00000210: 3e64 9cbd 0930 03bd d189 153c d759 773d
00000220: 991e 6d3d e0e5 c8bc 9e93 7f3d 1d52 b6bc
00000230: 23f4 f63d fbbe 0c3d b444 14bc 37c8 9abd
00000240: 0359 683d c0b2 803c 2236 f33c c3fa 3b3d
00000250: b528 db3d 28cf 243c cdb0 053d 1aea a7bc
00000260: b5d0 373d a579 81bc 5ec7 c23c 19af 913b
00000270: d84a 80bc d5a4 acbd c89d 1a3d 83cd 513d
00000280: 0175 2bbd 3dd8 dd3c 10a2 253d a4f0 0ebd
00000290: a8e9 163a b543 c43b 2eba e2ba 9297 0e3d
000002a0: f761 f5ba 44b3 cf3c a1e7 9ebd ee00 08bd
000002b0: 07e9 fc3d 0468 df3b 620c 833c fdf8 0abe
000002c0: bbf5 993d 56e2 263c b628 573d 22c4 bb3d
000002d0: 49d7 a3bb dae5 9bbd d11e 023e a1e6 07bd
000002e0: 7b94 a9bc df3d a0bd 8666 05bb 4f72 8fbc
000002f0: 0730 b13c b0f9 35bc 120b d43c 5da3 343b
00000300: 3eea 503c b9c9 d2bc 8d7e 77bc fe66 57bc
00000310: 490e ffb8 dc0d 013d ec07 0bbe 014f 4a3b
00000320: e931 6dbc 48fc 55bd 37e4 31bd 927e 92bc
00000330: 5a4b 7c3d 7461 46bc 8a47 c53c acf8 913d
00000340: a58e 1b3d 5e10 b4bd a5ff 2c3d e32e 273d
00000350: 5a71 f7bd a73b 8c3a 4b68 f73c 201e 113e
00000360: 127d fa3d 6fff 6ebc ebf5 973c 56f2 a93d
00000370: 4e10 753d adc7 8f3d 5fcf 24bd 094b 72bd
00000380: 2ed4 533d cb9f adbd 6f53 ec3d 7895 0c3d
00000390: b6ed 823d 978f acba 2559 9d3d 5ead 03bc
000003a0: e9f1 e6bd 97c6 2e3d edf2 473d 6703 8c3d
000003b0: 6c3d a33c a8f8 44bd a94c 74bb 26be 093e
000003c0: fc70 313d 5aa1 a3bd d41d 06bd a04d 4fbd
000003d0: 028b 9dbd a863 a03b 8063 18be 1855 68bd
000003e0: 4659 4d3d 2ce9 c3bc 0582 79bb 8449 f9bd
000003f0: 50fb 8f3c 6a86 0abd ae4b 40bd fe50 3b3d

fc1.bias f4 [32]
-0.022780975 0.052334975 0.09885541 0.023331834 -0.0021903315 0.11931395 -0.008658996 -0.056701273
-0.02196359 0.0192069 0.0024482962 0.00027207407 0.06659979 -0.10668598 -0.010282351 0.066248775
0.0008370187 -0.0055727386 0.0084383255 0.080274045 0.03294144 0.008132961 -0.06543379 -0.015053288
0.038119387 -0.008467946 0.04536592 -0.04623413 -0.11466042 -0.022646438 0.012850395 -0.017624559
00000000: 2b9f babc 335d 563d b574 ca3d 6722 bf3c
00000010: aa8b 0fbb df5a f43d 76de 0dbc 983f 68bd
00000020: fdec b3bc ca57 9d3c 9873 203b 2aa5 8e39
00000030: 7865 883d 2e7e dabd 4e77 28bc 70ad 873d
00000040: 606b 5b3a 859b b6bb e740 0a3c b866 a43d
00000050: 9aed 063d 1c40 053c 2702 86bd 11a2 76bc
00000060: 1323 1c3d 24bd 0abc 9dd1 393d 0060 3dbd
00000070: 15d3 eabd 0685 b9bc 778a 523c 6161 90bc

fc2.weight f4 [10, 32]
0.13888343 -0.130446 0.26552287 0.20170109 -0.047985308 -0.05529999 -0.18808584 -0.076997794
-0.073126845 0.027465124 -0.3851841 -0.12309399 0.112883165 0.040502362 0.049508605 -0.13724048
-0.014241378 -0.0786119 0.115222454 -0.1470676 0.09662887 0.18716063 -0.12398754 0.017002856
0.1712891 0.21956378 0.08131424 -0.10352227 -0.24804689 -0.12404807 -0.07513553 -0.18998738
0.019437497 -0.053483486 0.27717188 -0.09691846 0.044989586 0.22305952 0.0072731078 0.14099509
0.1415755 -0.168136 0.21733288 -0.061413694 0.04640669 0.02944275 -0.0939791 -0.20616744
0.053973753 0.115085945 -0.109547965 0.22152135 -0.36220533 -0.28845093 0.14472997 -0.0674781
-0.3397389 0.184036 -0.014814335 0.040850453 0.033452757 -0.06536937 0.07481426 -0.19268438
-0.061751746 0.20072256 -0.15868671 0.046410512 -0.033914726 -0.27336547 -0.1402289 0.069071986
-0.120883316 -0.20463216 -0.115396984 -0.072155744 -0.110807665 0.03706714 0.09378519 -0.096811295
-0.028877378 -0.046871964 0.04039193 0.14952734 0.263242 -0.23330297 0.28722936 -0.19094694
0.1049901 0.04666391 -0.04649143 0.0074800523 0.2685303 -0.008264344 0.20815022 -0.29688448
-0.11429715 0.050275784 -0.124125384 -0.06529317 -0.17119925 -0.08672477 -0.19265813 -0.0039644185
-0.12631914 0.1403484 -0.0063373907 -0.099765696 0.03161052 0.07280858 -0.005216402 -0.092700735
0.045129642 0.25233194 0.07602452 0.37682685 0.23975126 -0.007257903 -0.123159595 -0.088240914
0.028542496 -0.2140321 -0.09001919 0.27042344 0.04257009 0.04130259 -0.15356766 -0.026825981
0.30323377 0.25173035 -0.021910591 0.07839714 0.17220634 -0.13394265 0.03621903 0.14008385
-0.04387761 0.09296986 -0.04233933 0.074189894 0.0041808113 -0.27754435 0.08632305 0.018723207
-0.065433405 -0.1452731 0.021289257 0.1641432 -0.32878754 -0.15569153 -0.28537777 -0.21923058
-0.009218468 -0.14446588 -0.18704589 -0.1132633 -0.047633346 0.06490935 -0.034205 0.15794307
-0.20952885 0.032890156 0.036092002 -0.18852195 0.18281454 -0.18539977 -0.0025579946 -0.05124516
-0.09872746 0.04469416 0.11521133 0.11401245 0.09788505 -0.06362791 -0.25000483 0.025950443
0.13134287 -0.10394511 0.10725299 0.027297873 0.114662535 0.16972886 -0.2815798 0.027943518
-0.0542018 0.101939276 -0.2203972 -0.020916516 0.022532431 -0.04469695 -0.004843174 0.004122466
0.0786972 0.106203474 0.13701093 -0.09037869 -0.13325119 0.035440627 0.09265214 -0.23395647
0.012581862 -0.11791264 -0.3498947 0.20205891 -0.1104213 0.029702479 -0.045487877 -0.008911907
0.0870327 -0.2801637 -0.061899498 0.06748413 -0.16488783 0.14560868 -0.022142788 0.12219653
0.080068015 0.03927812 -0.09833363 -0.25556594 0.31706545 0.07971629 -0.005289823 0.07116117
0.16946529 -0.0022101868 -0.14087681 -0.053545717 -0.21715148 0.02207419 0.064620174 0.11938805
-0.07726602 0.04720456 0.4239576 -0.06571153 -0.15640983 -0.051330708 -0.085478 -0.2169554
0.15178445 0.06605609 0.09874221 -0.009641351 0.08198123 -0.03182973 -0.05243404 -0.034110468
-0.005856959 0.045641556 0.11234649 0.117814094 -0.27164197 -0.13534583 0.25928468 0.21058193
00000000: 7537 0e3e a393 05be 9df2 873e bb8a 4e3e
00000010: 3e8c 44bd 3e82 62bd 9399 40be 05b1 9dbd
00000020: 87c3 95bd 8afe e03c da36 c5be b418 fcbd
00000030: 4a2f e73d cee5 253d 89c9 4a3d c588 0cbe
00000040: ab54 69bc 47ff a0bd c0f9 eb3d e498 16be
00000050: 5be5 c53d 09a7 3f3e 2eed fdbd 9349 8b3c
00000060: 6966 2f3e 54d5 603e 1588 a63d 7c03 d4bd
00000070: 0100 7ebe ea0c febd a8e0 99bd 0d8c 42be
00000080: 633b 9f3c 8011 5bbd 79e9 8d3e 307d c6bd
00000090: 0047 383d b769 643e 4053 ee3b 0461 103e
000000a0: 2bf9 103e d82b 2cbe 838c 5e3e ed8c 7bbd
000000b0: f114 3e3d ec31 f13c 1d78 c0bd 8f1d 53be
000000c0: 9513 5d3d 2eb2 eb3d af5a e0bd 7ed6 623e
000000d0: fa72 b9be d7af 93be 1834 143e f531 8abd
000000e0: 42f2 adbe ef73 3c3e d3b7 72bc ce52 273d
000000f0: c205 093d 60e0 85bd 3838 993d 0e4f 45be
00000100: 66ef 7cbd 378a 4d3e c57e 22be f318 3e3d
00000110: 2bea 0abd 8ff6 8bbe 2a98 0fbe 9d75 8d3d
00000120: ac91 f7bd 188b 51be 4155 ecbd 64c6 93bd
00000130: 21ef e2bd b7d3 173d 7312 c03d 0045 c6bd
00000140: 4090 ecbc d1fc 3fbd 0272 253d b21d 193e
00000150: a8c7 863e f9e6 6ebe ba0f 933e 9887 43be
00000160: 0d05 d73d a822 3f3d cc6d 3ebd 3a1b f53b
00000170: ce7c 893e 2c67 07bc 5525 553e 3e01 98be
00000180: a014 eabd fbed 4d3d 7335 febd 6db8 85bd
00000190: db4e 2fbe c29c b1bd 2c48 45be f4e7 81bb
000001a0: ce59 01be 7eb7 0f3e e3a9 cfbb f551 ccbd
000001b0: 087a 013d aa1c 953d 5aee aabb e2d9 bdbd
000001c0: dcd9 383d a731 813e beb2 9b3d 73ef c03e
000001d0: 5b81 753e b4d3 edbb 193b fcbd a7b7 b4bd
000001e0: f4d1 e93c 3b2b 5bbe fb5b b8bd f174 8a3e
000001f0: fa5d 2e3d e82c 293d d740 1dbe 29c2 dbbc
00000200: 7541 9b3e cde2 803e d77d b3bc ae8e a03d
00000210: dc56 303e 4328 09be 685a 143d 2472 0f3e
00000220: 02b9 33bd fb66 be3d 016c 2dbd dff0 973d
00000230: 30ff 883b 4b1a 8ebe 24ca b03d 6961 993c
00000240: f301 86bd 79c2 14be cf66 ae3c 2815 283e
00000250: d756 a8be 9a6d 1fbe 091d 92be fb7d 60be
00000260: 0f09 17bc ddee 13be f588 3fbe 97f6 e7bd
00000270: 2f1b 43bd 31ef 843d 8b1a 0cbd d4bb 213e
00000280: bb8e 56be d4b7 063d 35d5 133d e60b 41be
00000290: bc33 3b3e 70d9 3dbe 07a4 27bb 72e6 51bd
000002a0: 9f31 cabd 3911 373d ebf3 eb3d 5c7f e93d
000002b0: f577 c83d 5a4f 82bd a200 80be 0696 d43c
000002c0: bf7e 063e 2de1 d4bd 75a7 db3d ca9f df3c
000002d0: 31d4 ea3d 67cd 2d3e 3a2b 90be cee9 e43c
000002e0: b502 5ebd 8ac5 d03d ceaf 61be 1d59 abbc
000002f0: ef95 b83c 2614 37bd 7db3 9ebb c015 873b
00000300: ff2b a13d 3581 d93d 984c 0c3e 7618 b9bd
00000310: 0073 08be 312a 113d 68c0 bd3d 4992 6fbe
00000320: 2724 4e3c 2f7c f1bd 6625 b3be 88e8 4e3e
00000330: 9024 e2bd 9d52 f33c 7f51 3abd 3f03 12bc
00000340: 333e b23d 9e71 8fbe 548a 7dbd 1f35 8a3d
00000350: 5bd8 28be 711a 153e cb64 b5bc 2d42 fa3d
00000360: b3fa a33d 18e2 203d 2463 c9bd 8ad9 82be
00000370: 6756 a23e 4b42 a33d 4056 adbb f3bc 913d
00000380: 4f88 2d3e c8d8 10bb 0342 10be c152 5bbd
00000390: f55c 5ebe efd4 b43c 9557 843d b981 f43d
000003a0: a63d 9ebd 9259 413d f810 d93e c493 86bd
000003b0: e629 20be 2640 52bd 170f afbd 8e29 5ebe
000003c0: 626d 1b3e 6a48 873d 5b39 ca3d c2f6 1dbc
000003d0: c6e5 a73d e45f 02bd 13c5 56bd 6bb7 0bbd
000003e0: bceb bfbb a4f2 3a3d eb15 e63d 8448 f13d
000003f0: a814 8bbe 1998 0abe f6c0 843e caa2 573e

fc2.bias f4 [10]
0.00783901 0.071911804 -0.11881404 0.14487064 0.13986549 0.08546418 -0.13998152 -0.0021660249
0.04372369 -0.13256902
00000000: 316f 003c 7f46 933d c754 f3bd f858 143e
00000010: e638 0f3e d807 af3d 5157 0fbe def3 0dbb
00000020: 9d17 333d 2cc0 07be
