Codes/mnist_cnn_mnist_4_False_0.1_1.0_1.0_64_1.pt (torch, 106255 bytes, 8 tensors)

conv1.weight f4 [16, 1, 8, 8]
0	0xbbaaf1a9	-0.0052167964
1	0xbbfee419	-0.007778656
2	0xbcd38767	-0.0258214
3	0xbd349e04	-0.044096008
4	0xbe4522e9	-0.19251598
5	0xbe0a16ff	-0.13485335
6	0x3d75be10	0.05999571
7	0x3da85995	0.082202114
8	0x3db7346b	0.08945545
9	0x3e3101f2	0.17285898
10	0xbc9c357c	-0.019068472
11	0xbdf13a4c	-0.11778697
12	0x3d9ba5ca	0.07599981
13	0x3d34b062	0.044113524
14	0x3cbb79b3	0.02288518
15	0xbd250359	-0.040286396
16	0x3dc0ac98	0.0940792
17	0xbd9164a6	-0.07099275
18	0xbcb0bdba	-0.021574844
19	0xbe4e08be	-0.20120522
20	0xbc7b6615	-0.0153441625
21	0x3c2424c0	0.0100185275
22	0x3d8d692e	0.06904827
23	0x3d9c72af	0.07639062
24	0x3df88488	0.12134653
25	0xbc9f6bbd	-0.019460553
26	0x3d5bc9c8	0.05365923
27	0x3e08e3f9	0.13368215
28	0x3e2de2d9	0.16981067
29	0xbd89e019	-0.06732196
30	0x3db0f7b7	0.08640998
31	0x3de53263	0.11191251
32	0xbd4a220a	-0.04934887
33	0x3de004bf	0.10938405
34	0x3df60862	0.12013318
35	0x3d884b6e	0.06655012
36	0xbd423400	-0.047412872
37	0x3e19a680	0.15004921
38	0x3e50df15	0.20397599
39	0x3e06c31e	0.13160369
40	0x3df57d72	0.119868174
41	0x3d917914	0.07103172
42	0x3e30bc0e	0.17259237
43	0xbdcd9c7b	-0.10039612
44	0xbd9598e1	-0.0730455
45	0x3e1529e4	0.14566761
46	0x3e0fcd1c	0.14043087
47	0xbd5d16c7	-0.0539768
48	0x3b50d1b7	0.003186328
49	0x3e71f0a1	0.23626949
50	0x3cd30cf3	0.02576301
51	0x3dfbc133	0.12292709
52	0x3e02224a	0.12708393
53	0xbe0d1f75	-0.13781531
54	0xbd20899a	-0.039193727
55	0x3de8dc91	0.11370195
56	0x3b25a998	0.0025278088
57	0x3e357eba	0.17724124
58	0x3d6cada5	0.057782788
59	0x3df2c92c	0.11854777
60	0xbe0c0ee1	-0.13677551
61	0x3da04058	0.078247726
62	0xbe3ae11e	-0.18249938
63	0x3d290634	0.04126568
64	0x3d81e690	0.063428044
65	0x3dfd6d17	0.12374323
66	0x3dfa8325	0.12232045
67	0x3d2517ba	0.04030583
68	0x3d43c18e	0.04779201
69	0x3d8aaefe	0.06771658
70	0x3d621c2b	0.055202644
71	0xbdd685af	-0.10474717
72	0xbd89b507	-0.06723981
73	0xbd90c418	-0.07068652
74	0xbdcac66b	-0.099011265
75	0x3dfa359e	0.12217258
76	0x3dff9eaa	0.12481435
77	0x3cada282	0.021195654
78	0x3d9507d8	0.07276887
79	0xbd9f44d7	-0.07776802
80	0x3dc22171	0.09479035
81	0x3db2fff6	0.08740227
82	0x3d81e6bb	0.063428365
83	0xbd92c001	-0.07165528
84	0x3d3fa700	0.046790123
85	0x3c95d7dc	0.018291406
86	0x3db4829e	0.08813976
87	0x3d79762f	0.060903724
88	0xbdf03124	-0.11728123
89	0xbe47c744	-0.19509608
90	0xbd1be232	-0.038057514
91	0x3d6c668b	0.05771498
92	0x3ca1e43a	0.019762147
93	0x3e4a2110	0.19739175
94	0x3e9bcc75	0.30429426
95	0xbd762db1	-0.06010217
96	0xbde946b3	-0.11390438
97	0x3e1721f5	0.14759047
98	0x3deae348	0.11469132
99	0xbe0ab544	-0.1354571
100	0xbd03475f	-0.032050487
101	0x3e3b904b	0.18316762
102	0x3db69298	0.08914679
103	0x3d827c99	0.06371421
104	0xbde62d6f	-0.112391345
105	0x3c2a8fad	0.010410232
106	0xbe36502b	-0.17804019
107	0xbda0c473	-0.0784997
108	0x3cda0efe	0.026618477
109	0x3dc1e1d3	0.09466901
110	0x3df32fa5	0.11874322
111	0x3c949b39	0.018140422
112	0xbde8becf	-0.11364519
113	0xbc5c57d5	-0.013448675
114	0x3ce11453	0.027475512
115	0x3d66f3d8	0.05638489
116	0x3ddbc167	0.10730248
117	0xbd2f75a7	-0.04283681
118	0x3e1d041a	0.15333596
119	0x3d0109da	0.031503536
120	0xbd46ec52	-0.048565216
121	0xbde1ab1c	-0.11018965
122	0x3e0a5293	0.13508062
123	0xbccb76c7	-0.02483691
124	0x3e0b56e7	0.1360737
125	0x3d5b13c7	0.053485658
126	0x3b921cd5	0.0044590035
127	0xbd030f3a	-0.031996943
128	0xbd8ab821	-0.06773401
129	0x3dde4f55	0.10854975
130	0x3dd61c39	0.10454602
131	0x3e63006c	0.2216813
132	0x3d853648	0.06504494
133	0xbd8d7a8f	-0.06908142
134	0x3dd4f27a	0.10397811
135	0x3d473f0f	0.04864412
136	0x3db4949a	0.08817406
137	0x3d91d11c	0.071199626
138	0x3dd7bbd1	0.1053387
139	0x3bfa4d4a	0.007638608
140	0x3dbcc432	0.09217109
141	0x3d3c750f	0.046010073
142	0xbe109eb7	-0.14123045
143	0xbcbf83c0	-0.023378253
144	0x3e23e853	0.16006593
145	0x3e21a411	0.15785243
146	0x3de80603	0.11329272
147	0xbd515d4d	-0.05111437
148	0x3d72f7e2	0.05931843
149	0x3df1fa7a	0.11815353
150	0xbcb00b48	-0.021489754
151	0x3dce40bd	0.100709416
152	0xbe379067	-0.17926179
153	0xbbec86ec	-0.0072182324
154	0xbcacf95b	-0.021114996
155	0xbd41cc88	-0.047314197
156	0xbda7c53f	-0.081919186
157	0x3d562922	0.05228532
158	0x3d50cc73	0.050976228
159	0x3c7fd334	0.01561432
160	0xbd6d79e6	-0.05797758
161	0xbc9a62cb	-0.018845936
162	0xbe1957fc	-0.1497497
163	0x3d20f11c	0.03929244
164	0xbe20e410	-0.15711999
165	0xbbb6c4d3	-0.0055776625
166	0x3dec5fe5	0.11541728
167	0x3e154174	0.1457575
168	0xbcf89b90	-0.030347615
169	0xbd90d66f	-0.0707215
170	0x3db9f628	0.09080154
171	0x3d9f5528	0.07779914
172	0x3dd34eb5	0.103177465
173	0x3c4b3197	0.01240196
174	0xbcef1f91	-0.029189857
175	0x3c6f18e9	0.014593341
176	0xbd290df4	-0.041273072
177	0xbd2ac6cf	-0.041693505
178	0xbdbd6a81	-0.0924883
179	0x3e02ae80	0.12761879
180	0x3caeb805	0.021327982
181	0xbd2586f8	-0.04041192
182	0xbdbd20b6	-0.09234755
183	0x3ba8d9ab	0.005152901
184	0xbdb59bf6	-0.08867638
185	0xbaecdd5d	-0.0018071342
186	0x3b72c6d1	0.0037044773
187	0xbd1135ff	-0.035451885
188	0x3d83e9d8	0.064410865
189	0xbdb06e63	-0.086148046
190	0x3d32a57b	0.043614846
191	0x3d7f4abd	0.062327135
192	0x3e3eae9b	0.18621294
193	0xbe0f7b8c	-0.14011973
194	0x3c3e38a7	0.011610187
195	0x3da20dbe	0.07912777
196	0xbcc14765	-0.023593614
197	0x3d54df0c	0.051970527
198	0x3e01f80a	0.12692276
199	0xbdc43842	-0.09581043
200	0x3d83a2e7	0.064275555
201	0xbdc60ee5	-0.0967081
202	0x3c64a2d8	0.013954841
203	0x3d802605	0.06257252
204	0xbdd0cc87	-0.101952605
205	0x3c6414ef	0.013921007
206	0xbdf01468	-0.11722642
207	0x3b189db7	0.0023287365
208	0x3e120023	0.14257865
209	0x3db871de	0.090060934
210	0x3db27c84	0.08715156
211	0x3e3351ce	0.17511675
212	0xbc5f8648	-0.013642855
213	0x3dcad107	0.0990315
214	0xbd80ec63	-0.06295087
215	0x3d1cf600	0.03832054
216	0x3d19e9c5	0.037576456
217	0x3d349294	0.0440851
218	0x3c0b762a	0.008512059
219	0x3df8f819	0.12156696
220	0x3e073f60	0.1320777
221	0xbe2226e8	-0.15835154
222	0xbe11bc1e	-0.14231917
223	0x3cd0080e	0.025394466
224	0xbbc94f6e	-0.006143502
225	0xbd8c39ad	-0.06846938
226	0x3dc3d140	0.09561396
227	0xbd3ac494	-0.045597628
228	0x3d415bc8	0.04720667
229	0x3dc4d677	0.096112184
230	0xbd2d4fec	-0.042312548
231	0xbbb8bcf0	-0.0056377575
232	0x3d4af536	0.049550258
233	0x3e22c09c	0.15893787
234	0x3c1d07b0	0.009584352
235	0xbd967508	-0.07346541
236	0x3c821496	0.015878957
237	0xbe0d96b2	-0.13827017
238	0xbdb1f793	-0.08689799
239	0x3deae9e4	0.11470392
240	0xbda7c550	-0.08191931
241	0x3dac7ac0	0.0842185
242	0xbceed188	-0.029152647
243	0xbb89515f	-0.0041906084
244	0x39987bed	0.0002908403
245	0x3d83c392	0.064337865
246	0xbd55bed4	-0.05218394
247	0x3ce0469a	0.027377415
248	0xbdd21023	-0.10256984
249	0xbd450426	-0.04809966
250	0xbc51dc6f	-0.012808903
251	0x3d6c8512	0.057744093
252	0xbd93dadb	-0.07219478
253	0xbd7180ae	-0.05896061
254	0xbdab6c10	-0.08370221
255	0xbe0a3cf9	-0.13499822

conv1.bias f4 [16]
0	0x3df2208c	0.11822614
1	0x3c7f344f	0.015576436
2	0xbdc75de1	-0.09734703
3	0xbd9fb861	-0.07798839
4	0xbddf3321	-0.10898424
5	0xbc56b90e	-0.013105644
6	0x3ca98913	0.020695245
7	0x3d1e0967	0.038583186
8	0x3e00271e	0.12514922
9	0x3c68f187	0.014217741
10	0xbd427de2	-0.047483332
11	0x3d15127c	0.03639458
12	0xbcf96a9a	-0.03044634
13	0xbd47c0ba	-0.048767783
14	0xbd9a6f37	-0.07540744
15	0xbcc79f91	-0.02436808

conv2.weight f4 [32, 16, 4, 4]
0	0x3d7b2f2a	0.061324276
1	0x3da849b6	0.08217184
2	0x3d8e29e9	0.069415875
3	0xbd54ee51	-0.05198509
4	0x3d3f196e	0.04665511
5	0xbdc88a10	-0.09791958
6	0x3de32725	0.110914506
7	0x3dcce481	0.10004521
8	0x3dff7d99	0.12475128
9	0x3c93f22f	0.018059818
10	0xbd2623fa	-0.040561654
11	0xbd399527	-0.04530826
12	0x3d706ad6	0.058695637
13	0xbd80b4f0	-0.06284511
14	0xbc2dd826	-0.010610616
15	0x3daef119	0.085420795
16	0xbcb8a009	-0.022537248
17	0xbd77a6c8	-0.06046179
18	0xbd9d9e43	-0.07696202
19	0xbdc2a4fa	-0.09504123
20	0x3cc06285	0.023484478
21	0x3bf1275c	0.0073594283
22	0xbccc7ed2	-0.024962816
23	0xbdcfcd5e	-0.101465926
24	0x3cc4e252	0.0240337
25	0x3cc65cc5	0.024214158
26	0xbd9af527	-0.0756629
27	0x3e10464a	0.14089313
28	0xbdf8a45d	-0.12140725
29	0x3d6c144b	0.05763654
30	0x3d0a8c5c	0.033825263
31	0x3d43faff	0.04784679
32	0xbd9ea416	-0.07746141
33	0xbc707c1a	-0.014678026
34	0x3b39372e	0.002826165
35	0xbca43a46	-0.020047318
36	0xbd301416	-0.042987905
37	0xbc2db76e	-0.010602815
38	0x3c0f7b8c	0.008757483
39	0xbca2060b	-0.019778272
40	0xbccfa58b	-0.025347492
41	0x3defdc1e	0.11711906
42	0xbccda76e	-0.02510425
43	0x3d2e5e7b	0.042570572
44	0xbbc43894	-0.00598819
45	0xbc0d60cc	-0.008629035
46	0x3bea2762	0.007145808
47	0x3c85fc4a	0.016355652
48	0xbd9092ed	-0.07059274
49	0xbcf83e09	-0.030303018
50	0x3c9acea3	0.01889736
51	0x3bc13e7c	0.0058973413
52	0x3d9adbe2	0.075614706
53	0xbd2f32fb	-0.04277323
54	0xbd850f0f	-0.06497013
55	0xbcfd8fac	-0.030952297
56	0x3dbd6892	0.09248461
57	0xbd32662a	-0.043554462
58	0x3d9a8a47	0.075459056
59	0xbbaf4167	-0.0053483727
60	0xbc44da56	-0.012014946
61	0x3d83e782	0.06440641
62	0x3b8f4e56	0.004373352
63	0x3c04f649	0.00811536
64	0x3d66cee0	0.056349635
65	0xbda01b2e	-0.07817684
66	0xbd7ff836	-0.06249257
67	0xbc769a0e	-0.015051378
68	0xbda8f711	-0.08250249
69	0x3ce5fc03	0.02807427
70	0x3d8bb0da	0.06820841
71	0xbd16b09c	-0.03678952
72	0x3d5deed8	0.054182857
73	0x3e072110	0.13196206
74	0x3df5e1b3	0.12005939
75	0x3d25466d	0.040350366
76	0x3bc08942	0.0058757374
77	0x3ce62a07	0.028096212
78	0x3d6da69b	0.058020215
79	0xbd172eae	-0.03690975
80	0xbe23e664	-0.16005856
81	0x3d60b3a2	0.05485881
82	0xbe1bbada	-0.15207997
83	0xbdafa213	-0.08575835
84	0xbc81767f	-0.015803574
85	0xbbc236e3	-0.005926953
86	0x3d8f936a	0.07010539
87	0xbd8045b0	-0.06263292
88	0x3c3735ba	0.011182243
89	0x3caa54f8	0.02079247
90	0xbd4587d8	-0.048225254
91	0xbb951cbd	-0.004550545
92	0xbc9325bb	-0.017962327
93	0xbd8c721d	-0.06857703
94	0xbd41ba30	-0.047296703
95	0x3c370af1	0.011172042
96	0xbde4a7cc	-0.11164817
97	0x3dba1ecc	0.09087905
98	0x3cec1555	0.028818766
99	0x3d133ee8	0.035948664
100	0x3d2f2235	0.04275723
101	0xbdffe122	-0.124941126
102	0x3d1ce2c3	0.038302194
103	0xbcbcd33b	-0.023049941
104	0xbd98c38c	-0.074591726
105	0xbcf866b6	-0.030322414
106	0xbd28d4ab	-0.04121844
107	0x3cbf2384	0.023332365
108	0xbc8ff141	-0.017571094
109	0xbcaa0cb8	-0.020758018
110	0x38f7f5a8	0.00011823635
111	0xbd677db7	-0.056516375
112	0x3d40e858	0.04709658
113	0xbd6aa46a	-0.057285704
114	0x3d6b6ac5	0.05747487
115	0xbd8b6cee	-0.06807886
116	0x3db1e776	0.08686726
117	0x3cb3d447	0.021951808
118	0xbdad12e0	-0.08450866
119	0xbd18325d	-0.037157405
120	0x3d1a6302	0.037692077
121	0x3db7928a	0.08963497
122	0x3c2f8502	0.010712864
123	0xbc037919	-0.008024477
124	0x3c385f6e	0.011253221
125	0x3cb6778c	0.022273801
126	0x3cd72d04	0.026266582
127	0x3dce5dff	0.10076522
128	0xbdd0602b	-0.101745926
129	0x3d8805a3	0.066417
130	0x3d15cac2	0.036570318
131	0xbdae8852	-0.08522095
132	0xbd141144	-0.03614928
133	0xbd285738	-0.041098803
134	0x3d7c6155	0.06161626
135	0x3d5738a6	0.05254426
136	0xbd11a491	-0.035557333
137	0x3ccdf9c9	0.02514352
138	0x3dc92586	0.0982161
139	0x3e0d606d	0.13806315
140	0xbdbdcbc1	-0.092673786
141	0xbda289ee	-0.07936464
142	0xbd0e6af4	-0.034769967
143	0xbcb980aa	-0.02264436
144	0x3c9f3e88	0.019438997
145	0xbca13b00	-0.019681454
146	0x3dabba34	0.08385125
147	0x3ce0e800	0.027454376
148	0xbc5fe450	-0.013665274
149	0x3d54ac86	0.051922344
150	0xbe1aa977	-0.15103708
151	0x3d9e2929	0.077226944
152	0xbcdb96fc	-0.026805393
153	0xbcaab25a	-0.020836998
154	0xbbad23f2	-0.005283826
155	0xbccca91a	-0.024982978
156	0xbcdaf420	-0.026727736
157	0x3ccd3b41	0.025052669
158	0xbc9583f4	-0.018251397
159	0x3ca27740	0.019832253
160	0xbd1e7de3	-0.038694274
161	0x3d3fa655	0.046789486
162	0x3d081ea2	0.03323234
163	0x3d975997	0.07390135
164	0x3ca7b1a6	0.020470452
165	0xbd07b725	-0.033133645
166	0x3d8fa367	0.070135884
167	0xbc76c586	-0.015061742
168	0x3d18ce36	0.037306033
169	0x3d80e229	0.062931366
170	0x3e0a51da	0.13507786
171	0x38f4abd5	0.00011666833
172	0x3d90936b	0.07059368
173	0x3c9fbac7	0.019498242
174	0x3cc943ca	0.024568457
175	0x3d1439ed	0.036188055
176	0x3c86ff46	0.016479146
177	0xbd926899	-0.07148857
178	0x3dec13b3	0.11527195
179	0xbd0e2cd3	-0.034710716
180	0xbd0d1674	-0.03444524
181	0xbd447a4f	-0.047968205
182	0x3c744631	0.014909313
183	0xbc878f0e	-0.016547706
184	0xbd86165a	-0.06547232
185	0x3d9f4001	0.0777588
186	0xbc64b143	-0.013958278
187	0x3cfa1f9a	0.030532647
188	0xbd5a312d	-0.053269554
189	0x3c707cbf	0.014678179
190	0x3d73ed09	0.059552226
191	0xbd9af8e9	-0.07567007
192	0xbcc89958	-0.024487182
193	0xbda35f75	-0.07977191
194	0x3d260d80	0.04054022
195	0xbd750022	-0.05981458
196	0x3e222f22	0.15838292
197	0x3d39b62f	0.04533976
198	0xbd6bba71	-0.05755085
199	0x3c837db7	0.016051156
200	0x3ddbf55b	0.10740157
201	0x3cc1ac04	0.023641594
202	0x3ddc523b	0.10757872
203	0xbc2440b7	-0.010025195
204	0xbacabbed	-0.0015467383
205	0x3c6ed099	0.014576101
206	0x3e364cd3	0.17802744
207	0xbd08a676	-0.033361875
208	0xbce4e380	-0.027940512
209	0x3dddda97	0.10832708
210	0x3d6d7dd1	0.057981316
211	0x3c338cd6	0.010958871
212	0x3d689023	0.056778084
213	0x3e4f47db	0.20242254
214	0xbcf14543	-0.029451972
215	0x3c6e8c5a	0.01455983
216	0x3cc59535	0.024118999
217	0x3d056783	0.03256942
218	0x3d3fe2a9	0.04684702
219	0xbcfd1671	-0.03089449
220	0xbd413fb1	-0.04717988
221	0x3e018c5c	0.12651199
222	0xbd9f7195	-0.07785336
223	0x3d2b6091	0.04184014
224	0xbc4f0ae2	-0.012636872
225	0x3c9c96dd	0.019114906
226	0xbd9d7ae8	-0.07689458
227	0xbcbb7b91	-0.02288607
228	0xbb88cbf9	-0.004174706
229	0xbd76417b	-0.06012104
230	0xbdca4ec9	-0.09878308
231	0x3d87c073	0.06628504
232	0xbd98d35b	-0.07462188
233	0xbe00b95f	-0.12570713
234	0xbd939bed	-0.07207475
235	0x3d21384d	0.039360333
236	0xbb2662bb	-0.0025388438
237	0xbd212f72	-0.039351888
238	0x3a335ab1	0.0006841822
239	0xbd0cd9ea	-0.034387507
240	0x3d2dbed8	0.04241833
241	0xbd18e571	-0.037328187
242	0xbc6a7367	-0.014309741
243	0xbd160bd4	-0.036632374
244	0x3df2430e	0.11829196
245	0x3df3e49f	0.119088404
246	0x3d8473f1	0.064674266
247	0xbc81daa3	-0.015851324
248	0x3e5100d8	0.20410478
249	0x3e0ec636	0.13942799
250	0xbc038f1b	-0.0080297245
251	0x3e14de02	0.14537814
252	0x3d60caaf	0.054880794
253	0xbd6129d8	-0.054971546
254	0xbc9c371f	-0.019069253
255	0xbc4b970c	-0.012426149

conv2.bias f4 [32]
0	0x3d06e287	0.032930877
1	0x3d633023	0.05546583
2	0xbc0b38b6	-0.008497408
3	0x3df33027	0.11874419
4	0xbdce641f	-0.1007769
5	0x3acf2cc9	0.0015806194
6	0xbda4335b	-0.08017608
7	0xbd6dbddb	-0.05804239
8	0x3cb10055	0.021606604
9	0x3cd31e31	0.025771232
10	0x3d78c12c	0.060731098
11	0x3e0c7748	0.13717377
12	0x3a143865	0.00056541554
13	0x3cf7aa99	0.030232714
14	0xbded59ff	-0.11589431
15	0xbd7adce7	-0.061245825
16	0xbbc1eeb5	-0.0059183487
17	0xbc8af23c	-0.01696121
18	0xbd63e859	-0.055641506
19	0x3baf0c3a	0.0053420337
20	0x3d5f811d	0.05456649
21	0xbc9951e0	-0.018715799
22	0x3db905c9	0.090343066
23	0x3d2fa770	0.04288429
24	0xbc70a923	-0.014688763
25	0xbd48a66f	-0.04898685
26	0xbdccddea	-0.10003264
27	0xbcec8aff	-0.028874872
28	0xbc372074	-0.011177171
29	0x3d6e00bf	0.05810618
30	0x3c1a890f	0.009432091
31	0x3cc3ca2b	0.023900112

fc1.weight f4 [32, 512]
0	0x3c3e9ad7	0.011633596
1	0x3d85cdc0	0.06533384
2	0xbd4f1008	-0.050552398
3	0x3c492832	0.01227765
4	0x3e1476bb	0.14498417
5	0xbda79de5	-0.08184413
6	0xbba1389d	-0.004920079
7	0x3d1c4744	0.0381539
8	0xbc380dcf	-0.011233761
9	0x3d045379	0.03230617
10	0xbd21bfda	-0.039489605
11	0x3e1134db	0.14180319
12	0x3ce7ea0a	0.02830984
13	0xbc96abc5	-0.018392453
14	0x3c0bf0d8	0.008541308
15	0xbd57d291	-0.052691046
16	0x3d03d7cf	0.032188233
17	0xbbad75c3	-0.0052935793
18	0x3daccce8	0.0843752
19	0xbc871dd4	-0.016493715
20	0x3d37ef03	0.044905674
21	0xbc209b0c	-0.009802591
22	0x3c8669bc	0.01640784
23	0xbbbb1552	-0.0057093287
24	0xbd78258c	-0.060582682
25	0xbc8e6a4d	-0.017384673
26	0xbd84e92e	-0.06489788
27	0xbd458fd8	-0.048232883
28	0xbd84560b	-0.06461724
29	0xbcb54c50	-0.022131115
30	0xbce3a9b1	-0.027790876
31	0x3d225b0c	0.03963761
32	0x3cac9056	0.021064918
33	0xbcf56569	-0.029955583
34	0xbd63f100	-0.055649757
35	0x3d3a3983	0.045465004
36	0xbca054bc	-0.019571654
37	0x3ddf0c3c	0.108910054
38	0xbd4f996b	-0.05068342
39	0x3d7c544f	0.06160384
40	0x3cd73d2b	0.026274284
41	0x3d9256ff	0.071454994
42	0x3d8ecbe4	0.06972483
43	0xbcc72f0b	-0.024314424
44	0xbcfb3d96	-0.030669015
45	0x3cf58fd3	0.029975807
46	0xbd712d61	-0.058881167
47	0x3dbc4c01	0.09194184
48	0x3d093dd3	0.033506226
49	0x3c5b140f	0.013371482
50	0x3d35089f	0.044197675
51	0xbd140526	-0.036137722
52	0xbdc45f72	-0.09588517
53	0xbc7aa999	-0.015299224
54	0xbd9baa9b	-0.076009
55	0x3d0852d4	0.033282116
56	0xbd357c73	-0.044308137
57	0xbd7ed73d	-0.062216986
58	0xbd2f0001	-0.042724613
59	0x3d6c1939	0.05764124
60	0x3d5f0a8d	0.05445342
61	0x3dc485d6	0.0959584
62	0x3d9a70bf	0.07541036
63	0xbd832207	-0.064029746
64	0x3c010496	0.0078746285
65	0xbd8d4715	-0.068983234
66	0xbd3911fa	-0.04518316
67	0xbda4ac35	-0.080406584
68	0x3cc7322c	0.024315916
69	0x3d9e93cc	0.07743034
70	0xbc0f4d87	-0.008746511
71	0x3ce8526c	0.028359614
72	0xbd0b5278	-0.034014195
73	0xbce16a99	-0.02751665
74	0xbd807f88	-0.06274325
75	0xbc94294b	-0.018086096
76	0xbe04dbe6	-0.1297451
77	0xbd3af4bc	-0.045643553
78	0xbc232408	-0.009957321
79	0x3cae2041	0.021255614
80	0xbc9c932f	-0.019113151
81	0x3dab16aa	0.08353932
82	0xbc7f4d91	-0.015582458
83	0x3d9f347f	0.07773685
84	0xbc416bbc	-0.011805471
85	0x3db0220d	0.08600245
86	0x3d220fbf	0.039565798
87	0xbd0b2b11	-0.03397662
88	0x3d760b01	0.060069088
89	0x3831c5ad	4.238419e-05
90	0xba7ac8da	-0.00095666724
91	0xbbf79283	-0.0075553074
92	0x3cfa32ae	0.030541744
93	0x3d4a7341	0.04942632
94	0x3cf82f39	0.030295955
95	0xbd44b70c	-0.04802613
96	0x3d188648	0.037237436
97	0xbcc73c89	-0.024320858
98	0x3e0b2946	0.13589963
99	0x3e06f72a	0.13180223
100	0x3dabf1b0	0.083957076
101	0x3de5f43e	0.11228226
102	0xbd6d90da	-0.05799947
103	0xbd876146	-0.0661035
104	0xbd5a0da7	-0.053235676
105	0x3cf3d591	0.029764922
106	0x3c5a03fd	0.013306615
107	0x3daec52e	0.08533703
108	0x3d9ad417	0.07559984
109	0xbd23af14	-0.03996189
110	0xbcc179be	-0.023617622
111	0x3c9900e4	0.018677182
112	0xbda07bd0	-0.07836115
113	0xbd25975b	-0.040427547
114	0xbc922b40	-0.017842889
115	0xbd359f4d	-0.044341374
116	0x3ddfbd82	0.109248176
117	0x3d15d8a4	0.036583558
118	0x3dd498ea	0.103807285
119	0x3d6ea3cb	0.058261674
120	0x3d173157	0.03691229
121	0xbe0ff08b	-0.14056604
122	0x3d4d31de	0.050096385
123	0x3d165823	0.036705147
124	0x3ca028fd	0.019550795
125	0x3c1bc302	0.009506943
126	0xbc817b20	-0.01580578
127	0x3c7d80ab	0.015472571
128	0xbc4b6a13	-0.012415427
129	0xbd9134e8	-0.07090169
130	0x3d22e3cb	0.03976802
131	0xbda4744a	-0.08029993
132	0x3ce82cce	0.028341677
133	0x3d8c24c2	0.068429485
134	0xbc8368a5	-0.01604111
135	0x3c391acf	0.011297896
136	0xbd3017bf	-0.042991396
137	0x3e1011ee	0.1406934
138	0xbc8bca1b	-0.017064145
139	0x3d1a3930	0.037652194
140	0x3d1ebc6e	0.03875392
141	0xbe2f15cc	-0.17098159
142	0x3d2f1ca6	0.04275193
143	0xbcf5b619	-0.029994057
144	0xbc186682	-0.0093017835
145	0xbd970b15	-0.073751606
146	0xbd7e5179	-0.062089417
147	0xbdfacfc3	-0.12246659
148	0xbcbadd4c	-0.0228106
149	0xbd55bab3	-0.052180003
150	0xbd018511	-0.031621043
151	0xbcef4e29	-0.029212074
152	0xbcd67382	-0.026178125
153	0x3bea79d2	0.0071556354
154	0xbdbfa5fa	-0.093578294
155	0x3c8ebaaa	0.017422993
156	0x3d6ae450	0.057346642
157	0xbc704c57	-0.014666638
158	0x3d74dc5e	0.05978047
159	0x3de539a8	0.11192638
160	0xbc21afd7	-0.009868584
161	0x3d9796e2	0.074018255
162	0x3d0e891e	0.034798734
163	0x3d078d1e	0.033093564
164	0xbc927cb9	-0.017881738
165	0x3d72e124	0.059296742
166	0x3a490d5a	0.0007669531
167	0x3d845282	0.064610496
168	0xbd3f8d63	-0.046765696
169	0xbc58712b	-0.013210575
170	0x3d3f51b8	0.046708792
171	0x3d22e491	0.03976876
172	0x3d3d5929	0.046227608
173	0x3ce06515	0.02739195
174	0xb99aeb92	-0.00029548683
175	0xbdcff5a6	-0.101542756
176	0xba81b955	-0.0009897152
177	0xbca080b6	-0.019592624
178	0xbce1b3a5	-0.027551482
179	0x3df57f07	0.11987119
180	0x3dc88a1d	0.09791968
181	0xbd1a5488	-0.03767827
182	0xbd9c3053	-0.076264046
183	0x3e1ad2b7	0.15119444
184	0xbd18be41	-0.037290815
185	0xbd41152d	-0.047139335
186	0xbdae4ae1	-0.08510376
187	0xba86e7f7	-0.001029252
188	0x3d9928c2	0.07478477
189	0x3d623a4c	0.055231377
190	0x3c878548	0.016543046
191	0x3d2effaf	0.042724308
192	0xbd2ad9d9	-0.041711662
193	0x3d558a5d	0.052133907
194	0xbd01f52d	-0.03172796
195	0xbbdf7b11	-0.0068200906
196	0xbd04cfb5	-0.032424647
197	0xbc7567f5	-0.014978399
198	0x3c74a6bb	0.01493233
199	0x3c0bd918	0.008535646
200	0x3d4825ca	0.048864163
201	0xbd7f9a5c	-0.062403068
202	0x3e2062ce	0.15662691
203	0xbc86c4a1	-0.016451182
204	0xbc814955	-0.015782038
205	0xbcfc7afb	-0.03082036
206	0xbd4aca50	-0.049509346
207	0xbd8b9258	-0.06815022
208	0xbd245ef8	-0.04012963
209	0x3d3c9302	0.046038635
210	0xbabdf8b1	-0.0014493671
211	0xbd19f526	-0.037587307
212	0xbd9da986	-0.0769835
213	0xbca9bce3	-0.020719951
214	0xbcfb4314	-0.030671634
215	0xbcf7d6a9	-0.030253725
216	0xbd9187e7	-0.071059994
217	0x3c9a639f	0.018846331
218	0x3d695b0a	0.056971587
219	0x3d8bb674	0.068219095
220	0x3c69fe6e	0.014281852
221	0xbc2b1483	-0.010441902
222	0x3dbbecf3	0.09176054
223	0x3beca77c	0.007222114
224	0x3cf25a1a	0.02958398
225	0xbd20d130	-0.039261997
226	0xbdc5aeae	-0.09652458
227	0x3ba8c665	0.0051506036
228	0x3e0e1ec0	0.13878918
229	0xbc0983cb	-0.008393238
230	0xbc1aff4d	-0.0094602825
231	0x3d980d75	0.07424442
232	0xbd682596	-0.05667647
233	0xbcb43e79	-0.022002446
234	0xbd4acb2d	-0.04951017
235	0x3d36d65d	0.044638027
236	0x3d8bca8b	0.068257414
237	0x3aaaf5f0	0.0013043266
238	0x3de1d1fb	0.11026379
239	0x3d94577d	0.072432496
240	0xbd4d7d95	-0.050168592
241	0x3c838950	0.016056687
242	0xbbb2ed5e	-0.0054604253
243	0x3d44ea28	0.04807487
244	0xbd719c9f	-0.058987256
245	0xbcbf4511	-0.023348363
246	0x3cdcd854	0.026958622
247	0x3d2a8410	0.04162985
248	0x3bb0e8f3	0.0053988635
249	0x3d519244	0.05116488
250	0x3d8471d7	0.06467026
251	0xbc027905	-0.007963424
252	0xbd471c90	-0.048611224
253	0xbc921a18	-0.017834708
254	0x3d2250d7	0.039627876
255	0xbc6cf51e	-0.014462737

fc1.bias f4 [32]
0	0xbd4b7068	-0.049667746
1	0x3da14e97	0.07876318
2	0xbdfff325	-0.12497548
3	0xbd12aa1d	-0.035806764
4	0x3e122c5c	0.14274734
5	0xbc3b4782	-0.011430623
6	0xbc6c0874	-0.014406312
7	0xbdbcaa4c	-0.09212169
8	0xbcdba494	-0.026811875
9	0xbd70abca	-0.05875758
10	0x3a7208be	0.000923287
11	0x3d80a058	0.06280583
12	0x3be69dbb	0.007037846
13	0x3d9c2066	0.07623367
14	0xbd8f9c14	-0.070121914
15	0x3d34d765	0.04415073
16	0x3d13d5bd	0.03609251
17	0x3cd79141	0.02631438
18	0x3d5be5d2	0.05368597
19	0xbc021848	-0.007940359
20	0x3dbad508	0.09122664
21	0xbd580019	-0.052734468
22	0x3d1d97de	0.03847491
23	0x3d7bd200	0.06147957
24	0xbddf8235	-0.10913507
25	0x3d4f5541	0.050618414
26	0xbc32d207	-0.010914332
27	0xbc676f9b	-0.01412573
28	0xbbc6b0ab	-0.006063541
29	0xbcc4f550	-0.024042755
30	0x3d9c9589	0.07645709
31	0xbd4de461	-0.050266627

fc2.weight f4 [10, 32]
0	0xbea0b408	-0.31387353
1	0x3c3de4e0	0.011590213
2	0xbe3b09b4	-0.1826542
3	0x3e12c173	0.14331608
4	0xbd100fb2	-0.03517122
5	0xbd4a0339	-0.04931948
6	0x3e13a617	0.14418827
7	0xbe83038d	-0.25588647
8	0x3dec22ea	0.11530097
9	0x3e7c80fe	0.24658582
10	0xb94588b1	-0.00018838306
11	0xbd2380d4	-0.039917782
12	0xbe4029de	-0.18765971
13	0xbe4ec3fb	-0.20191948
14	0xbe99da17	-0.30049202
15	0x3e1af2da	0.15131703
16	0x3d3ce416	0.046115957
17	0x3cdd3f75	0.027007798
18	0xbccc4592	-0.024935517
19	0xbdf28f3e	-0.118437275
20	0x3e0570cc	0.1303131
21	0x3e3d48cc	0.18484801
22	0xbda70bbc	-0.08156535
23	0x3e2cd998	0.1687988
24	0xbe05e45a	-0.1307539
25	0x3e39b226	0.18134364
26	0xbe077106	-0.13226709
27	0x3daf1b75	0.08550159
28	0x3dc1f7a8	0.09471065
29	0xbe808697	-0.25102684
30	0x3e650836	0.22366413
31	0xbd05eef8	-0.0326986
32	0xbe19c8d4	-0.15018016
33	0xbd8e5344	-0.069494754
34	0xbd2b4cbc	-0.041821226
35	0x3e537582	0.20650294
36	0xbce70ab9	-0.028203355
37	0xbe00d2a8	-0.12580359
38	0xbe5bb247	-0.21454726
39	0xbbee5eaa	-0.0072744684
40	0xbe043e7c	-0.12914461
41	0xbe9d926b	-0.3077577
42	0xbe0a6926	-0.13516673
43	0xbdc05526	-0.09391241
44	0x3e3a137e	0.18171498
45	0xbe461832	-0.19345167
46	0x3e02dbf7	0.12779222
47	0x3b4e1401	0.0031445029
48	0x3d6475fc	0.05577658
49	0xbe235363	-0.15949778
50	0xbbc7bea4	-0.006095724
51	0x3dcbf916	0.09959619
52	0x3e8a449c	0.2700547
53	0xbe9a499d	-0.30134287
54	0x3ea77b06	0.32711047
55	0xbdced0fa	-0.10098453
56	0xbe0e4935	-0.13895114
57	0x3e5bbb58	0.21458185
58	0xbe1e56b7	-0.15462767
59	0x3e94405c	0.28955352
60	0x3e5ed39a	0.21760407
61	0x3e0cef7a	0.13763228
62	0xbd2cbf9d	-0.042174924
63	0xbc8871bd	-0.016655797
64	0x3e2df586	0.16988191
65	0xbe080b6f	-0.13285612
66	0xbd4a704d	-0.049423505
67	0xbdfdf919	-0.12401027
68	0xbe37b3dc	-0.17939705
69	0xbcc33e8b	-0.023833534
70	0x3bd58c6c	0.0065169837
71	0xbd99410f	-0.07483112
72	0xbc8fbc3a	-0.017545808
73	0xbe8587e3	-0.26080236
74	0x3e825e49	0.2546256
75	0xbd8b9eb6	-0.06817381
76	0x3b9ef1cb	0.0048506013
77	0xbcfd78be	-0.030941363
78	0x3e08245a	0.13295117
79	0x3e22e825	0.15908869
80	0xbe68bdc6	-0.22728643
81	0x3e390b51	0.18070723
82	0x3dbd0c98	0.09230918
83	0x3e06bea1	0.13158657
84	0x3cd89464	0.026437946
85	0xbd190dd9	-0.03736672
86	0xbe661072	-0.22467211
87	0x3e269a22	0.16269735
88	0x3df2acc8	0.11849362
89	0x3d36ea10	0.044656813
90	0x3e40536c	0.18781823
91	0x3e197cdb	0.14989035
92	0x3c914a04	0.017735489
93	0x3c118f63	0.008884284
94	0xbe6e98a6	-0.23300418
95	0xbe71f50f	-0.23628639
96	0x3c5899ba	0.013220245
97	0xbdc290d1	-0.09500278
98	0x3d524fbe	0.05134558
99	0xbc27eda4	-0.010249529
100	0x3e4a2666	0.1974121
101	0xbcf254ac	-0.02958139
102	0xbe286534	-0.16444856
103	0x3daadb62	0.08342625
104	0xbdc6cf0c	-0.0970746
105	0x3e885bf3	0.26632652
106	0xbd4b9d4c	-0.049710557
107	0x3e03e2f5	0.12879546
108	0xbe3426c8	-0.17592919
109	0xbdf609e4	-0.12013605
110	0x3e1bad1e	0.15202758
111	0xbc95694a	-0.018238682
112	0xbe6fe86a	-0.23428503
113	0x3b8bd153	0.0042668968
114	0x3e21c681	0.1579838
115	0xbe665d92	-0.22496632
116	0x3e01f48d	0.12690945
117	0x3d815bb3	0.06316318
118	0xbe1fbf7d	-0.1560039
119	0xbe39553f	-0.18098925
120	0x3d80e04c	0.06292781
121	0xbea66a18	-0.32502818
122	0xbe59c407	-0.21266185
123	0x3ea66669	0.32500008
124	0xbe87a40e	-0.2649235
125	0xbd5da05b	-0.054108005
126	0xbcbb8d04	-0.02289439
127	0x3ddc0ded	0.10744844
128	0xbd3d3358	-0.046191543
129	0x3e5ae503	0.21376424
130	0xbddfec1e	-0.10933708
131	0x3e529d39	0.20567788
132	0x3e3ca5d2	0.1842263
133	0xbcfa25d3	-0.030535614
134	0x3d75289d	0.059853185
135	0x3e26ded0	0.16295934
136	0x3dd566fc	0.10420033
137	0xbe2658e2	-0.16244844
138	0xbe1b5805	-0.15170296
139	0x3dda5dbf	0.10662412
140	0xbca57e0b	-0.020201704
141	0x3e5eadc5	0.21745975
142	0x3e2cf7ce	0.16891405
143	0xbe107d72	-0.14110354
144	0xbd1c6613	-0.038183283
145	0x3d8b830b	0.06812104
146	0x3e1b9e7c	0.15197176
147	0x3d463566	0.04839077
148	0xbe8ca8d0	-0.27472544
149	0x3e71fc0e	0.23631307
150	0x3e9020be	0.2814998
151	0x3e197672	0.1498659
152	0x3e6f0f74	0.23345739
153	0x3e2c8532	0.16847685
154	0xbd8eb18b	-0.069674574
155	0xbe0ebfb6	-0.1394032
156	0x3e1b0e20	0.15142107
157	0x3d251c2d	0.040310074
158	0xbe80717d	-0.25086585
159	0xbe805385	-0.2506372
160	0xbdd72ffc	-0.10507199
161	0xbd2e597e	-0.042565815
162	0x3d30e2b3	0.043184947
163	0xbce8625e	-0.028367218
164	0x3dfcb602	0.12339403
165	0xbdb82499	-0.089913554
166	0xbde0836d	-0.109625675
167	0xbda3f6ed	-0.08006082
168	0xbdc2e259	-0.09515829
169	0x3e4def52	0.20110825
170	0xbd868f69	-0.06570322
171	0x3d348d15	0.04407986
172	0xbd4892c4	-0.04896809
173	0xbe8c53d3	-0.27407703
174	0x3e08764e	0.1332638
175	0x3db3be92	0.08776583
176	0xbdc174b7	-0.0944609
177	0xbd803b0a	-0.06261261
178	0x3dc2f520	0.0951941
179	0xbe1d17ff	-0.15341185
180	0xbe09aa1c	-0.13443798
181	0x3eae25cb	0.3401321
182	0x3d0f360b	0.03496365
183	0xbe94214c	-0.28931653
184	0xbd983656	-0.07432239
185	0x3d9c39ce	0.07628213
186	0xbdf2cff3	-0.118560694
187	0xbc43f228	-0.01195959
188	0x3e818792	0.25298744
189	0x3dc33844	0.09532216
190	0x3e29bc31	0.16575696
191	0x3cc8d76e	0.024516787
192	0xbd077d58	-0.03307852
193	0x3d74bd2f	0.059750732
194	0x3e5a395a	0.2131094
195	0xbcd6fd5b	-0.026243856
196	0x3be5be67	0.007011223
197	0xbd1a2df0	-0.037641466
198	0xbd18e790	-0.03733021
199	0xbd5ad3be	-0.05342459
200	0x3e4c3216	0.19940981
201	0xbe87fdf2	-0.26560932
202	0x3e8b298b	0.27180132
203	0xbd0cdc6e	-0.034389906
204	0xbc8a40f4	-0.016876675
205	0x3e77ed2b	0.24211566
206	0xbd7ade7b	-0.06124733
207	0x3e2a53f5	0.1663359
208	0x3dea2fb5	0.11434881
209	0xbd96ee00	-0.07369614
210	0xbc6b788c	-0.014372002
211	0x3cf07afc	0.029355519
212	0x3d51e28b	0.05124144
213	0x3d685114	0.056717947
214	0xbda73f03	-0.081663154
215	0xbe6faaf5	-0.23405059
216	0xbe2a4e46	-0.16631421
217	0x3e0ac652	0.13552216
218	0x3d394447	0.04523113
219	0xbe96a57d	-0.29423133
220	0x3cae78e0	0.021297872
221	0x3e42e034	0.19030839
222	0x3db7843f	0.08960771
223	0xbdb4b97e	-0.08824442
224	0xbdd2ec10	-0.102989316
225	0x3d956c5e	0.0729606
226	0xbe1a9b6e	-0.15098354
227	0xbdfcff54	-0.123533875
228	0xbd92bfd8	-0.071654975
229	0xbe11be47	-0.14232741
230	0x3d29c513	0.04144771
231	0x3e65e77d	0.22451587
232	0x3d5738b6	0.05254432
233	0x3eadfd96	0.33982533
234	0xbd4c60ed	-0.049897123
235	0x3d0abdbb	0.033872347
236	0x3e3db594	0.18526298
237	0xbdbade04	-0.09124377
238	0xbd9b1e27	-0.075741105
239	0x3db16796	0.086623356
240	0x3dafad9a	0.08578034
241	0x3e00c003	0.12573247
242	0x3e57f289	0.21088614
243	0x3da61499	0.081093974
244	0x3cf0a34e	0.029374745
245	0xbda35acd	-0.07976303
246	0x3e959063	0.2921172
247	0xbe69f716	-0.22848162
248	0xbdf455f4	-0.11930457
249	0x3dd06bbc	0.10176799
250	0x3e1f0285	0.15528305
251	0x3e277541	0.16353323
252	0x3dc749b5	0.097308554
253	0xbe9ec7a3	-0.31011686
254	0xbd6260e8	-0.0552682
255	0x3e14eeef	0.14544271

fc2.bias f4 [10]
0	0x3d25b6d1	0.04045755
1	0x3e369d2d	0.17833395
2	0x3db269d9	0.08711595
3	0xbd22dc53	-0.0397609
4	0x3d7f3ee6	0.062315844
5	0xbd37fb80	-0.044917583
6	0x3ddb8856	0.107193634
7	0xbaa6b0d1	-0.001271749
8	0xbcc1f260	-0.023675144
9	0xbcd87a87	-0.026425613
