Codes/mnist_cnn_mnist_16_False_0.1_1.0_1.0_64_1.pt (torch, 106255 bytes, 8 tensors)

conv1.weight f4 [16, 1, 8, 8]
0	0xbd66528a	-0.05623106
1	0x3bdc0381	0.006714285
2	0x3d6d45cc	0.05792789
3	0xbdeac887	-0.11464029
4	0x3e22f0da	0.1591219
5	0xbd520201	-0.051271442
6	0x3db355d8	0.08756608
7	0x3d51e4cd	0.051243592
8	0xbc94a2c7	-0.018144025
9	0xbcbe2384	-0.023210295
10	0xbcff90f6	-0.031197052
11	0xbd8a9b02	-0.06767847
12	0xbd9ebc0a	-0.07750709
13	0x3c974cb1	0.018469186
14	0x3d992a33	0.07478752
15	0x3e0ed94b	0.13950078
16	0xbdd64e8f	-0.104642026
17	0xbda2b1b9	-0.07944054
18	0x3dce1264	0.100621015
19	0x3b4ecbd7	0.0031554603
20	0xbd7d022c	-0.06176965
21	0x3dc59bed	0.09648881
22	0x3e03432b	0.12818591
23	0xbcdc2146	-0.026871335
24	0x3e78d67a	0.24300566
25	0xbd4efb21	-0.050532464
26	0x3d507c16	0.050899588
27	0xbe29328d	-0.1652319
28	0xbdb77d63	-0.089594625
29	0xbdca8962	-0.09889485
30	0xbdd6e134	-0.10492173
31	0xbe09000f	-0.13378929
32	0xbd4f2e86	-0.050581478
33	0xbc5240f3	-0.012832868
34	0x3dde1344	0.108435184
35	0x3d1e77b9	0.038688395
36	0xbe2da31f	-0.16956757
37	0x3c731c46	0.014838284
38	0xbd806cc4	-0.062707454
39	0xbe537124	-0.20648628
40	0x3e0477a7	0.12936269
41	0xbdb50e89	-0.08840663
42	0x3dda8d0d	0.106714346
43	0x3d88853d	0.06666038
44	0xbdaf3654	-0.08555284
45	0xbd07844b	-0.03308515
46	0x3d8eb39d	0.06967852
47	0x3dc04860	0.093888044
48	0x3ce4d9b3	0.027935838
49	0xbdc67950	-0.09691107
50	0xbe00eb0d	-0.12589665
51	0xbd2c28eb	-0.04203121
52	0xbd9088d0	-0.07057345
53	0xbe289e7f	-0.16466711
54	0xbc1366a9	-0.008996644
55	0x3e1031ca	0.14081493
56	0xbdb57301	-0.08859826
57	0x3dea46b9	0.114392705
58	0x3c7158e4	0.014730666
59	0xbd845c93	-0.0646297
60	0xbcf354dc	-0.02970355
61	0x3db13784	0.08653167
62	0x3db05995	0.086108364
63	0xbd1c34e8	-0.038136393
64	0xbc771819	-0.015081429
65	0x3d370e4e	0.044691376
66	0xbd297559	-0.041371677
67	0xbdbc1f9d	-0.09185717
68	0x3c3d996a	0.011572221
69	0x3e083d45	0.13304622
70	0x3e205e17	0.15660892
71	0xbd73166a	-0.059347548
72	0xbce52c35	-0.027975181
73	0x3b6f26fb	0.003649174
74	0xbd7ce03d	-0.061737288
75	0x3ce23e89	0.02761771
76	0x3d5eeecb	0.05442695
77	0xbd0f06ed	-0.034918714
78	0x3e3e7786	0.18600282
79	0x3d01e0e4	0.031708613
80	0x3bce3dce	0.006293989
81	0xbd238f04	-0.039931312
82	0x3df58892	0.11988939
83	0xbdb2f753	-0.087385796
84	0x3dbb2ff3	0.09140005
85	0xbe117d75	-0.14208014
86	0x3e71c802	0.23611453
87	0x3e8099a6	0.25117224
88	0xbd1ab0a3	-0.03776611
89	0xbe521f1e	-0.20519683
90	0xbd6a8af1	-0.05726141
91	0xbe29cb1a	-0.16581383
92	0x3d92b4a4	0.07163361
93	0x3dec11bd	0.11526821
94	0x3dff2dc1	0.12459899
95	0x3df7005d	0.12060616
96	0xbd99c857	-0.07508915
97	0x3bcedad2	0.0063127065
98	0xbd55111e	-0.052018277
99	0x3c776b82	0.015101315
100	0xbd82b4c1	-0.06382132
101	0x3e0148ce	0.12625429
102	0x3df881b5	0.12134115
103	0xbcd3d484	-0.025858171
104	0x3da9fa4d	0.08299694
105	0xbe102648	-0.14077103
106	0x3da11a62	0.0786636
107	0xbc5831b9	-0.013195449
108	0xbd8b955d	-0.06815598
109	0x3cb176d2	0.021663103
110	0x3e02d3a2	0.12776044
111	0x3e3de81c	0.18545574
112	0xbc84722b	-0.01616772
113	0xbccc6bf0	-0.024953812
114	0xbd0f3b45	-0.034968633
115	0x3d49fd43	0.049313795
116	0x3ce7b020	0.028282225
117	0x3d2e9878	0.042625874
118	0x3bf650c0	0.0075169504
119	0xbb91f11f	-0.0044537927
120	0xbd5002d7	-0.05078396
121	0x3e03ac73	0.12858753
122	0xbe76d694	-0.24105293
123	0xbe418347	-0.18897735
124	0x3d0b5050	0.03401214
125	0x3df80011	0.12109388
126	0x3da7564c	0.08170757
127	0x3d4fed88	0.050763637
128	0x3e5b5413	0.2141879
129	0x3dbd9dd1	0.09258617
130	0x3e2d7745	0.16940029
131	0x3e34f379	0.17671002
132	0xbd56437d	-0.052310456
133	0xbada8387	-0.0016671278
134	0xbd6587bb	-0.056037646
135	0x3ca2e1a8	0.019882992
136	0x3dcc11c9	0.0996433
137	0x3def9cc1	0.1169982
138	0x3df8498d	0.12123404
139	0x3e8676a4	0.2626239
140	0x3e438d75	0.1909693
141	0x3e2ff13f	0.17181872
142	0x3e512294	0.20423347
143	0xbe058c0a	-0.13041702
144	0x3dd3c1c8	0.10339695
145	0x3df9d3b0	0.12198579
146	0x3e3a944c	0.18220633
147	0xbc5da1ff	-0.013527392
148	0x3e27e08a	0.16394249
149	0x3d7b16a5	0.061300892
150	0x3d512779	0.051063035
151	0xbc98bd3a	-0.018644918
152	0x3d798f5d	0.060927738
153	0x3e53e726	0.20693645
154	0xbce598f4	-0.028027035
155	0x3d1a872e	0.037726574
156	0xbccfbabe	-0.0253576
157	0x3e0162ae	0.126353
158	0x3ded1df8	0.11577982
159	0xbdb46ea6	-0.08810167
160	0xb8fb2da0	-0.00011977111
161	0xbcfadbce	-0.03062239
162	0xbd4c7546	-0.04991653
163	0xbc83873c	-0.016055696
164	0x3cb9f439	0.022699462
165	0x3d8a4862	0.06752087
166	0x3c73895e	0.014864294
167	0x3d841a34	0.0645031
168	0xbcf5f5c6	-0.03002442
169	0x3d53d1d8	0.051713794
170	0xbdeaf0d1	-0.11471713
171	0xbb5f3035	-0.0034055833
172	0x3ce24a8d	0.02762344
173	0xbddcda3e	-0.10783814
174	0xbda1c261	-0.07898403
175	0x3d80b31d	0.06284163
176	0xbdc0a287	-0.09406
177	0xbd2869b4	-0.04111643
178	0xbe302b19	-0.1720394
179	0xbdd292b1	-0.102818854
180	0xbdcdbf8f	-0.100463025
181	0xbdb619ef	-0.08891665
182	0xbcffc58b	-0.031222126
183	0x3ca0f7dd	0.01964944
184	0xbe00d809	-0.12582411
185	0xbe2665cd	-0.16249771
186	0xbdaa347e	-0.08310793
187	0xbdd00cff	-0.10158729
188	0xbd58159d	-0.052754987
189	0x3d2dc99e	0.042428605
190	0xbd1c52da	-0.03816495
191	0xbd983509	-0.07431991
192	0xbe001772	-0.12508944
193	0xbdd84deb	-0.10561737
194	0x3e5acd9c	0.21367496
195	0x3ddd4aee	0.10805307
196	0x3e11a401	0.14222719
197	0xbe00f935	-0.12595065
198	0x3d0a2f47	0.033736493
199	0x3d764d96	0.060132585
200	0x3e12a006	0.14318857
201	0x3df280a2	0.11840941
202	0x3e2b0c0d	0.16703816
203	0x3cfaa71a	0.030597258
204	0x3e0da450	0.13832211
205	0xbcf05dcb	-0.029341599
206	0xbda05cda	-0.0783021
207	0x3da2d926	0.07951574
208	0xbddedd30	-0.10882032
209	0xbd988616	-0.0744745
210	0x3e0f9acc	0.14023894
211	0xbc64636e	-0.0139397215
212	0xbbebe156	-0.007198493
213	0xbe54238a	-0.20716682
214	0xbe32cee7	-0.1746174
215	0xbdb38370	-0.08765304
216	0xbd80b575	-0.0628461
217	0x3e3f6e5a	0.1869444
218	0x3dd394d5	0.10331122
219	0xbb31b309	-0.002711477
220	0xbd6b1b5e	-0.057399146
221	0xbbd2e2f0	-0.0064357445
222	0xbc52e2dd	-0.012871471
223	0xbdc57d05	-0.09642986
224	0x3d8e1033	0.069366835
225	0x3dbbecd9	0.091760345
226	0x3e7a48db	0.24441855
227	0xbb72f5cf	-0.0037072783
228	0x3c695a26	0.0142426845
229	0x3d2d75f1	0.042348806
230	0x3bb1aa41	0.005421907
231	0x3d78cb72	0.060740896
232	0x3cad1bab	0.021131357
233	0x3e52fc21	0.20603992
234	0xbdc56049	-0.096375056
235	0xbcd41d7a	-0.025892962
236	0xbd476282	-0.04867793
237	0x3d1d532f	0.03840941
238	0x3df9482f	0.12171971
239	0x3de52ae1	0.11189819
240	0x3ceb1c00	0.028699875
241	0xbcae75f9	-0.021296488
242	0x3daf909b	0.08572503
243	0x3e5662cf	0.2093613
244	0x3e10659b	0.1410126
245	0x3e186141	0.1488085
246	0x3bf09172	0.007341557
247	0x3dad1ca8	0.08452731
248	0x3d61b628	0.05510536
249	0x3ded216f	0.115786426
250	0x3d596ca0	0.05308211
251	0x3db10a3e	0.08644532
252	0x3d8b0429	0.06787903
253	0xbaa09806	-0.0012252338
254	0x3d7149d7	0.05890831
255	0x3d950f4e	0.0727831

conv1.bias f4 [16]
0	0xbe4735b8	-0.19454086
1	0xbd806a8c	-0.06270322
2	0xbd11f922	-0.035637982
3	0x3cbad832	0.022808168
4	0x3ca30547	0.019899977
5	0x3e02b5af	0.1276462
6	0xbb26e3d3	-0.0025465384
7	0xbbf1b8c1	-0.0073767607
8	0x3e13372b	0.14376514
9	0x3d120e64	0.035658255
10	0xbe52ba9a	-0.20578995
11	0xbd9b6a0c	-0.07588586
12	0x3df161f9	0.11786265
13	0x3dabbc6d	0.08385549
14	0xbd5fdadd	-0.054652084
15	0xbe0d2cfd	-0.13786693

conv2.weight f4 [32, 16, 4, 4]
0	0xbb869689	-0.0041073007
1	0xbc7cd478	-0.015431516
2	0xbcc20ade	-0.023686823
3	0x3ce7f13d	0.028313274
4	0xbc92c550	-0.017916352
5	0xbd1092d9	-0.035296295
6	0xbd4de472	-0.05026669
7	0xbd01653e	-0.031590693
8	0xbd7c024e	-0.061525635
9	0xbdb4e032	-0.08831824
10	0x3d2d65ce	0.042333417
11	0x3d728d53	0.05921681
12	0xbcbaf929	-0.022823887
13	0xbd56ef45	-0.05247428
14	0x3d0b5550	0.034016907
15	0x3c8531fd	0.016259188
16	0x3d947dfe	0.072505936
17	0xbd3f6a5d	-0.046732295
18	0xbd23d571	-0.039998475
19	0xbdc711c3	-0.09720185
20	0x3dbf97aa	0.093550995
21	0xbcb11495	-0.02161626
22	0x3c8f9530	0.017527193
23	0x3c46ede6	0.01214168
24	0xbc17e35c	-0.009270515
25	0x3be6f332	0.007048034
26	0xbdb3b11c	-0.08774015
27	0x3d445237	0.04792997
28	0x3d8cf91f	0.068834536
29	0xb8deaa76	-0.00010617536
30	0xbb7e4bd0	-0.0038802512
31	0xbdd142d7	-0.10217827
32	0x3d887e88	0.06664759
33	0x3b312af1	0.0027033652
34	0xbd5246f7	-0.05133721
35	0x3cb7cc4c	0.022436284
36	0x3cac4db6	0.02103315
37	0xbdaec44e	-0.08533536
38	0xbcb97fec	-0.022644006
39	0x3d8b0c25	0.06789426
40	0x3dcdf346	0.10056166
41	0xbb833cad	-0.004005036
42	0xbcf4e92e	-0.029896345
43	0x3ded69b1	0.11592425
44	0xba84fdfe	-0.0010146496
45	0x3e30cf26	0.17266521
46	0x3d167165	0.036729235
47	0xbc7f1c94	-0.015570778
48	0x3cf29609	0.029612558
49	0x3d85da1d	0.065357424
50	0xbda0f3cc	-0.078590006
51	0x3dac4e58	0.084133804
52	0x3c0a6efb	0.008449311
53	0x3cac2269	0.021012502
54	0xbbb2db97	-0.005458306
55	0xbdab7e38	-0.08373684
56	0xbd079e2a	-0.03310982
57	0x3e325b78	0.17417705
58	0x3ca32ba9	0.01991828
59	0xbc191b72	-0.009344922
60	0xbd657a5c	-0.056024894
61	0xbde88db0	-0.1135515
62	0xbc4fdcf8	-0.01268696
63	0x3cf87e99	0.030333804
64	0xbd862bfd	-0.06551359
65	0xbc99e255	-0.018784681
66	0xbcad0412	-0.021120105
67	0xbcf87106	-0.030327331
68	0x3dd3b9b9	0.10338158
69	0xbcc2afac	-0.023765408
70	0xbd396f37	-0.04527208
71	0x3d99031d	0.07471297
72	0xbcdcb1a4	-0.026940174
73	0xbd684ba2	-0.056712754
74	0xbd809522	-0.06278445
75	0x3da6f79b	0.08152696
76	0x3d71bc32	0.059017368
77	0xbcb254c0	-0.021768928
78	0x3b1795ea	0.0023130127
79	0xbcf7e093	-0.030258453
80	0xbd7d105e	-0.061783187
81	0x3d866cef	0.06563746
82	0x3d4a08b8	0.04932472
83	0xbe081c27	-0.1329199
84	0x3c45624c	0.012047362
85	0x3e378995	0.17923577
86	0x3c3851a5	0.011249934
87	0xbd53501b	-0.051590066
88	0x3e09db37	0.1346253
89	0x3ae857f0	0.0017726403
90	0x3a229ce0	0.0006203186
91	0x3d853c17	0.06505602
92	0x3c8eaa7c	0.017415278
93	0x3cbcccf6	0.023046952
94	0xbdda8223	-0.10669353
95	0x3d80fa38	0.062977254
96	0x3d2e268e	0.042517237
97	0x3d0e0c5c	0.034679756
98	0x3d37643a	0.044773318
99	0xbbba59e8	-0.005686987
100	0xbdba4735	-0.09095613
101	0x3d70c1bb	0.058778506
102	0x3c5b3d69	0.013381341
103	0x3e0f4cc8	0.13994133
104	0xbcc2881a	-0.023746539
105	0x3a32bb57	0.0006818077
106	0x3d51c99b	0.051217657
107	0x3e157959	0.14597072
108	0x3be0dc23	0.00686218
109	0xbd65f68a	-0.05614332
110	0x3d828def	0.06374728
111	0x3aa3026f	0.0012436638
112	0x3d5c3698	0.053763002
113	0x3c890064	0.01672382
114	0xbd83577f	-0.06413173
115	0x3c19ce3e	0.009387551
116	0xbc305466	-0.01076231
117	0x3cbe0ae2	0.023198549
118	0x3d596aaf	0.053080257
119	0xbda552ed	-0.080724575
120	0x3c7e2884	0.015512589
121	0x3cd1a3ed	0.025590861
122	0x3d111abb	0.035425883
123	0x3dab15f0	0.083537936
124	0x3c34a36d	0.011025292
125	0x3ce63245	0.028100142
126	0x3d06adf6	0.032880746
127	0x3ca81723	0.020518845
128	0xbca69b2c	-0.020337664
129	0xbd4b0d0f	-0.049573
130	0x3d20fe3a	0.03930495
131	0x3d574799	0.052558515
132	0xbd0f6988	-0.03501275
133	0xbd3aec9e	-0.045635812
134	0xbbdcf870	-0.0067434832
135	0x3e125352	0.14289597
136	0xbd5f1925	-0.05446734
137	0x3d0400d7	0.032227363
138	0xbd265c30	-0.04061526
139	0xbc43fb98	-0.01196184
140	0x3d0f19b2	0.034936614
141	0xbdb092b4	-0.086217314
142	0xbd04a7a7	-0.03238645
143	0x3d514766	0.05109348
144	0x3c87178a	0.016490716
145	0xbcdc17ad	-0.026866758
146	0x3dd42821	0.103592165
147	0xbd56ed69	-0.052472506
148	0x3dd25b81	0.10271359
149	0x3df4e5c2	0.11957885
150	0x3cc64643	0.024203425
151	0xbdd7bde0	-0.10534263
152	0x3dc2f4c9	0.09519345
153	0xbd6634fe	-0.05620288
154	0x3d8fd100	0.070222855
155	0x3a2ec2fa	0.0006666627
156	0x3e1ccc3a	0.15312281
157	0x3d6428d6	0.055703007
158	0x3ced8d09	0.028997915
159	0x3d9ad6a3	0.0756047
160	0x3d3e8a4e	0.046518616
161	0x3d512103	0.051056873
162	0xbd8285e0	-0.06373191
163	0xbcd45f23	-0.025924271
164	0x3d539c83	0.051662933
165	0xbca59f0a	-0.020217437
166	0xbd416d89	-0.0472236
167	0x3d31acbf	0.043377634
168	0x3d113ad7	0.035456505
169	0x3c74e44b	0.014947007
170	0xbdc856ac	-0.09782156
171	0xbc40a03e	-0.011756955
172	0x3d69a1b7	0.05703899
173	0x3d5479d9	0.051874015
174	0xbc5202c3	-0.012818041
175	0xbd7c0033	-0.061523627
176	0xbc854086	-0.016266119
177	0x3d468fea	0.04847709
178	0x3de3c16d	0.111208774
179	0xbc67e004	-0.014152531
180	0x3d07010b	0.03295998
181	0xbcff69b3	-0.031178331
182	0xbce3e5f2	-0.027819607
183	0x3e019f80	0.126585
184	0x3cabdb37	0.020978553
185	0x3d23aa5f	0.0399574
186	0xbc792708	-0.01520706
187	0x3d51ce44	0.0512221
188	0x3cff6f64	0.031181045
189	0x3dccbce7	0.09996968
190	0xbde2af9c	-0.11068651
191	0x3da03822	0.078232065
192	0xbcb5273b	-0.022113433
193	0xbbc7a07c	-0.0060921293
194	0x3d543f40	0.051818132
195	0x3d2ffb11	0.042964045
196	0x3d1ad174	0.037797406
197	0x3d4166f2	0.047217317
198	0xbd4b5778	-0.049643964
199	0x3d7a00a9	0.061035786
200	0x3cdf13bd	0.027231092
201	0xbab39d47	-0.0013703489
202	0xbd32584a	-0.04354123
203	0xbdb4e1a7	-0.08832102
204	0xbc5f8843	-0.013643327
205	0x3d8b92a6	0.0681508
206	0x3d820993	0.063494824
207	0xbd339db1	-0.043851558
208	0x3c6babf9	0.014384263
209	0x3d22ec54	0.03977616
210	0x3da5e9ff	0.08101272
211	0x3dad9567	0.08475762
212	0xbd808b68	-0.0627659
213	0xbc904413	-0.017610585
214	0x3d70d5bd	0.058797587
215	0x3e558d4a	0.20854679
216	0x3cddc79c	0.02707272
217	0xbbd6dfb5	-0.0065574297
218	0xbc0d5347	-0.008625812
219	0xbdb33c3e	-0.08751725
220	0xbd2170ab	-0.03941409
221	0xbd816a6b	-0.06319126
222	0x3cc68ec5	0.024238
223	0x39c2d187	0.00037158674
224	0xbdb4253f	-0.08796167
225	0x3d8b0568	0.067881405
226	0x3d2538e9	0.040337477
227	0x3c7141bf	0.014725148
228	0xbda1978c	-0.078902334
229	0x3da84d56	0.08217876
230	0x3d7b69d8	0.061380237
231	0xbdd66614	-0.104686886
232	0x3d1e5da3	0.038663518
233	0x3c416ba9	0.011805453
234	0x3bd76a10	0.006573923
235	0x3db0c10c	0.08630571
236	0x3e3e6429	0.18592896
237	0x3d957089	0.07296855
238	0x3d2b9675	0.041891534
239	0x3d033c08	0.032039672
240	0xbc9d4e0f	-0.01920226
241	0xbd1382e2	-0.03601349
242	0x3d290c67	0.041271593
243	0x3d41338d	0.047168303
244	0x3d603c89	0.05474523
245	0xbd0b276d	-0.033973146
246	0x3d438e3c	0.047743067
247	0x3bf5f894	0.0075064395
248	0x3d9fb909	0.077989645
249	0xbcc24ad1	-0.023717316
250	0xbd80d5ad	-0.062907554
251	0xbd91baf5	-0.07115737
252	0xbd8b9e47	-0.068172984
253	0x3d068e6a	0.03285066
254	0x3da824b4	0.082101256
255	0xbd648ed2	-0.055800267

conv2.bias f4 [32]
0	0x3dade182	0.08490278
1	0x3d5d77be	0.054069273
2	0xbdabcbd0	-0.083884835
3	0x3d08d3d9	0.03340516
4	0xbc399781	-0.011327625
5	0x3dab3e17	0.08361452
6	0xbdb7b278	-0.08969587
7	0xbd801c67	-0.06255417
8	0x3d85bfad	0.065307
9	0xbda0d261	-0.078526266
10	0xbdb32fa8	-0.08749324
11	0xbdc75b7b	-0.097342454
12	0xbbf16606	-0.0073668985
13	0x3d9e2b55	0.07723109
14	0x3db9daf4	0.09074965
15	0xbc34aba2	-0.011027249
16	0x3ced0456	0.028932732
17	0xbe217cef	-0.15770315
18	0xbd5d18cb	-0.053978723
19	0x3dcdf374	0.100562006
20	0x3c07492c	0.008257192
21	0xbcaa40ce	-0.020782854
22	0xbc50b93c	-0.012739476
23	0xbdc7b034	-0.09750405
24	0xbd05e92a	-0.032693066
25	0xbdb3b4a7	-0.08774691
26	0x3d88f96b	0.06688198
27	0xbdb75d7c	-0.089533776
28	0xbe06d7d7	-0.13168274
29	0xbca20ae7	-0.01978059
30	0xbd6fa80c	-0.05850987
31	0x3dc24870	0.094864726

fc1.weight f4 [32, 512]
0	0xbcd7b7f3	-0.026332831
1	0x3b5dab5b	0.003382406
2	0x3d8ebbbb	0.069694005
3	0x3d577f17	0.052611437
4	0xbc5414ab	-0.012944381
5	0xbde5be70	-0.11217964
6	0x3cf1006f	0.029419152
7	0x3daa86ee	0.08326517
8	0x3d4c56d7	0.049887504
9	0xbdc343c1	-0.095344074
10	0x3ce25296	0.02762727
11	0x3d4c581b	0.04988871
12	0xbd180a96	-0.03711947
13	0xbd478143	-0.048707258
14	0x3d2b45d2	0.041814633
15	0x3d1cd6b7	0.038290706
16	0xbce0cc1c	-0.027441077
17	0x3dcc1681	0.0996523
18	0xbd0ede11	-0.034879748
19	0xbad0071d	-0.001587126
20	0x3cc5b6e9	0.02413507
21	0x3ce50f86	0.027961504
22	0xbd80fc4b	-0.06298121
23	0x3b07e7fa	0.0020737634
24	0xbabb1f23	-0.0014276247
25	0xbd60c7d1	-0.05487806
26	0xbd8aa192	-0.06769098
27	0xbe075c4a	-0.13218799
28	0x3b092ad4	0.0020930069
29	0x3caaa9ee	0.020832982
30	0xbcefe0fd	-0.029282087
31	0xbc473dc5	-0.012160723
32	0x3d854896	0.06507985
33	0x3d42be75	0.047544915
34	0xbdb02907	-0.08601575
35	0x3da14614	0.078746945
36	0xbd506a77	-0.050882783
37	0x3bd59dbe	0.0065190485
38	0x3c7bc801	0.015367509
39	0xbd35e379	-0.044406388
40	0xbd00b3f4	-0.031421617
41	0xbd2e2805	-0.042518634
42	0xbd0044b2	-0.031315513
43	0x3d8ad364	0.06778601
44	0xbd064df9	-0.032789204
45	0x3cd93cab	0.026518187
46	0x3d105b9b	0.03524361
47	0x3cf6b098	0.030113503
48	0x3db0ab40	0.08626413
49	0xbcbe2980	-0.023213148
50	0xbd059f88	-0.032622844
51	0x3da84aae	0.08217369
52	0x3c93df66	0.01805086
53	0xbd15ec67	-0.036602404
54	0x3d8c8791	0.06861795
55	0x3db31332	0.087438956
56	0x3b8504a4	0.004059391
57	0x3d9fc345	0.078009166
58	0xbca678c2	-0.020321254
59	0x3cacc43a	0.021089662
60	0x3dfbe5c4	0.12299684
61	0x3d41c19d	0.047303785
62	0xbd3201c3	-0.04345871
63	0x39c7d76e	0.00038116745
64	0xbc2eddbd	-0.010672984
65	0x3cf72632	0.03016958
66	0xbd10bd22	-0.03533662
67	0x3d1854ff	0.037190434
68	0x3d2efd9b	0.042722326
69	0x3d37b920	0.044854283
70	0x3dbd0ed8	0.09231347
71	0x3cb1d7f3	0.021709418
72	0x3da7f2f9	0.0820064
73	0x3a9b1806	0.0011832721
74	0x3c84c482	0.016206983
75	0x3dddf910	0.108385205
76	0x3e013d7c	0.1262111
77	0x3d58ced4	0.05293162
78	0x3e0115dd	0.12605996
79	0x3c8cdac4	0.01719416
80	0xbd815fd4	-0.06317106
81	0x3d1e9004	0.038711563
82	0x3b9061a1	0.0044061695
83	0x3d9f0c15	0.07765976
84	0x3c9d36f1	0.019191237
85	0xbd861091	-0.065461285
86	0xbc983f48	-0.018584862
87	0x3b170f3c	0.0023049852
88	0xbd01a4ed	-0.031651426
89	0xbd27a6c1	-0.040930513
90	0x3d06cf1a	0.03291235
91	0xbe1314b0	-0.1436336
92	0x3dff9a68	0.124806225
93	0xbdc2284e	-0.09480344
94	0xbd94d4d3	-0.072671555
95	0x3cc51842	0.024059419
96	0x3d7da7cd	0.061927605
97	0x3d6e14ea	0.058125414
98	0x3c620bde	0.013796775
99	0xbd4e4e6b	-0.050367754
100	0xbc1f028b	-0.009705196
101	0x3d0fb6f4	0.035086587
102	0xbd197e38	-0.037473887
103	0x3e1605c9	0.14650644
104	0xbb8322b9	-0.004001942
105	0xbd357832	-0.04430408
106	0x3df48643	0.11939671
107	0xbd116153	-0.035493206
108	0xbccc47c0	-0.024936557
109	0xbb7f73fb	-0.0038979042
110	0xbd91f07f	-0.07125949
111	0xbd78ce96	-0.06074389
112	0xbce28990	-0.027653486
113	0xbd192d96	-0.03739699
114	0xbdb21d50	-0.08696997
115	0x3d25002d	0.04028337
116	0x3d453ebe	0.04815554
117	0xba358d28	-0.0006925636
118	0xbd833409	-0.06406409
119	0xbda3c2c0	-0.0799613
120	0xbc654f6f	-0.013995989
121	0x3ccc0a62	0.024907295
122	0x3b892dfa	0.004186389
123	0xbcc0d139	-0.023537265
124	0x3d38d96c	0.045129225
125	0x3dd09058	0.101837814
126	0x3ca48d28	0.02008684
127	0xbda3ab7f	-0.07991695
128	0xbcfb5961	-0.030682268
129	0x3bb94c29	0.005654831
130	0x3db80766	0.08985786
131	0x3d382b1e	0.044962995
132	0x3dc5adf6	0.09652321
133	0x3cad1742	0.021129254
134	0xbd110ba1	-0.03541148
135	0x3aa44328	0.0012532221
136	0xbb88f8c2	-0.004180045
137	0x3d8dfb07	0.06932645
138	0xbd68c795	-0.05683096
139	0x3de50e59	0.11184377
140	0xbceeb126	-0.029137205
141	0x3dab7206	0.083713576
142	0x3d952083	0.07281592
143	0x3e02889f	0.1274743
144	0x3c010919	0.007875704
145	0x3cca0933	0.02466259
146	0x3dd52a2f	0.104084365
147	0x3c90a994	0.017658986
148	0xbcf9b594	-0.030482091
149	0x3d7efd11	0.06225306
150	0xbd717e3c	-0.058958277
151	0x3da7a7ab	0.08186277
152	0xbc0a219f	-0.008430867
153	0x3d226430	0.039646327
154	0x3cf81b2a	0.03028639
155	0x3e016329	0.12635483
156	0xbc24d1e7	-0.01005981
157	0xbc85e0d0	-0.01634255
158	0xbda4540b	-0.080238424
159	0x3cf7bfd7	0.030242844
160	0x3d011c78	0.03152129
161	0xbcf4befc	-0.029876225
162	0xbdd12237	-0.10211604
163	0xbd82e633	-0.06391563
164	0x3da05ff4	0.078308016
165	0xbdbc1413	-0.09183516
166	0xbdae3087	-0.085053496
167	0xbdb923f4	-0.09040061
168	0xbd1a73c5	-0.037708063
169	0x3939c5ec	0.00017716706
170	0xbd03a4b9	-0.032139514
171	0xbce52830	-0.027973264
172	0xbd6e2159	-0.05813727
173	0x3cb3a47c	0.021929018
174	0xbbbde48f	-0.0057950686
175	0xbd0a0818	-0.033699125
176	0xbadb175e	-0.0016715338
177	0x3b828d18	0.003984105
178	0xbda2da9c	-0.07951853
179	0x3d4a31fb	0.04936407
180	0xbaabf7ff	-0.0013120173
181	0x3cdbd026	0.026832651
182	0x3dae1b58	0.08501309
183	0x3e0703bf	0.13185023
184	0x3cdbe875	0.026844243
185	0x3da9e3b2	0.082953826
186	0x3dad9592	0.08475794
187	0xbc86beda	-0.016448427
188	0x3c13608f	0.008995189
189	0x3d1e98a3	0.038719784
190	0x3e203f82	0.15649226
191	0x3c5e7024	0.013576541
192	0x3caf8c98	0.021429345
193	0x3c9fc82a	0.019504625
194	0xbbe5c875	-0.0070124217
195	0xbd3791e2	-0.04481686
196	0xbcc619ed	-0.024182284
197	0xbdab8a01	-0.083759315
198	0xbd176aa9	-0.036966953
199	0x3d042c09	0.032268558
200	0x3dd211d8	0.1025731
201	0xbd746e59	-0.05967555
202	0x3d60e2ed	0.054903913
203	0xbd0990e8	-0.03358546
204	0x3ac29c8b	0.0014847679
205	0x3d0b1077	0.03395125
206	0x3cd236a5	0.025660822
207	0xbd87cccb	-0.06630858
208	0x3c1cdc82	0.0095740575
209	0x3dff0498	0.12452048
210	0xbce1a75e	-0.027545627
211	0xbc74a8b6	-0.014932802
212	0x3cc984f0	0.024599522
213	0x3c77ac9d	0.015116838
214	0xbd2ff067	-0.042953875
215	0x3d96e321	0.0736754
216	0xbd24f8a7	-0.040276196
217	0x3d3b5a5d	0.045740474
218	0x3cd434b4	0.025904037
219	0xbd2d3f8f	-0.042296942
220	0xbe0cfd22	-0.13768438
221	0x3d7a1c48	0.061062127
222	0x3c481768	0.012212612
223	0x3d127c36	0.035762988
224	0xbc58ee43	-0.0132404
225	0xbb0852fa	-0.002080141
226	0x3d038dfc	0.03211783
227	0x3d564282	0.05230952
228	0xbcdf1b91	-0.027234824
229	0x3c15aad5	0.009134968
230	0xbdac8537	-0.08423846
231	0x3e0999e4	0.13437611
232	0xbdacffdd	-0.084472395
233	0x3dc17dde	0.094478354
234	0xbc563975	-0.013075222
235	0x3cae68f4	0.02129028
236	0xbd7682b9	-0.06018326
237	0x3d39a2fe	0.045321457
238	0xbd871e5d	-0.06597588
239	0x3caf8801	0.021427156
240	0xbd2e3f7d	-0.042541016
241	0x3d68485b	0.05670963
242	0x396d38a2	0.00022623179
243	0xbdedcf91	-0.11611856
244	0x3d054ec1	0.03254581
245	0x3cc20971	0.023686143
246	0xbba2b2d8	-0.0049651675
247	0x3d5d511b	0.054032426
248	0xbc861395	-0.01636676
249	0xbc16eeb2	-0.009212183
250	0xbc845c81	-0.01615739
251	0x3cbc2657	0.0229675
252	0xbd83ff72	-0.06445207
253	0x3ba97b8d	0.005172199
254	0x3abc4809	0.001436473
255	0x3dbda4ab	0.092599235

fc1.bias f4 [32]
0	0xbd321f7f	-0.04348707
1	0xbd74d514	-0.05977352
2	0x3df9c365	0.12195472
3	0xbd2e83e1	-0.04260624
4	0x3d0531e0	0.032518268
5	0xbd1df22f	-0.038561042
6	0xbd2c71f4	-0.04210086
7	0x3d83b85f	0.0643165
8	0xbc294441	-0.010331214
9	0xbd144c3d	-0.03620552
10	0xbd154118	-0.03643903
11	0x3d2aab09	0.041667018
12	0xbca8932d	-0.020577991
13	0xbc90500f	-0.0176163
14	0x3cd4abe4	0.02596087
15	0x3cdb128a	0.026742239
16	0xbd9a92ea	-0.07547553
17	0x3cb077b8	0.021541461
18	0xbdafe54d	-0.085886575
19	0xbd38e31f	-0.045138475
20	0x3d039696	0.03212603
21	0xbd22d97a	-0.039758183
22	0x3897741d	7.221869e-05
23	0xbc9f506b	-0.019447526
24	0x3d4b7666	0.04967346
25	0xbd9b4c1d	-0.07582877
26	0xbdeae3d8	-0.11469239
27	0xbd1a4b57	-0.037669506
28	0xbcbaaa39	-0.022786247
29	0x3d3127dc	0.043250903
30	0x3c44b265	0.012005423
31	0x3d24383a	0.040092684

fc2.weight f4 [10, 32]
0	0xbd72fe94	-0.059324816
1	0x3d638bc1	0.0555532
2	0x3dfa10bc	0.12210223
3	0xbd2b2880	-0.04178667
4	0xbe1ded08	-0.15422451
5	0xbde2bd11	-0.11071218
6	0xbd9c8099	-0.076417156
7	0x3cecf2b0	0.028924316
8	0xbe404027	-0.18774472
9	0xbe31294e	-0.17300913
10	0xbd2dccb8	-0.042431563
11	0x3e75307d	0.23944278
12	0xbd3924c6	-0.045201086
13	0x3b86e80c	0.0041170176
14	0x3e5b017f	0.2138729
15	0xbe8055cf	-0.25065467
16	0x3db20b21	0.08693529
17	0xbe3cb853	-0.18429689
18	0x3e843c53	0.25827274
19	0x3e12ef81	0.14349176
20	0x3d08bd98	0.033383936
21	0x3bfba177	0.00767916
22	0x3e65ce29	0.22441925
23	0x3d0a6ecf	0.03379708
24	0x3e0aefb0	0.13567996
25	0xbe8ccf64	-0.27501976
26	0xbda0166c	-0.07816777
27	0xbbe1aaca	-0.0068868147
28	0x3d91dc05	0.071220435
29	0xbd6bd92e	-0.057580166
30	0x3d902a65	0.07039336
31	0xbea3cfd4	-0.31994498
32	0x3e6a6bff	0.2289276
33	0x3df3bcb4	0.11901227
34	0xbd8898c9	-0.066697665
35	0xbcc4c7da	-0.024021078
36	0x3d349dfd	0.044095982
37	0x3ea00dee	0.31260628
38	0xbdf1f3cc	-0.11814079
39	0x3df94da9	0.121730156
40	0x3e697514	0.22798568
41	0xbe29abe9	-0.16569485
42	0xbd7688ce	-0.06018906
43	0xbe05f173	-0.13080387
44	0xbe3f8e68	-0.18706667
45	0xba8c01b7	-0.0010681663
46	0x3daa5a0d	0.08317957
47	0xbc4e8019	-0.012603783
48	0x3d9a149a	0.07523461
49	0x3ea3b025	0.31970325
50	0xbe25a6fa	-0.16176978
51	0xbd82ddb4	-0.06389943
52	0xbe5fd4c5	-0.21858509
53	0xbe86b207	-0.263077
54	0xbdbf3690	-0.09336579
55	0x3dd8bad5	0.105825104
56	0xbdd7ec7f	-0.10543155
57	0xbe7e6d7f	-0.24846457
58	0x3d2cfb61	0.04223192
59	0xbe32dc20	-0.17466784
60	0x3e5a0cd8	0.21293962
61	0xbdacb0e3	-0.08432176
62	0xbc245f9b	-0.01003256
63	0x3db2e3f7	0.08734887
64	0xbe3bd528	-0.18343031
65	0x3e57dc4c	0.2108013
66	0x3e42293b	0.1896104
67	0xbe2d8d1c	-0.1694836
68	0x3e23093a	0.15921488
69	0x3d945a7f	0.07243823
70	0x3d8349b8	0.06410545
71	0xbe1387ea	-0.14407316
72	0x3dce78f8	0.10081667
73	0xbd3df9f2	-0.046380945
74	0x3e60b50a	0.21944061
75	0x3cf49f9b	0.029861262
76	0xbea97f2b	-0.33104834
77	0xbdafef58	-0.08590573
78	0xbe7bb3c1	-0.2458029
79	0x3dd89f37	0.10577243
80	0xbe62903c	-0.22125334
81	0x3e8d2101	0.27564242
82	0x3e123108	0.14276516
83	0x3c54ab75	0.012980332
84	0xbda78552	-0.08179726
85	0x3dc54bdf	0.09633612
86	0x3dfde338	0.12396854
87	0xbe0cb586	-0.1374112
88	0xbd80d02f	-0.06289708
89	0xbe4d6ac9	-0.20060267
90	0x3e600e02	0.21880344
91	0x3d04dbe6	0.032436274
92	0xbdfc4c71	-0.123192675
93	0xbdeadf93	-0.11468425
94	0x3e2def13	0.16985731
95	0xbe3886d6	-0.18020186
96	0xbe3a1c84	-0.1817494
97	0x3d9e3f4d	0.077269174
98	0x3dfa784c	0.12229976
99	0x3d0c1d7a	0.0342078
100	0x3e46fe5e	0.19432971
101	0x3d8c6961	0.06856037
102	0x3e27c17c	0.16382402
103	0x3c253ad2	0.010084825
104	0xbe772abf	-0.241374
105	0xbe5f632a	-0.21815172
106	0xbc2029a2	-0.009775551
107	0x3e216339	0.15760507
108	0xbe8638c1	-0.26215175
109	0x3c0248a5	0.00795189
110	0x3daab8d4	0.083360344
111	0x3e2449c5	0.16043766
112	0x3d39bcad	0.04534595
113	0x3e768d89	0.24077429
114	0xbe52b8af	-0.20578264
115	0xbe9db911	-0.30805257
116	0x3d043487	0.032276656
117	0xbe4351bc	-0.19074148
118	0x3e1ac2e8	0.15113413
119	0x3e341405	0.17585762
120	0x3e152ecd	0.14568634
121	0x3e6936be	0.22774789
122	0xbe178f7f	-0.14800833
123	0x3d7d6152	0.06186039
124	0x3d3c6945	0.04599883
125	0x3d820115	0.06347863
126	0xbe5237ca	-0.20529094
127	0xbdd8c5ec	-0.105846256
128	0x3e034c09	0.12821974
129	0x3e3cc779	0.18435468
130	0x3e0ac9b2	0.13553503
131	0x3dc08810	0.09400952
132	0x3e17a75e	0.1480994
133	0x3cd7af62	0.026328746
134	0x3d1cf4d5	0.038319428
135	0x3e1688c2	0.14700606
136	0x3d977f29	0.07397301
137	0xbe2cac04	-0.16862494
138	0x3e10f0b3	0.1415432
139	0xbe27b020	-0.1637578
140	0x3e0688fa	0.1313819
141	0x3d59e7ee	0.0531997
142	0x3e836c60	0.2566862
143	0x3e1a8e16	0.15093264
144	0xbde3ba0e	-0.111194715
145	0xbe477093	-0.19476537
146	0x3e38701d	0.18011518
147	0x3e469159	0.19391383
148	0xbd91cc65	-0.07119063
149	0xbd8cb42d	-0.06870303
150	0x3dcdae5f	0.10043024
151	0xbe4d52f8	-0.20051181
152	0xbe77effd	-0.24212642
153	0xbe6246d8	-0.22097337
154	0x3d2b314b	0.041795056
155	0x3e155ce9	0.14586224
156	0xbbe7ac7a	-0.0070701214
157	0xbdb61df2	-0.0889243
158	0x3d4fc75c	0.050727233
159	0x3e03709b	0.12835924
160	0xbe99b259	-0.3001888
161	0xbe1a6224	-0.150765
162	0xbdde69f4	-0.10860053
163	0xbce1cecb	-0.027564427
164	0x3dc530d2	0.09628452
165	0xbdd5f6a0	-0.104474306
166	0xbd3c8d01	-0.04603291
167	0x3d772e67	0.060346987
168	0x3d8ef76d	0.069807865
169	0xbc2b26c3	-0.010446253
170	0x3a3e55bb	0.00072606996
171	0xbcd93019	-0.026512193
172	0x3e69995c	0.22812408
173	0xbddc05ee	-0.107433185
174	0xbe8b2596	-0.27177113
175	0xbb6696b3	-0.0035185039
176	0x3e0f550d	0.13997288
177	0xbdd70bef	-0.10500323
178	0x3e1d0de2	0.15337327
179	0xbe9ceec3	-0.3065091
180	0x3e552dde	0.20818278
181	0x3e107042	0.14105323
182	0x3e13a8e0	0.1441989
183	0x3c0a45ee	0.008439524
184	0x3e737e70	0.23778701
185	0xbe00202f	-0.12512277
186	0xbdc685c6	-0.09693484
187	0xbd588bb3	-0.052867603
188	0xbe11a462	-0.14222863
189	0x3e168b7f	0.14701651
190	0xbdb844d5	-0.08997504
191	0x3c8eb89a	0.01742201
192	0xbe468a68	-0.19388735
193	0xbe5967fa	-0.2123107
194	0x3e35ccf4	0.17753965
195	0x3d8ee170	0.069765925
196	0xbda53a9f	-0.08067822
197	0x3e3b552d	0.1829421
198	0x3e1f2864	0.15542752
199	0x3ced13b4	0.02894006
200	0x3e998dca	0.2999099
201	0xbdf61b63	-0.12016942
202	0xbe0470e3	-0.12933688
203	0x3df3291f	0.118730776
204	0xbe23d01c	-0.15997356
205	0xbde66762	-0.112501875
206	0xbda13421	-0.07871271
207	0xbd8dba36	-0.069202825
208	0xbda76063	-0.08172681
209	0xbeb2cc8d	-0.34921685
210	0x3e85c7bc	0.26128948
211	0xbe07964e	-0.1324093
212	0x3c92258a	0.017840166
213	0xbe53a53f	-0.20668505
214	0x3e239b02	0.159771
215	0xbe899540	-0.2687168
216	0x3d3a6737	0.04550859
217	0xbe936904	-0.28791058
218	0x3d6cadde	0.057783
219	0x3d1e863e	0.038702242
220	0xbe0817e6	-0.13290367
221	0xbe44ff20	-0.19237947
222	0x3e89004c	0.2675804
223	0x3e461d46	0.19347104
224	0x3e18e0c4	0.14929491
225	0x3d40817d	0.04699849
226	0xbe535896	-0.20639262
227	0x3e028de6	0.12749442
228	0x3e4179a9	0.18894066
229	0x3cc9ca1d	0.024632508
230	0x3d0bdb6c	0.034144804
231	0x3dd27db7	0.102778845
232	0xbdc8d3f6	-0.09806053
233	0x3c8d1ee7	0.01722665
234	0xbdaff31a	-0.0859129
235	0xbda4157d	-0.08011911
236	0x3cf931d2	0.030419264
237	0x3e308b8e	0.17240736
238	0x3d2fffee	0.042968683
239	0xbe44e31d	-0.19227262
240	0xbe1a68ca	-0.15079036
241	0x3e968b17	0.29402992
242	0xbd6a7dbe	-0.057248823
243	0x3e786c98	0.24260175
244	0xbd94b878	-0.07261747
245	0x3e9873b3	0.29775771
246	0x3dc4ea22	0.0961497
247	0xbe7a0a51	-0.24417998
248	0xbe382f5f	-0.1798682
249	0x3e01fd33	0.12694244
250	0x3e2c8a60	0.16849661
251	0xba95a442	-0.001141675
252	0x3d82f1f3	0.063938044
253	0x3e248e98	0.1607002
254	0xbe52d319	-0.2058834
255	0xbbfbc61b	-0.007683528

fc2.bias f4 [10]
0	0xbcc9bda9	-0.02462657
1	0x3d80aa85	0.06282524
2	0x3da00091	0.07812608
3	0xbe0132c1	-0.12617017
4	0xbcaf36f1	-0.021388503
5	0x3e078466	0.132341
6	0x3e3803fe	0.17970273
7	0x3e29973d	0.16561599
8	0xbdada5fb	-0.08478924
9	0x3dd37ed4	0.10326925
