Codes/mnist_cnn_mnist_7_False_0.1_1.0_1.0_64_1.pt (torch, 106255 bytes, 8 tensors)

conv1.weight f4 [16, 1, 8, 8]
0	0x3db1ba84	0.08678153
1	0xbc58bff0	-0.013229355
2	0x3e394a92	0.18094853
3	0x3d9a9266	0.075474545
4	0xbe2e387e	-0.17013738
5	0xbe255c05	-0.16148384
6	0xbe4268f2	-0.18985346
7	0x3e07916c	0.13239068
8	0x3cb5cfe6	0.02219386
9	0x3e0758a7	0.13217412
10	0x3dc53818	0.0962984
11	0x3c07580f	0.008260741
12	0xbd52cab7	-0.051462855
13	0xbbd376bf	-0.0064533646
14	0xbd02e980	-0.031960964
15	0xb6d490d6	-6.3349535e-06
16	0x3d8c1148	0.06839234
17	0xbdd86d91	-0.10567773
18	0x3e65f16d	0.22455378
19	0x3cb54056	0.022125404
20	0x3df87bf3	0.121330164
21	0x3d9d6ac5	0.0768638
22	0x3d952da0	0.07284093
23	0x3ae1dca3	0.0017231893
24	0xbcfad4af	-0.030618994
25	0x3e33906a	0.17535558
26	0x3e13a86e	0.1441972
27	0x3e07f114	0.13275558
28	0x3d96ed47	0.07369476
29	0x3d1cb0e7	0.038254645
30	0x3de83762	0.113386884
31	0x3d856a1f	0.065143816
32	0xbb4a9ba5	-0.0030915525
33	0x3cd02b5e	0.025411304
34	0x3e63ac34	0.22233659
35	0x3e348f0e	0.17632696
36	0x3d59c6c2	0.053168066
37	0xbd89b577	-0.06724065
38	0xbcdf7092	-0.027275357
39	0x3d300bb5	0.042979915
40	0x3db195c9	0.086711474
41	0xbe1a9699	-0.15096511
42	0xbdb18fcb	-0.086700045
43	0x3e53eee6	0.20696601
44	0x3d9187e9	0.07106001
45	0x3dbbe8a6	0.091752335
46	0x3ca8787a	0.02056526
47	0x3d21d20c	0.039506957
48	0xbbd844e2	-0.0066000083
49	0xbe31d261	-0.1736541
50	0xbd427e39	-0.047483657
51	0x3de31d5d	0.11089585
52	0x3dd3952b	0.10331186
53	0xbd1fcee3	-0.039015662
54	0xbdeb315e	-0.114840254
55	0x3d06c1b8	0.03289959
56	0xbdbe550d	-0.09293566
57	0xbe0df67f	-0.13863562
58	0x3dca9a96	0.09892766
59	0x3d77d53b	0.060506087
60	0xbcbcdea8	-0.02305539
61	0x3c684144	0.014175717
62	0x3dc1c11d	0.094606616
63	0xbda7f4a6	-0.0820096
64	0xbd249a5a	-0.040186264
65	0x3be9ad76	0.007131274
66	0xba380e31	-0.00070211577
67	0xbddadc39	-0.106865354
68	0x3e0fe2f4	0.1405142
69	0x3d1eef26	0.03880229
70	0xbcd694ef	-0.026194064
71	0x3d8ace0f	0.06777584
72	0xbd159c94	-0.036526278
73	0xbd86365c	-0.06553337
74	0xbd08a4f2	-0.03336043
75	0x3dff031e	0.124517664
76	0x3dac395e	0.084093794
77	0xbc306109	-0.0107653225
78	0x3dbd20d8	0.0923478
79	0x3d2ff331	0.042956535
80	0x3dcf2a36	0.10115473
81	0xbdc2ce6f	-0.0951203
82	0x3c426f8c	0.011867415
83	0x3c7606ef	0.015016302
84	0x3b5db06a	0.0033827075
85	0xbd850400	-0.064949036
86	0x3d2acbc7	0.041698243
87	0x3c93d9ea	0.018048245
88	0x3c956552	0.01823679
89	0x3e517b9b	0.20457308
90	0x3cb644e3	0.022249645
91	0xbdac54d9	-0.08414621
92	0x3de53fe2	0.11193825
93	0x3ca09bd0	0.019605547
94	0xbdeda179	-0.11603064
95	0xbd7d4068	-0.061829
96	0xbd2206c5	-0.039557237
97	0x3e524627	0.20534573
98	0x3dc9e597	0.09858244
99	0x3d82a5b4	0.063792616
100	0xbe0c87f2	-0.13723734
101	0xbd51faed	-0.051264692
102	0xbe7591a7	-0.23981343
103	0xbcd81e4d	-0.026381636
104	0x3d5faffa	0.054611184
105	0x3cb0dd01	0.021589758
106	0x3cdc9a9e	0.026929196
107	0xbcd4f4ee	-0.025995698
108	0xbdcb2117	-0.09918421
109	0x3dbc8612	0.092052594
110	0xbcd1fffe	-0.025634762
111	0x3d992e4a	0.07479532
112	0x3db4f4c9	0.088357516
113	0x3cf1535d	0.029458696
114	0xbc2260bf	-0.009910761
115	0xbdee2858	-0.11628789
116	0xbe1d6d11	-0.15373637
117	0xbdeeeb7c	-0.11666009
118	0xbde74cec	-0.112939686
119	0xbc885d3c	-0.01664602
120	0x3df7a847	0.12092643
121	0x3c136ac3	0.008997622
122	0x3ddd3100	0.10800362
123	0xbdb3b1f4	-0.08774176
124	0x3d36f407	0.044666316
125	0x3c87dedb	0.016585758
126	0xbe60cee7	-0.21953927
127	0xbe0dbb71	-0.13841034
128	0x3de9e8e6	0.11421375
129	0xbc52a0b3	-0.0128556965
130	0xbe275e6a	-0.1634461
131	0x3d2862d3	0.04110987
132	0xbce32955	-0.02772967
133	0x3da59cb8	0.08086532
134	0x3e5c3051	0.21502806
135	0x3ca945a0	0.020663083
136	0xbdb58891	-0.088639386
137	0x3cfb2bf9	0.030660616
138	0x3d82418e	0.0636016
139	0xbd127926	-0.035760067
140	0xbd639040	-0.05555749
141	0x3e26e891	0.16299655
142	0x3dc5b1ad	0.096530296
143	0xbc8fd7cf	-0.01755896
144	0xbe64ef6e	-0.2235696
145	0xbd4d8da5	-0.05018391
146	0xbc629b48	-0.013830967
147	0xbda5ad18	-0.08089656
148	0x3dcd53c7	0.10025745
149	0x3d29cb39	0.041453574
150	0x3e0e864a	0.13918415
151	0xbd862ad9	-0.06551141
152	0xbe555e88	-0.20836842
153	0x3d259676	0.040426694
154	0x3964918b	0.00021797993
155	0x3c57a7a4	0.013162527
156	0xbd5ac9fb	-0.05341528
157	0x3e2d5781	0.16927911
158	0x3e507e2d	0.20360632
159	0xbe1f9e2b	-0.1558768
160	0xbd7650b5	-0.060135562
161	0x3d2f00c5	0.042725343
162	0xbe4d92e2	-0.20075563
163	0xbdc86c70	-0.09786308
164	0x3e3b1434	0.18269426
165	0x3de5a703	0.112134956
166	0x3d3eb721	0.046561364
167	0xbcf90dc3	-0.03040207
168	0x3e063844	0.13107401
169	0xbca636a5	-0.020289728
170	0x3c5fa655	0.0136504965
171	0xbc658038	-0.0140076205
172	0x3e795429	0.24348511
173	0x3dfc011e	0.123049006
174	0xbd0cc58d	-0.034368087
175	0xbd24007d	-0.04003953
176	0xbdac5dfd	-0.08416364
177	0xbdae0695	-0.08497349
178	0x3dbd2d1b	0.09237119
179	0x3c7e8c84	0.015536431
180	0x3e52cbd8	0.20585573
181	0x3e45996f	0.19296812
182	0xbd638ab9	-0.055552218
183	0x3dae8e4a	0.08523233
184	0xbe171860	-0.14755392
185	0xbc6ab657	-0.0143257
186	0xbd90eb46	-0.07076125
187	0x3df70b2a	0.12062676
188	0x3e37441d	0.17897077
189	0x3ddc5047	0.10757499
190	0x3e22e79d	0.15908666
191	0x3e66f2cf	0.22553562
192	0x3e2e5834	0.17025834
193	0xbd8f6848	-0.07002312
194	0x3ca9287c	0.020649187
195	0x3d8f08ba	0.06984086
196	0x3da579a7	0.08079844
197	0xbd991b2b	-0.07475885
198	0xbca90cc2	-0.020635966
199	0xbe0308c2	-0.1279631
200	0x3dc53f73	0.096312426
201	0x3e1cba9e	0.15305564
202	0x3ca9d1d1	0.020729931
203	0xbd95a9e3	-0.07307794
204	0xbe1e840d	-0.15480061
205	0xbd73dc06	-0.059536003
206	0xbda6dffc	-0.081481904
207	0xbd5bb5e6	-0.05364027
208	0xbd6b8344	-0.05749823
209	0x3e555462	0.2083297
210	0x3c17d097	0.00926604
211	0x3d028361	0.031863574
212	0xbca7d1ed	-0.020485843
213	0x3e1686bc	0.14699835
214	0xbcaf1358	-0.021371529
215	0xbd7baac1	-0.06144214
216	0x3e08715b	0.13324492
217	0x3e0e050b	0.13869111
218	0x3df974e1	0.12180496
219	0xbccd6b02	-0.02507544
220	0x3caba067	0.02095051
221	0xbd18fee2	-0.03735245
222	0xbddf0eb7	-0.108914785
223	0xbd7af12f	-0.061265167
224	0xbc893207	-0.016747488
225	0x3d1b8908	0.03797248
226	0x3d545aef	0.051844534
227	0xbd0ebded	-0.034849096
228	0xbd99583b	-0.07487532
229	0xbda18438	-0.07886547
230	0xbe046dfd	-0.12932582
231	0xbbcd3700	-0.00626266
232	0x3d9e5bfd	0.07732389
233	0x3e08c0f7	0.1335486
234	0x3e8ca10f	0.27466628
235	0x3e297cde	0.1655154
236	0x3dd39352	0.103308335
237	0x3cff663e	0.031176683
238	0x3de450d8	0.11148232
239	0xbd882cc3	-0.066491626
240	0xbb2ed066	-0.0026674508
241	0x3c1748a4	0.0092336275
242	0x3cb392aa	0.02192052
243	0x3c32c865	0.010912036
244	0x3b95238f	0.004551358
245	0x3dac12e3	0.0840204
246	0xbd8d6967	-0.069048695
247	0xbd8f0759	-0.06983823
248	0x3d1abbe9	0.03777686
249	0x3e270cf2	0.16313532
250	0x3de56ec0	0.112027645
251	0x3cb82760	0.022479713
252	0xbd623807	-0.055229213
253	0x3d60713e	0.054795496
254	0xbe04cd00	-0.12968826
255	0x3c81cd18	0.015844867

conv1.bias f4 [16]
0	0xbd7268cd	-0.059181977
1	0xbcb4f047	-0.02208723
2	0x3dab2651	0.08356918
3	0x3dce025d	0.100590445
4	0x3c49bd82	0.012313249
5	0x3b845e24	0.0040395427
6	0x3c9e46e7	0.019320918
7	0x3d16d1a4	0.036821023
8	0x3e3f80ef	0.18701528
9	0x3d7243bd	0.05914663
10	0xbc5e4f2a	-0.013568679
11	0xbdfb3f24	-0.122679025
12	0xbd9a77eb	-0.07542404
13	0xbd996536	-0.074900076
14	0x3e25104b	0.16119497
15	0xbddebefe	-0.108762726

conv2.weight f4 [32, 16, 4, 4]
0	0xbd4b7275	-0.0496697
1	0x3aedcfc2	0.0018143582
2	0x3d2f17a2	0.042747147
3	0xbd6c5710	-0.057700217
4	0x3ca3098b	0.019902011
5	0xbe19c03d	-0.1501474
6	0xba82d8b6	-0.0009982798
7	0xbd58b276	-0.05290457
8	0xbd67c03a	-0.056579806
9	0x3d94f561	0.07273365
10	0xbd11c357	-0.03558668
11	0xbc76fa3f	-0.015074312
12	0x3c4ddb2a	0.01256446
13	0xbd79a7c2	-0.060951002
14	0xbb85e66a	-0.0040863054
15	0x3d3d73e3	0.046253096
16	0xbd06cf5e	-0.032912605
17	0x3d153dea	0.036436
18	0x3d8de03f	0.06927537
19	0xbcbb77aa	-0.022884209
20	0x3c7f1f39	0.015571409
21	0xbdafed3f	-0.08590173
22	0x3d9ca48e	0.07648574
23	0xbcb1e6fb	-0.021716585
24	0xbbe6718b	-0.0070325783
25	0x3dc84764	0.09779242
26	0xbd396fdc	-0.045272693
27	0x39b1ca13	0.00033910628
28	0x3c3484d5	0.011017998
29	0x3d13f6cc	0.036124036
30	0xbd921ecf	-0.071347825
31	0xbde97c10	-0.11400616
32	0x3c97e208	0.018540397
33	0xbd163481	-0.036671165
34	0x3d9dbe48	0.07702309
35	0x3d89e5df	0.067332976
36	0x3da34afa	0.07973285
37	0x3d9182bf	0.07105016
38	0x3db2a3fb	0.08722683
39	0xb90eafa6	-0.0001360761
40	0x3d9b0695	0.07569615
41	0x3cb67727	0.022273613
42	0xbc963a4f	-0.01833835
43	0xba8911d7	-0.0010457587
44	0x3d781ec4	0.060576215
45	0x3d1ae902	0.03781987
46	0x3d812402	0.06305696
47	0xbb6f1d30	-0.0036485903
48	0x3bcd6b57	0.0062688994
49	0xbe55477b	-0.20828049
50	0x3d4ad3e1	0.04951847
51	0x3d3b9936	0.04580041
52	0xbd1aed84	-0.03782417
53	0x3c0da935	0.008646299
54	0xbc2dbf23	-0.010604653
55	0x3aacef37	0.001319385
56	0xbca7af15	-0.020469228
57	0xbd9c00b4	-0.076173216
58	0x3d9ad01c	0.07559225
59	0x3d57e0d8	0.052704662
60	0xbb8aa506	-0.004231098
61	0x3b824344	0.003975304
62	0x3d0f912e	0.035050564
63	0x3ab5be0e	0.0013865845
64	0xbdcf53b2	-0.101233855
65	0xbdb98a2c	-0.09059557
66	0xbcd406d5	-0.025882164
67	0x3dba01b4	0.09082356
68	0xbcb07e57	-0.021544619
69	0xbd0a68cd	-0.033791352
70	0x3bd6567e	0.0065410724
71	0xbd3ad548	-0.045613557
72	0x3d89a58d	0.067210294
73	0xbc560aee	-0.013064129
74	0xbd5b8b77	-0.0535998
75	0x3dac7bc6	0.084220454
76	0xbcce3a06	-0.025174152
77	0xb9400fab	-0.00018316384
78	0xbda97782	-0.082747474
79	0x3d23eeac	0.040022537
80	0xbdf17138	-0.11789173
81	0xbcd1186f	-0.025524346
82	0xbdd91a36	-0.106007025
83	0xbe2297a2	-0.15878156
84	0x3cff407b	0.031158676
85	0xbd7726c2	-0.060339697
86	0xbd188c60	-0.037243247
87	0x3c2231ef	0.0098996
88	0x3c7f93e4	0.015599225
89	0xbdd20e2b	-0.102566086
90	0x3ddc60be	0.107606396
91	0xbbba3a71	-0.0056832363
92	0x3d466368	0.048434645
93	0xbb8ed03d	-0.00435832
94	0x3cfeccfc	0.031103604
95	0xbbc4f611	-0.0060107787
96	0xbc93cb70	-0.018041342
97	0x3c95a54b	0.018267294
98	0x3c11270b	0.008859406
99	0x3d0f5bfc	0.034999833
100	0x3d30a95e	0.04313027
101	0xbd5925b9	-0.05301449
102	0x3d8bfbe4	0.06835154
103	0xb89e30e8	-7.5431366e-05
104	0x3d5e1bae	0.054225616
105	0xbd6c2f52	-0.057662316
106	0xbd42862f	-0.04749125
107	0x3d8332bc	0.06406161
108	0x3aa6951e	0.0012709235
109	0x3c4df1aa	0.012569824
110	0xbccdc36d	-0.0251176
111	0x3c727835	0.014799167
112	0xbde63336	-0.112402365
113	0xbd92742b	-0.071510635
114	0x3d54ff23	0.05200113
115	0xbcffabbf	-0.031209825
116	0x3b4e8b36	0.0031516082
117	0x3d91718e	0.07101737
118	0x3d088141	0.03332639
119	0x3d602e8f	0.0547319
120	0x3c00dd14	0.007865209
121	0xbc29893d	-0.010347662
122	0x3c9ac673	0.018893456
123	0x3b8e3dfb	0.0043408847
124	0xbe1effa3	-0.15527205
125	0x3d15bb67	0.036555674
126	0x3d3fb285	0.04680111
127	0xbd1932ba	-0.037401892
128	0xbd8469ee	-0.06465517
129	0xbdcc1b39	-0.0996613
130	0x3d18f3d9	0.037341926
131	0x3d0e6436	0.034763537
132	0x3db0add4	0.08626905
133	0xbd7c471a	-0.061591245
134	0xbd6fe8a3	-0.05857147
135	0x3daf44d9	0.085580535
136	0x3df6f543	0.12058499
137	0xbdc51fcf	-0.09625208
138	0xbd5be5fa	-0.05368612
139	0x3d6b6aca	0.05747489
140	0xbc268ba0	-0.010165125
141	0xbd87a7ea	-0.06623824
142	0xbba8d402	-0.0051522264
143	0xbd20d574	-0.039266065
144	0x3da0b1a7	0.078463845
145	0xbd367109	-0.044541392
146	0xbd415222	-0.04719747
147	0x3d5d6e3c	0.054060206
148	0x3d7ebf45	0.062194128
149	0xbddbff6f	-0.107420795
150	0x3c0a76c9	0.008451172
151	0xbbcb9fe0	-0.006214127
152	0x3dab1b34	0.08354798
153	0x3d273794	0.040824488
154	0x3c293289	0.01032699
155	0x3d369b54	0.044581726
156	0xbdb0fd7a	-0.08642097
157	0x3ded5611	0.115886815
158	0x3d1722b9	0.03689835
159	0xbca195f8	-0.019724831
160	0x3d1c3022	0.03813184
161	0xbccd3b9d	-0.02505284
162	0xbd124e73	-0.035719346
163	0x3d198fa8	0.037490517
164	0xbce35f13	-0.027755296
165	0x3c70651b	0.014672543
166	0x3ce1dcbf	0.02757108
167	0x3dda8ae9	0.10671026
168	0xbd0a3099	-0.033737753
169	0xbd940fef	-0.072296016
170	0xbc8e9330	-0.017404169
171	0x3db32964	0.08748129
172	0x3deb0f4e	0.114775285
173	0xbd5d69ce	-0.05405598
174	0x3dad58ee	0.084642276
175	0x3b90dc2d	0.0044207782
176	0xbd2cebe3	-0.042217147
177	0xbc33db86	-0.010977631
178	0x3d8cb377	0.06870168
179	0x3d913234	0.070896536
180	0x3da439ea	0.08018859
181	0xbb5497ae	-0.003243904
182	0x3dc83e6b	0.0977753
183	0x3d8f0bcf	0.06984674
184	0x3d929dd2	0.07159008
185	0x3d35ce9f	0.044386502
186	0x3c80242f	0.015642254
187	0x3dde8ad9	0.10866327
188	0x3cf1d0ea	0.029518563
189	0x3e29e0a8	0.16589606
190	0x3e3e5991	0.18588854
191	0xbd09667f	-0.033545014
192	0x3d53bb91	0.05169255
193	0x3c834cdf	0.016027866
194	0x3d5aa03b	0.053375464
195	0x3deb9666	0.115032956
196	0xbd96eefe	-0.07369803
197	0xbd3744d6	-0.04474338
198	0x3d10416b	0.035218637
199	0xbd9a348d	-0.075295545
200	0xbd73d221	-0.059526566
201	0x3d85cbc4	0.06533006
202	0x3de52529	0.11188728
203	0xbcd17125	-0.025566647
204	0x3dd3a7b2	0.1033472
205	0x3d0738d2	0.033013172
206	0x3d7069f5	0.0586948
207	0x3d8a0028	0.06738311
208	0x3dd85a97	0.10564154
209	0x3c331ab2	0.010931658
210	0xbd4451e3	-0.047929656
211	0x3d095a16	0.03353318
212	0x3d23633f	0.03988957
213	0x3d14fe13	0.036375117
214	0x3c2c0558	0.010499321
215	0xbd855fee	-0.06512438
216	0x3d64deac	0.05587642
217	0xbd17ca2e	-0.037058048
218	0x3c04c63e	0.008103905
219	0x3d4c699c	0.049905404
220	0x3cc8d239	0.024514304
221	0x3b4fdae4	0.0031716162
222	0xbd046be9	-0.032329474
223	0x3d57b9cd	0.052667428
224	0xbd26505d	-0.040603984
225	0xbda376b1	-0.07981623
226	0x3d264043	0.04058863
227	0x3d960382	0.07324888
228	0xbd369a84	-0.04458095
229	0x3d02acbc	0.031903014
230	0x3d707c19	0.0587121
231	0x3b91b41a	0.0044465186
232	0x3d11b5a9	0.035573635
233	0xbc09079b	-0.00836363
234	0x3d2b8546	0.041875146
235	0x3cfc3ed7	0.030791683
236	0x3e0eced0	0.1394608
237	0xbd1913b5	-0.03737231
238	0x3de87839	0.11351056
239	0x3b4f6cca	0.0031650537
240	0xbd00bf90	-0.03143269
241	0xbd0e9542	-0.034810312
242	0xbdaffa23	-0.08592632
243	0x3d13e7a6	0.03610959
244	0x3d826c69	0.06368334
245	0x3d737f89	0.0594478
246	0xbc838398	-0.01605396
247	0x3c3a6b3f	0.0113781085
248	0xbdf3ae4f	-0.11898481
249	0xbd570f04	-0.052504554
250	0x3a72e33b	0.00092654274
251	0xbc3b41f5	-0.0114293
252	0xbb0e355c	-0.0021699285
253	0xbcddfb20	-0.027097285
254	0xbd7d260a	-0.061803855
255	0xbbafcc57	-0.0053649354

conv2.bias f4 [32]
0	0x3cdf3e87	0.027251495
1	0xbc6b6c74	-0.014369119
2	0x3d053354	0.032519653
3	0xbc93b075	-0.018028477
4	0x3acac440	0.0015469864
5	0xbd801882	-0.062546745
6	0xbcd078b5	-0.025448183
7	0x3dafac1a	0.08577748
8	0xbd925d57	-0.071467094
9	0x3d785ec9	0.06063727
10	0x3d9271a5	0.07150582
11	0x3d2c3f5e	0.04205262
12	0x3d29a4fd	0.04141711
13	0xbda736da	-0.08164759
14	0xbb9faa69	-0.0048726094
15	0xbd8ca7b4	-0.06867924
16	0xbd929491	-0.07157243
17	0x3d385ce5	0.045010466
18	0xbd122743	-0.035681974
19	0x3dde1be1	0.10845161
20	0xbbcba3a6	-0.006214577
21	0xbd41f74e	-0.04735499
22	0xbd391cf6	-0.045193635
23	0xbd076510	-0.033055365
24	0xbc871782	-0.016490702
25	0xbdd574c5	-0.10422663
26	0x3cad70d5	0.021171967
27	0xbdbfca5b	-0.09364768
28	0xbca5aa67	-0.020222856
29	0x3d2dd14a	0.04243592
30	0x3d01bbf0	0.03167337
31	0x3de73cd9	0.11290903

fc1.weight f4 [32, 512]
0	0xbd8d332a	-0.068945244
1	0x3df815c0	0.121135235
2	0xbd4bcd21	-0.049756173
3	0xbd1540e2	-0.03643883
4	0x3d1a4640	0.037664652
5	0xbd8cd61e	-0.06876777
6	0xbdab254c	-0.08356723
7	0x3d99d7dd	0.07511876
8	0x3c65bf81	0.014022709
9	0x3da61ec5	0.081113376
10	0xbd1338ad	-0.035942722
11	0x3d16f6f3	0.036856603
12	0xbd8ed403	-0.06974032
13	0x3baaa346	0.005207452
14	0x3c3402f8	0.010987036
15	0x3c8b838e	0.017030504
16	0x3d2031aa	0.039109863
17	0xbe04ac06	-0.12956247
18	0x3d7f917c	0.062394604
19	0xbd44f1d0	-0.048082173
20	0xbd7b6076	-0.06137129
21	0xbbce31d0	-0.006292559
22	0xbdf4fdfd	-0.11962507
23	0x3d3035a0	0.04301989
24	0x3d8811a2	0.06643988
25	0x3d370efa	0.044692017
26	0xbbd5af89	-0.0065211696
27	0x3d3a8814	0.04553993
28	0x3ce2bbb6	0.027677398
29	0x3d2a69da	0.041604854
30	0x3dac12bd	0.084020115
31	0x3d6e7595	0.058217604
32	0xbd06a569	-0.03287259
33	0xbade226f	-0.0016947518
34	0xbd7a6909	-0.061135326
35	0x3caee835	0.02135096
36	0xbc02b23d	-0.007977066
37	0xbc822853	-0.015888369
38	0xbd1c55dc	-0.03816782
39	0x3e0f4daa	0.1399447
40	0xbde60d47	-0.11233001
41	0xbd4cbcdd	-0.0499848
42	0xbc8e9b53	-0.017408049
43	0x3cc1c3f1	0.023653002
44	0xbd5df7a6	-0.054191254
45	0xbdb3bbad	-0.08776031
46	0xbc587635	-0.0132117765
47	0xbdbd9674	-0.09257212
48	0xbcfd5536	-0.03092442
49	0x3de772a6	0.11301164
50	0x3d222fe5	0.039596457
51	0x3d649bf0	0.055812776
52	0x3cf9d95f	0.030499158
53	0x3cb43ca6	0.022001576
54	0xbc4e51a0	-0.012592703
55	0x3d1c26c1	0.038122896
56	0xbc69a928	-0.014261521
57	0x3c06421b	0.008194472
58	0x3bd7777e	0.006575524
59	0xbc9aaf17	-0.018882317
60	0x3d1d3656	0.038381897
61	0x3d8d75c0	0.06907225
62	0xbd6827d2	-0.0566786
63	0x3da14d73	0.078761004
64	0xbb134c90	-0.0022476055
65	0x3dad155c	0.084513396
66	0xbcc18a02	-0.023625378
67	0x3dfb5ba6	0.1227334
68	0xbd359b2e	-0.044337444
69	0x3de4f5a1	0.111796625
70	0x3db69454	0.0891501
71	0x3c5c11df	0.013431995
72	0x3c5ed342	0.0136001725
73	0x3d8c0c8c	0.068383306
74	0x3d30368c	0.04302077
75	0x3d9050cd	0.070466615
76	0x3d1b8e16	0.0379773
77	0xbd1ef4e4	-0.038807765
78	0x3dea4180	0.114382744
79	0x3d468ab1	0.04847211
80	0x3d440be8	0.047862917
81	0x3d65b678	0.05608222
82	0x3d4f6974	0.050637677
83	0x3e016ee5	0.12639959
84	0xbd6237d6	-0.05522903
85	0xbcc03f2b	-0.02346762
86	0x3c8389b1	0.016056867
87	0xbd7beab0	-0.061503112
88	0x3d46c783	0.048530113
89	0xbd2f456b	-0.04279081
90	0x3d1c64c8	0.03818205
91	0xbbdd116f	-0.006746463
92	0x3cf1b768	0.0295064
93	0x3c8bb2c1	0.01705301
94	0xbd48f022	-0.049057133
95	0x3d49df5a	0.04928527
96	0xbd278e35	-0.040907104
97	0xbd527ca8	-0.051388413
98	0xbdb792db	-0.08963557
99	0xbd3f59f2	-0.046716638
100	0xba47f5a0	-0.00076278485
101	0xbd7bb813	-0.061454844
102	0xbd69daf7	-0.057093587
103	0xbce61290	-0.028085023
104	0xbd1a671e	-0.037695996
105	0x3d399661	0.045309428
106	0x3d2dc81a	0.04242716
107	0xbd41cfcb	-0.047317307
108	0x3dd29673	0.10282602
109	0xbd33bb8e	-0.043880038
110	0xbdb514fd	-0.08841894
111	0xbdd8aa67	-0.10579377
112	0x3d62e271	0.055391733
113	0x3db12265	0.08649138
114	0x3d865157	0.06558483
115	0xbc4d0c45	-0.012515132
116	0x3d003c77	0.031307664
117	0x3dd77ffb	0.10522457
118	0xbd6ea336	-0.05826112
119	0xbcbeb0f0	-0.02327773
120	0xbd9e4672	-0.0772828
121	0xbbe2a06a	-0.0069160955
122	0xbcd485f1	-0.025942774
123	0xbd78e1ec	-0.06076233
124	0x3c166417	0.009179137
125	0xbbd90d65	-0.006623911
126	0xbd1eae66	-0.038740538
127	0x3d66c314	0.056338385
128	0x3cfac90f	0.03061345
129	0x3da94ecc	0.082669824
130	0x3d673bed	0.056453634
131	0x3c355ce1	0.011069507
132	0xbc0ee3a7	-0.008721269
133	0x3da2dd7a	0.079523996
134	0xbd4473e4	-0.047962084
135	0x3d516931	0.05112571
136	0xbe062eae	-0.13103744
137	0x3d4f863b	0.05066512
138	0xbcc4d2c9	-0.024026291
139	0x3d5fe664	0.054663077
140	0x3d58f877	0.05297133
141	0x3d9b10b2	0.07571544
142	0x3bb8c70a	0.0056389617
143	0x3d889d35	0.0667061
144	0x3d14c7e3	0.03632344
145	0x3d548873	0.05188794
146	0x3d9b0257	0.07568806
147	0x3d12088d	0.035652686
148	0xbd58b55f	-0.052907344
149	0xbd1b2265	-0.037874598
150	0x3d6582a0	0.056032777
151	0x3b068efb	0.0020532
152	0xbd5b93ab	-0.053607624
153	0x3cc351ad	0.023842657
154	0x3cb935d6	0.022608679
155	0xbda27aaa	-0.079335526
156	0xbe0f7f9e	-0.14013526
157	0xbda35472	-0.07975091
158	0xbceeb7b9	-0.02914034
159	0x3d800ad9	0.06252069
160	0xbca296f3	-0.019847369
161	0x3d2c41d7	0.042054977
162	0x3d9e5ff5	0.07733146
163	0xbdcdc322	-0.10046984
164	0x3d8cfa5b	0.06883689
165	0x3d02e5fa	0.031957604
166	0x3d02fe8c	0.031981036
167	0xbdce9beb	-0.10088333
168	0x3d35c47a	0.044376828
169	0xbb3059c1	-0.0026908966
170	0x3cb00250	0.021485478
171	0xbdf42b4f	-0.11922323
172	0x3d947413	0.07248702
173	0x3d2df97d	0.04247426
174	0x3c7f8feb	0.015598278
175	0x3d2d7196	0.042344652
176	0x3d84a69d	0.064770915
177	0x3d9dc309	0.07703216
178	0x3d8168ed	0.06318841
179	0x3d086529	0.0332996
180	0xbc3ab146	-0.011394804
181	0xbc934cce	-0.01798096
182	0x3d291f92	0.041289873
183	0x3d7159c1	0.058923487
184	0xbae6fd66	-0.0017623126
185	0x3dc4a21e	0.09601234
186	0x3c970dac	0.018439136
187	0x3bf17e97	0.007369827
188	0x3cd3bcc3	0.025846845
189	0x3d0eed98	0.034894556
190	0xbca2f1cf	-0.019890694
191	0x3d926f3d	0.07150123
192	0xbb99a41a	-0.004688752
193	0x3d160c3a	0.036632754
194	0x3c03cd43	0.008044544
195	0xbcce0d2e	-0.025152769
196	0xbccfc4b8	-0.025362357
197	0x3d8cd825	0.06877164
198	0xbdfc75f8	-0.12327188
199	0x3d9bee22	0.076137796
200	0x3e0cf436	0.13765034
201	0xbd3b5f4a	-0.04574517
202	0x3cbb27dd	0.022846157
203	0x3d5237f1	0.05132288
204	0x3e0c63d0	0.1370995
205	0x3d9ca1b1	0.07648028
206	0x3c783a7d	0.015150663
207	0x3d98c305	0.07459072
208	0x3c179599	0.009251975
209	0xbc528828	-0.012849845
210	0x3dcc4194	0.099734455
211	0xbd6d1265	-0.05787887
212	0x3d7f84fc	0.062382683
213	0x3c738079	0.014862173
214	0x3d8dfd96	0.06933133
215	0x3d52dc80	0.051479816
216	0x3b7ccb6a	0.0038573393
217	0x3d0a02ac	0.033693954
218	0x3d30df09	0.043181453
219	0xbd0eb1b0	-0.034837425
220	0xbd2760c4	-0.040863767
221	0x3d4fef5c	0.05076538
222	0xbd79501b	-0.06086741
223	0x3c92d086	0.017921697
224	0xbd259247	-0.040422704
225	0xb923787e	-0.00015589778
226	0xbd2e6c07	-0.04258349
227	0x3dac2bde	0.084068045
228	0x3c1d9637	0.009618334
229	0x3d2c38b0	0.04204625
230	0x3cc98552	0.024599705
231	0x3da92d2b	0.08260568
232	0x3d46cc13	0.048534464
233	0xbd6cc4f9	-0.057805035
234	0xbd5cd085	-0.053909797
235	0xbd998534	-0.074961096
236	0xbdc791b7	-0.0974459
237	0xbe236c7c	-0.15959352
238	0xbd816ccf	-0.06319582
239	0xbcf49e73	-0.02986071
240	0x3c16a2d0	0.009194091
241	0xbcc981de	-0.024598058
242	0x3ce413bb	0.02784144
243	0xbd341909	-0.043969188
244	0xbdd951f7	-0.10611337
245	0xbe0e9629	-0.13924469
246	0xbdcfbfbd	-0.10143993
247	0x3db4c988	0.088275015
248	0xbd479270	-0.048723638
249	0x3c92c518	0.017916247
250	0xbc2daaba	-0.010599786
251	0x3e028549	0.12746157
252	0x3dd0f80f	0.102035634
253	0xbcb45821	-0.02201468
254	0x3c561059	0.013065421
255	0x3ca04551	0.019564303

fc1.bias f4 [32]
0	0x3d0ecc38	0.034862727
1	0x3d82f5d0	0.06394541
2	0xbcae09d9	-0.02124493
3	0x3d366fe2	0.044540294
4	0xbda97793	-0.0827476
5	0x3d8f8665	0.070080556
6	0xbc8be0dc	-0.017074995
7	0x3c7f6b84	0.015589599
8	0xbc6b0c59	-0.014346206
9	0xbd8cc7e7	-0.06874066
10	0x3d09728e	0.033556513
11	0xbdd4b01d	-0.103851534
12	0xbd465224	-0.04841818
13	0xbd98f3db	-0.07468387
14	0x3cf9ddd9	0.030501293
15	0x3ca130eb	0.019676646
16	0x3c8b52e4	0.017007299
17	0xbb535269	-0.0032245165
18	0xbd712ab7	-0.058878627
19	0xbdaddffe	-0.08489989
20	0x3da308b7	0.079606466
21	0xbdb99d23	-0.090631746
22	0xbd80a8f9	-0.06282229
23	0xbd767f54	-0.060180023
24	0x3d9b918e	0.07596122
25	0xbd01b4b6	-0.03166648
26	0xbbf0e385	-0.007351341
27	0xbcdb3bfa	-0.026761997
28	0x3c9cdcf4	0.019148327
29	0x3d8fcb66	0.07021217
30	0xbd2c81dc	-0.04211603
31	0x3d2f8c5d	0.04285847

fc2.weight f4 [10, 32]
0	0xbd98deec	-0.07464394
1	0xbd9e7a65	-0.07738189
2	0x3e270687	0.16311084
3	0xbe5caf95	-0.21551354
4	0xbdd47813	-0.10374465
5	0xbe4ac5d6	-0.19802031
6	0xbc0b7476	-0.008511653
7	0x3d801071	0.06253136
8	0xbe366c8a	-0.17814842
9	0xbc8fdbd7	-0.017560882
10	0xbe18b33f	-0.14912127
11	0x3b395e01	0.002828479
12	0x3e071eac	0.13195294
13	0x3e58a6c2	0.21157363
14	0x3d7efaad	0.06225078
15	0x3d826c2e	0.0636829
16	0xbe879cc4	-0.2648679
17	0xbe6d0a4b	-0.23148458
18	0x3ead8387	0.3388941
19	0xbe07d665	-0.13265379
20	0xbd910a4d	-0.07082043
21	0x3e104c33	0.14091568
22	0xbe29c578	-0.16579235
23	0x3e9adc2c	0.30246103
24	0x3e2c7979	0.16843213
25	0x3e0bcac5	0.13651569
26	0x3d973631	0.07383383
27	0x3e3a90e3	0.18219332
28	0x3dc72916	0.097246334
29	0x3e656533	0.22401886
30	0xbe35fb1e	-0.17771575
31	0xbd0875b4	-0.033315375
32	0x3de234c5	0.11045221
33	0x3d5b31f6	0.053514443
34	0x3e86243c	0.2619952
35	0x3d9e1066	0.077179715
36	0xbd3ea455	-0.046543438
37	0x3cfe6c24	0.031057425
38	0xbdef62f4	-0.11688796
39	0x3e162946	0.14664182
40	0xbe7f6849	-0.24942125
41	0x3d4268a7	0.047463086
42	0x3df8690a	0.121294096
43	0x3e077954	0.13229877
44	0x3db6aa8f	0.0891925
45	0xbe70c138	-0.23511207
46	0xbdb1a2d7	-0.08673637
47	0xbdaec75a	-0.08534117
48	0x3e8943c4	0.26809514
49	0xbe84e437	-0.25955364
50	0xbd9a1149	-0.07522828
51	0x3e083cda	0.13304463
52	0x3e10be57	0.14135109
53	0xbdcb0774	-0.09913531
54	0x3c45e624	0.012078796
55	0xbdc2073d	-0.09474037
56	0xbe9df849	-0.3085349
57	0x3e8d535a	0.27602655
58	0xbd1569e4	-0.03647794
59	0x3e369380	0.17829704
60	0x3e26854d	0.16261788
61	0x3d99b484	0.07505134
62	0x3d409f99	0.047027204
63	0xbe3b7fff	-0.18310545
64	0x3d369efa	0.044585206
65	0x3e39a175	0.18127997
66	0xbd8fb7fb	-0.07017513
67	0x3e49dfcc	0.19714278
68	0xbd70821c	-0.058717832
69	0x3dc21cff	0.09478187
70	0x3c6b7da5	0.014373218
71	0xbdaa6f75	-0.0832204
72	0xbe63628b	-0.2220556
73	0x3dad6a51	0.08467544
74	0xbe9fc620	-0.31205845
75	0xbcf4ccd1	-0.02988282
76	0xbe217928	-0.15768874
77	0x3e65a3d6	0.2242578
78	0x3d36ecd1	0.04465944
79	0xbda9e369	-0.08295328
80	0x3c90bd56	0.017668407
81	0x3e23d394	0.1599868
82	0xbdfa15b4	-0.12211171
83	0xbd197090	-0.037460864
84	0x3d02fdef	0.03198045
85	0x3cbf651c	0.023363642
86	0x3e3b137c	0.18269151
87	0xbc85e576	-0.016344767
88	0x3e6cc2f9	0.23121251
89	0xbe5b7500	-0.2143135
90	0xbd5b086f	-0.05347484
91	0x3e00256a	0.12514272
92	0xbe910b2e	-0.28328842
93	0x3e65b89f	0.22433709
94	0x3d77f25e	0.060533874
95	0x3de2a21f	0.110660784
96	0x3e34150e	0.17586157
97	0x3d91f1cf	0.071261995
98	0xbe447628	-0.19185698
99	0x3ec276d5	0.37981287
100	0xbcac77fd	-0.021053309
101	0x3e26c63a	0.16286555
102	0xbec7ff33	-0.3906189
103	0x3d9f2922	0.07771517
104	0x3e84604a	0.25854713
105	0xbddb8624	-0.10718945
106	0x3e1de152	0.15417984
107	0xbcf98092	-0.030456815
108	0xbdfb45d8	-0.12269181
109	0xbccb65cd	-0.024828816
110	0x3e23dfd1	0.16003348
111	0x3c49e4cc	0.012322616
112	0x3d94b422	0.0726092
113	0x3d4e886b	0.050423067
114	0x3df387ae	0.11891113
115	0xbe095af7	-0.13413607
116	0x3dca0c5d	0.09865639
117	0xbeac95ad	-0.33707944
118	0xbc591ac2	-0.0132510085
119	0x3d1ed996	0.038781725
120	0xbe2719f4	-0.16318494
121	0xbd35cbf5	-0.04438396
122	0x3dfc91b3	0.123324774
123	0xbd93d942	-0.07219173
124	0x3ca829a0	0.02052766
125	0x3d199af4	0.03750129
126	0xbe24a805	-0.1607972
127	0x3e54c61b	0.20778696
128	0xbe05535e	-0.13020083
129	0x3bf3a97c	0.0074359756
130	0x3cd119e3	0.025525039
131	0x3e88142a	0.26577884
132	0xbd98ef95	-0.07467572
133	0x3e582982	0.21109584
134	0x3ded2129	0.115785904
135	0xbdaee0cc	-0.0853897
136	0x3e5e588f	0.2171347
137	0x3e58779b	0.21139376
138	0x3dcffdad	0.10155807
139	0x3d73eec9	0.059553895
140	0xbd48345d	-0.048878063
141	0xbdf07284	-0.11740592
142	0xbd87cd82	-0.066309944
143	0x3e26074c	0.16213721
144	0x3bc33bbe	0.0059580496
145	0xbe131177	-0.14362131
146	0xbe2bbcf9	-0.16771306
147	0x3b8c63a9	0.0042843414
148	0xbe0cd9c3	-0.13754945
149	0x3e8c3406	0.2738344
150	0xbcb3e47f	-0.021959541
151	0xbe77668c	-0.24160212
152	0x3e20b158	0.15692651
153	0xbebfe3cc	-0.37478483
154	0x3db13179	0.08652014
155	0x3d98f41f	0.074684374
156	0x3dd4aa45	0.10384039
157	0xbd8da629	-0.06916458
158	0xbe7be437	-0.24598776
159	0xbcd808cd	-0.026371384
160	0xbe81a8b1	-0.25324014
161	0x3e1d52bf	0.15363596
162	0xbe89eed5	-0.26940027
163	0x3d8650d2	0.06558384
164	0x3e111d06	0.14171228
165	0x3e18dd10	0.14928079
166	0xbbb450df	-0.0055028046
167	0x3dae336f	0.08505904
168	0x3da6a981	0.08137799
169	0xbdad98ee	-0.08476435
170	0x3d5e605c	0.054291114
171	0xbe4240a8	-0.18969977
172	0xbd53cbba	-0.05170796
173	0x3db9295c	0.09041092
174	0xbd6f4575	-0.05841585
175	0x3dae0864	0.08497694
176	0xbdce62e0	-0.10077453
177	0xbdead224	-0.114658624
178	0x3e731c0d	0.2374117
179	0x3e7023b4	0.2345112
180	0x3c3f03e9	0.011658647
181	0x3d7f031d	0.06225883
182	0x3cd23c72	0.025663588
183	0x3e2e6acf	0.17032932
184	0xbe1bf772	-0.15231112
185	0x3e1c3630	0.15255046
186	0xbe251492	-0.16121128
187	0x3e697191	0.22797228
188	0x3e9ca49d	0.3059434
189	0x3e0c74fc	0.13716501
190	0x3e2eac5f	0.17057942
191	0xbcf7306e	-0.03017446
192	0x3e507f1c	0.20360988
193	0xbdd76c13	-0.105186604
194	0xbd8af4dc	-0.067849845
195	0x3d80286b	0.06257709
196	0x3d4c3a9d	0.049860585
197	0x3e0a3ae4	0.13499027
198	0x3ea360a0	0.31909657
199	0xbe52c1b7	-0.20581709
200	0xbe828d18	-0.2549827
201	0xbe3608f2	-0.1777685
202	0x3d25718b	0.040391486
203	0x3d3b40de	0.04571616
204	0xbe0b29c1	-0.13590147
205	0x3dec84ae	0.11548744
206	0xbdcad216	-0.09903352
207	0xbe39cfb3	-0.18145637
208	0xbe044b27	-0.12919293
209	0xbe985d23	-0.29758558
210	0x3d691cd1	0.056912247
211	0x3e7d6ea5	0.24749239
212	0x3e3c7cb8	0.18406951
213	0x3e396192	0.18103626
214	0x3e18ca51	0.14920928
215	0x3c8789b9	0.016545163
216	0xbe629c2f	-0.22129892
217	0xbdbf8418	-0.09351367
218	0x3ceaea9f	0.02867633
219	0x3d47692b	0.04868428
220	0x3e8186ed	0.25298253
221	0x3e2bf6ef	0.16793416
222	0xbe32b7e7	-0.17452966
223	0x3cdc44b7	0.026888235
224	0xbe2d358c	-0.16914958
225	0xbdb3b4e0	-0.087747335
226	0xbd8c639f	-0.06854939
227	0xbec1b363	-0.37832174
228	0xbe4d29d0	-0.20035481
229	0xbdb677a1	-0.08909536
230	0xbe9393ef	-0.28823802
231	0x3e189570	0.14900756
232	0xbbd99386	-0.0066399006
233	0xbcff69aa	-0.031178314
234	0x3e41769e	0.18892905
235	0xbdf09cbe	-0.11748646
236	0xbdde72fa	-0.10861774
237	0x3e337c49	0.1752788
238	0xbe53d669	-0.2068726
239	0xbddc1a8a	-0.107472494
240	0x3e834c2d	0.25644055
241	0x3e67ebb9	0.22648515
242	0xbe7f74a5	-0.2494684
243	0xbdb587a4	-0.08863762
244	0xbe06ba3d	-0.13156982
245	0xbd25b536	-0.04045602
246	0x3b9e2ff9	0.004827496
247	0x3d864987	0.06556993
248	0x3e9d0136	0.30664986
249	0xbded1039	-0.1157536
250	0xbcec9add	-0.028882438
251	0x3df168e7	0.11787587
252	0x3d5ed836	0.054405414
253	0xbd2ba5bd	-0.041906107
254	0xbe2f346d	-0.17109843
255	0xbd28814b	-0.04113893

fc2.bias f4 [10]
0	0xbe0eafe9	-0.13934292
1	0xbdb658c0	-0.089036465
2	0xbdd54662	-0.10413815
3	0x3e2355e2	0.1595073
4	0x3d857c9b	0.06517907
5	0xbe037012	-0.1283572
6	0x3dcd3b2d	0.100210525
7	0x3d94b217	0.072605304
8	0xbdc13545	-0.094339885
9	0xbe6fd0fa	-0.23419562
