Codes/mnist_cnn_mnist_12_False_0.1_1.0_1.0_64_1.pt (torch, 106255 bytes, 8 tensors)

conv1.weight f4 [16, 1, 8, 8]
0	0xbddab016	-0.10678117
1	0xbd66ed1d	-0.056378473
2	0xbd0a32d4	-0.03373988
3	0x3abf1d82	0.0014580938
4	0xbd07efd7	-0.033187713
5	0xbe1e0815	-0.1543277
6	0x3c889e72	0.016677115
7	0xbdd53f0c	-0.10412416
8	0x3d061963	0.032739054
9	0x3d9dd15e	0.07705949
10	0xbd8291b9	-0.06375451
11	0x3d8f74a1	0.07004667
12	0x3cf74a78	0.030186877
13	0x3da6ae7f	0.08138751
14	0xbc476bb4	-0.0121716745
15	0xbdc11ee1	-0.09429718
16	0x3da4f99f	0.08055424
17	0x3d9e86b4	0.07740536
18	0xbda94d21	-0.08266664
19	0xbda69aa4	-0.08134964
20	0xbd15db96	-0.036586367
21	0xbdbe9398	-0.09305495
22	0xbdee15a9	-0.11625225
23	0x3dd056bf	0.101727955
24	0x3b42baf0	0.0029713474
25	0xbdec94d5	-0.11551825
26	0xbd85cc1a	-0.0653307
27	0xbd0485eb	-0.032354277
28	0xbc3db923	-0.011579785
29	0x3c6fedab	0.014644067
30	0xbd6da895	-0.0580221
31	0x3d8f1a65	0.06987456
32	0xbc5408ad	-0.012941522
33	0xbe02f244	-0.1278773
34	0xbe132d79	-0.14372815
35	0xbdfdf507	-0.12400251
36	0x3d63c535	0.055607993
37	0xbd234e7c	-0.03986977
38	0xbe186aa4	-0.1488443
39	0x3dc67a95	0.096913494
40	0x3e0c71d4	0.13715297
41	0xbdab3f75	-0.08361713
42	0xbd34ecc1	-0.0441711
43	0xbd955a7e	-0.07292651
44	0xbd28d53d	-0.041218985
45	0xbd4050b8	-0.04695198
46	0x3d0cd044	0.034378305
47	0xbd8296da	-0.06376429
48	0xbc4d484b	-0.012529443
49	0x3df6bba4	0.12047508
50	0x3e06df1b	0.13171045
51	0x3e2ac8d3	0.16678171
52	0x3d77aa93	0.060465407
53	0x3e5a2030	0.21301341
54	0x3e290ad1	0.16508032
55	0x3d764609	0.060125384
56	0x3d31c60e	0.04340177
57	0x3e8eec30	0.27914572
58	0x3d8d851b	0.069101535
59	0x3da8ee07	0.08248525
60	0x3e1a70fe	0.15082166
61	0xbd60f592	-0.054921694
62	0x3e398041	0.18115331
63	0x3dde35b4	0.10850087
64	0x3deeaf7d	0.116545655
65	0x3d444f33	0.047927093
66	0x3cfe41f8	0.031037316
67	0x3d86bcf1	0.065790065
68	0x3e50e31b	0.20399134
69	0x3bba9ffb	0.0056953407
70	0xbd274a99	-0.040842626
71	0xbd5ffd7c	-0.0546851
72	0xbd1871cf	-0.03721791
73	0xbdb33e00	-0.0875206
74	0xbcb480ba	-0.022034038
75	0x3d8366e6	0.06416111
76	0xbbc4c06d	-0.0060043843
77	0x3de51e6a	0.11187442
78	0x3c23f242	0.010006489
79	0x3d6bdd60	0.057584167
80	0xbcb748dc	-0.02237361
81	0xbdf19d80	-0.11797619
82	0x3d97518a	0.07388599
83	0x3d8021ff	0.06256484
84	0x3d430791	0.047614638
85	0x3dc3e9b6	0.09566061
86	0x3d37d3b4	0.04487963
87	0x3e2ea42d	0.17054816
88	0xbc1c1994	-0.009527583
89	0x3dd80fb5	0.10549871
90	0x3ce5550a	0.027994651
91	0x3e0fac81	0.14030649
92	0x3d10215f	0.035188075
93	0x3c9cd2a0	0.019143403
94	0x3e07c9ee	0.13260624
95	0xbc152a58	-0.009104334
96	0x3d7171dd	0.05894648
97	0xbdfaeb25	-0.122518815
98	0xbd4a7115	-0.04942425
99	0x3def66ad	0.11689506
100	0x3b6ce948	0.0036149789
101	0xbc33cfb8	-0.010974817
102	0xbc981ebc	-0.018569343
103	0xbc763e15	-0.01502945
104	0x3de144bb	0.109994374
105	0x3e17a892	0.14810398
106	0xbdf66f18	-0.12032908
107	0x3e10bbad	0.14134093
108	0x3d8c19af	0.06840836
109	0xbd4c5899	-0.04988918
110	0x3d4279b4	0.047479346
111	0x3dc26ee4	0.09493807
112	0xbe13dda7	-0.14440022
113	0xbd85b6a5	-0.06528977
114	0x3e045ba2	0.1292558
115	0xbe095895	-0.13412698
116	0x3d230305	0.0397978
117	0xbd911f2c	-0.07086024
118	0xbbb9d1f1	-0.005670779
119	0x3d8caf25	0.06869344
120	0xbc1ae4b6	-0.009453943
121	0xbd84aa9a	-0.06477852
122	0x3d9387d8	0.072036445
123	0x3c17a581	0.009255768
124	0xbdf563ad	-0.11981902
125	0x3d7515a5	0.059835095
126	0x3e790798	0.24319303
127	0x3e5e0714	0.21682388
128	0xbc36ce77	-0.0111576235
129	0x3d2c6f3d	0.042098273
130	0xbdb48c9f	-0.08815884
131	0x3d810945	0.06300596
132	0x3dcdb4ba	0.100442365
133	0x3daf469c	0.085583895
134	0xbd98f22f	-0.07468068
135	0x3d55c87f	0.05219316
136	0xbded955c	-0.11600754
137	0x3d46d30c	0.048541114
138	0xbe1393ed	-0.14411898
139	0xbdac8608	-0.08424002
140	0xbd106b30	-0.035258472
141	0x3df003f8	0.11719507
142	0x3dfdacb6	0.123864576
143	0x3dd8f441	0.10593463
144	0x3deae900	0.114702225
145	0x3dcdc6dd	0.10047696
146	0x3dccf4eb	0.10007652
147	0xbca88d0e	-0.020575073
148	0xbdabaae4	-0.08382204
149	0xbdba15ca	-0.09086187
150	0x3d6728cb	0.056435388
151	0x3e371790	0.17880082
152	0x3e52a056	0.20568976
153	0x3da1fd33	0.07909622
154	0x3a970433	0.0011521637
155	0xbddaf11f	-0.106905214
156	0x3e0bfb62	0.13670114
157	0xbc2611be	-0.010136066
158	0xbddc97b1	-0.1077112
159	0xbdad2547	-0.08454376
160	0xbde8ab67	-0.113608174
161	0x3e19ade1	0.15007736
162	0x3e10726c	0.14106148
163	0xbde37c8d	-0.111077406
164	0xbe0719a5	-0.13193376
165	0xbd627cf3	-0.055294942
166	0xbdbb322c	-0.09140429
167	0x3dace2f5	0.08441726
168	0x3ce242c0	0.02761972
169	0x3c9fd0c2	0.019508723
170	0x3dd64212	0.10461821
171	0x3e7364bb	0.23768894
172	0xbb420120	-0.0029602721
173	0xbde216c4	-0.110394984
174	0x3d9cf30a	0.076635435
175	0xbd75593f	-0.059899565
176	0x3da403bf	0.08008527
177	0x3bd318fb	0.006442187
178	0x3d90ace9	0.0706423
179	0x3dbad1b4	0.09122029
180	0xbdb5cc56	-0.088768646
181	0x3c1c46d7	0.009538374
182	0x3dd77a9d	0.105214335
183	0xbd64f3d2	-0.055896588
184	0xbd9a5a61	-0.0753677
185	0xbdf04d34	-0.11733475
186	0xbd417d19	-0.047238443
187	0x3e13479e	0.14382789
188	0xb6c9bc69	-6.0122006e-06
189	0xbc147b7f	-0.009062647
190	0x3ca922bd	0.020646447
191	0xbe18e4a5	-0.14930971
192	0xbc5c25fd	-0.0134367915
193	0xbd275f77	-0.040862527
194	0xbcd878cc	-0.026424788
195	0xbdb27df5	-0.08715431
196	0x3d9303be	0.07178448
197	0xbd8498b7	-0.064744405
198	0x3bd426d2	0.0064743543
199	0xbcb2545e	-0.021768745
200	0x3d465156	0.04841741
201	0xbe0c5679	-0.13704862
202	0x3d1226ab	0.035681408
203	0x3baf4cd4	0.005349735
204	0xbd821377	-0.06351369
205	0xbc43fd37	-0.011962227
206	0xbd18ba86	-0.037287258
207	0x3da5dbd8	0.080985725
208	0x3e1769ad	0.14786406
209	0xbdc2b56d	-0.095072605
210	0x3e0bf965	0.13669355
211	0x3dc6f4e2	0.097146764
212	0x3e5b0fcf	0.21392749
213	0x3e4942e7	0.19654427
214	0xbca5c83f	-0.020237086
215	0x3cdeaa28	0.027180746
216	0x3d656255	0.05600198
217	0x3e454845	0.1926585
218	0x3e3388df	0.17532681
219	0x3d7b4d7c	0.06135319
220	0x3e05299a	0.13004151
221	0x3cfe5103	0.031044489
222	0xbe1a38a8	-0.15060675
223	0x3dbdf400	0.09275055
224	0x3b7e7e3d	0.0038832568
225	0x3e0589c7	0.13040839
226	0x3e1e0344	0.15430933
227	0xbd4dfa0a	-0.050287284
228	0x3d096439	0.033542845
229	0x3e054a89	0.13016714
230	0x3d933a22	0.07188822
231	0xbda5902d	-0.0808414
232	0x3e1f850e	0.155781
233	0x3d953b0c	0.07286653
234	0x3d1d3284	0.038378254
235	0xbde365e7	-0.11103421
236	0xbd309384	-0.043109432
237	0x3dfc067b	0.123059236
238	0x3e01ddd5	0.12682278
239	0xbca46f42	-0.020072583
240	0xbe1aab43	-0.15104394
241	0xbe02d24a	-0.12775531
242	0xbd5085c3	-0.050908815
243	0xbd6c6dec	-0.057722017
244	0x3d9aa59d	0.075511195
245	0xba99d45e	-0.0011736264
246	0x3d9ecffb	0.07754513
247	0xbd6ff5be	-0.058583967
248	0xbdb4d1af	-0.088290565
249	0xbd93272c	-0.07185206
250	0xbd97ea2f	-0.07417714
251	0xbd64dfad	-0.055877376
252	0xbe28c218	-0.16480291
253	0xbcf7e281	-0.030259373
254	0x3d966b0b	0.073446356
255	0xbe0523cf	-0.13001941

conv1.bias f4 [16]
0	0xbd298c4f	-0.041393574
1	0xbda03c66	-0.0782402
2	0xbe538928	-0.2065779
3	0x3d59277c	0.05301617
4	0x3d245325	0.040118355
5	0xbd85778f	-0.065169446
6	0x3e083617	0.13301884
7	0x3b00dcaf	0.0019662788
8	0x3db9303d	0.09042404
9	0x3dd07bf7	0.101798944
10	0x3e179cad	0.14805861
11	0x3db1b950	0.08677924
12	0xbdcd82f3	-0.10034742
13	0x3d0b4038	0.03399679
14	0xbd4f5877	-0.050621476
15	0xbdaa132f	-0.0830444

conv2.weight f4 [32, 16, 4, 4]
0	0xbc2bd4a2	-0.010487707
1	0xbd85ee7c	-0.06539628
2	0x3a939bf6	0.001126169
3	0xbb1d34da	-0.00239878
4	0x3db42f2e	0.08798061
5	0xbddbaf68	-0.107268155
6	0x3dc420b4	0.0957655
7	0x3a6d6995	0.00090565655
8	0x3c37071f	0.011171131
9	0x3be86764	0.0070924032
10	0x3d3c6810	0.04599768
11	0xbd5d0b61	-0.05396593
12	0xbd0eb1a6	-0.034837388
13	0xbe0da1d7	-0.13831268
14	0xbce53b67	-0.027982427
15	0xbd4f3f3d	-0.050597418
16	0x3bb82d20	0.0056206137
17	0xbd3f75ea	-0.04674331
18	0x3d13ac0c	0.03605275
19	0x3c7020ef	0.0146562895
20	0xbd2bf1f4	-0.04197879
21	0x3d6e5329	0.058184776
22	0x3d9ecaf8	0.07753557
23	0xbd1d8e0b	-0.03846554
24	0xbd273a26	-0.04082694
25	0x3d9ba30a	0.075994566
26	0xbc24a652	-0.0100494195
27	0x3d0ee84e	0.03488951
28	0xbd9f0592	-0.07764734
29	0x3dff4cad	0.124657966
30	0xbc6fe64e	-0.014642311
31	0xbd0765a1	-0.033055905
32	0x3df57d9c	0.11986849
33	0x3d9e5080	0.07730198
34	0x3c9d0ca1	0.019171061
35	0x3ce723b8	0.028215274
36	0xbd8fb219	-0.07016391
37	0x3cb88b02	0.022527222
38	0x3d17554d	0.036946584
39	0xbdbe7594	-0.0929977
40	0x3d66a6cc	0.056311414
41	0xbd9e7fee	-0.077392444
42	0x3c8c7ca5	0.017149279
43	0x3dc75ff6	0.097351
44	0x3d7272c3	0.059191477
45	0x3d950f1e	0.07278274
46	0x3d1bf1ad	0.038072277
47	0xbd062822	-0.032753117
48	0x3ce2c7a4	0.027683087
49	0x3d3cfe53	0.04614098
50	0x3dbc247c	0.09186646
51	0xbd9d3886	-0.076767966
52	0xbcec6794	-0.028857984
53	0xbc39a7ae	-0.011331482
54	0x3be5cd9e	0.007013037
55	0x3d9c7918	0.07640284
56	0xbcebf04b	-0.028801104
57	0x3c8c8fe5	0.017158458
58	0x3dae6c6d	0.08516774
59	0x3d6daf08	0.05802825
60	0xbd9a5deb	-0.07537445
61	0x3cd3c2a7	0.025849653
62	0xbe2bdffa	-0.16784659
63	0xbcb11c86	-0.021620046
64	0xbd896bee	-0.06710039
65	0xbd464870	-0.048408926
66	0xbdaf8161	-0.08569599
67	0x3cf7af0a	0.030234832
68	0xbda60f4b	-0.08108386
69	0xbc635923	-0.013876232
70	0x3df2531f	0.1183226
71	0x3a552322	0.00081305404
72	0x3db167f1	0.086624034
73	0xbc52745a	-0.012845123
74	0xbd8b5d51	-0.06804908
75	0x3da553d0	0.080726266
76	0x3d883e94	0.06652561
77	0x3d27ba21	0.04094899
78	0x3e0326e2	0.12807801
79	0xbdca4c6e	-0.09877859
80	0xbc851c7f	-0.01624894
81	0xbd6cb446	-0.05778911
82	0x3d3334bf	0.043751474
83	0xbc57df3d	-0.013175783
84	0x3d951998	0.07280272
85	0xbd06540c	-0.032794997
86	0xbd820f34	-0.06350556
87	0x3da0042a	0.07813294
88	0x3d1cb83d	0.03826164
89	0xbd92bde4	-0.07165125
90	0x3d8bf066	0.06832962
91	0x3b50afa5	0.0031842974
92	0xbd369009	-0.044570956
93	0xbc477929	-0.012174883
94	0xbd54133a	-0.05177615
95	0x3d232fe1	0.039840583
96	0x3cbea9f9	0.023274409
97	0xbcacf3ef	-0.02111241
98	0xbb82a9af	-0.003987513
99	0x3e2caf93	0.16863851
100	0x3df84ace	0.12123643
101	0xbcc21917	-0.023693604
102	0xbd0cd881	-0.03438616
103	0x3d0d9b29	0.0345718
104	0xbcfa24d4	-0.03053514
105	0xbbb60416	-0.0055546863
106	0xbc1c7aa8	-0.009550728
107	0x3c299dae	0.010352535
108	0x3c59377a	0.013257856
109	0x3d037cad	0.032101322
110	0x3e20abd8	0.15690553
111	0x3d36a4e3	0.044590842
112	0x3da059ac	0.078296036
113	0xbc8c80e5	-0.017151305
114	0xbcae7702	-0.021296982
115	0x3ca0e135	0.019638637
116	0xbc936e1d	-0.017996842
117	0x3dc83aa0	0.09776807
118	0xbd9d7ad9	-0.07689447
119	0xbabcd2f5	-0.0014406132
120	0xbd87ddc7	-0.066340975
121	0xbd70dbd1	-0.058803383
122	0x3d8eca73	0.06972208
123	0x3ce826c4	0.028338797
124	0x3d865ada	0.06560297
125	0x3d8ca7a8	0.068679154
126	0xbc553146	-0.013012236
127	0xbccf78ed	-0.025326217
128	0x3d4ec67a	0.05048225
129	0xbd968e32	-0.0735134
130	0x3d45b9c4	0.048272863
131	0x3c1ee902	0.009699108
132	0xbd68fcf8	-0.056881875
133	0x3dc19c5e	0.09453653
134	0xbdc7bd89	-0.09752948
135	0x3aeb0732	0.0017931222
136	0x3c9a236c	0.018815719
137	0xbdb06912	-0.086137906
138	0x3ddcce0d	0.107814886
139	0xbc9913df	-0.018686233
140	0xbdcce9ad	-0.100055076
141	0x3c41273c	0.011789139
142	0x3ca04439	0.019563781
143	0xbce9dcf2	-0.028547738
144	0xbd8b1f3d	-0.067930676
145	0xbe0a51db	-0.13507788
146	0xbc78849c	-0.015168335
147	0x3d807862	0.06272961
148	0xbcac62f2	-0.021043275
149	0x3d8369eb	0.064166866
150	0x3e2111fc	0.15729517
151	0x3da71cd2	0.08159794
152	0xbe001f27	-0.12511884
153	0xbb0e5597	-0.0021718496
154	0xbd9efee1	-0.07763458
155	0x3d4cdaac	0.05001323
156	0xbe0cee50	-0.13762784
157	0xbde28d2a	-0.11062081
158	0x3d09685a	0.033546783
159	0x3d7725aa	0.060338654
160	0xbd0dd137	-0.03462335
161	0xbdb3928f	-0.08768188
162	0xbd29a235	-0.04141446
163	0xbdb23886	-0.08702187
164	0xbc6efa55	-0.014586051
165	0xbd058f7b	-0.032607537
166	0xbe08e7b5	-0.13369639
167	0xbc43bccc	-0.011946868
168	0xbc8e8452	-0.01739708
169	0xbdac33aa	-0.08408292
170	0xbbc7b4f9	-0.0060945717
171	0x3d724ff5	0.059158284
172	0xbd297418	-0.04137048
173	0x3c70340f	0.014660849
174	0x3cf017d2	0.029308233
175	0x3d2a6bd5	0.041606743
176	0x3bbb2125	0.0057107382
177	0xbc8022f9	-0.015641676
178	0xbc91fe73	-0.017821526
179	0xbae7a9da	-0.0017674521
180	0xbbfde37f	-0.007748067
181	0xbe0da242	-0.13831428
182	0x3b18ea05	0.0023332846
183	0xbdaaa8a5	-0.08332948
184	0x3c80210d	0.01564076
185	0xbc8a4a03	-0.016880995
186	0xbd3178e2	-0.043328173
187	0x3d446fb2	0.047958083
188	0x3cca3f0b	0.024688264
189	0xbdd98fe2	-0.106231466
190	0xbd11d861	-0.035606746
191	0x3d87186c	0.06596455
192	0x3d551c69	0.052029047
193	0x3d023115	0.03178509
194	0xbdf11f6e	-0.11773573
195	0xbb87856d	-0.0041357786
196	0xbd78b044	-0.060714975
197	0x3cf781d5	0.030213276
198	0x3d1687f7	0.03675076
199	0x3d5c6760	0.053809524
200	0x3d58e1b1	0.05294961
201	0x3cfeed96	0.03111915
202	0xbdb229b4	-0.086993605
203	0x3db5c29a	0.08875008
204	0x3b849568	0.004046131
205	0xbd852e23	-0.065029405
206	0x3da3d3b3	0.07999363
207	0x3bffab59	0.0078024087
208	0xbc05223d	-0.008125839
209	0xbdb975ba	-0.09055658
210	0x3ca46507	0.020067705
211	0x3e37fb03	0.17966847
212	0xbd8931e2	-0.066989675
213	0xbd2fca3a	-0.042917468
214	0x3d2e4028	0.042541653
215	0xbb837d83	-0.004012765
216	0x3d8b9087	0.06814676
217	0xbdae71e9	-0.085178204
218	0x3be6f0c9	0.007047747
219	0x3cd4ac96	0.025961202
220	0xbd1f70d0	-0.038925946
221	0x3c724ee8	0.0147893205
222	0x3d97b766	0.07408027
223	0x3d254519	0.0403491
224	0x3daf59a7	0.08562022
225	0xbccbf9e5	-0.024899432
226	0xbd508c18	-0.050914854
227	0xbda02cab	-0.0782102
228	0xbd0f29cb	-0.034951966
229	0xbd96bb98	-0.073599994
230	0x3d2197ab	0.039451282
231	0xbd157214	-0.036485747
232	0x3af1606d	0.0018415578
233	0xbddb2798	-0.10700911
234	0xbca27e40	-0.019835591
235	0xbdcbe864	-0.09956434
236	0xbd046b5f	-0.03232896
237	0x3d5681d3	0.052369904
238	0x3d9b9c91	0.07598222
239	0x3d583613	0.052785944
240	0x3d575a66	0.052576445
241	0xbcdf0dd4	-0.027228273
242	0x3dd7e51c	0.10541746
243	0xbdbb535b	-0.09146758
244	0x3cc8b823	0.024501866
245	0xbd608910	-0.054818213
246	0xbd6654ac	-0.056233093
247	0x3e048b6c	0.1294381
248	0xbd916570	-0.07099426
249	0x3c3af589	0.011411079
250	0x3ce5ecce	0.028067019
251	0x3c04d6e3	0.008107874
252	0x3dc496b4	0.09599057
253	0x3c3ab66f	0.011396035
254	0x3cfd2c18	0.030904815
255	0xbdb7eec1	-0.089810856

conv2.bias f4 [32]
0	0xbc46e613	-0.012139815
1	0x3ccbca73	0.024876809
2	0xbd4a96b2	-0.04946012
3	0x3d95a3fc	0.07306668
4	0xbdf04dd4	-0.117335945
5	0xbb83771d	-0.004012002
6	0xbd723c3b	-0.05913947
7	0x3b921433	0.0044579743
8	0xbdc35d61	-0.09539295
9	0x3c34f7af	0.0110453805
10	0xbdaf9943	-0.08574154
11	0x3cdce040	0.0269624
12	0x3d0c3ad5	0.034235794
13	0x3d0da3d0	0.034580052
14	0xbde884f7	-0.11353486
15	0xbdcf5cfe	-0.10125159
16	0xbde465f9	-0.11152262
17	0x3e038679	0.12844266
18	0xbd849e43	-0.064754985
19	0xbcfeda20	-0.03110987
20	0xbb8e59f5	-0.00434422
21	0x3d122b1a	0.035685636
22	0x3ce7e1af	0.028305857
23	0xbd1ddcfb	-0.03854082
24	0xbd3df5ee	-0.046377115
25	0xbdce0370	-0.100592494
26	0xbd2492b8	-0.040178984
27	0x3d44ed42	0.04807783
28	0x3d6a41b5	0.05719157
29	0xbc28b015	-0.0102958875
30	0x3c3b98ac	0.011449974
31	0x3d591276	0.05299612

fc1.weight f4 [32, 512]
0	0xbd823005	-0.06356815
1	0xbda32b2a	-0.07967217
2	0x3c86dfb9	0.016464101
3	0xbd74a3ae	-0.05972641
4	0x3d6a8f7f	0.057265755
5	0xbceb6390	-0.028733999
6	0xbd1e1d55	-0.038602192
7	0x3c78444b	0.015153001
8	0x3dc259d8	0.094897926
9	0x3cc2fd6c	0.023802482
10	0x3b1d98ea	0.0024047443
11	0xbd964cca	-0.07338865
12	0xbd78bb05	-0.06072523
13	0xbcdf25a3	-0.027239626
14	0xbd07253c	-0.032994494
15	0x3ac7a030	0.0015230235
16	0xbd705f0e	-0.0586844
17	0x3d5bc184	0.053651348
18	0xbc60d792	-0.013723271
19	0xbd3003ef	-0.0429725
20	0x3d858bc4	0.06520799
21	0x3d23c8cb	0.039986413
22	0x3daf0d62	0.085474744
23	0xbd907adb	-0.07054683
24	0x3dba21a2	0.09088446
25	0x3d644715	0.05573185
26	0xbd838b4d	-0.06423054
27	0x3da4ba33	0.08043327
28	0xbc8f3e5f	-0.017485796
29	0xbd87d6b5	-0.06632749
30	0xbbdc8c69	-0.0067306054
31	0x3cfbbe7d	0.03073048
32	0xbd038474	-0.03210874
33	0xbcaf2eaf	-0.021384565
34	0xbd2e4bc2	-0.042552717
35	0xbd8f0541	-0.06983424
36	0xbce8e1f4	-0.028428055
37	0xbdd758ce	-0.10514985
38	0x3da1b511	0.07895864
39	0xbc3ed31e	-0.011647014
40	0xbbea4e34	-0.007150436
41	0x3d617c70	0.055050313
42	0x3dfc5e9b	0.12322732
43	0x3c33299b	0.0109352125
44	0xbce30636	-0.027712923
45	0x3c1db17a	0.009624833
46	0xbda46dd2	-0.08028759
47	0xbd8b9a19	-0.06816501
48	0x3b957c23	0.0045619174
49	0xbcfe86f9	-0.03107022
50	0x3e0bb9be	0.13645074
51	0x3c6313a4	0.013859663
52	0xbd4c39e4	-0.049859896
53	0xbc8d097e	-0.01721644
54	0x3c477e30	0.012176082
55	0x3c4feeeb	0.01269124
56	0x3d9c0ae5	0.076192655
57	0x3cf7d850	0.030254513
58	0x3b61a5ef	0.003443118
59	0x3bdb5c00	0.006694317
60	0xbda967e0	-0.08271766
61	0x3cbbeb3c	0.022939317
62	0x3db05b45	0.08611158
63	0x3d85ef2a	0.065397575
64	0x3d16fb9e	0.036861055
65	0x3d67c9f3	0.05658908
66	0xbbe1bbf1	-0.0068888594
67	0xbb8ac2bd	-0.0042346404
68	0x3bc64e8a	0.006051843
69	0x3d786d6b	0.060651224
70	0xbdbbd7b0	-0.091719985
71	0xbd906359	-0.07050199
72	0x3d50d839	0.050987456
73	0x3c56eb25	0.013117586
74	0x3ce4acb6	0.027914386
75	0xbcf223da	-0.029558111
76	0xbd639b4a	-0.055568017
77	0x3dae4913	0.085100316
78	0xbd12c096	-0.035828196
79	0x3993110a	0.0002805072
80	0x3d57631b	0.05258475
81	0xbd9649b2	-0.07338275
82	0x3dc90e6a	0.098172024
83	0xbd5ab80b	-0.053398173
84	0xbd04060f	-0.03223234
85	0xbafa079c	-0.0019075754
86	0x3d157c9d	0.036495794
87	0x3ca32208	0.019913688
88	0x3d7775e0	0.06041515
89	0x3acc554a	0.0015589383
90	0x3df4ccba	0.11953111
91	0xbc672d9b	-0.014109994
92	0x3d3600b7	0.044434275
93	0x3d533a2b	0.051569145
94	0xbc876f08	-0.016532436
95	0xbbe3d875	-0.006953294
96	0xbdede03e	-0.116150364
97	0x3d1c5f22	0.038176663
98	0xbda97921	-0.08275057
99	0xbdccddac	-0.10003218
100	0xbd676ad8	-0.05649838
101	0xbc526dd0	-0.012843564
102	0xbd97210f	-0.07379352
103	0xbce3075f	-0.027713476
104	0x3da5aa9f	0.08089184
105	0x3d171ca4	0.03689255
106	0x3cd7823d	0.02630722
107	0x3cb370f3	0.021904444
108	0x3d57c200	0.052675247
109	0xbcc6b7c7	-0.024257554
110	0xbcd6cd19	-0.026220845
111	0xbd8289d7	-0.06373947
112	0xbd3a88fd	-0.0455408
113	0xbba85cd5	-0.0051380196
114	0x3cc7ec5c	0.024404697
115	0x3d6e0371	0.05810875
116	0x3cdfaa9e	0.027303036
117	0xbb8e26e0	-0.0043381304
118	0x3d9a65b3	0.07538929
119	0xbc9c89cc	-0.019108675
120	0x3db62402	0.08893587
121	0x3c536124	0.012901578
122	0xbd65e8b6	-0.056130134
123	0xbc8168e5	-0.015797088
124	0x3bc6bb2c	0.006064793
125	0x3c9f4245	0.01944078
126	0x3d347865	0.04406013
127	0xbd18929f	-0.037249204
128	0x3b07f686	0.0020746305
129	0xbd039b0e	-0.032130294
130	0xbdba2c3f	-0.090904705
131	0x3bafe4aa	0.005367835
132	0x3d9f332d	0.07773433
133	0xbc49885f	-0.01230058
134	0xbc57fadf	-0.013182371
135	0x3d343351	0.04399425
136	0xbd4489a2	-0.04798282
137	0xbd8ecc7e	-0.069725975
138	0x3dd6d98c	0.104907125
139	0x3aa349f8	0.0012457957
140	0x3d31daf9	0.04342172
141	0x3d9cd55a	0.07657881
142	0x3cede45d	0.029039556
143	0x3d8acc64	0.06777266
144	0x3d1e4d7c	0.038648114
145	0xbb6d1aa4	-0.003617921
146	0xbd809aeb	-0.06279548
147	0x3bb6b443	0.005575688
148	0xbcf12586	-0.029436838
149	0xbe1a3cf2	-0.15062311
150	0xbd036099	-0.032074545
151	0x3db9e436	0.09076731
152	0xbbe42e55	-0.006963531
153	0x3dc6e899	0.09712333
154	0x3decf527	0.115701966
155	0x3d1d44a2	0.03839553
156	0x3cace70d	0.021106267
157	0xbd121bc7	-0.03567102
158	0xbbaf6fbc	-0.005353896
159	0x3de52d0b	0.11190232
160	0xbd5828e0	-0.052773356
161	0xbd55d854	-0.05220826
162	0x3d9b3d36	0.075800344
163	0x3dbff7df	0.093734495
164	0x3d842141	0.06451655
165	0x3d4013af	0.04689377
166	0x3d5aeebd	0.053450335
167	0xbd0f9c56	-0.035061203
168	0xbd13cb21	-0.03608239
169	0x3d1b1638	0.037862986
170	0xbc6c618b	-0.014427553
171	0xbd49197a	-0.049096562
172	0xb90e7188	-0.00013584469
173	0x3d317b9d	0.043330777
174	0x3d5d703e	0.05406212
175	0x3d4a398b	0.049371284
176	0xbd9ca3fe	-0.076484665
177	0xbd430cde	-0.047619693
178	0x3dfa7c9f	0.12230801
179	0x3d865565	0.065592565
180	0x3d2e54ef	0.042561468
181	0x3d622bb6	0.055217467
182	0x3d828d4e	0.06374608
183	0x3e0a3f22	0.13500646
184	0x3c68013d	0.0141604515
185	0x3c19168d	0.009343755
186	0x3d31727b	0.043322068
187	0xbdc954c4	-0.09830621
188	0x3d7e23e8	0.06204596
189	0x3c871ad4	0.016492285
190	0xbbb89b90	-0.005633779
191	0xbc57eedc	-0.013179507
192	0xbc8a6811	-0.016895326
193	0xbd2a1a57	-0.041529026
194	0x3d02a30b	0.03189377
195	0xbd023e8d	-0.031797934
196	0x3da29636	0.07938807
197	0x3cf8c065	0.030365178
198	0xbd822660	-0.06354976
199	0xbcc278d4	-0.023739256
200	0x3c11d46b	0.008900742
201	0x3cc32822	0.023822848
202	0x3d8ca352	0.068670884
203	0xbdaf28b0	-0.085526824
204	0xbd04051b	-0.03223143
205	0x3db6fc4d	0.08934841
206	0x3d18d26d	0.037310053
207	0x3d9edea8	0.07757312
208	0x3d866b8b	0.06563481
209	0x3e018dd6	0.12651762
210	0x3bd379e8	0.0064537413
211	0xbca3561c	-0.019938521
212	0xbbf76e0f	-0.007550962
213	0xbdcd7563	-0.10032155
214	0x3c8bdb4d	0.017072344
215	0xbd2be808	-0.04196933
216	0x3dcf299d	0.10115359
217	0x3cabaabf	0.020955442
218	0x3d260676	0.040533505
219	0xbd3f375e	-0.04668366
220	0xbc88e5c9	-0.016711133
221	0xbd138fd5	-0.03602584
222	0x3c73c35f	0.014878123
223	0xbd1654d8	-0.036702007
224	0xbdf2d6d7	-0.11857384
225	0xbcbc5b84	-0.022992857
226	0xbc32c340	-0.010910809
227	0x3cef1ddc	0.029189043
228	0xbbf2059e	-0.0073859235
229	0xbc118e6c	-0.008884054
230	0xbdc2b057	-0.095062904
231	0x3cf3b2bc	0.029748313
232	0x3d59fcdc	0.05321966
233	0xbcba80cd	-0.022766495
234	0xbd6e140c	-0.058124587
235	0x3cc95ee7	0.024581386
236	0x3c985692	0.018595967
237	0x3d6faff6	0.05851742
238	0xbc85e0f5	-0.01634262
239	0x3d684bc7	0.056712892
240	0xbd7bb9e9	-0.061456595
241	0x3b847f29	0.004043479
242	0x3d85d872	0.06535424
243	0x3cafaeda	0.02144568
244	0xbca7a3dc	-0.020463876
245	0xbd2ebd5e	-0.042661063
246	0xbd6c68ed	-0.057717253
247	0xbca016ba	-0.019542087
248	0xbda09c2a	-0.07842286
249	0x3d7569b6	0.059915267
250	0x3d57a924	0.05265154
251	0xbd025bb4	-0.031825736
252	0x3cf9e431	0.030504318
253	0x3da21b08	0.07915312
254	0xbd27622c	-0.04086511
255	0xbd2c2c69	-0.04203454

fc1.bias f4 [32]
0	0x3d947542	0.07248928
1	0x3d9444b0	0.072396636
2	0xbcc4230b	-0.023942491
3	0x3cb4e1cf	0.02208033
4	0x3d696f8f	0.056991156
5	0xbdebf7a4	-0.11521843
6	0x3da9c7e6	0.08290081
7	0x3b33edc9	0.0027454963
8	0xbd8e4ac4	-0.06947854
9	0xbd69dae6	-0.057093523
10	0xbb404cb4	-0.0029342594
11	0xbd922531	-0.07136
12	0x3db99dc3	0.09063294
13	0xbb4814bd	-0.003052994
14	0xbdb55604	-0.08854297
15	0xbcf40e65	-0.02979202
16	0x3dd69244	0.10477117
17	0xbcba478b	-0.022739192
18	0x3d07b6e8	0.033133417
19	0xbd18280b	-0.037147563
20	0xbd5dccbe	-0.054150335
21	0xbd8b7a0e	-0.068103895
22	0xbc5644aa	-0.013077894
23	0xbd687c72	-0.056759305
24	0xbcd1544b	-0.02555289
25	0xbc159914	-0.009130735
26	0xbd3fb1f4	-0.04680057
27	0x3b82d71b	0.0039929277
28	0x3d5641b0	0.05230874
29	0xbdc62252	-0.09674515
30	0x3dadce78	0.084866464
31	0x3d8b361e	0.067974314

fc2.weight f4 [10, 32]
0	0xbbde6e5b	-0.0067880577
1	0xbb353d92	-0.0027655107
2	0x3d9588e0	0.073014975
3	0xbc81a863	-0.015827363
4	0x3def6ca2	0.11690642
5	0xbdfc91e8	-0.12332517
6	0x3ec72241	0.3889332
7	0xbe3f6a1a	-0.18692818
8	0xbe637685	-0.2221318
9	0xbe06ba07	-0.13156901
10	0xbe206161	-0.15662147
11	0xbb3d1e3e	-0.0028857137
12	0x3e2a1e09	0.1661302
13	0xbe0939ec	-0.13401002
14	0x3c61eddd	0.013789621
15	0xbe4cbec0	-0.1999464
16	0xbdf2efec	-0.11862168
17	0xbd5994c9	-0.05312041
18	0x3c84a26b	0.016190728
19	0x3dd07ada	0.10179682
20	0xbe6cf589	-0.23140539
21	0xbe4677c5	-0.19381626
22	0x3e5f93c4	0.21833712
23	0x3e20c730	0.15700984
24	0x3d9c855a	0.07642622
25	0x3df237f0	0.118270755
26	0xbe426dcd	-0.18987198
27	0xbe40a79c	-0.18813938
28	0xbe515023	-0.20440726
29	0xbdef44ec	-0.11683068
30	0x3e890a32	0.2676559
31	0xbead3133	-0.338266
32	0xbdee1686	-0.1162539
33	0xbdb3a3e9	-0.08771498
34	0x3e676fcb	0.2260124
35	0x3dae20be	0.08502339
36	0x3e19999b	0.15000002
37	0xbd07c0fb	-0.033143025
38	0xbe7ca65a	-0.24672833
39	0x3e650213	0.22364073
40	0x3e10c54f	0.14137767
41	0x3ead5b44	0.33858693
42	0xbe6bd357	-0.23029839
43	0x3c4d599a	0.01253357
44	0xbe1e6b28	-0.15470564
45	0xbe8dfdf1	-0.27732804
46	0xbe28136d	-0.1641366
47	0xbe454f68	-0.19268572
48	0x3d80ee68	0.062954724
49	0xbe524c04	-0.2053681
50	0xbd280a21	-0.041025285
51	0xbe55d398	-0.20881498
52	0xbcfb046c	-0.030641757
53	0xbc070696	-0.008241316
54	0x3eaa046f	0.33206508
55	0xbe7a379c	-0.24435276
56	0x3e284b9c	0.16435093
57	0xbe2243e7	-0.15846215
58	0x3e92d4b9	0.2867792
59	0xbdff44a1	-0.12464262
60	0xbd9f835b	-0.07788726
61	0xbd8c9116	-0.068636104
62	0xbe22f839	-0.15915002
63	0x3e0a83ab	0.1352679
64	0x3dda731c	0.106664866
65	0xbc94423f	-0.018097995
66	0xbd4791e4	-0.048723117
67	0xbd843773	-0.064558886
68	0xbe4296bb	-0.19002812
69	0xbe5c570b	-0.2151758
70	0x3decd642	0.11564304
71	0x3e8bedcb	0.2732986
72	0xbd780b4b	-0.060557645
73	0x3de10465	0.10987166
74	0x3e75881b	0.23977701
75	0xbe1b3a1f	-0.1515889
76	0x3d23caae	0.039988212
77	0x3c8d9527	0.017283035
78	0x3e2989da	0.16556492
79	0xbdb68fd6	-0.08914153
80	0xbdf52131	-0.119692214
81	0x3d1707c4	0.03687264
82	0x3d4e695a	0.05039344
83	0xbe0b8cff	-0.13628004
84	0x3d7c02a8	0.06152597
85	0xbe24978a	-0.16073433
86	0xbe1289c8	-0.14310372
87	0xbcb585fa	-0.022158612
88	0xbd5f56ff	-0.054526325
89	0x3d95d0ea	0.07315238
90	0xbe0a315b	-0.1349539
91	0x3d73304a	0.059372224
92	0x3d2f5b8e	0.042811923
93	0x3ea0cb50	0.31405115
94	0xbd0205f4	-0.03174396
95	0xbdcaabd0	-0.09896052
96	0x3d8d348a	0.06894787
97	0xbd964854	-0.07338014
98	0xbdc8b969	-0.09800989
99	0xbd344328	-0.044009358
100	0x3c5a7d3d	0.013335523
101	0xbd508692	-0.050909586
102	0xbdf7a709	-0.12092406
103	0xbe1cfc62	-0.15330651
104	0x3d1c5a17	0.038171854
105	0xbd71c427	-0.059024956
106	0x3d5b51c7	0.053544786
107	0x3a96fd52	0.0011519587
108	0xbe5a3400	-0.21308899
109	0x3dce1423	0.100624345
110	0x3aee6c56	0.0018190246
111	0xbcb5fba5	-0.02221472
112	0xbdc0d0c4	-0.09414819
113	0xbda1f1f2	-0.079074755
114	0x3c011433	0.007878351
115	0x3dd7ae43	0.10531285
116	0x3df55e33	0.11980858
117	0x3cbddcb9	0.023176538
118	0xbe6164dc	-0.22011131
119	0x3ddb0abc	0.10695407
120	0xbe41afed	-0.18914767
121	0x3eaf1489	0.34195355
122	0xbe3e8cbd	-0.18608375
123	0x3e5a688a	0.21328941
124	0x3e1606b3	0.14650993
125	0xbe4a5463	-0.19758753
126	0xbeaae592	-0.33378273
127	0x3e9ecd47	0.3101599
128	0x3d66e880	0.056374073
129	0xbe3b6ecf	-0.18303989
130	0x3ec3c5b8	0.38236785
131	0x3d825d91	0.063655026
132	0x3df27fd7	0.1184079
133	0xbe731ad5	-0.23740704
134	0xbe8bbbfb	-0.27291855
135	0xbe0bdc70	-0.13658309
136	0xbe319777	-0.17342936
137	0xbd3d2d93	-0.04618604
138	0x3e0fdaa5	0.1404825
139	0xbe1b90a3	-0.15191893
140	0x3d914395	0.070929684
141	0x3da1ebaf	0.07906281
142	0xbd56e4ba	-0.052464224
143	0x3eb05ed3	0.34447345
144	0x3df052e6	0.117345616
145	0xbdda953c	-0.106729954
146	0xbe2c6d04	-0.16838461
147	0xbd913aa0	-0.0709126
148	0xbe2ca633	-0.16860275
149	0xbda24b41	-0.0792451
150	0x3d1f3b78	0.038875073
151	0xbe498fdd	-0.19683786
152	0xbe2fc7c7	-0.17166053
153	0xbe7de480	-0.24794197
154	0x3dd29304	0.10281947
155	0x3df0bc2c	0.11754641
156	0xbe954ba5	-0.29159275
157	0x3e41dad6	0.18931136
158	0x3ea92bcb	0.33041224
159	0xbe697bf8	-0.22801197
160	0x3e3dce0e	0.18535635
161	0xbe79467c	-0.24343294
162	0x3e003dd7	0.1252359
163	0xbe258931	-0.16165616
164	0x3b634254	0.0034676986
165	0x3e6a5412	0.22883633
166	0x3e4d9667	0.20076905
167	0xbdadb863	-0.084824346
168	0xbd679d3b	-0.05654643
169	0xbdf1c600	-0.11805344
170	0x3d4e78d2	0.050408192
171	0x3da5f7df	0.08103918
172	0xbcd184b1	-0.025575968
173	0x3e22d06d	0.1589982
174	0x3e33cbd8	0.17558229
175	0x3c1931b5	0.00935023
176	0xbdbbce34	-0.091701895
177	0x3e348953	0.1763051
178	0xbe03eaa7	-0.12882482
179	0xbcc42682	-0.023944143
180	0xbc7c0467	-0.015381909
181	0x3e497afb	0.1967582
182	0xbe48ea73	-0.19620685
183	0xbcf767eb	-0.03020092
184	0x3e386348	0.18006623
185	0xbe2473bd	-0.16059776
186	0xbe819e91	-0.2531629
187	0x3ccef9cc	0.025265597
188	0xbdab08fc	-0.08351323
189	0xbe2dbc27	-0.16966306
190	0xbd2989c7	-0.04139116
191	0x3e015a86	0.12632188
192	0x3e3096d4	0.17245036
193	0xbd95b96a	-0.073107556
194	0xbdbe0e2e	-0.09280048
195	0xbdec33dd	-0.1153333
196	0x3dd4a83a	0.10383649
197	0xbe05a373	-0.13050632
198	0x3d368bd4	0.044566944
199	0x3e0bef89	0.13665594
200	0xbe1c0eb7	-0.15239988
201	0x3e8da1b4	0.27662432
202	0x3e4e83a5	0.20167406
203	0xbdcf81dc	-0.101321906
204	0x3d05a1c8	0.03262499
205	0xbe6346d7	-0.22194992
206	0xbe124373	-0.14283542
207	0xbe3a657f	-0.1820278
208	0x3dcdf817	0.10057085
209	0xbd3d5de4	-0.04623212
210	0x3d87ba46	0.06627326
211	0xbd8248ce	-0.06361543
212	0xbe29d9fe	-0.16587064
213	0x3e5490b2	0.20758322
214	0xbd800520	-0.062509775
215	0xbe986212	-0.29762322
216	0xbdf68799	-0.12037582
217	0xbe3da104	-0.18518454
218	0xbc497782	-0.012296559
219	0x3d1b7461	0.037952784
220	0xbd50d0f5	-0.050980527
221	0xbd16d31d	-0.036822427
222	0x3eae0640	0.33989143
223	0xbe3709ff	-0.17874907
224	0x3e2de537	0.1698197
225	0xbdb92726	-0.0904067
226	0xbe0c88ef	-0.13724111
227	0x3d149652	0.03627617
228	0x3d8674d1	0.0656525
229	0xbe615f88	-0.22009099
230	0xbe001951	-0.12509657
231	0x3e5098f8	0.20370853
232	0xbd2f3bae	-0.042781524
233	0xbe24a393	-0.16078024
234	0xbe888782	-0.26665884
235	0x3dbd4c3b	0.092430554
236	0x3d00671a	0.031348325
237	0x3e6ee9e1	0.23331405
238	0x3def28f9	0.11677737
239	0x3e89b375	0.26894727
240	0xbe136b59	-0.14396419
241	0xbc860c14	-0.016363181
242	0x3d0d8321	0.034548882
243	0x3e4c13fc	0.19929498
244	0xbdb6a554	-0.089182526
245	0xbe23e933	-0.16006927
246	0xbc6db0bf	-0.014507472
247	0x3d9c4c7a	0.07631774
248	0x3e551351	0.2080815
249	0xbe3f30ab	-0.18670909
250	0xbcc39f9b	-0.023879817
251	0x3e03f30d	0.12885685
252	0xbdb6e8a3	-0.08931091
253	0x3e3f2664	0.18666989
254	0xbe08fe0d	-0.13378163
255	0x3dd93f25	0.10607747

fc2.bias f4 [10]
0	0x3d70ffef	0.058837827
1	0x3e009222	0.12555745
2	0xbe1b2976	-0.15152535
3	0x3ced1121	0.028938832
4	0x3dbde0db	0.092714034
5	0x3db0600b	0.08612069
6	0x3e1c9dd7	0.15294586
7	0x3e319b84	0.17344481
8	0x3b88068d	0.0041511715
9	0xbd84f049	-0.06491143
