Codes/mnist_cnn_mnist_15_False_0.1_1.0_1.0_64_1.pt (torch, 106255 bytes, 8 tensors)

conv1.weight f4 [16, 1, 8, 8]
-0.049628794 -0.04051474 0.064214855 0.043943215 0.18402892 -0.040686656 -0.025597528 0.008777905
0.009330531 -0.015222263 0.08671621 0.038156483 -0.073489256 0.01955815 0.17945495 -0.050525367
0.07352135 0.04702883 0.21244378 0.026839314 0.025107916 -0.11396945 0.03822318 0.050055522
0.08140785 -0.13303919 0.04400985 -0.091189004 0.03665965 -0.09845815 0.17390165 -0.0412906
0.11420101 0.08490498 0.12816861 -0.07528081 -0.15278365 0.044474524 -0.009293075 -0.14297539
0.18550369 0.16000417 -0.023262471 -0.011326165 0.04198351 0.021268899 -0.04062931 -0.0360361
0.13822836 -0.109552406 0.1639798 -0.07247486 -0.09423877 -0.12209398 -0.12384407 0.019613799
-0.05250946 0.064712174 0.034404933 -0.029183054 -0.03194906 -0.017499728 0.071446344 0.02164407
0.09492832 -0.037350424 -0.06742716 0.022577602 0.01117501 0.10882389 0.110619344 0.05721522
0.03571183 0.113623284 -0.105106845 0.09587859 0.1447616 0.030432701 0.22037612 0.16407907
0.0031654744 0.22952394 0.043190166 0.15804495 0.018617451 0.17299458 0.039341837 0.21113583
-0.0043635117 0.24859865 0.089775644 0.09521396 0.19669 0.057598002 0.13150936 0.16414534
0.06285043 0.10538223 -0.039220504 -0.05721043 -0.02942795 -0.16561382 -0.10760188 0.16108358
-0.16755198 -0.12112854 -0.16057043 -0.02868127 0.08744597 -0.22338659 0.082217894 0.059932325
-0.056565005 0.10401002 -0.06076487 -0.031671062 0.059416495 -0.14387287 -0.06543805 0.09056002
-0.11435437 -0.086613916 -0.28489044 -0.12758338 -0.05842335 0.08869514 0.016755592 -0.01669356
-0.0037911898 0.17077269 0.06454713 0.25241163 0.15606913 0.11993849 0.018590441 -0.022466866
0.07266821 0.054810084 0.1242166 0.17406334 0.19451737 0.13354142 0.03661858 0.1528921
-0.084308974 0.12437603 -0.03430537 0.03096539 0.21540439 0.17940678 0.18931617 0.08923409
-0.06915911 -0.112742946 -0.064298615 0.0592683 0.050035648 0.13245822 -0.023324946 0.17263927
0.047517333 0.09105323 0.010276982 -0.07300876 0.029423809 0.015171578 0.037711658 -0.032175876
-0.0860517 -0.14451417 -0.16935976 -0.032798246 0.004327025 0.11170107 -0.09838764 -0.14982364
-0.018786488 0.006311675 -0.04702694 -0.1066717 0.012456499 0.0008466946 0.01902555 -0.04137091
-0.010846622 -0.041184742 0.029845791 -0.09745027 0.11198499 -0.006685039 0.059194002 0.08155667
-0.05390615 -0.0036066205 0.16488072 0.13083045 0.047236387 0.13676456 -0.04019529 0.08934992
0.1931118 0.021397267 -0.064778835 -0.041126154 0.05722645 0.18174662 0.07300873 0.042802725
-0.17963023 -0.010098041 -0.0023805206 -0.10253985 -0.060153056 -0.06007409 0.080323055 0.06989396
0.05773144 0.18618406 0.04044759 -0.005539877 0.028099012 0.14360902 -0.05797366 0.1235325
-0.07583611 -0.05784537 0.04163866 0.14959544 0.026011277 -0.028075704 -0.021262523 0.050457142
0.18504633 -0.0048611374 -0.015404416 0.057844177 0.076552734 0.041173887 -0.00427997 -0.1200616
-0.008949833 -0.084353976 -0.131079 -0.0043465593 0.0048741037 0.0733703 -0.016673595 0.13533354
-0.00490799 0.0103526125 0.020524688 -0.12705207 -0.080533184 0.119672015 -0.10189122 -0.031907775
00000000: 9047 4bbd c9f2 25bd 1483 833d cdfd 333d
00000010: 1472 3c3e 0da7 26bd e8b1 d1bc 34d1 0f3c
00000020: 15df 183c cc66 79bc 4598 b13d f949 1c3d
00000030: 8981 96bd 6a38 a03c 0ac3 373e b0f3 4ebd
00000040: 5d92 963d 4da1 403d dd8a 593e 1fde db3c
00000050: 1eaf cd3c d168 e9bd e98f 1c3d 0507 4d3d
00000060: 29b9 a63d 6d3b 08be ac43 343d 4dc1 babd
00000070: 6e28 163d 6da4 c9bd 4613 323e 5520 29bd
00000080: 38e2 e93d aae2 ad3d a23e 033e d32c 9abd
00000090: 5173 1cbe eb2a 363d fb41 18bc 2468 12be
000000a0: aef4 3d3e 22d8 233e f090 bebc 6191 39bc
000000b0: e7f6 2b3d 1d3c ae3c eb6a 26bd 979a 13bd
000000c0: bc8b 0d3e 035d e0bd 52ea 273e b36d 94bd
000000d0: 4200 c1bd 690c fabd f6a1 fdbd 1ead a03c
000000e0: 2914 57bd d187 843d 30ec 0c3d 4d11 efbc
000000f0: 04dd 02bd 975b 8fbc 7652 923d e84e b13c
00000100: c769 c23d c2fc 18bd 4017 8abd aaf4 b83c
00000110: 6417 373c 0fdf de3d 658c e23d 825a 6a3d
00000120: 9146 123d 53b3 e83d 4242 d7bd ff5b c43d
00000130: 633c 143e 004e f93c 47aa 613e 5804 283e
00000140: d973 4f3b 5308 6b3e 2ce8 303d 89d6 213e
00000150: a083 983c 7e25 313e e824 213d fe33 583e
00000160: cafb 8ebb a590 7e3e 4bdc b73d 89ff c23d
00000170: 1a69 493e e2eb 6b3d 64aa 063e b715 283e
00000180: bab7 803d a3d2 d73d aea5 20bd 7c55 6abd
00000190: e212 f1bc ab96 29be 605e dcbd 18f3 243e
000001a0: bf92 2bbe 3d12 f8bd 936c 24be fcf4 eabc
000001b0: df16 b33d 74bf 64be db61 a83d 997b 753d
000001c0: b5b0 67bd 3503 d53d 96e4 78bd 84b9 01bd
000001d0: b65e 733d 6953 13be 6204 86bd 8877 b93d
000001e0: a032 eabd a362 b1bd 29dd 91be 38a5 02be
000001f0: 534d 6fbd cca5 b53d 0643 893c efc0 88bc
00000200: 9c75 78bb 09df 2e3e 4931 843d 193c 813e
00000210: 96d0 1f3e 50a2 f53d fb4a 983c 6f0c b8bc
00000220: 12d3 943d 8a80 603d 4665 fe3d a93d 323e
00000230: 902f 473e 15bf 083e 5dfd 153d bf8f 1c3e
00000240: 2faa acbd dcb8 fe3d ca83 0cbd 21ab fd3c
00000250: f892 5c3e 69b6 373e 19dc 413e 5dc0 b63d
00000260: 4ba3 8dbd c6e5 e6bd feae 83bd 51c3 723d
00000270: 2ef2 4c3d 21a3 073e f513 bfbc 59c8 303e
00000280: 89a1 423d 1e7a ba3d c960 283c 9e85 95bd
00000290: 330a f13c 3692 783c 8a77 1a3d daca 03bd
000002a0: e03b b0bd 86fb 13be a56c 2dbe 7457 06bd
000002b0: b7c9 8d3b 88c3 e43d 767f c9bd 5e6b 19be
000002c0: 1fe6 99bc 2bd2 ce3b 529f 40bd b176 dabd
000002d0: 5816 4c3c b6f4 5d3a 78db 9b3c 8b74 29bd
000002e0: 08b6 31bc 55b1 28bd 297f f43c 0294 c7bd
000002f0: 6358 e53d 2c0e dbbb 6975 723d 2f07 a73d
00000300: b2cc 5cbd 0d5d 6cbb 7ed6 283e 6bf8 053e
00000310: f17a 413d 020c 0c3e d1a3 24bd 17fd b63d
00000320: 1abf 453e 5249 af3c c4aa 84bd e673 28bd
00000330: 4866 6a3d c91b 3a3e 9a85 953d e951 2f3d
00000340: fdf0 37be 4172 25bc 8202 1cbb 6a00 d2bd
00000350: 0d63 76bd 4010 76bd 6a80 a43d 9124 8f3d
00000360: cd77 6c3d 09a7 3e3e 5fac 253d db87 b5bb
00000370: e62f e63c 3e0e 133e ca75 6dbd 9bfe fc3d
00000380: f64f 9bbd 44ef 6cbd 4d8d 2a3d 8c2f 193e
00000390: 9a15 d53c 05ff e5bc be2e aebc 26ac 4e3d
000003a0: c97c 3d3e 2d4a 9fbb ce62 7cbc 04ee 6c3d
000003b0: aec7 9c3d f3a5 283d fe3e 8cbb dbe2 f5bd
000003c0: 52a2 12bc c7c1 acbd 9339 06be 956d 8ebb
000003d0: f2b6 9f3b 2b43 963d 1097 88bc e094 0a3e
000003e0: 34d3 a0bb 019e 293c 6423 a83c f019 02be
000003f0: 95ee a4bd 9a16 f53d 58ac d0bd bab1 02bd

conv1.bias f4 [16]
0.050333805 0.13353167 0.001318951 -0.026856005 0.037317466 -0.09762312 -0.044201564 0.06531385
-0.013987705 -0.022388296 0.11359213 0.0047144894 0.051394116 0.02476108 0.034067076 0.14146453
00000000: d22a 4e3d 87bc 083e a7e0 ac3a 2001 dcbc
00000010: 33da 183d a1ee c7bd b30c 35bd 45c3 853d
00000020: b02c 65bc a967 b7bc fea2 e83d 017c 9a3b
00000030: a382 523d c0d7 ca3c eb89 0b3d 14dc 103e

conv2.weight f4 [32, 16, 4, 4]
-0.097896025 0.031829134 -0.051389445 -0.03256392 0.0004817905 -0.014924337 0.010356171 -0.07183465
-0.089966394 0.051837336 0.04444404 -0.07759545 -0.07684863 -0.0849314 -0.11405577 -0.0060977098
-0.03261543 -0.051019277 0.044131946 0.070269786 0.07722151 0.045345075 -0.033539534 -0.017615939
-0.0672988 0.024449475 0.11172174 -0.052781455 0.034735374 0.12083762 -0.03901188 0.0027142165
0.004688029 0.06280042 0.06399729 -0.040555537 0.061456654 0.053843033 -0.06282261 -0.007359152
0.08110989 8.770915e-05 -0.017548898 0.053765055 -0.07783985 0.013090294 -0.019393321 0.008762518
-0.16513972 0.08116141 0.08245981 0.09535421 0.12963931 -0.011136166 -0.04928834 0.014941792
0.043718938 0.006568494 0.07420265 0.014277034 0.02534136 -0.050152905 -0.06068 -0.022579355
-0.047972802 -0.08050721 0.024801217 0.039043196 0.013074715 0.041280802 0.04260507 0.045295686
0.059137054 0.031188224 0.03769067 0.0336965 0.034003593 0.040913034 0.056302737 -0.011989681
-0.00764515 -0.030242892 -0.024187012 -0.17449401 0.21218 0.088082284 0.08612321 0.09252639
0.07378241 -0.05059414 0.057103954 -0.021406397 0.0061126803 0.0015283911 -0.093190536 -0.038319033
0.027315013 -0.047690388 0.016681934 0.03757188 0.032046046 0.0039968058 0.049355667 -0.015727123
0.0049149813 -0.058492612 0.025168674 -0.045134056 0.1468527 -0.014367128 0.0639896 0.12157524
0.031724192 0.053523954 0.07944721 0.097784676 0.010872776 -0.023149744 0.036659893 0.028392868
-0.012929336 0.09032193 -0.033824675 -0.043442447 -0.1124167 -0.039990257 -0.04579856 -0.075316176
-0.028942142 0.027513966 0.05118218 0.07401684 -0.112248495 0.024374807 0.041780394 0.04145284
-0.036659997 -0.032485448 -0.11751119 0.04538815 0.085468285 0.036816817 0.025237206 -0.0714686
-0.015456536 0.051129166 -0.015296142 -0.051102765 -0.017402353 -0.011379983 0.10627981 -0.027464155
0.010538039 0.015938662 0.015531926 0.056288067 -0.16096255 0.08151224 0.024079297 0.06793192
0.0046078674 -0.015517667 -0.02583819 -0.08519166 0.0088013625 0.030519975 0.1249667 -0.040157825
0.061655074 -0.020573758 0.0021782778 -0.008968927 -0.0076271226 0.034065258 0.15499277 -0.031249886
-0.0015983717 -0.012799012 -0.106994234 -0.010701332 0.03730472 -0.06949888 0.033066813 -0.028874105
-0.07557918 0.0247692 -0.01738377 0.03570545 -0.05142288 0.06206275 0.034774963 -0.09553519
-0.013435552 0.09770189 0.08876282 0.05067151 0.04318874 -0.0040749023 0.10818507 -0.02414003
0.0984414 -0.07679441 0.009264485 -0.0073555815 -0.08126144 0.0117475595 0.03466931 0.016609117
-0.060977936 -0.0031712558 0.008833657 0.077279516 -0.010610615 0.10176006 0.016937403 -0.017655708
0.083784804 0.0901248 0.033513423 0.027002916 0.018997302 -0.023822904 0.031787407 -0.05447399
-0.037356064 0.06965534 -0.0029123249 0.087014295 -0.09094056 -0.042389598 0.010480782 0.059269797
-0.015396949 0.10984861 -0.021470625 -0.04379252 0.028228553 0.09456259 -0.037794363 0.038312837
-0.0010579128 0.09455027 -0.067345545 -0.0027837253 -0.060403567 0.089577146 -0.009504488 0.033584204
0.013232145 0.12072539 0.003382336 0.019008268 -0.048942894 -0.009866075 0.018122876 0.0059619383
00000000: b67d c8bd 445f 023d bd7d 52bd bf61 05bd
00000010: d498 fc39 3585 74bc eeac 293c 0c1e 93bd
00000020: 4d40 b8bd 6353 543d f40a 363d 5dea 9ebd
00000030: d162 9dbd 84f0 adbd 1296 e9bd 4ccf c7bb
00000040: c297 05bd 97f9 50bd b3c3 343d 9be9 8f3d
00000050: 5026 9e3d c2bb 393d c060 09bd 4d4f 90bc
00000060: f4d3 89bd 444a c83c 5ece e43d 5e31 58bd
00000070: ae46 0e3d b779 f73d ecca 1fbd ffe0 313b
00000080: 0a9e 993b 829d 803d 0311 833d 901d 26bd
00000090: f9b9 7b3d 838a 5c3d 24a9 80bd 0b25 f1bb
000000a0: f11c a63d 7ef0 b738 b5c2 8fbc bf38 5c3d
000000b0: 806a 9fbd ac78 563c bede 9ebc aa90 0f3c
000000c0: 631a 29be f437 a63d b0e0 a83d 1149 c33d
000000d0: 2bc0 043e 7774 36bc 92e2 49bd 6bce 743c
000000e0: a112 333d 853c d73b 8ff7 973d 39ea 693c
000000f0: af98 cf3c 226d 4dbd 978b 78bd 57f8 b8bc
00000100: 217f 44bd f7e0 a4bd ec2b cb3c c2eb 1f3d
00000110: 5437 563c 0f16 293d a782 2e3d f887 393d
00000120: b239 723d 727e ff3c 8861 1a3d 5705 0a3d
00000130: 5a47 0b3d 6d94 273d b39d 663d 5e70 44bc
00000140: 2b84 fabb f1bf f7bc d723 c6bc 8fae 32be
00000150: b745 593e 7c64 b43d 5e61 b03d 7a7e bd3d
00000160: 3b1b 973d cd3b 4fbd d6e5 693d 785c afbc
00000170: e14c c83b 4c54 c83a aeda bebd 6bf4 1cbd
00000180: bcc3 df3c ff56 43bd 8da8 883c f9e4 193d
00000190: b742 033d a3f7 823b 2b29 4a3d 2bd6 80bc
000001a0: da0d a13b f395 6fbd 892e ce3c 7dde 38bd
000001b0: 8e60 163e 1a64 6bbc fb0c 833d 70fc f83d
000001c0: 3af1 013d ef3b 5b3d 38b5 a23d 5543 c83d
000001d0: ba23 323c 88a4 bdbc af28 163d 2998 e83c
000001e0: 91d5 53bc b4fa b83d be8b 0abd b5f0 31bd
000001f0: ba3a e6bd d3cc 23bd 4597 3bbd 5e3f 9abd
00000200: 1218 edbc f864 e13c 68a4 513d 2496 973d
00000210: 8ae2 e5bd adad c73c eb21 2b3d 74ca 293d
00000220: cb28 16bd 760f 05bd b5a9 f0bd ede8 393d
00000230: ff09 af3d 3bcd 163d 42be ce3c 215e 92bd
00000240: 693d 7dbc d16c 513d ab9c 7abc 2251 51bd
00000250: 618f 8ebc 1c73 3abc 3ba9 d93d 82fc e0bc
00000260: bda7 2c3c cc91 823c 9f79 7e3c 518e 663d
00000270: 5ed3 24be e4ef a63d f241 c53c e41f 8b3d
00000280: 98fd 963b d03d 7ebc 9daa d3bc f778 aebd
00000290: 9733 103c 0705 fa3c 8bee ff3d 887c 24bd
000002a0: 088a 7c3d 4c8a a8bc 70c1 0e3b 68f2 12bc
000002b0: f1ec f9bb 0388 0b3d 6db6 1e3e c3ff ffbc
000002c0: 7480 d1ba f2b2 51bc cb1f dbbd a454 2fbc
000002d0: d6cc 183d 6e55 8ebd 1171 073d 6389 ecbc
000002e0: 42c9 9abd c7e8 ca3c 6868 8ebc e13f 123d
000002f0: cca0 52bd 8335 7e3d 3170 0e3d f4a7 c3bd
00000300: ca20 5cbc ee17 c83d 48c9 b53d ee8c 4f3d
00000310: ade6 303d c286 85bb 2290 dd3d 50c1 c5bc
00000320: a59b c93d 6346 9dbd 11ca 173c 1707 f1bb
00000330: 666c a6bd d678 403c 6801 0e3d d80f 883c
00000340: 00c4 79bd d8d4 4fbb 0bbb 103c b944 9e3d
00000350: 25d8 2dbc 9467 d03d 4fc0 8a3c b4a2 90bc
00000360: 5e97 ab3d 5a93 b83d 5f45 093d 3835 dd3c
00000370: 3ba0 9b3c 4028 c3bc 8333 023d 1e20 5fbd
00000380: ac02 19bd 75a7 8e3d b4dc 3ebb 8d34 b23d
00000390: 0b3f babd b7a0 2dbd 96b7 2b3c e3c4 723d
000003a0: 7c43 7cbc 4ff8 e03d 2ae3 afbc c95f 33bd
000003b0: 913f e73c 08aa c13d 43ce 1abd eced 1c3d
000003c0: aaa9 8aba 92a3 c13d 76ec 89bd 296f 36bb
000003d0: bb69 77bd 3974 b73d b6b8 1bbc 978f 093d
000003e0: a4cb 583c e03e f73d 2faa 5d3b 3ab7 9b3c
000003f0: 5878 48bd 51a5 21bc 6d76 943c 5d5c c33b

conv2.bias f4 [32]
-0.008381457 -0.10268947 -0.00084164075 0.076433115 -0.010142356 -0.013219276 0.028405013 0.0365069
-0.10590691 -0.049697805 0.013880226 -0.011129481 -0.0040265676 0.06961984 0.04938848 -0.032174096
-0.09080211 0.04797406 0.04354802 -0.05675161 -0.13266124 -0.006395938 -0.10716349 0.10419035
-0.030709162 0.024544148 0.035381492 -0.029723927 -0.06341881 -0.08221652 0.00039111945 -0.03135342
00000000: 6152 09bc db4e d2bd 8ea1 5cba f788 9c3d
00000010: 202c 26bc aa95 58bc a1b1 e83c 4288 153d
00000020: b9e5 d8bd ed8f 4bbd e369 633c 6d58 36bc
00000030: 4cf1 83bb d994 8e3d 934b 4a3d fcc8 03bd
00000040: 75f6 b9bd 7380 443d 695f 323d 6074 68bd
00000050: 59d8 07be 0495 d1bb 8878 dbbd c061 d53d
00000060: c891 fbbc cf10 c93c 2fec 103d 987f f3bc
00000070: b9e1 81bd 2361 a8bd 2a0f cd39 726c 00bd

fc1.weight f4 [32, 512]
-0.0053200857 0.018611366 0.071027964 0.076024845 -0.061528057 0.0085229715 0.022015436 -0.11935864
0.05443989 -0.04976744 0.009851505 -0.05850854 -0.10929566 -0.033120718 0.06444603 0.069443785
0.06698307 -0.040813 0.0060063126 -0.041928813 -0.06725678 -0.05128157 -0.10460317 0.03658979
0.09856475 -0.08519691 -0.06845043 0.056989893 0.011800148 -0.047057856 -0.0698541 -0.027501814
-0.024339594 0.0912804 0.026524093 -0.0812849 0.00759196 -0.053485077 -0.039485853 0.01086681
-0.063349605 -0.11602107 0.005750579 0.0324208 -0.01305535 0.02036152 -0.07661328 0.026319524
-0.041983154 -0.049086306 -0.03200043 -0.02149632 0.018753886 0.070542976 -0.057477 -0.07302916
-0.0574468 -0.045501612 -0.0935022 -0.05872535 0.03632338 -0.07627088 0.042881154 0.05856029
0.09479803 -0.00036086258 -0.06349579 0.042617146 -0.08136531 0.07548052 -0.11396867 -0.029129596
0.052057326 0.03966006 -0.07858195 -0.08637471 -0.011543587 0.046175566 0.058633227 0.051964644
0.014267544 -0.029995969 0.008039477 0.016683958 0.042425644 -0.011886411 0.018056924 -0.02398262
0.04821573 -0.04094752 0.13029434 0.009612052 0.04438411 -0.030302227 -0.00690328 0.022425067
-0.027798261 0.027222333 0.053680874 0.06595347 0.0010646413 2.6812288e-05 0.021679625 -0.03889899
0.018037064 -0.0923476 0.09043611 0.0035947638 -0.079683445 0.02803525 -0.027817069 -0.046995066
-0.0062819403 -0.0041509517 -0.108907275 -0.044918418 -0.09306753 0.05826753 -0.028385468 -0.090089895
-0.040570516 0.08230445 0.029720787 0.029200666 0.008675444 0.028307166 -0.049001332 0.0038247106
-0.026404489 -0.039512396 0.109247215 0.062071856 0.034568552 0.008622958 0.012358438 0.0026626037
-0.067122824 -0.05530368 -0.13169494 0.009111729 0.016312268 -0.009248964 0.014368464 -0.009717753
-0.020345945 0.03905824 -0.025173554 -0.013979949 -0.07854548 0.05255492 -0.041862354 -0.059988476
0.051268063 0.035719045 -0.08489732 0.031562965 0.08434792 -0.05522986 -0.009557279 0.108070925
0.04800126 0.0399665 -0.056246568 -0.10416422 -0.061661534 -0.012387472 -0.0065909023 -0.102675445
0.11460302 0.09585456 0.007942219 -0.14109105 -0.04761845 -0.018427022 0.048894633 -0.07731354
-0.053319484 -0.018282168 -0.013244973 -0.12959304 0.060292948 -0.011313608 -0.016702235 0.020496523
-0.012460198 -0.029389393 -0.040185086 0.10529584 -0.083809234 -0.05196825 -0.011491317 -0.02658584
0.10804879 0.08653913 -0.038914092 -0.07287668 -0.064485274 0.0342808 -0.035686687 0.022549229
-0.0816533 -0.033304337 -0.13205884 -0.04992774 -0.02912277 0.053740684 -0.07711755 0.024951572
0.0048573995 -0.010351442 -0.010975105 0.02609958 0.024444047 0.010512129 0.00527434 0.026641306
0.06687806 -0.025729582 0.02240796 -0.052885003 -0.02154557 -0.0072885165 0.05833324 0.07927742
-0.02867986 0.06598393 0.025004068 -0.0014541162 0.030488046 -0.0050333594 0.023515774 0.036581967
0.0387527 0.057337828 0.10624403 0.07329695 -0.06982769 0.03188722 0.017750856 -0.08684571
-0.03345692 0.022148114 -0.01570879 -0.027043866 -0.02648898 -0.053326253 -0.059506368 0.09298037
0.0062992023 0.0142313205 0.06299729 0.002574016 -0.0020332125 0.03121471 0.005814592 0.07395542
00000000: 1d54 aebb dd76 983c 1c77 913d eab2 9b3d
00000010: d804 7cbd efa3 0b3c b759 b43c 4d72 f4bd
00000020: 5dfc 5e3d f1d8 4bbd 3568 213c a7a6 6fbd
00000030: 67d6 dfbd 97a9 07bd 48fc 833d 8b38 8e3d
00000040: 6b2e 893d 882b 27bd 9ad0 c43b 8cbd 2bbd
00000050: ecbd 89bd a00c 52bd 303a d6bd 2ddf 153d
00000060: 51dc c93d b87b aebd bd2f 8cbd 3c6e 693d
00000070: 6855 413c bdbf 40bd ab0f 8fbd 7c4b e1bc
00000080: d463 c7bc 38f1 ba3d 0e49 d93c b378 a6bd
00000090: fac5 f83b 2b13 5bbd ebbb 21bd b40a 323c
000000a0: 70bd 81bd 749c edbd 5a6f bc3b accb 043d
000000b0: 1be6 55bc 34cd a63c 6ce7 9cbd 0b9c d73c
000000c0: 87f6 2bbd b90e 49bd e212 03bd 0d19 b0bc
000000d0: c0a1 993c d678 903d 016d 6bbd 5090 95bd
000000e0: 564d 6bbd e65f 3abd 157e bfbd fe89 70bd
000000f0: d3c7 143d e833 9cbd 26a4 2f3d eadc 6f3d
00000100: 7825 c23d 2832 bdb9 150a 82bd 518f 2e3d
00000110: dba2 a6bd 8895 9a3d 6868 e9bd 31a1 eebc
00000120: 103a 553d 9672 223d 93ef a0bd 39e5 b0bd
00000130: 5021 3dbc 9722 3d3d 6529 703d e1d8 543d
00000140: 6bc2 693c 1bba f5bc 03b8 033c ccac 883c
00000150: 83c6 2d3d 39bf 42bc 1dec 933c 3377 c4bc
00000160: db7d 453d 96b8 27bd e16b 053e de7b 1d3c
00000170: 1dcc 353d 603c f8bc e934 e2bb c6b4 b73c
00000180: 2eb9 e3bc 5f01 df3c 7ae0 5b3d 9d12 873d
00000190: 6f8b 8b3a f3ea e037 7899 b13c 8c54 1fbd
000001a0: 77c2 933c bd20 bdbd 9136 b93d 2196 6b3b
000001b0: 1331 a3bd 2eaa e53c 9fe0 e3bc e67d 40bd
000001c0: bcd8 cdbb b504 88bb c70a dfbd 60fc 37bd
000001d0: 309a bebd efa9 6e3d a488 e8bc 0d81 b8bd
000001e0: 452d 26bd 3c8f a83d 0279 f33c 3c36 ef3c
000001f0: 7323 0e3c 6ee4 e73c 9fb5 48bd ffa7 7a3b
00000200: 3a4e d8bc c0d7 21bd 01bd df3d 0f3f 7e3d
00000210: c197 0d3d 4f47 0d3c 0c7b 4a3c 147f 2e3b
00000220: b177 89bd 1d86 62bd 0adb 06be 5d49 153c
00000230: 4ea1 853c f788 17bc b569 6b3c 3637 1fbc
00000240: 8aac a6bc 88fb 1f3d c538 cebc 280c 65bc
00000250: 74dc a0bd d443 573d dc77 2bbd 7ab6 75bd
00000260: 76fe 513d 224e 123d a5de adbd 2b48 013d
00000270: 9abe ac3d b538 62bd 2296 1cbc 4a54 dd3d
00000280: f89c 443d eab3 233d cd62 66bd 0d54 d5bd
00000290: ce90 7cbd d3f4 4abc 7ff8 d7bb 8147 d2bd
000002a0: fdb4 ea3d 654f c43d 1520 023c 2c7a 10be
000002b0: 900b 43bd 44f4 96bc bd45 483d 9056 9ebd
000002c0: 8865 5abd 7cc4 95bc 7101 59bc 0ab4 04be
000002d0: bdf5 763d b65c 39bc 20d3 88bc 53e8 a73c
000002e0: dc25 4cbc 06c2 f0bc 1e99 24bd 58a5 d73d
000002f0: 2da4 abbd a9dc 54bd 1446 3cbc 8cca d9bc
00000300: af48 dd3d 6d3b b13d 6264 1fbd 5e40 95bd
00000310: db10 84bd 066a 0c3d 342c 12bd 29b9 b83c
00000320: d839 a7bd 216a 08bd 6f3a 07be 0881 4cbd
00000330: e092 eebc 311f 5c3d ceef 9dbd 3d67 cc3c
00000340: d22a 9f3b 1899 29bc edd0 33bc c9ce d53c
00000350: e23e c83c 113b 2c3c 5fd4 ac3b de3e da3c
00000360: 5df7 883d d8c6 d2bc e690 b73c f29d 58bd
00000370: 5680 b0bc 82d4 eebb d6ee 6e3d 335c a23d
00000380: 07f2 eabc 9522 873d 55d5 cc3c 0b98 beba
00000390: 11c2 f93c e1ee a4bb 27a4 c03c f9d6 153d
000003a0: 27bb 1e3d 12db 6a3d 7896 d93d b61c 963d
000003b0: d201 8fbd 2c9c 023d 3e6a 913c 2adc b1bd
000003c0: 200a 09bd f66f b53c b8af 80bc 198b ddbc
000003d0: 6bff d8bc a16c 5abd f3bc 73bd 7e6c be3d
000003e0: 8a69 ce3b 7c2a 693c b904 813d d3b0 283b
000003f0: a53f 05bb feb5 ff3c 5588 be3b f075 973d

fc1.bias f4 [32]
0.039008297 -0.0350138 0.036619484 -0.038926832 -0.14273019 0.012312332 0.08736288 -0.025971407
0.043396994 -0.10428803 -0.04855107 -0.051548734 0.1271703 -0.05429997 0.053476714 0.048716236
0.018040672 0.08655637 0.0013714216 -0.0020364963 -0.019008424 -0.004748978 0.00040027595 -0.10972321
0.0025212534 0.020675404 -0.07635872 -0.10876103 -0.05132097 -0.062271297 -0.001150239 0.026623186
00000000: 2ac7 1f3d a16a 0fbd 50fe 153d be71 1fbd
00000010: dd27 12be aab9 493c 4feb b23d fdc1 d4bc
00000020: 0cc1 313d f694 d5bd 7ddd 46bd c424 53bd
00000030: ee38 023e a569 5ebd 660a 5b3d ad8a 473d
00000040: 08ca 933c 7744 b13d 46c1 b33a bd76 05bb
00000050: 8eb7 9bbc 519d 9bbb 21dc d139 90b6 e0bd
00000060: 9d3b 253b 775f a93c f661 9cbd 1abe debd
00000070: f035 52bd 3010 7fbd 9ec3 96ba de18 da3c

fc2.weight f4 [10, 32]
-0.041854054 0.23689081 -0.07747521 -0.06435764 0.14732043 -0.095773235 0.101438306 -0.16338013
0.14321841 0.11936839 -0.21887459 0.20325135 -0.30716884 -0.013068478 0.16336969 0.13970816
-0.25081527 0.04616979 -0.054916445 0.017220838 -0.06056095 -0.30137062 0.30031675 0.17531537
-0.18725638 0.051963944 0.10886498 0.085558936 -0.2148276 0.06573457 0.06641197 0.18992572
-0.17897771 0.07534774 0.16851284 -0.2066836 0.09160289 0.06717022 0.26872286 -0.009986823
-0.40871796 -0.1382233 -0.16151217 -0.34228835 0.24493511 0.063269936 0.12059941 -0.15401474
0.32630774 0.08927061 0.08163078 0.071376584 -0.12580109 0.20614047 -0.10378069 0.06462749
-0.10241336 0.054004 -0.08884969 0.10001416 -0.17237067 -0.10573943 -0.17981482 -0.11675211
0.15969414 0.17621177 -0.12598523 -0.060677353 0.21857598 0.021908319 0.07960654 0.04150111
-0.029651342 -0.13848431 0.108249724 0.031953733 -0.24363653 0.12319654 0.052608002 0.011689874
0.18660314 -0.18691273 -0.1596854 0.13692026 -0.106044985 0.059339274 -0.112365134 -0.07177315
0.09313619 0.21955778 -0.11236023 0.09363698 0.21812554 0.13567014 -0.08562712 0.17255098
-0.075921424 -0.26347384 0.19533874 0.09068849 0.21140863 -0.31947082 -0.12783311 -0.012014204
-0.27078018 0.11658774 -0.14083156 0.13376656 0.08639909 0.042528152 0.20608225 -0.0495201
0.15406092 -0.08537087 -0.21855824 -0.20168814 0.10958577 0.085708365 0.18132323 0.14636256
0.19941913 -0.20972575 0.16919215 -0.20325881 0.25356814 0.038303535 -0.13301185 -0.16776189
-0.1110927 -0.10996858 -0.05948621 0.2384259 -0.20338945 -0.18968053 -0.19429635 -0.11469326
-0.062205862 0.16446085 0.16578938 -0.013413391 0.22105525 -0.061670437 -0.07433796 0.06071451
0.15625757 -0.13091344 0.21460293 -0.13764584 -0.012692332 0.07352305 0.11204669 0.11825322
-0.16593315 0.184908 -0.22688201 -0.185058 0.03726274 -0.013714911 0.24304855 -0.16922934
0.026544508 -0.20805818 0.16369116 0.018003797 -0.004362207 0.1934065 -0.16889563 0.021168666
0.16498938 0.067300655 -0.25515738 0.12283127 0.13400766 0.027287876 -0.017439818 0.015705833
-0.22447035 -0.025662092 -0.24663655 -0.201893 -0.06734704 0.08776802 -0.11619693 0.067628995
-0.14673801 -0.14922126 0.06324057 0.020885892 0.025212087 0.040993292 0.16431059 0.012243308
0.109254174 0.028432935 0.08477824 0.15553904 -0.07288166 0.38398305 0.00886683 0.15663943
0.12811889 0.12788466 -0.1725371 -0.24657051 -0.032036904 -0.06371704 -0.27259794 -0.14116487
0.18810117 -0.29958326 0.17728488 0.18413182 -0.13176066 0.061934903 0.18683222 0.101191245
-0.2142403 -0.037061658 -0.07350954 -0.21310815 -0.047277007 -0.015957905 -0.13881518 0.076202676
0.15740184 -0.07988047 0.1485659 0.061578665 0.16860329 -0.116634764 -0.1487421 0.019825485
-0.011053915 -0.006926995 0.23836051 -0.012976386 0.11327382 -0.095620364 0.28048486 0.1327607
0.00032303622 0.25886786 -0.17716388 -0.05432433 -0.080725186 -0.17527138 -0.28833175 -0.20267169
-0.04049952 -0.046072185 0.008596712 0.26263347 -0.10377639 0.10784664 -0.18122126 -0.0884225
00000000: 286f 2bbd 8193 723e 53ab 9ebd f0cd 83bd
00000010: 2bdb 163e c224 c4bd e3be cf3d 1f4d 27be
00000020: d9a7 123e 6a77 f43d a920 60be 1f21 503e
00000030: 3c45 9dbe 2b1d 56bc 624a 273e a80f 0f3e
00000040: dc6a 80be 891c 3d3d 11f0 60bd b712 8d3c
00000050: c20e 78bd 404d 9abe 1ec3 993e df85 333e
00000060: 23c0 3fbe 25d8 543d 9af4 de3d 8639 af3d
00000070: c4fb 5bbe d99f 863d 0003 883d e37b 423e
00000080: ef45 37be ea4f 9a3d a18e 2c3e dea4 53be
00000090: 4c9a bb3d 8a90 893d 0b96 893e c69f 23bc
000000a0: 7b43 d1be 698a 0dbe 7263 25be 6b40 afbe
000000b0: 45d0 7a3e ab93 813d d3fc f63d 0ab6 1dbe
000000c0: cf11 a73e 82d3 b63d 0a2e a73d e32d 923d
000000d0: 00d2 00be 7d16 533e f88a d4bd 6b5b 843d
000000e0: 18be d1bd 4c33 5d3d d4f6 b5bd 39d4 cc3d
000000f0: f081 30be ea8d d8bd 6021 38be bb1b efbd
00000100: dc86 233e dc70 343e 4602 01be d188 78bd
00000110: 62d2 5f3e 1379 b33c c108 a33d 11fd 293d
00000120: 5fe7 f2bc d5ce 0dbe 08b2 dd3d ebe1 023d
00000130: db7b 79be 784e fc3d 7d7b 573d e386 3f3c
00000140: e514 3f3e 0d66 3fbe 9284 23be d334 0c3e
00000150: 1d2e d9bd bd0d 733d b11f e6bd cdfd 92bd
00000160: 30be be3d c1d3 603e 1f1d e6bd bfc4 bf3d
00000170: 4d5c 5f3e 1ded 0a3e 465d afbd 34b1 303e
00000180: b17c 9bbd 0be6 86be e106 483e e3ba b93d
00000190: 817b 583e ae91 a3be afe6 02be 39d7 44bc
000001a0: b3a3 8abe 8ec5 ee3d 2636 10be 1afa 083e
000001b0: 02f2 b03d 0032 2e3d 3a07 533e 97d5 4abd
000001c0: 25c2 1d3e ecd6 aebd bbcd 5fbe 5687 4ebe
000001d0: 816e e03d de87 af3d ccac 393e 11e0 153e
000001e0: 8734 4c3e 59c2 56be b540 2d3e 1423 50be
000001f0: afd3 813e 2be4 1c3d 4234 08be c6c9 2bbe
00000200: 9284 e3bd 3537 e1bd d0a7 73bd eb25 743e
00000210: 5345 50be 9d3b 42be 9ff5 46be 4de4 eabd
00000220: 93cb 7ebd 6d68 283e b1c4 293e d7c3 5bbc
00000230: 4f5c 623e 249a 7cbd 803e 98bd c7af 783d
00000240: fc01 203e 2c0e 06be dfc0 5b3e 08f3 0cbe
00000250: 80f3 4fbc 4193 963d bc78 e53d bf2e f23d
00000260: 61ea 29be 8658 3d3e c253 68be d87f 3dbe
00000270: d1a0 183d 82b4 60bc b8e1 783e 754a 2dbe
00000280: de73 d93c 340d 55be a89e 273e b37c 933c
00000290: d8f0 8ebb 5b0c 463e faf2 2cbe e969 ad3c
000002a0: faf2 283e edd4 893d fda3 82be f68e fb3d
000002b0: 4e39 093e d38a df3c f3dd 8ebc 85a9 803c
000002c0: 8edb 65be 4f39 d2bc 4b8e 7cbe 0abd 4ebe
000002d0: 3fed 89bd b8bf b33d a8f8 edbd 1281 8a3d
000002e0: 7d42 16be 75cd 18be 4684 813d e418 ab3c
000002f0: 9489 ce3c 95e8 273d 0941 283e 2898 483c
00000300: a7c0 df3d 30ec e83c 37a0 ad3d a045 1f3e
00000310: fb42 95bd 6d99 c43e 2e46 113c 1666 203e
00000320: 9931 033e 32f4 023e 91ad 30be fb7c 7cbe
00000330: 2139 03bd 147e 82bd f591 8bbe 868d 10be
00000340: 989d 403e fa62 99be 2b8a 353e 0d8d 3c3e
00000350: 44ec 06be 74af 7d3d f250 3f3e 5b3d cf3d
00000360: cf61 5bbe f7cd 17bd 2b8c 96bd 0639 5abe
00000370: 89a5 41bd 27ba 82bc 9125 0ebe 2610 9c3d
00000380: f32d 213e 5f98 a3bd a921 183e e939 7c3d
00000390: 57a6 2c3e 35de eebd d94f 18be 0e69 a23c
000003a0: 7b1b 35bc d8fb e2bb c714 743e e89a 54bc
000003b0: 1bfc e73d 9cd4 c3bd b69b 8f3e 6cf2 073e
000003c0: 305d a939 548a 843e 736a 35be 3083 5ebd
000003d0: 3f53 a5bd 577a 33be 38a0 93be 2b89 4fbe
000003e0: d3e2 25bd 30b6 3cbd 39d9 0c3c e577 863e
000003f0: b788 d4bd b3de dc3d 1192 39be db16 b5bd

fc2.bias f4 [10]
0.12741834 0.12113648 0.015071991 -0.2124871 0.05784609 -0.011080198 0.029714117 0.07219365
-0.28833765 -0.018745456
00000000: f479 023e 6716 f83d 83f0 763c 3896 59be
00000010: 06f0 6c3d b889 35bc 056b f33c 44da 933d
00000020: fea0 93be 1290 99bc
